results/BetOrNot3/MoveToBet/MoveToBet-10257.onnx (onnx, 949148 bytes, 9 tensors)

action_model._continuous_distribution.log_sigma f4 [1, 16]
0	0x3af17259	0.0018420919
1	0xba5f3b2d	-0.0008515593
2	0xbcfe37bd	-0.031032437
3	0xbd07d54d	-0.033162404
4	0xbc6ad5ab	-0.014333169
5	0xbcf9e071	-0.03050253
6	0xbc191157	-0.009342513
7	0xbc6f400a	-0.01460267
8	0x3c840e91	0.016120227
9	0xbcb06af3	-0.021535372
10	0xbce70656	-0.028201263
11	0xbc0cd47d	-0.008595583
12	0x3a190515	0.0005837244
13	0xbbfa8de4	-0.007646309
14	0x3be1da88	0.006892506
15	0xbc890637	-0.016726596

action_model._continuous_distribution.mu.bias f4 [16]
0	0x3cca1b0b	0.024671098
1	0xbc98d55c	-0.018656425
2	0x3c6a3c67	0.014296628
3	0x3cf90ce9	0.030401664
4	0x3becee70	0.0072305724
5	0x3c2f2123	0.010689053
6	0xbbf61d73	-0.007510835
7	0xbc95c870	-0.018284053
8	0xb9f47862	-0.00046629
9	0x3c45a825	0.012064015
10	0xbb156259	-0.0022794215
11	0x3d183b37	0.037165847
12	0xbbecbed7	-0.0072248983
13	0x3a951d7e	0.0011376587
14	0x3b7c59a8	0.0038505588
15	0xbc253daa	-0.010085503

action_model._continuous_distribution.mu.weight f4 [16, 128]
0	0x3bbe8d8e	0.0058152145
1	0x3c838f94	0.016059674
2	0x3badcc4c	0.005303895
3	0x3bb8c815	0.005639086
4	0x3c8d9512	0.017282996
5	0xbbef1610	-0.007296331
6	0x3cb7e768	0.02244921
7	0xbab692e5	-0.0013929276
8	0x3be8c4cf	0.0071035395
9	0x3ab51627	0.0013815806
10	0x3ca5a4fc	0.020220272
11	0xbb5c1cc3	-0.003358648
12	0x3c1311c8	0.008976407
13	0xba90611b	-0.0011015268
14	0xbca78d57	-0.020453138
15	0x3c51ca24	0.012804542
16	0xbb160752	-0.0022892547
17	0x3c8d3642	0.017237786
18	0x3d1066b0	0.03525418
19	0xbc181db9	-0.00928443
20	0xbcc99fcc	-0.02461233
21	0x3a530692	0.000804999
22	0xbcddd69e	-0.027079877
23	0xbb156d06	-0.0022800579
24	0x3d0303eb	0.03198616
25	0x3a602d98	0.0008551716
26	0xb96800da	-0.00022125561
27	0x38d8f533	0.000103453545
28	0x3bf103bb	0.007355181
29	0x3bcdc7ec	0.006279936
30	0x3c22a4ee	0.009927018
31	0xb8ed7b87	-0.000113240494
32	0x3a0ef182	0.00054528576
33	0xbc4cbebe	-0.012496648
34	0xbcbb5408	-0.022867218
35	0xbd6f7905	-0.058465023
36	0x3c944244	0.018098004
37	0xb8dbb7e7	-0.00010476988
38	0x3cb6be09	0.022307413
39	0x3c42b751	0.011884526
40	0xbcc01b00	-0.023450375
41	0x3c6c128d	0.01440872
42	0xbcb9c554	-0.022677101
43	0x3cb50a7d	0.022099728
44	0x3cba962b	0.022776684
45	0xba97215d	-0.0011530329
46	0xbb7beb64	-0.0038439864
47	0xbc0d7d02	-0.008635761
48	0x3c569d2d	0.013098997
49	0x3d0814b1	0.033222858
50	0xbd198886	-0.037483715
51	0x3b2067d9	0.002447596
52	0xbbe8a8c0	-0.0071001947
53	0xbcd17695	-0.02556924
54	0xbcdf79b3	-0.02727971
55	0x3b913832	0.004431748
56	0xbad40d92	-0.0016178361
57	0xbc60736f	-0.0136993965
58	0x3c40abb3	0.011759686
59	0x3ba885f8	0.0051429234
60	0x3c2b2715	0.01044633
61	0xbbdcef15	-0.006742368
62	0x3a5e82b0	0.0008488102
63	0xbcf7e853	-0.030262148
64	0x3c0ba562	0.008523317
65	0xbc87ff2b	-0.016601166
66	0xbb982abd	-0.0046437667
67	0xbbae6b10	-0.0053228214
68	0x3ba659d7	0.0050766277
69	0x3ba1a786	0.0049333004
70	0x3bca7df1	0.006179564
71	0x3ca10e11	0.019660028
72	0x3be45fba	0.0069694193
73	0xbbfc315e	-0.0076963147
74	0xbc23acc3	-0.00998992
75	0x3c274913	0.010210293
76	0xbbbd68c3	-0.005780311
77	0xbca59370	-0.020211905
78	0x3cedb040	0.029014707
79	0x3c89f960	0.016842544
80	0x3b3e2997	0.0029016489
81	0xbcd7805d	-0.026306326
82	0xba2d02e1	-0.0006599855
83	0x3cfb832a	0.030702192
84	0x3b264d64	0.0025375718
85	0xbd2040f5	-0.039124448
86	0x3d219168	0.03944531
87	0xbbae2a76	-0.0053151203
88	0x3c102136	0.008796981
89	0x3d1c742b	0.038196724
90	0xbb56e16d	-0.0032788173
91	0xbbf1ae4d	-0.0073755146
92	0x3c9608d7	0.018314762
93	0x3bc6e476	0.006069715
94	0x3b9e4f42	0.0048312256
95	0x3ce9d368	0.02854319
96	0x3c5a778c	0.013334166
97	0x3ca73bcc	0.020414256
98	0x3bc5c5d7	0.0060355472
99	0x3c2760bb	0.010215933
100	0xbc9b2a3f	-0.018941043
101	0x3ac90836	0.001533753
102	0x3b3d4bfd	0.0028884404
103	0x3d1044be	0.035221808
104	0x3c9e9e52	0.019362602
105	0xbae0ec00	-0.0017160177
106	0xbc13773c	-0.009000596
107	0x3b19f259	0.0023490398
108	0xbb5a407d	-0.0033302598
109	0x3c11e1b0	0.008903906
110	0xbcb3a4b7	-0.021929128
111	0x3ca5ed9b	0.0202549
112	0xbbf92a17	-0.0076038945
113	0xbaa9e641	-0.0012962298
114	0x3ce78e11	0.028265985
115	0x3aa107f6	0.0012285698
116	0x3b3ffea8	0.0029296074
117	0x3ce6202b	0.02809151
118	0x3c7aba71	0.01530324
119	0x3c9d7b8a	0.019223947
120	0xbc677ed7	-0.014129362
121	0x3c233e89	0.00996364
122	0x3c50e1cd	0.012749148
123	0xbccab3a0	-0.024743855
124	0xbc1ecd6d	-0.009692532
125	0x3d0fe30f	0.03512865
126	0xbc09fa2a	-0.00842146
127	0x3ca746f6	0.020419579
128	0x3c596b27	0.013270176
129	0xbcb1df81	-0.02171302
130	0xbd320f48	-0.043471605
131	0x3bbc3440	0.0057435334
132	0x3cea21b0	0.028580517
133	0xbbc14139	-0.0058976677
134	0xbd17184a	-0.0368884
135	0x3c8b8412	0.01703075
136	0xbc979476	-0.018503409
137	0x3c4fb2ee	0.0126769375
138	0xbb9ab3ef	-0.004721157
139	0x3b6aeed3	0.0035847917
140	0x3ab3b354	0.001371006
141	0xbd53a9eb	-0.05167572
142	0xbd20996b	-0.03920881
143	0x3cae3571	0.021265717
144	0xbced9fdc	-0.029006891
145	0x3b5010ca	0.0031748288
146	0x3c93f692	0.01806191
147	0x3c48c29a	0.012253428
148	0x3c688ee3	0.014194223
149	0x3d457fd3	0.048217606
150	0xbd23cbb1	-0.039989177
151	0x3bb693c1	0.005571813
152	0xbc1a20de	-0.00940725
153	0xbcca126d	-0.02466699
154	0xbb66837d	-0.0035173588
155	0x3b8ffbf2	0.004394048
156	0xbd206195	-0.03915556
157	0xbceb37a1	-0.02871305
158	0xbc9054cd	-0.017618561
159	0x3c7c7fd3	0.015411335
160	0xbb98fba4	-0.00466867
161	0xbc2ec39f	-0.010666757
162	0xbc195bc3	-0.009360257
163	0xb9a19761	-0.000308211
164	0xbc200874	-0.00976764
165	0x3c26e6aa	0.010186831
166	0x39fc7e20	0.00048159156
167	0x3b337ce2	0.0027387668
168	0xbca3fd97	-0.020018382
169	0xbc6d7f6d	-0.014495713
170	0x3ce0e454	0.027452625
171	0xbc8bb548	-0.017054215
172	0x3ad4cbe3	0.0016235079
173	0xbc45e2b9	-0.012077981
174	0x3b09ad28	0.002100775
175	0x3cd16507	0.025560869
176	0xbc12879d	-0.008943466
177	0x3b975717	0.004618536
178	0x3b8c5abc	0.0042832773
179	0x3c98bf86	0.018646013
180	0xbd011f83	-0.031524193
181	0xbc121160	-0.008915275
182	0x3bf07299	0.00733788
183	0xbc892218	-0.01673989
184	0x3c2f843b	0.010712679
185	0x3d132a1e	0.035928838
186	0xbbb525a2	-0.005528168
187	0x3b040b4b	0.0020148333
188	0xbbeb9e8a	-0.00719053
189	0xbb5d68c9	-0.003378438
190	0x3ca5b5ba	0.020228256
191	0x3c8810c2	0.016609553
192	0x3c0fad44	0.008769337
193	0x3cf4e030	0.029892057
194	0x3c6b2266	0.014351463
195	0x3c8bfde8	0.017088845
196	0xbd1d8545	-0.038457174
197	0xbb576d83	-0.003287167
198	0x3c9642fd	0.01834249
199	0xbbe0e620	-0.0068633705
200	0xbca6e565	-0.020373056
201	0xbb0d0a12	-0.0021520895
202	0xbc83994c	-0.016064309
203	0xbceb677c	-0.028735869
204	0x3ca2ca27	0.019871784
205	0x3c82a806	0.01594926
206	0x3c97b2ea	0.01851793
207	0x3c97c66d	0.018527234
208	0xbcbfb2b6	-0.023400646
209	0x3d10d818	0.035362333
210	0xbb6083c3	-0.0034258224
211	0xbce7f188	-0.028313413
212	0xbc9df981	-0.019284012
213	0x3c64960e	0.013951791
214	0x3b0d2618	0.0021537598
215	0x3c2dbe6a	0.01060448
216	0x3d3fbea1	0.046812657
217	0xbc369040	-0.01114279
218	0xbd41012f	-0.04712027
219	0x3ca39838	0.019970044
220	0xbb91f9dc	-0.0044548344
221	0xbc4cb401	-0.012494088
222	0x3c5014a3	0.012700233
223	0x3c99dd92	0.01878241
224	0x3cbfea6e	0.023427214
225	0xbcd074d2	-0.02544633
226	0xbc1e53af	-0.009663506
227	0xbcd0f62f	-0.025508014
228	0xbc87ab69	-0.016561227
229	0x3cc4169a	0.023936559
230	0xbbaf2782	-0.005345286
231	0xbb9371bd	-0.0044996426
232	0x3a68af8d	0.0008876257
233	0x3c5ee083	0.013603332
234	0x3c3c2493	0.011483329
235	0x3c8fede7	0.017569495
236	0x3c8b65bb	0.017016282
237	0x3c79790d	0.015226615
238	0xbb3fc2b2	-0.0029260335
239	0xbd381d0f	-0.044949587
240	0xbc94a5f3	-0.018145537
241	0x3ccd3211	0.025048288
242	0x3bca863c	0.0061805528
243	0xbc364b4a	-0.011126349
244	0xbba207f5	-0.004944796
245	0x3c5e7d65	0.013579701
246	0x3b9f2bf2	0.0048575336
247	0x3c9eca15	0.01938347
248	0xbd00a27e	-0.031404965
249	0xbbd83191	-0.0065977057
250	0xbbcecca1	-0.0063110148
251	0xbd0dbed1	-0.034605805
252	0x3b21283d	0.0024590634
253	0x3c54ed75	0.012996067
254	0x3b0f7cda	0.0021894486
255	0x3a2acaab	0.0006515185

action_model._discrete_distribution.branches.0.bias f4 [2]
0	0x3c64fe91	0.013976709
1	0xbc64fe93	-0.013976711

action_model._discrete_distribution.branches.0.weight f4 [2, 128]
0	0xbb8db2c2	-0.004324288
1	0xbb8ffbbf	-0.004394024
2	0x3ab4ed27	0.0013803587
3	0xb9b08404	-0.00033667695
4	0x3bdd8cf1	0.0067611863
5	0x3bbf1507	0.005831364
6	0xbc1625cf	-0.009164288
7	0xb8c0cc49	-9.1933245e-05
8	0xbb9afe84	-0.0047300477
9	0xbb57e8e5	-0.0032945212
10	0x3b59c7a7	0.0033230574
11	0xbc32f744	-0.0109232105
12	0xbad2841b	-0.0016061099
13	0xbc5852ab	-0.013203303
14	0xbbe0d7ca	-0.0068616616
15	0x3c166e7c	0.009181615
16	0x3bb4d0a1	0.0055180346
17	0xbc8a0ac5	-0.016850838
18	0xbba5f6b7	-0.005064811
19	0xbc207f36	-0.009795954
20	0xbc8c12c8	-0.0170988
21	0x397ee8cb	0.0002431005
22	0x3b7e422b	0.0038796763
23	0x3bce8e35	0.0063035735
24	0x3beb755a	0.0071856203
25	0xbb69150a	-0.0035565519
26	0xbb353278	-0.002764849
27	0x3b7e38ec	0.0038791252
28	0x3bd8ff57	0.0066222358
29	0xbc793bd5	-0.015212019
30	0x3caf3e8e	0.021392133
31	0xbc079c93	-0.008277076
32	0x3c1b8b8b	0.009493719
33	0xbba7f95a	-0.0051261606
34	0xbba5634a	-0.0050472366
35	0x3c212b8e	0.009837044
36	0x3b908abf	0.004411071
37	0x3c077629	0.008267918
38	0xbbac813e	-0.0052644303
39	0x3c39960c	0.011327278
40	0xbce8563b	-0.02836143
41	0xbc8ec013	-0.017425572
42	0x3c2300fd	0.009948966
43	0xbb8da425	-0.004322546
44	0xb9e3c4e4	-0.0004344351
45	0x3b038709	0.00200695
46	0x3b48a710	0.0030617155
47	0x3bbd8546	0.0057837097
48	0x3ac15620	0.0014750399
49	0x3c36b916	0.011152526
50	0xbadb9753	-0.0016753472
51	0x3c0b3fb8	0.008499078
52	0x3a25e18c	0.00063278596
53	0x3b6a2084	0.0035724947
54	0xbc94aa6f	-0.018147675
55	0xbbf5e2de	-0.0075038513
56	0x3c01353e	0.007886229
57	0x3befa5cb	0.0073134652
58	0xba04ee20	-0.0005070884
59	0x3b1b3bbe	0.0023686732
60	0x3a18ca21	0.00058284594
61	0xbc354468	-0.011063673
62	0xbc21d19a	-0.009876633
63	0x3ab9f295	0.0014186675
64	0xbbe4f8e4	-0.006987678
65	0xbbd91445	-0.006624731
66	0x3c09d05e	0.008411495
67	0x3a80b24a	0.0009818759
68	0x3bc6f18c	0.006071275
69	0xbc763567	-0.015027381
70	0xbc72692b	-0.014795582
71	0xbca1f40b	-0.019769689
72	0x3bed8ca7	0.007249433
73	0x3cc7450c	0.024324916
74	0xba724dca	-0.0009243159
75	0xb9e3eba5	-0.00043472383
76	0x3c6e4fc1	0.014545382
77	0x3aa72e26	0.0012754842
78	0xbc7d496c	-0.0154594
79	0x3a860dbc	0.0010227482
80	0x3c11829f	0.00888124
81	0xbb2e8b12	-0.0026633185
82	0xbb74bfb1	-0.0037345702
83	0x3c8facc7	0.017538441
84	0xbb730171	-0.0037079717
85	0xbc101ab3	-0.008795428
86	0xbc5a3379	-0.013317936
87	0x3b40f9fb	0.0029445875
88	0xbc5391d0	-0.012913182
89	0x3b8b5d49	0.004253064
90	0xbc508582	-0.012727143
91	0xbbbb560b	-0.005717044
92	0xbbefb5b7	-0.0073153633
93	0x3c3970af	0.01131837
94	0x3ad83a64	0.0016496894
95	0x3c1e3385	0.009655838
96	0xbc5007a0	-0.01269713
97	0xbb7b0fe2	-0.0038309027
98	0xbc0be519	-0.008538508
99	0xbc063665	-0.00819168
100	0xbc05ec2a	-0.008173982
101	0x3b83db2a	0.004023929
102	0xba82af65	-0.0009970485
103	0x3b92fe9a	0.0044859173
104	0xbab68b9e	-0.0013927107
105	0x3c3fb083	0.0116997985
106	0xbc36507f	-0.01112759
107	0xbc91a756	-0.017779987
108	0x3c9e50a4	0.019325562
109	0xbb8c9c0b	-0.0042910627
110	0x3c6256c4	0.013814632
111	0xbbfdbf74	-0.0077437703
112	0xbb255f12	-0.0025233668
113	0x3bfc4a29	0.0076992703
114	0xba44220c	-0.000748188
115	0xba91378c	-0.0011079176
116	0xbc0e5b94	-0.008688826
117	0xbc29bc3f	-0.010359823
118	0xbc836234	-0.016038038
119	0xbc57a074	-0.013160814
120	0x3a9bf3c6	0.0011898212
121	0x3abef037	0.0014567439
122	0xbb37e56d	-0.0028060332
123	0x3b7239e7	0.0036960782
124	0x3b9d1c14	0.004794607
125	0xbbbc9cc1	-0.005755991
126	0x3af5e00b	0.0018758787
127	0x3bb43d38	0.005500462
128	0x3ba536c3	0.0050419285
129	0x3b5508ba	0.0032506422
130	0xbbe7990c	-0.007067805
131	0x3ce3251d	0.027727658
132	0x3acfc824	0.0015852493
133	0x3c0f7fed	0.008758527
134	0x3b8d1920	0.0043059736
135	0xbb527f98	-0.0032119509
136	0x3c3df7ad	0.011594695
137	0x3bfe4a4c	0.0077603217
138	0xba963640	-0.001146026
139	0x3c02462f	0.007951303
140	0xbb115c8a	-0.0022180402
141	0xbaf728ef	-0.0018856804
142	0x3b2a40a2	0.0025978466
143	0x3bfc9149	0.007707749
144	0xbbcd7bb6	-0.006270851
145	0xbc07e526	-0.008294379
146	0x3c49516d	0.01228748
147	0x3a9cc903	0.0011961762
148	0x3c03078a	0.007997403
149	0xbc3dc593	-0.01158275
150	0x3c09ed32	0.008418368
151	0x39a59093	0.0003157897
152	0xbbb65d7b	-0.005565343
153	0xbcbe30a5	-0.023216555
154	0x3b3f2a33	0.002916944
155	0x3c6bb020	0.014385253
156	0xbc8f344a	-0.017480988
157	0x3bb14ae9	0.0054105413
158	0xbc840e70	-0.016120166
159	0xbc256c62	-0.010096641
160	0xbbca6c7c	-0.006177483
161	0xb9b1538e	-0.00033822324
162	0xbc3bc386	-0.011460191
163	0x3bce1a83	0.0062897815
164	0x3c77f642	0.015134396
165	0x3c43c10d	0.011947882
166	0xbc85a1d8	-0.016312525
167	0xba99797c	-0.0011709179
168	0x3c59a4cb	0.013283919
169	0xbb8ea94e	-0.004353679
170	0x3b694347	0.003559308
171	0x3b708da9	0.003670553
172	0x3bb57fac	0.0055389013
173	0xbc682ead	-0.014171285
174	0x3a03833b	0.0005016808
175	0xbbea1935	-0.007144118
176	0xbb9d8d53	-0.004808107
177	0xbb432452	-0.0029776287
178	0xbc600e0f	-0.013675227
179	0xbc0bc075	-0.008529772
180	0x3c53bfd7	0.012924156
181	0xbb26d48c	-0.0025456278
182	0xbc0bf53e	-0.008542357
183	0x3b26d49f	0.0025456322
184	0x3c6e08fa	0.014528507
185	0xbc37a74b	-0.011209319
186	0xb9a0c895	-0.00030667023
187	0x3c1dd5a0	0.009633452
188	0x3c3bce4e	0.011462761
189	0x3b7e6cc0	0.0038822144
190	0x38d36c32	0.00010081417
191	0xbc056c04	-0.008143429
192	0xbb3391bb	-0.0027400095
193	0xbc0543ee	-0.0081338715
194	0x3adda76e	0.001691086
195	0x39b121f3	0.00033785365
196	0xbb2a1040	-0.0025949627
197	0xbb40e0e4	-0.002943092
198	0x3cca17e8	0.024669603
199	0x3b97cc81	0.004632533
200	0xbbdcbc55	-0.006736318
201	0x3c28b0be	0.010296045
202	0x3c6e535e	0.0145462435
203	0x3bf19586	0.007372561
204	0xbc81e20b	-0.015854856
205	0xbbc2cdd3	-0.0059449463
206	0xbb42cedd	-0.002972535
207	0x3c0a451c	0.0084393285
208	0xbbd5ee46	-0.0065286485
209	0x3bb83057	0.005620997
210	0x3b11ab98	0.0022227522
211	0xbc32d8b8	-0.010915928
212	0xbc45a950	-0.012064293
213	0x3c60e1cf	0.013725712
214	0xbbd2eac2	-0.0064366767
215	0xbc872c4b	-0.016500613
216	0x3bffb349	0.007803355
217	0x3b7ccf17	0.0038575584
218	0xba4c21f8	-0.0007787044
219	0xbc3b1fd7	-0.011421165
220	0x3bf58a19	0.007493269
221	0x3af0c362	0.0018368775
222	0x3bb29ed2	0.0054510618
223	0xbb990eab	-0.004670938
224	0xbbcd5569	-0.006266285
225	0xba8cac04	-0.0010732417
226	0x3c88b98f	0.016690044
227	0x3b83c87e	0.0040217033
228	0xbc05f9ad	-0.008177203
229	0x3abed259	0.0014558538
230	0xba8fe910	-0.0010979492
231	0x3bcf80b1	0.00633248
232	0x3c36cf4f	0.011157825
233	0x3ca386c0	0.019961715
234	0x3b12b4e8	0.002238566
235	0x3cc1adb1	0.023642393
236	0xbbea8c0b	-0.0071578077
237	0x3bd7637d	0.006573139
238	0x3a093a41	0.0005234816
239	0x3b8f7a0e	0.0043785637
240	0xba91d484	-0.0011125957
241	0x3b6f540d	0.0036518604
242	0xba9edde3	-0.0012120571
243	0xbc48b48f	-0.01225008
244	0x3c66f5d5	0.014096697
245	0xbb9f8309	-0.0048679155
246	0x3b9bbbe7	0.0047526243
247	0x3acf54ca	0.0015818116
248	0xbc2a17e2	-0.010381671
249	0x3bd025ea	0.006352176
250	0x3c547f1f	0.012969761
251	0xbc0bc3af	-0.008530541
252	0x3a84adb3	0.0010122567
253	0x3c928382	0.017884973
254	0x3af62229	0.0018778491
255	0xbc2d2018	-0.010566734

network_body._body_endoder.seq_layers.0.bias f4 [128]
0	0x3ce6688d	0.028126026
1	0x3b5731e1	0.0032836127
2	0x3c8e0727	0.017337395
3	0x3d229a47	0.03969791
4	0x3d179a81	0.03701258
5	0xbc1a9c62	-0.009436699
6	0xbc51a124	-0.012794767
7	0x3cc34d1f	0.023840485
8	0x3ad4136a	0.0016180102
9	0xbcca0d03	-0.024664408
10	0x3c424e2b	0.011859457
11	0xbb6f2dc0	-0.0036495775
12	0x3bf90de8	0.0076005347
13	0x3cc8b8a0	0.024502099
14	0xbc784ea3	-0.015155467
15	0xbc45c698	-0.012071274
16	0xbb1d0fb7	-0.0023965666
17	0x3ac7eae6	0.00152525
18	0x3a9fef10	0.0012201983
19	0x3c84bb9c	0.01620274
20	0x3bd51f7d	0.006503998
21	0x3afa5b46	0.0019100688
22	0x3b2d9d59	0.0026491492
23	0x3c58fab6	0.013243368
24	0xbce591b3	-0.028023576
25	0x3cb0dbf1	0.021589251
26	0x3c89ae15	0.016806642
27	0xbcfc2bd8	-0.030782625
28	0xbc1f4ff4	-0.009723652
29	0xbbe0c39f	-0.0068592574
30	0xbba37eb2	-0.0049894685
31	0x3d3f1c18	0.04665765
32	0x3c207089	0.0097924555
33	0xbbdd9b05	-0.0067628645
34	0xbcbb0211	-0.022828134
35	0x3c90f2f6	0.017693978
36	0x3c22484e	0.009904934
37	0xbbfbf8ce	-0.007689572
38	0x3ca148ff	0.019688128
39	0x3b45dcf3	0.003019151
40	0x3c5b4d45	0.013385122
41	0x3c862990	0.01637724
42	0xbc65f30b	-0.014034997
43	0xbbe10b5e	-0.00686781
44	0xbac69799	-0.0015151381
45	0x3c4aae30	0.012370631
46	0xbb8f985a	-0.0043821754
47	0xbc669a85	-0.014074926
48	0x3c0b90ef	0.008518442
49	0xbbb10f7a	-0.0054034563
50	0x3bd0a0bb	0.006366817
51	0x3c52116a	0.012821535
52	0xbc0c979b	-0.008581067
53	0xbaeb3ad7	-0.0017946613
54	0x3b145268	0.0022632126
55	0xbc36cb5e	-0.011156885
56	0x3c1f3178	0.009716384
57	0xbc302103	-0.010750058
58	0x3c2da5ba	0.010598594
59	0xbb0fa947	-0.0021920966
60	0x3c12af28	0.008952893
61	0x3c1744ba	0.009232694
62	0x3bbab97f	0.0056983824
63	0x3bd16e48	0.0063913204
64	0x3b919834	0.004443193
65	0x3ca05a51	0.019574316
66	0x3ba1847d	0.004929124
67	0x3c211958	0.009832703
68	0x3cc5eeef	0.024161784
69	0x3c11e95e	0.008905737
70	0xbc735efc	-0.014854189
71	0xbcd1bb52	-0.025602017
72	0xbc269702	-0.010167839
73	0xbc91276e	-0.017718997
74	0xbc869194	-0.016426839
75	0xbc4d1a72	-0.012518512
76	0xbb985e5a	-0.0046499195
77	0xbccd095a	-0.025028873
78	0xbca07ef6	-0.01959179
79	0x3c13c957	0.009020171
80	0xbcae71a7	-0.021294428
81	0x3c35b0c6	0.011089509
82	0x3b975b6d	0.004619053
83	0x3b85bec1	0.0040815775
84	0xbc91620b	-0.017746946
85	0x3cf11443	0.029428607
86	0x3bcfe651	0.0063445945
87	0xbb70d2c8	-0.003674673
88	0x3b7ea918	0.0038858112
89	0xbc2febc9	-0.010737368
90	0x3bedab74	0.007253105
91	0x3b7050dc	0.003666929
92	0xbc53e7f3	-0.012933719
93	0x3b9b39ef	0.004737131
94	0xbb439c0a	-0.0029847645
95	0x3ba04628	0.004891176
96	0x3b269c36	0.0025422699
97	0x3c0afc27	0.008482969
98	0xbcbeb5c7	-0.023280038
99	0x3cbee8d3	0.023304379
100	0x3991a6af	0.00027780744
101	0x3ca8dbd7	0.02061264
102	0xbc6dafc0	-0.014507234
103	0x3b62444e	0.0034525576
104	0xbaae1d49	-0.0013283874
105	0x3c0744ad	0.00825612
106	0xbbeffe18	-0.0073239915
107	0xbc001cb1	-0.007819341
108	0x3d133dce	0.035947613
109	0x3bb2bf06	0.0054549007
110	0xb9498980	-0.00019220077
111	0x3a68eb1b	0.0008885131
112	0xb820ecd6	-3.8367543e-05
113	0xbba3fa44	-0.005004199
114	0x3c58e893	0.013239044
115	0x3b0c2172	0.002138224
116	0xba92c77a	-0.0011198365
117	0xbc8346fe	-0.016025063
118	0xbcbdb333	-0.023156738
119	0x3c44b4bc	0.012005981
120	0xbc36c2dc	-0.0111548565
121	0x3d065e51	0.03280479
122	0x3cb9ba19	0.022671746
123	0x3a3fdb5c	0.0007318759
124	0x3cb33699	0.02187662
125	0xbb80bc78	-0.003928717
126	0xbb116103	-0.0022183068
127	0x3b46f0c3	0.0030355908

network_body._body_endoder.seq_layers.0.weight f4 [128, 1700]
0	0x3bb3efbf	0.0054912264
1	0xbbd16f7b	-0.0063914633
2	0xba4a847b	-0.00077254296
3	0x3c23b678	0.009992234
4	0xbcc7fa8a	-0.024411459
5	0x3d00c16e	0.03143447
6	0xbbeaef2a	-0.007169624
7	0xbbdcabcc	-0.006734347
8	0xbb35d3a0	-0.0027744547
9	0x3c862e99	0.016379641
10	0x3d0a0332	0.033694454
11	0xbd233663	-0.03984679
12	0x3d69c475	0.05707212
13	0xbbd96007	-0.006633762
14	0xbd08f1f5	-0.033433873
15	0xb9b255ea	-0.00034014817
16	0xba73c488	-0.0009299
17	0xbc9d58ea	-0.019207437
18	0xbacbfff4	-0.0015563951
19	0x3b7d1fa8	0.0038623605
20	0x3cc0dbb9	0.023542272
21	0xbc269878	-0.010168187
22	0xbbdbe94c	-0.0067111608
23	0x3be46e46	0.0069711534
24	0x3c6f1a60	0.014593691
25	0x3ca503bf	0.020143388
26	0x3c3e1e5b	0.011603917
27	0x3b1ad4fa	0.002362548
28	0xbc7b026d	-0.015320403
29	0x3cdcfd60	0.026976287
30	0x3ce8f2b8	0.02843605
31	0x3cb24504	0.021761425
32	0x3c0d75af	0.008634015
33	0xbbdb63ed	-0.0066952617
34	0xbcd77d03	-0.026304727
35	0x3c948f01	0.018134596
36	0xbd576d5a	-0.05259452
37	0x3c6eb75e	0.014570085
38	0x3d0a3d12	0.033749647
39	0x3b1b37cd	0.0023684383
40	0x3b02b094	0.0019941675
41	0xbbeed231	-0.0072882404
42	0x3b76f66c	0.00376835
43	0x3c1a17d4	0.009405095
44	0xbb0466b1	-0.002020281
45	0x3c5f6278	0.013634317
46	0xbd293970	-0.041314542
47	0xbc96d070	-0.018409938
48	0x3c5b4db9	0.01338523
49	0x3d37345b	0.044727664
50	0xbc8aa1b8	-0.016922817
51	0x3cbd0c90	0.02307728
52	0xbd16c713	-0.036810946
53	0x3cfd6a6c	0.030934535
54	0xbd03455c	-0.032048568
55	0xbd3941e9	-0.045228872
56	0xbc48eeb5	-0.012263943
57	0x3c6be695	0.014398237
58	0xbc59302b	-0.013256113
59	0xb948f945	-0.00019166346
60	0xbd524822	-0.051338322
61	0xbb873f77	-0.0041274386
62	0xbb6115b4	-0.0034345211
63	0x3b368138	0.0027848016
64	0x3bc16c4a	0.0059028016
65	0xbb7bbadf	-0.0038410944
66	0xbad616a4	-0.0016333652
67	0x3b288e02	0.002571941
68	0x3c617527	0.013760841
69	0x3b88b36e	0.0041717803
70	0x3c743999	0.0149063105
71	0x3c806847	0.015674723
72	0x3cd003df	0.02539247
73	0xbd07d682	-0.033163555
74	0xbd164066	-0.03668251
75	0x3d0df7a2	0.03465999
76	0xbb843cf0	-0.0040355846
77	0xbc1b5193	-0.009479898
78	0xbcbaa598	-0.02278404
79	0x3cffb27f	0.031213043
80	0x3ac90867	0.0015337587
81	0xba7c19f2	-0.0009616903
82	0xbac24b97	-0.0014823553
83	0x3c34065c	0.010987844
84	0xbc6b5628	-0.014363803
85	0x3b58a5c6	0.0033057793
86	0xbbc014da	-0.0058618607
87	0x3c06cb04	0.008227114
88	0xbc725bdd	-0.01479241
89	0x3cc6469b	0.02420359
90	0x3c5a31a2	0.013317497
91	0x3ced8b49	0.02899708
92	0x3d087e67	0.03332367
93	0x3d1dfa34	0.03856869
94	0xbc3bad61	-0.011454911
95	0xbd1116de	-0.0354222
96	0xbc264c42	-0.010150017
97	0x3be0ea95	0.006863902
98	0xbd111bba	-0.035426833
99	0x3be51963	0.0069915517
100	0xbbec73f3	-0.0072159707
101	0x3bc09ba3	0.0058779283
102	0x3bc85330	0.0061134323
103	0x3d53e40a	0.051731147
104	0xbac56350	-0.0015059505
105	0x3bb53b6f	0.0055307667
106	0x3c0f97b1	0.008764193
107	0x3aed7f77	0.0018119653
108	0x3be0a8ba	0.0068560513
109	0xbce15dba	-0.027510513
110	0xbd03d165	-0.032182116
111	0x3ac3f622	0.0014950673
112	0xbba02eb3	-0.0048883795
113	0x3c087d2f	0.008330627
114	0xbc634e57	-0.013873658
115	0x3cab974b	0.020946166
116	0x3bc603f6	0.0060429526
117	0x3cf824a7	0.030290915
118	0x3a29a7f1	0.00064718636
119	0x3c855dc2	0.016280059
120	0x39ebd20a	0.00044979184
121	0x3b5585e7	0.0032581033
122	0x3b4b79de	0.003104798
123	0xbc0fc1c0	-0.008774221
124	0xbbfdaae6	-0.00774132
125	0xb82ab164	-4.0696366e-05
126	0xbcb1e38f	-0.021714954
127	0x3c13fb12	0.009032028
128	0xbb88bc0c	-0.0041728076
129	0xbda00a2b	-0.078144394
130	0x3d22dcb8	0.039761275
131	0x3b510025	0.0031890955
132	0xbcbd3b44	-0.02309955
133	0xbc87167f	-0.01649022
134	0xbd5becea	-0.053692736
135	0x3a153244	0.0005691389
136	0xbc3d23e3	-0.011544201
137	0x3c9cb154	0.019127525
138	0xbd585be9	-0.052822027
139	0xbce7bcba	-0.028288234
140	0x3c0f6bb5	0.008753707
141	0xbc807893	-0.015682494
142	0xbc8c3f02	-0.017119888
143	0x3cf187ab	0.029483637
144	0xbd777ae6	-0.06041994
145	0x3afc00f9	0.0019226364
146	0x3c91a95f	0.017780958
147	0xbb836b23	-0.0040105744
148	0x3c4cd7b0	0.012502596
149	0xbcbab255	-0.022790113
150	0xbbba9968	-0.005694557
151	0xbb88f64c	-0.0041797515
152	0xbd1b83d8	-0.037967533
153	0xbcce1d67	-0.025160505
154	0x3bf48a42	0.0074627707
155	0x3cc1e658	0.023669407
156	0x39734ccc	0.00023202895
157	0xbd9c662d	-0.07636676
158	0x3cf92e21	0.030417504
159	0x3d1d2b61	0.038371447
160	0xbb0c53df	-0.0021412296
161	0xbca8f251	-0.020623358
162	0x3afa196c	0.0019081063
163	0x3c8bc6d4	0.017062582
164	0x3cee4b5f	0.029088674
165	0xbcc4485a	-0.023960281
166	0x3914a7ca	0.00014176886
167	0x3d533387	0.051562812
168	0x3cfad234	0.03061781
169	0x3c146488	0.009057172
170	0xbc1f442c	-0.009720843
171	0x3d84c16b	0.06482204
172	0xbb089f25	-0.002084681
173	0x3c05ed73	0.008174288
174	0x3b1603ac	0.0022890372
175	0x3cf187fd	0.02948379
176	0xbc0d71df	-0.008633106
177	0xbcc10a20	-0.023564398
178	0x3b9efd6d	0.004851988
179	0x3c47c4a3	0.012192878
180	0x392e90a6	0.00016647819
181	0xbc0c0bff	-0.008547782
182	0x3c2900e6	0.010315156
183	0x3c758232	0.014984654
184	0xbcd03a5a	-0.02541845
185	0x3cb4049b	0.021974852
186	0x3bdd3bd2	0.006751516
187	0x3cfcb2ad	0.030846918
188	0xbc4142bd	-0.011795697
189	0xbc1b4856	-0.009477695
190	0xbbc7cdbe	-0.0060975244
191	0x3c05f470	0.008175954
192	0x3c019fe7	0.007911659
193	0x3c9c04bc	0.019045226
194	0x3d40a453	0.04703171
195	0xbadf5f19	-0.0017041891
196	0x3be58f88	0.0070056356
197	0xbc4f4cb4	-0.012652565
198	0xbced725f	-0.0289852
199	0x3b5efe63	0.0034026138
200	0xbc0eb623	-0.008710417
201	0xbc26706d	-0.01015864
202	0x3c448631	0.011994884
203	0x3b33498c	0.002735707
204	0x3d2435ef	0.040090498
205	0xbd39cc56	-0.045360886
206	0x3c6dafd5	0.014507254
207	0x3b00fbee	0.0019681412
208	0xbccdcb22	-0.025121275
209	0xbc193d80	-0.009353042
210	0xbbcd8979	-0.0062724915
211	0x3c210442	0.009827675
212	0xbd042c2e	-0.032268696
213	0x3ce8373f	0.028346656
214	0xbc6c1eab	-0.014411609
215	0xbc382b67	-0.011240817
216	0xbd21c9c2	-0.039499052
217	0xbc67c677	-0.014146439
218	0x3cab1d0d	0.020887876
219	0xbd14c811	-0.03632361
220	0x3b87338b	0.0041260174
221	0xbb0b2e47	-0.00212373
222	0x3bb948ba	0.0056544216
223	0xbb520673	-0.00320473
224	0x3c6549f0	0.013994679
225	0xbbef6bb7	-0.007306542
226	0xba43e027	-0.0007472061
227	0x3c3f65ef	0.011682018
228	0x3c3cbf48	0.011520214
229	0xbd18a8af	-0.037270244
230	0xbbb3566c	-0.005472949
231	0xbcc8c2d5	-0.024506966
232	0xbbe8b153	-0.007101217
233	0xbb811636	-0.0039394153
234	0xba8369fe	-0.0010026095
235	0xbc9f1af0	-0.019422024
236	0x3bf639a9	0.007514198
237	0x3bd9c152	0.00664536
238	0xbd331702	-0.043723114
239	0x3c848a85	0.016179333
240	0xbd63e04b	-0.055633824
241	0x3ce254d2	0.027628336
242	0x3d00120e	0.03126722
243	0xbbcdd55a	-0.006281537
244	0x3caef21b	0.02135568
245	0xbcc9f1ae	-0.024651375
246	0x3cc11f7b	0.023574581
247	0x3d1dab4c	0.03849344
248	0x3c1b8339	0.009491735
249	0xbb883a17	-0.0041573155
250	0xbc5db885	-0.013532762
251	0xbc050c29	-0.008120575
252	0xbd942ac4	-0.072347194
253	0x3d22ac25	0.03971495
254	0x3b62912e	0.0034571397
255	0x3d46c104	0.048523918

network_body._body_endoder.seq_layers.2.bias f4 [128]
0	0xbcaa2d93	-0.020773685
1	0xbc9c8200	-0.019104958
2	0x3c5726a0	0.0131317675
3	0xbc564b29	-0.013079443
4	0xbb48b7a8	-0.0030627046
5	0xbb51f98c	-0.003203961
6	0x3c584612	0.0132003
7	0xbb037d87	-0.0020063834
8	0x3cb7800f	0.02239993
9	0x3c25c7f6	0.010118475
10	0xbce4e310	-0.027940303
11	0xbbe9aea2	-0.0071314136
12	0x3c8c2556	0.017107647
13	0x3c1a7cf1	0.009429202
14	0x3c4562b4	0.012047458
15	0xbc2d6910	-0.010584131
16	0xbd02eabb	-0.031962138
17	0xbcd7e069	-0.026352124
18	0x3c265865	0.010152911
19	0x3c40f500	0.011777163
20	0xbc759f30	-0.014991567
21	0xbbf7b851	-0.007559814
22	0xbcd0d57f	-0.025492428
23	0x3c8b68b7	0.017017705
24	0x3c8e38ab	0.017361006
25	0xbc4ea941	-0.012613595
26	0x3b634f34	0.003468466
27	0xbc967be8	-0.01836963
28	0x3d3472fc	0.04405497
29	0x3bdd81d7	0.006759863
30	0x3ac49030	0.0014996585
31	0xbbc5f608	-0.006041292
32	0x3b610a57	0.0034338438
33	0xbc7ff20f	-0.015621676
34	0xbc6a400c	-0.0142974965
35	0xbcd17697	-0.025569243
36	0x3c06c8a0	0.008226544
37	0x3c4feec6	0.012691205
38	0x3c23c3c2	0.009995403
39	0xbcc076e3	-0.02349419
40	0xbaa188b0	-0.0012324061
41	0xbcaef541	-0.02135718
42	0xbcfdf6ec	-0.03100153
43	0x3c6a3448	0.014294691
44	0x3c36c6c3	0.011155787
45	0xbc8f4db7	-0.017493112
46	0x3c194b33	0.009356308
47	0x3b89117a	0.0041829916
48	0x3cbc9129	0.023018437
49	0x3c8a947f	0.016916512
50	0xbc903592	-0.01760367
51	0xbcf714af	-0.03016123
52	0x3c1356f1	0.008992896
53	0xbc6e4a28	-0.014544047
54	0xbc7e9264	-0.015537832
55	0x3bec9d53	0.007220903
56	0xbc60b2a7	-0.013714469
57	0xbc835674	-0.016032435
58	0xbbfa5192	-0.0076391185
59	0xbc192c20	-0.009348899
60	0x3bafd9a1	0.0053665196
61	0xba280a3a	-0.0006410215
62	0xbc4e3136	-0.012584975
63	0xbc16a89e	-0.009195475
64	0xbb169b87	-0.0022980885
65	0xbc479ac2	-0.012182893
66	0xbc58a198	-0.013222121
67	0xbca0274c	-0.019549988
68	0x3cd623e0	0.026140153
69	0xbcc26a01	-0.023732187
70	0x3af7a6db	0.0018894331
71	0x3abdfa8c	0.0014494224
72	0x3a8ff8ac	0.0010984144
73	0xbc82fb22	-0.01598889
74	0xbc5c4d41	-0.013446153
75	0x3c2a91cf	0.01041074
76	0xbaad0bfa	-0.0013202422
77	0xbc4475ee	-0.011991007
78	0x3c22432c	0.00990371
79	0xbce42bd6	-0.027852934
80	0x3cb6430b	0.022248765
81	0xbd090943	-0.0334561
82	0x3d40c12b	0.04705922
83	0xbccd529c	-0.025063805
84	0xbb61466b	-0.0034374248
85	0xbd242461	-0.040073756
86	0x3c937070	0.01799795
87	0x3b1e6dde	0.0024174373
88	0xbc9cbc80	-0.019132853
89	0x3cca42a6	0.024689984
90	0xbbae54d5	-0.0053201714
91	0xbc5fd325	-0.013661181
92	0x3bcf85c4	0.006333085
93	0x3a04b773	0.00050627365
94	0x3d141746	0.036155008
95	0x3c04f37b	0.008114691
96	0xbb8c8f12	-0.0042895162
97	0x3c98e993	0.018666064
98	0x3bbddec4	0.005794378
99	0x3c0b4b58	0.00850185
100	0x3cc74b0a	0.024327774
101	0xbc85b7e6	-0.016323041
102	0xbb572b9f	-0.0032832397
103	0x3a4fee5e	0.0007931943
104	0x3c38db4f	0.011282756
105	0xbc02be78	-0.007979982
106	0xbc08d17d	-0.008350727
107	0xbafd49c0	-0.0019324347
108	0x3cbe482a	0.02322777
109	0xbc95567c	-0.018229716
110	0xbb15ba87	-0.0022846775
111	0x3b9844c7	0.004646871
112	0xbc0fef10	-0.008785024
113	0xbb8c9fd5	-0.0042915144
114	0xb87b6fc1	-5.9947142e-05
115	0xbc97351f	-0.018457947
116	0xbc48a861	-0.012247176
117	0xbb9afe1a	-0.0047299983
118	0xbc74fd97	-0.014953039
119	0x3c637eb7	0.013885192
120	0xbb83e86a	-0.0040255086
121	0x3d0a6549	0.033788
122	0x3c782b81	0.015147091
123	0xbc0233ca	-0.007946918
124	0xbc8556eb	-0.016276797
125	0x3d0a6859	0.03379092
126	0x3b69e7c6	0.0035691126
127	0x3c03f01b	0.008052851

network_body._body_endoder.seq_layers.2.weight f4 [128, 128]
0	0x3e07219a	0.13196412
1	0x3c690515	0.014222403
2	0xbd9f9e13	-0.07793822
3	0x3e1f2ea2	0.15545133
4	0xbd2600de	-0.04052817
5	0xbe540ae1	-0.20707275
6	0xbd932ef8	-0.07186693
7	0xbc9b8365	-0.018983552
8	0x3d755c00	0.05990219
9	0x3e0d1b4f	0.13779949
10	0x3d9b1711	0.07572759
11	0x3d92291f	0.071367495
12	0x3e412a6f	0.18863843
13	0x3d4a950b	0.049458545
14	0x3e0db939	0.13840188
15	0x3e2dccf1	0.1697271
16	0x3da5d77a	0.080977395
17	0x3e19d359	0.15022029
18	0xbd2e5be3	-0.0425681
19	0xbdd4c133	-0.10388412
20	0x3d2af0c4	0.04173352
21	0x3b9265e3	0.0044677122
22	0x3e2c8514	0.1684764
23	0x3d9ff78c	0.07810888
24	0x3cb75649	0.022380011
25	0xbd002e93	-0.031294417
26	0xbdc698f7	-0.096971445
27	0x3dd50f9d	0.104033686
28	0x3c45617b	0.012047167
29	0xbe4302e5	-0.19044073
30	0xbe574f53	-0.21026354
31	0xbd68996d	-0.056786943
32	0xbbc2f011	-0.0059490283
33	0xbe20b126	-0.15692577
34	0x3d15f0e3	0.03660668
35	0x3d571f72	0.052520223
36	0xbd969ca6	-0.07354097
37	0x3e29026c	0.1650483
38	0x3d620ac1	0.055186037
39	0xbce1f1d2	-0.02758113
40	0xbcacdf89	-0.021102684
41	0xbb8c44c9	-0.0042806608
42	0x3db75d15	0.08953301
43	0xbc3369d1	-0.010950522
44	0xbbba18ec	-0.0056792405
45	0xbd81e5d0	-0.063426614
46	0xbdb7635f	-0.089545004
47	0xbe1881b3	-0.14893226
48	0xbda2262b	-0.07917436
49	0xbd3f59eb	-0.04671661
50	0x3df7a420	0.12091851
51	0x3c4a007f	0.01232922
52	0xbbfe720d	-0.0077650608
53	0x3ce8a538	0.028399095
54	0x3e16a6ff	0.14712141
55	0x3cc831e5	0.024437854
56	0xbdfd624c	-0.12372264
57	0xbd55b133	-0.052170943
58	0xbe0a52ce	-0.1350815
59	0xbd449e54	-0.048002556
60	0xb97568b9	-0.00023404033
61	0x3db3a520	0.087717295
62	0xbd304f0f	-0.043044146
63	0xbd7d124d	-0.06178503
64	0xbdb3c298	-0.0877735
65	0x3d5bd94d	0.05367403
66	0xbdf9b10d	-0.12191973
67	0xbddf2c72	-0.10897149
68	0xbda872e9	-0.082250424
69	0x3d3d03d3	0.046146225
70	0xbdc25d73	-0.0949048
71	0xbd963a81	-0.073353775
72	0x3e256523	0.16151862
73	0x3e4b5126	0.19855174
74	0xbc409436	-0.011754086
75	0xbdc46e76	-0.09591381
76	0xbd83ee44	-0.0644193
77	0x3ddfa4ec	0.10920128
78	0x3c8fdae4	0.01756043
79	0xbcc2f33e	-0.023797628
80	0xbe073080	-0.13202095
81	0x3e094e92	0.13408878
82	0x3dcb302b	0.09921297
83	0xbd50bca8	-0.050961167
84	0xbd9613bf	-0.07327985
85	0x3c3f3e8f	0.01167263
86	0xbce72400	-0.028215408
87	0x3e13036b	0.14356773
88	0xbcb8e611	-0.022570642
89	0x3b94fc70	0.0045466945
90	0x3d4b291d	0.049599756
91	0x3e0f66ae	0.14004013
92	0xbcc4fee1	-0.024047317
93	0x3dfdb0b6	0.123872206
94	0xbdff265a	-0.12458487
95	0xbcc46777	-0.023975117
96	0x3e23dfeb	0.16003387
97	0x3e267c4c	0.16258353
98	0xbcb8736c	-0.022515975
99	0xbaffcb48	-0.0019515539
100	0xbde52c25	-0.111900605
101	0xbe1576ee	-0.1459615
102	0x3e410e14	0.18853027
103	0x3e150d38	0.14555824
104	0xbdbb1ab0	-0.091359496
105	0xbd7713eb	-0.06032173
106	0x3c960e93	0.018317496
107	0x3ca7363f	0.020411609
108	0xbdefa155	-0.117006935
109	0xbd2b7451	-0.041858975
110	0xbda484c2	-0.08033134
111	0xbd1e89c0	-0.038705587
112	0x3cbcd5fc	0.023051254
113	0xbd34d131	-0.044144813
114	0xbbde20b8	-0.0067788027
115	0xbc8b6934	-0.017017938
116	0x3e104814	0.14089996
117	0xbd2887c4	-0.0411451
118	0xbda58408	-0.080818236
119	0x3dae8958	0.0852229
120	0x3df7df12	0.12103094
121	0x3e1f8587	0.1557828
122	0xbd4992a2	-0.049212106
123	0x3dd6e08e	0.10492049
124	0x3d60a339	0.05484316
125	0x3e4326f0	0.19057822
126	0x3cdf180d	0.027233148
127	0xbab04b46	-0.0013450168
128	0x3aa4a0cd	0.0012560129
129	0x3e12f6b4	0.14351922
130	0xbe137f9b	-0.14404146
131	0xbdde5bf4	-0.108573824
132	0x3d3480a7	0.044068005
133	0xbbe3bab7	-0.0069497484
134	0xbd237d49	-0.039914403
135	0x3d96132c	0.073278755
136	0x3e20f0e8	0.15716898
137	0x3d53ad89	0.051679168
138	0x3c3d7d60	0.011565536
139	0xbdc436c9	-0.09580762
140	0xbdcf5bd8	-0.1012494
141	0xbc8141b5	-0.015778402
142	0xbd7884ed	-0.060673643
143	0x3daca6e7	0.084302716
144	0x3b9d4907	0.0047999653
145	0xbd3f0a10	-0.046640456
146	0xbdf2357f	-0.1182661
147	0xbd0a0eba	-0.03370545
148	0xbda88601	-0.08228684
149	0xbd75ebf8	-0.06003949
150	0xbde273b4	-0.11057225
151	0x3dd80d37	0.105493955
152	0xbdc038e5	-0.09385852
153	0xbd0ce520	-0.034398198
154	0x3c5ba6ee	0.013406498
155	0x3c6b952e	0.014378829
156	0x3d7be042	0.061493166
157	0xbe18111d	-0.14850278
158	0x3d4f2b8c	0.05057864
159	0x3bc3733e	0.0059646657
160	0x3de227d5	0.110427536
161	0xbdb1376d	-0.0865315
162	0xbe4c6e43	-0.19963937
163	0x3cfb0048	0.030639783
164	0x3def088d	0.11671553
165	0x3e00423a	0.12525263
166	0xbdce09cd	-0.10060463
167	0xbd9eb553	-0.077494286
168	0x3c17b678	0.0092598125
169	0x3d668fa3	0.056289326
170	0xbd855b8c	-0.06511602
171	0xbbfd4cfe	-0.0077301254
172	0xbd2c0bcb	-0.042003434
173	0xbca56787	-0.020190967
174	0xbe212709	-0.15737547
175	0xbcd2aa35	-0.025715927
176	0x3ca6aeaf	0.020346968
177	0xbe0dd918	-0.13852346
178	0xbd257d11	-0.040402476
179	0x3d221905	0.03957464
180	0xbd6081ab	-0.05481116
181	0x3c86e735	0.01646767
182	0xbdaf0254	-0.08545366
183	0x3dd23947	0.10264831
184	0x3da2e0d0	0.07953036
185	0x3d66ac66	0.056316756
186	0xbdae30e2	-0.085054174
187	0xbd7c2a49	-0.061563764
188	0xbe55098d	-0.20804425
189	0xbbd3550c	-0.0064493474
190	0xbd917585	-0.07102493
191	0x3e1603bd	0.14649864
192	0x3d821336	0.063513204
193	0xbc3b6733	-0.011438179
194	0xbd43a1c9	-0.047761712
195	0xbd3c8f6b	-0.04603521
196	0xbd506a84	-0.05088283
197	0xbd92eba4	-0.07173851
198	0x3dda3730	0.106550574
199	0xbcffcf63	-0.03122682
200	0xbdbbc269	-0.0916794
201	0xbdf779e8	-0.12083799
202	0x3dd5f845	0.10447744
203	0xbc672be1	-0.014109583
204	0xbbb1986d	-0.005419782
205	0xbbbedf24	-0.0058249403
206	0x3dd16bd2	0.10225643
207	0x3e1f2bfd	0.15544124
208	0x3d5bdffb	0.0536804
209	0x3db2de38	0.08733791
210	0x3ddb74cd	0.10715637
211	0xbe02c37c	-0.12769884
212	0x3c4fa84a	0.012674401
213	0xbd327995	-0.04357298
214	0x3d6c2d9d	0.057660688
215	0x3e0af20e	0.13568899
216	0x3de233ae	0.11045013
217	0x3dbaa899	0.09114189
218	0xbd9e4f10	-0.07729924
219	0xbe088951	-0.13333632
220	0xbd71672a	-0.058936276
221	0x3d8ea15b	0.0696437
222	0xbdc4669d	-0.095898844
223	0xbd8706d3	-0.065930985
224	0x3cddd3e3	0.027078575
225	0xbde3bb83	-0.111197494
226	0xbe5ec3bc	-0.21754354
227	0xbe156967	-0.14590989
228	0xbe0ea943	-0.13931756
229	0x3c081fde	0.008308379
230	0x3d9cd727	0.076582246
231	0xba17ab83	-0.000578575
232	0xbd90325f	-0.070408575
233	0x3d2217f5	0.03957363
234	0x3e369bb9	0.17832841
235	0xbe02ee41	-0.12786199
236	0x3dbdcb5e	0.09267305
237	0xbdc37fa0	-0.09545827
238	0xbd666b10	-0.056254447
239	0x3abec776	0.0014555294
240	0x3e016318	0.12635458
241	0x3d821dff	0.063533776
242	0xbd950423	-0.0727618
243	0x3d09e71f	0.03366768
244	0xbcee43ff	-0.029085157
245	0x3dd73599	0.1050827
246	0x3d3a7c94	0.045528963
247	0xbc2c3073	-0.010509598
248	0xbce4cea2	-0.027930561
249	0x3cce4a0c	0.025181793
250	0xbdaacf56	-0.083403274
251	0x3c3fb7ad	0.011701507
252	0x3c6fd8eb	0.01463912
253	0xbd61a37f	-0.055087563
254	0x3d4449bb	0.047921877
255	0x3d7b78f3	0.061394643
