results/BetOrNot6/MoveToBet/MoveToBet-90989.onnx (onnx, 949148 bytes, 9 tensors)

action_model._continuous_distribution.log_sigma f4 [1, 16]
0.08189334 0.018116504 0.08455268 -0.02395905 0.05521246 0.0013574028 0.03485097 0.15589708
0.22184242 0.095948175 0.09806251 0.108353995 0.07638405 0.078146555 0.05301036 0.0996286
00000000: b2b7 a73d 1069 943c f529 ad3d c545 c4bc
00000010: 7626 623d e1ea b13a e4bf 0e3d 7ca3 1f3e
00000020: a92a 633e 7a80 c43d ffd4 c83d b3e8 dd3d
00000030: 3e6f 9c3d 4d0b a03d 6421 593d 140a cc3d

action_model._continuous_distribution.mu.bias f4 [16]
0.052978594 -0.056824602 -0.0013839882 0.03277884 0.0160328 0.052262098 -0.014393315 -0.025469843
-0.0014420513 0.07831318 0.050492752 0.09340817 0.075639114 -0.011148999 0.014972278 0.049869347
00000000: 1500 593d eac0 68bd f066 b5ba 1b43 063d
00000010: 3857 833c c810 563d f0d1 6bbc 22a6 d0bc
00000020: 3603 bdba a962 a03d 7dd1 4e3d c84c bf3d
00000030: aee8 9a3d 4baa 36bc 494e 753c cd43 4c3d

action_model._continuous_distribution.mu.weight f4 [16, 128]
0.04042544 0.014290392 -0.0038508235 0.05339897 -0.008589048 -0.00399816 0.025320552 -0.030645084
0.024673931 -0.014178739 -0.009853554 0.04722766 -0.04180699 -0.024707627 -0.029920796 0.07706184
0.055261906 0.025442349 0.015978381 -0.04705501 -0.03822781 0.0040299194 -0.03643625 -0.04326259
0.03007578 0.0064875265 -0.04949086 0.03916309 0.034717772 -0.028009303 0.039123803 0.012128913
-0.0058370684 -0.06456504 -0.016211757 -0.049639605 0.0028213714 0.006478593 0.005489741 0.08149543
-0.027578328 0.009651562 -0.010872184 -0.010495845 0.031010091 0.0058148843 0.02197788 0.0011592583
-0.0075593395 0.022471927 -0.072798654 0.015928533 -0.037283756 -0.022101006 -0.042650927 -0.01780354
0.042148605 -0.0640677 0.005814866 -0.068946205 0.012623879 -0.01835107 0.0095353145 0.014358388
0.0077368715 -0.013837814 0.01648245 -0.005730643 0.005490618 0.040439993 0.004979109 0.019735496
0.013701705 -0.006980622 -0.012243863 -0.009061963 -8.629213e-05 -0.103496976 0.029412748 -0.02443316
0.011694456 -0.0348103 -0.07387804 0.015323586 0.04940758 -0.033179294 0.03920958 -0.02930956
0.022158198 -0.006957016 -0.048335787 -0.023609377 -0.002587744 -1.1980309e-05 0.016623706 0.04523307
-0.0142437 0.009832887 -0.007934814 0.012203465 0.024466943 -0.023553975 0.004857488 0.011856458
-0.0016749351 -0.006489662 -0.045778397 0.0007983767 -0.052024394 -0.0075820494 -0.024373835 0.03963541
0.0019707417 0.027255958 0.0597199 0.00916373 -0.068067744 0.08111961 -0.00090245274 0.044211358
-0.02148902 -0.023904664 0.0061763516 -0.030804431 -0.034654733 0.024117567 0.04849055 -0.044864036
0.033389885 -0.018944584 -0.01266001 0.044118155 -0.036836803 -0.05584106 -0.07925595 0.010850346
-0.034004167 0.022854462 -0.01046565 0.010543895 0.011345163 -0.04141049 -0.074016824 0.010915626
-0.034890737 0.0011400882 -0.0154522965 -0.020615578 0.007895108 0.028347127 -0.025696248 0.006925085
0.048783172 -0.022437256 0.04143442 -0.011562517 -0.020806374 0.0016455204 0.024539685 0.0036934903
-0.005835426 0.024182577 -0.019191206 -0.020216985 0.0014204872 -0.011686882 -0.040578466 -0.03277157
-0.017984692 -0.0038471948 0.051224142 -0.008026787 0.0069102896 -0.0065202294 -0.00982991 0.02194254
0.011995001 -0.03572175 0.016856486 0.030349279 -0.026092703 -0.030525241 0.04009549 -0.04398674
0.0028554439 0.05770674 0.010393577 -0.033514176 0.00094793877 -0.008504744 -0.013387732 -0.01746921
-0.007223636 0.017568104 -0.0007374611 -0.02006584 -0.036128387 -0.06461718 0.03805638 0.013492117
-0.00229187 0.0026236314 -0.03931762 -0.020745762 0.04580798 0.06798461 -0.043088935 -0.00953361
-0.028198501 0.04291744 0.0050586793 -0.034924313 -0.0065786936 0.025892105 0.008992504 0.0076175025
0.02526444 -0.046646614 0.0064339805 0.0065007214 -0.010799715 0.010342171 0.023234118 -0.0016113609
0.0075507145 -0.0047403513 -0.008269953 -0.039518535 0.042615447 -0.048172608 0.0074210665 -0.0028092717
0.020258872 0.0026748637 0.00952608 -0.06157853 0.06825844 0.009780914 0.0070089693 -0.078090936
-0.0023311356 -0.027757784 0.011594351 0.00055859884 0.034466557 -0.07372989 -0.013398258 -0.00015405641
-0.009593711 0.055133298 0.010600969 -0.08162582 -0.03819118 -0.03197071 0.020155974 0.0044178264
00000000: 2595 253d 4022 6a3c 195e 7cbb e1b8 5a3d
00000010: 14b9 0cbc ff02 83bb 0c6d cf3c 660b fbbc
00000020: fc20 ca3c f14d 68bc cd70 21bc ca71 413d
00000030: ce3d 2bbd a667 cabc 751c f5bc 99d2 9d3d
00000040: 4f5a 623d 796c d03c 18e5 823c c1bc 40bd
00000050: c494 1cbd 6a0d 843b 2d3e 15bd 1d34 31bd
00000060: 7b61 f63c 5195 d43b eeb6 4abd 7a69 203d
00000070: 3934 0e3d c473 e5bc 4840 203d 59b8 463c
00000080: e144 bfbb ad3a 84bd 85ce 84bc e652 4bbd
00000090: c2e6 383b 614a d43b 49e3 b33b 13e7 a63d
000000a0: f2eb e1bc 9621 1e3c 3f21 32bc c4f6 2bbc
000000b0: e008 fe3c c98a be3b f40a b43c 41f2 973a
000000c0: 56b4 f7bb 0c17 b83c 7617 95bd 8e7c 823c
000000d0: dab6 18bd 2b0d b5bc bdb2 2ebd bbd8 91bc
000000e0: 04a4 2c3d ed35 83bd a28a be3b ab33 8dbd
000000f0: 63d4 4e3c fc54 96bc 023a 1c3c 723f 6b3c
00000100: 9585 fd3b 00b8 62bc 3406 873c 1ec8 bbbb
00000110: a4ea b33b 68a4 253d cb27 a33b 56ac a13c
00000120: 1e7d 603c b4bd e4bb 7c9a 48bc a178 14bc
00000130: bcf7 b4b8 39f6 d3bd 01f3 f03c 0d28 c8bc
00000140: 1b9a 3f3c 3f95 0ebd 5f4d 97bd c70f 7b3c
00000150: 9a5f 4a3d 03e7 07bd 399a 203d 9a1a f0bc
00000160: 1c85 b53c aef7 e3bb bffb 45bd 7468 c1bc
00000170: 2497 29bb 09ff 48b7 702e 883c 5046 393d
00000180: 685e 69bc 1e1a 213c 0601 02bc 0bf1 473c
00000190: e66e c83c 44f4 c0bc 902b 9f3b 9741 423c
000001a0: 7f89 dbba 3ba7 d4bb 2182 3bbd 274a 513a
000001b0: 8817 55bd d772 f8bb a3ab c7bc bd58 223d
000001c0: 8f27 013b e347 df3c db9c 743d 7823 163c
000001d0: 1a67 8bbd 0a22 a63d 9492 6cba f816 353d
000001e0: be09 b0bc b7d3 c3bc fe62 ca3b 9359 fcbc
000001f0: 1ff2 0dbd 3492 c53c 079e 463d 5ac3 37bd
00000200: d5c3 083d ac31 9bbc ee6b 4fbc 3db5 343d
00000210: 30e2 16bd 98b9 64bd f250 a2bd a6c5 313c
00000220: f447 0bbd 4839 bb3c 1e78 2bbc 4dc0 2c3c
00000230: 10e1 393c 0c9e 29bd 2296 97bd 74d7 323c
00000240: 97e9 0ebd 036f 953a a12b 7dbc 00e2 a8bc
00000250: 7c5a 013c 3c38 e83c f080 d2bc d3eb e23b
00000260: ddd0 473d 56ce b7bc 23b7 293d b670 3dbc
00000270: 2172 aabc 81ae d73a 7307 c93c 7c0e 723b
00000280: 1a37 bfbb 8a1a c63c e036 9dbc 179e a5bc
00000290: a42f ba3a 567a 3fbc 9b35 26bd 7b3b 06bd
000002a0: a254 93bc 3821 7cbb 68d0 513d c982 03bc
000002b0: b66f e23b a6a7 d5bb a10d 21bc d7c0 b33c
000002c0: ae86 443c f850 12bd 9d16 8a3c 0d9f f83c
000002d0: 5dc0 d5bc 1210 fabc 2b3b 243d 712b 34bd
000002e0: 6622 3b3b e75d 6c3d d249 2a3c 2946 09bd
000002f0: 187f 783a 7b57 0bbc 3858 5bbc 971b 8fbc
00000300: 40b4 ecbb fcea 8f3c 2d52 41ba 1e61 a4bc
00000310: 5cfb 13bd 0356 84bd 02e1 1b3d 0a0e 5d3c
00000320: 3333 16bb 3bf1 2b3b 830b 21bd 04f3 a9bc
00000330: 26a1 3b3d 843b 8b3d 067e 30bd dc32 1cbc
00000340: 8b00 e7bc 33ca 2f3d 47c3 a53b cc0c 0fbd
00000350: 1592 d7bb ae1b d43c 4c55 133c 3e9c f93b
00000360: 5ff7 ce3c 8510 3fbd 24d4 d23b 0104 d53b
00000370: 4af1 30bc 3672 293c 7a55 be3c 4d34 d3ba
00000380: fc6b f73b f354 9bbb b27e 07bc 30de 21bd
00000390: 898d 2e3d a450 45bd 6b2c f33b c21b 38bb
000003a0: eff5 a53c c44c 2f3b 4713 1c3c c539 7cbd
000003b0: 15cb 8b3d 2040 203c 7fab e53b 24ee 9fbd
000003c0: f7c5 18bb 4b64 e3bc 3cf6 3d3c ef6e 123a
000003d0: ce2c 0d3d b2ff 96bd 5e84 5bbc 348a 21b9
000003e0: f12e 1dbc 74d3 613d b0af 2d3c 702b a7bd
000003f0: 5b6e 1cbd b8f3 02bd 241e a53c 6ac3 903b

action_model._discrete_distribution.branches.0.bias f4 [2]
0.00042971544 -0.00042969693
00000000: 6e4b e139 f248 e1b9

action_model._discrete_distribution.branches.0.weight f4 [2, 128]
0.0006310756 -0.0024671122 -0.007152305 0.020737307 0.0041345633 0.01971071 0.017845217 -0.007793265
0.0005349529 -0.0020600357 0.007100259 -0.006719447 0.009121631 -0.011362806 -0.006853902 0.007533099
0.015424479 -0.019618494 0.0019238188 -0.0031554978 0.0001465246 -0.0060918857 0.0061799497 -0.022079842
-0.0057583 -0.013707392 0.0026052268 0.020857641 -0.0022574135 -0.005185894 0.00091060036 -0.0015371605
-0.0016596288 0.0021421062 -0.0024584625 0.029833829 0.0061084963 0.018252512 0.0042185443 -0.020649742
-0.017444225 -0.016680729 0.0031517914 0.0011210432 0.013711036 -0.005615497 -0.0037820127 0.0049260273
0.02512242 -0.0037307562 -0.0189221 -0.0024310937 0.009477497 -0.0010042646 -0.01751222 0.0062141
0.0021516848 -0.008203199 0.0027100674 -0.010578521 -0.001302254 -0.00503875 -0.007534822 -0.009381214
-0.0064723114 -0.00866357 -0.0026337334 0.0027478186 0.0018230116 0.020456662 -0.010760897 -0.022703193
0.001634066 0.011878219 0.025412116 0.0070544244 -0.0029104252 -0.008035164 -0.0033865932 0.01612408
-0.005180927 0.0007888947 0.0029612642 -0.00082832057 -0.0038665894 -0.012477923 -0.013992787 -0.0062557403
-0.006698747 0.0059323236 -0.0109334085 -0.004437066 -0.00444455 0.02141458 0.003946372 -0.0024237584
-0.012375791 0.008225895 0.017111082 0.0011502029 -0.015894353 -0.005303302 0.008735462 0.0017796538
0.0011299527 0.014139203 -0.012281109 0.013545102 0.0020003775 0.0013085394 0.016144129 -0.0065583684
0.0034435322 0.001304875 -0.011414416 -0.009465864 -0.0033168434 -0.0134126535 -0.017511625 -0.009474334
-0.0015416249 0.007002837 0.0008167302 0.026392775 0.0067447037 -0.002852544 -0.0016853975 0.0025538902
8.659109e-05 0.0013236986 0.001464857 0.006653817 0.0042119273 -0.005120849 -0.022703432 0.004489395
0.006329706 0.0065258485 -0.0049232338 0.0037475252 -0.012945824 -0.0037260938 0.0025900796 0.009356227
-0.016177293 -0.0055267587 0.005298891 -0.0054442855 -0.009247931 -0.005247734 0.0061180927 0.02869921
0.007378553 -0.013065616 -0.0024531402 -0.0025933047 -0.008601283 -0.0046155546 0.0043613864 -0.016836438
0.004975904 -0.0076064765 -0.014048904 -0.0137068955 0.013437096 0.0019632236 -0.025795655 0.030806057
0.0023668201 -0.005098515 0.010356464 -0.0017730291 -0.00860664 -0.006548834 0.007345426 -0.006286449
-0.02845545 0.011905681 0.0035716542 0.0024004243 0.0040794373 0.002031142 -0.009177877 -0.0111723235
0.020263083 0.0043072426 -0.0035238117 0.022580775 0.013347784 -0.0021426699 -0.0022410713 0.0026564389
-0.00325541 -0.0060950015 0.012736277 -0.001428039 0.0016533138 -0.03842716 0.02063485 0.0075659077
-0.001120949 0.022742687 -0.011790191 -0.00011661462 0.001600957 0.0033658172 -0.015045373 -0.006661955
0.0075335135 0.0021688293 -0.00447307 0.007450885 -0.011905523 0.017408166 -0.005761809 -0.00730031
0.0015888545 0.0021783132 -0.002572471 -0.012701107 0.004622449 -0.008259365 0.0031543726 0.0074086734
-0.0065876185 -0.013130071 -0.008959616 -0.0053201816 -0.00045684504 0.010783085 -0.010830452 0.009038754
0.008635114 0.017522344 0.0033920633 -0.007682697 0.010167452 0.0009735539 -0.0018060043 0.003193208
-0.0070795044 0.010046241 0.00945418 -0.0038921114 0.008724698 -0.0018150196 0.006226107 -0.0021046672
-0.0076501737 0.00080604403 0.009347031 -0.031227233 -0.0009379285 0.014981555 0.0054392023 -0.0076201227
00000000: c46e 253a 46af 21bb e25d eabb 49e1 a93c
00000010: 3b7b 873b 5b78 a13c 2230 923c a55e ffbb
00000020: 153c 0c3a aa01 07bb 4aa9 e83b cf2e dcbb
00000030: e572 153c 102b 3abc b296 e0bb 37d8 f63b
00000040: f4b6 7c3c f7b6 a0bc a628 fc3a 78cc 4ebb
00000050: 66a4 1939 719e c7bb 2d81 ca3b c9e0 b4bc
00000060: 1fb0 bcbb f894 60bc 74bc 2a3b a5dd aa3c
00000070: 1df1 13bb 6fee a9bb 5bb5 6e3a 8c7a c9ba
00000080: e787 d9ba 9462 0c3b 281e 21bb 1366 f43c
00000090: c829 c83b 4b86 953c b73b 8a3b a629 a9bc
000000a0: 31e7 8ebc 06a6 88bc 498e 4e3b f8ef 923a
000000b0: 41a4 603c 3402 b8bb a5db 77bb 836a a13b
000000c0: 89cd cd3c b47f 74bb 8502 9bbc fc52 1fbb
000000d0: 8147 1b3c 87a1 83ba ca75 8fbc a69f cb3b
000000e0: 4803 0d3b b666 06bc 639b 313b 8851 2dbc
000000f0: 65b0 aaba 191c a5bb abe6 f6bb aab3 19bc
00000100: af15 d4bb a5f1 0dbc b79a 2cbb bf14 343b
00000110: 1ef2 ee3a bb94 a73c 794e 30bc 0cfc b9bc
00000120: 282e d63a dd9c 423c 122d d03c cd28 e73b
00000130: d5bc 3ebb eca5 03bc 9bf1 5dbb a616 843c
00000140: c4c4 a9bb d4cd 4e3a c511 423b a723 59ba
00000150: 9b66 7dbb 3470 4cbc 0142 65bc f4fc ccbb
00000160: 2a81 dbbb f063 c23b 0a22 33bc cf64 91bb
00000170: 96a3 91bb a16d af3c 9150 813b ebd7 1ebb
00000180: d4c3 4abc e8c5 063c 8a2c 8c3c 68c2 963a
00000190: e034 82bc 52c7 adbb 2f1f 0f3c 4643 e93a
000001a0: ec1a 943a 1ea8 673c b436 49bc 47ec 5d3c
000001b0: c418 033b 4c83 ab3a b140 843c 95e7 d6bb
000001c0: e2ac 613b 5708 ab3a 8803 3bbc b616 1bbc
000001d0: 665f 59bb bfc0 5bbc 8a74 8fbc 3d3a 1bbc
000001e0: 5910 caba 0e78 e53b d619 563a a935 d83c
000001f0: ad02 dd3b bff1 3abb 8ee8 dcba 2b5f 273b
00000200: 3d98 b538 f47f ad3a 7200 c03a 4308 da3b
00000210: 3504 8a3b cbcc a7bb 8cfc b9bc c61b 933b
00000220: 6c69 cf3b c9d6 d53b 1453 a1bb 0a99 753b
00000230: b91a 54bc 7b31 74bb 53be 293b dc4a 193c
00000240: 3e86 84bc d019 b5bb 52a2 ad3b fa65 b2bb
00000250: a284 17bc 2ff5 abbb 487a c83b 9b1a eb3c
00000260: cac7 f13b 2a11 56bc ddc4 20bb 6ff4 29bb
00000270: 65ec 0cbc 143e 97bb f6e9 8e3b 92ec 89bc
00000280: e80c a33b c03f f9bb 602d 66bc e392 60bc
00000290: 4427 5c3c 6da9 003b 6951 d3bc fc5c fc3c
000002a0: a71c 1b3b 7211 a7bb 29ae 293c fc64 e8ba
000002b0: dd02 0dbc 9a97 d6bb e6b1 f03b 8efe cdbb
000002c0: 671b e9bc 0c10 433c 6a12 6a3b 7050 1d3b
000002d0: cdac 853b e81c 053b ce5e 16bc 1f0c 37bc
000002e0: c4fe a53c c523 8d3b c0ef 66bb 51fb b83c
000002f0: aab0 5a3c 096c 0cbb f0de 12bb a617 2e3b
00000300: b758 55bb 94b8 c7bb d1ab 503c 0a2d bbba
00000310: 01b4 d83a cc65 1dbd 6b0a a93c 6feb f73b
00000320: cfec 92ba df4e ba3c a52b 41bc ff8e f4b8
00000330: 34d7 d13a 0b95 5c3b de80 76bc 874c dabb
00000340: b1db f63b eb22 0e3b d592 92bb 8e26 f43b
00000350: 620f 43bc 929b 8e3c 8fcd bcbb 7037 efbb
00000360: 1c41 d03a 08c2 0e3b e796 28bb 4e18 50bc
00000370: ea77 973b 4a52 07bc 97b9 4e3b 75c4 f23b
00000380: f3dc d7bb 821f 57bc 5acb 12bc eb54 aebb
00000390: b484 efb9 89ab 303c 3572 31bc 4817 143c
000003a0: 4b7a 0d3c 058b 8f3c 614d 5e3b 22bf fbbb
000003b0: 6295 263c 1936 7f3a 73b7 ecba 2445 513b
000003c0: 30fb e7bb fd98 243c b4e5 1a3c cb12 7fbb
000003d0: 09f2 0e3c f4e5 edba 5f04 cc3b 75ee 09bb
000003e0: 4fae fabb b34c 533a 4a24 193c 41d0 ffbc
000003f0: 51df 75ba 3275 753c 563b b23b 39b2 f9bb

network_body._body_endoder.seq_layers.0.bias f4 [128]
-0.009223955 0.04076806 -0.017818144 0.064343125 0.10088231 0.03335671 -0.015468366 0.036255635
0.029507188 -0.062948264 0.034232944 -0.008425915 0.014321564 0.07770448 0.055549223 -0.04633875
0.09212943 0.055805475 0.0014457918 0.053175002 0.025389148 -0.011084875 -0.016332766 0.026627129
-0.046853606 0.014868653 -0.03804102 -0.035264164 0.07500094 0.06319576 0.04071972 0.09330113
0.0050063287 0.034411844 -0.015765976 0.039408986 0.0011659537 0.007832795 0.045802247 0.068782724
0.025298648 0.006834056 0.015334067 -0.023106102 -0.02105515 -0.041323144 -0.036625717 0.0019699717
-0.00910489 -0.011585078 -0.022419296 -0.035553068 0.07900699 -0.024328742 -0.05723583 -0.03308096
0.030913338 -0.058321763 0.012278439 0.049730822 0.09198795 0.0033795214 -0.006567007 -0.04335549
0.016788084 -0.082394645 -0.012322207 0.018110812 -0.084422305 -0.0021202655 -0.017665781 -0.09614476
-0.035167772 0.022735842 -0.032315522 0.0021606535 0.08441574 0.09256773 -0.049148656 0.0027045656
0.014111927 0.069942735 0.019689627 0.018988088 -0.0086882515 -0.004316438 0.0053514326 -0.07298203
0.032256566 0.05125788 -0.004039078 -0.0063274326 0.024656374 0.016900156 0.013150818 0.034792498
0.032747816 0.0014784988 -0.034843586 0.07107377 -0.019898036 0.055705223 -0.048777867 -0.045470078
0.037988614 -0.026238447 0.04727947 0.022799795 0.05614957 0.10929006 -0.010816156 0.002614219
0.047284044 0.018725276 0.0025514988 0.008166417 -0.00026881153 0.06469552 -0.037291348 -0.02592066
0.020191738 0.046305444 0.04055261 0.017698878 0.056363907 0.016706496 0.019242994 0.024585439
00000000: 1220 17bc 69fc 263d 5bf7 91bc 54c6 833d
00000010: 629b ce3d 0ca1 083d 086f 7dbc ca80 143d
00000020: 0fb9 f13c 05eb 80bd d837 0c3d d90c 0abc
00000030: fea4 6a3c 8723 9f3d 9587 633d b3cd 3dbd
00000040: 5bae bc3d 4894 643d b980 bd3a 08ce 593d
00000050: e7fc cf3c 569d 35bc 4bcc 85bc 2321 da3c
00000060: 91e9 3fbd a79b 733c e7d0 1bbd 2871 10bd
00000070: 189a 993d c76c 813d b9c9 263d aa14 bf3d
00000080: 210c a43b 6ff3 0c3d a627 81bc 516b 213d
00000090: ead2 983a 2055 003c 239b 3b3d f5dd 8c3d
000000a0: 1c3f cf3c 38f0 df3b bd3b 7b3c 0249 bdbc
000000b0: da7b acbc 7542 29bd d904 16bd a41a 013b
000000c0: ad2c 15bc 57cf 3dbc aca8 b7bc 18a0 11bd
000000d0: 6bce a13d 124d c7bc 1e70 6abd e77f 07bd
000000e0: f83d fd3c cde2 6ebd 812b 493c 8cb2 4b3d
000000f0: 2e64 bc3d f67a 5d3b 0c30 d7bb 8795 31bd
00000100: 2a87 893c 86be a8bd 15e3 49bc 205d 943c
00000110: 9ae5 acbd 27f4 0abb d4b7 90bc 8be7 c4bd
00000120: 150c 10bd 8440 ba3c 485d 04bd c099 0d3b
00000130: 29e2 ac3d 2694 bd3d 1a50 49bd 153f 313b
00000140: b635 673c 233e 8f3d 244c a13c e88c 9b3c
00000150: 2b59 0ebc e870 8dbb 125b af3b 9a77 95bd
00000160: 761f 043d c8f3 513d 3e5a 84bb 5a56 cfbb
00000170: 2afc c93c 3272 8a3c 8776 573c 9482 0e3d
00000180: 9322 063d 30ca c13a 26b8 0ebd 208f 913d
00000190: 3501 a3bc 292b 643d 4dcb 47bd d53e 3abd
000001a0: f399 1b3d 03f2 d6bc 1ea8 413d a3c6 ba3c
000001b0: 17fd 653d 78d3 df3d 3f36 31bc 5153 2b3b
000001c0: eaac 413d c065 993c 0c37 273b 6fcc 053c
000001d0: 46ef 8cb9 167f 843d d0be 18bd 9057 d4bc
000001e0: 2569 a53c c7aa 3d3d 7e1a 263d 3dfd 903c
000001f0: d7dd 663d 10dc 883c 7ca3 9d3c 6767 c93c

network_body._body_endoder.seq_layers.0.weight f4 [128, 1700]
-0.004034985 -0.01591768 -0.010298758 0.0004660186 -0.03393765 0.021908253 -0.016695837 -0.01626056
-0.012300669 0.006853432 0.024168238 -0.049372986 0.047545925 -0.016159976 -0.04296007 -0.009866363
-0.010456115 -0.028733652 -0.01108261 -0.0056638503 0.014016056 -0.019694401 -0.016237374 -0.002555061
0.0050674807 0.010617172 0.0020777022 -0.0071636634 -0.024846619 0.017450072 0.018909834 0.01223521
-0.00089220057 -0.016221475 -0.035830922 0.008608381 -0.062120717 0.0050438754 0.024223432 -0.007157773
-0.007532044 -0.016814454 -0.005757861 -0.000121121 -0.011546495 0.0041081063 -0.05084074 -0.027936153
0.003859016 0.035201468 -0.026449032 0.013551065 -0.046337143 0.02140832 -0.041574765 -0.05475507
-0.021790158 0.004872027 -0.022782328 -0.009717879 -0.06086452 -0.013653653 -0.012960736 -0.0067414097
-0.003623413 -0.013367309 -0.011159579 -0.0069542704 0.004234631 -0.0053544305 0.0053801006 0.006148514
0.015866255 -0.04268975 -0.046208706 0.025133774 -0.013561798 -0.019006113 -0.032310236 0.021686828
-0.007992455 -0.010487905 -0.01100857 0.0014616278 -0.023890018 -0.0062204315 -0.015388074 -0.0012991022
-0.024318626 0.014677374 0.003791284 0.019470865 0.023797456 0.029042471 -0.020981126 -0.044948395
-0.01967623 -0.0026623125 -0.04495303 -0.0025346626 -0.016742183 -0.0036482862 -0.0034127822 0.04220495
-0.011032165 -0.0039954446 -0.0007620221 -0.007714246 -0.002670163 -0.03703671 -0.041708313 -0.008031147
-0.014414593 -0.0011955884 -0.023399873 0.011419951 -0.003483262 0.0207647 -0.008879029 0.0067538493
-0.009076424 -0.006268108 -0.006421413 -0.018300435 -0.017267535 -0.009566912 -0.03124117 -0.0004941879
-0.013699021 -0.08767057 0.030235058 -0.0063371155 -0.032625746 -0.026016435 -0.06321894 -0.008957077
-0.021070415 0.009601311 -0.062348224 -0.03781443 -0.0007725088 -0.02520871 -0.026646104 0.019957421
-0.069946125 -0.0076035745 0.008254743 -0.0135367885 0.0029763815 -0.03231631 -0.015220771 -0.013705965
-0.04749373 -0.034686696 -0.0020634441 0.014143191 -0.009294187 -0.08589294 0.020891288 0.028845228
-0.011667444 -0.030149573 -0.007618105 0.007536372 0.019562459 -0.033486474 -0.009384447 0.042036615
0.021091595 -0.00046904426 -0.019247057 0.055295847 -0.011610895 -0.0013519278 -0.007237174 0.019957574
-0.01815932 -0.033090595 -0.0046742233 0.0026666636 -0.009359738 -0.018073997 0.00078893994 0.0054584444
-0.034944642 0.012448638 -0.0027746984 0.021320703 -0.021321911 -0.01900391 -0.015623738 -0.0013502616
-0.0016145569 0.009519012 0.037505515 -0.011230404 -0.0025205787 -0.02217878 -0.038511395 -0.0061235973
-0.018236632 -0.019684855 0.00246867 -0.0067905043 0.03056431 -0.054887053 0.0049810708 -0.007558042
-0.034647446 -0.01887923 -0.015798686 0.00030148795 -0.041794863 0.01882047 -0.023937793 -0.020767005
-0.04902522 -0.023672624 0.011361683 -0.045849778 -0.0054001664 -0.011649916 -0.0038717652 -0.012730921
0.004468496 -0.016832726 -0.010273398 0.002155833 0.0019939996 -0.04679644 -0.014999162 -0.034033157
-0.01662743 -0.013465629 -0.010528824 -0.02894824 -0.002012017 -0.0028808543 -0.05324928 0.006653149
-0.065159984 0.018102152 0.021741029 -0.015807727 0.011829489 -0.03417754 0.014048395 0.028967256
-3.445199e-05 -0.0136835035 -0.02305895 -0.017646758 -0.08187335 0.030188765 -0.0060690446 0.03899775
00000000: e837 84bb cb65 82bc 1fbc 28bc f553 f439
00000010: 3502 0bbd f078 b33c b5c5 88bc de34 85bc
00000020: bf88 49bc c192 e03b 78fc c53c 543b 4abd
00000030: 84bf 423d ed61 84bc e6f6 2fbd 87a6 21bc
00000040: 2050 2bbc d662 ebbc d693 35bc d297 b9bb
00000050: 9aa3 653c 2756 a1bc 3e04 85bc cf72 27bb
00000060: 1c0d a63b a6f3 2d3c 0f2a 083b 2abd eabb
00000070: 238b cbbc 74f3 8e3c cce8 9a3c 3176 483c
00000080: 91e2 69ba e6e2 84bc 72c3 12bd 2b0a 0d3c
00000090: 4b72 7ebd 1847 a53b 3870 c63c c08b eabb
000000a0: 5dcf f6bb 77be 89bc 70ac bcbb 5702 feb8
000000b0: 832d 3dbc 4b9d 863b 613e 50bd 5cda e4bc
000000c0: 8ce7 7c3b 6a2f 103d a4ab d8bc 4905 5e3c
000000d0: 04cc 3dbd 8060 af3c 4d4a 2abd da46 60bd
000000e0: 4681 b2bc 86a5 9f3b 01a2 babc bd37 1fbc
000000f0: 134d 79bd 92b3 5fbc 4459 54bc 0be7 dcbb
00000100: c876 6dbb 8f02 5bbc abd6 36bc a6e0 e3bb
00000110: a9c2 8a3b 3874 afbb 8e4b b03b 7979 c93b
00000120: f3f9 813c 73db 2ebd 5745 3dbd 58e5 cd3c
00000130: 4e32 5ebc b5b2 9bbc bd57 04bd 93a8 b13c
00000140: c9f2 02bc 76d5 2bbc 4a5d 34bc 1794 bf3a
00000150: 00b5 c3bc c3d4 cbbb 431e 7cbc a346 aaba
00000160: db37 c7bc 5e79 703c 3177 783b 5d81 9f3c
00000170: e2f2 c23c 7aea ed3c 9ce0 abbc cf1b 38bd
00000180: 0c30 a1bc 317a 2ebb ab20 38bd 951c 26bb
00000190: e726 89bc 1618 6fbb fca8 5fbb 19df 2c3d
000001a0: 41c0 34bc 38ec 82bb 70c2 47ba c9c7 fcbb
000001b0: e7fd 2ebb ceb3 17bd 56d6 2abd 1295 03bc
000001c0: 2f2b 6cbc 4ab5 9cba 17b1 bfbc bf1a 3b3c
000001d0: 7047 64bb bb1a aa3c 5979 11bc 654f dd3b
000001e0: 48b5 14bc b364 cdbb b76a d2bb cbea 95bc
000001f0: a574 8dbc 8abe 1cbc 7bed ffbc 638c 01ba
00000200: dc71 60bc a18c b3bd 83af f73c 94a7 cfbb
00000210: 93a2 05bd 6b20 d5bc ee78 81bd b4c0 12bc
00000220: dd9b acbc d14e 1d3c da60 7fbd 4ee3 1abd
00000230: 3082 4aba 7f82 cebc ee48 dabc bf7d a33c
00000240: ea3f 8fbd 6827 f9bb e73e 073c 68c9 5dbc
00000250: 650f 433b 1b5e 04bd 8a60 79bc fc8e 60bc
00000260: c988 42bd a313 0ebd d93a 07bb d8b8 673c
00000270: a546 18bc a3e8 afbd 3524 ab3c d44c ec3c
00000280: cf28 3fbc 3dfc f6bc 4ca1 f9bb acf3 f63b
00000290: 7341 a03c 1d29 09bd 39c1 19bc 962e 2c3d
000002a0: 48c8 ac3c 0eea f5b9 01ac 9dbc e67d 623d
000002b0: a03b 3ebc 2b33 b1ba d125 edbb 117e a33c
000002c0: dbc2 94bc 018a 07bd 3a2a 99bb 31c3 2e3b
000002d0: 9659 19bc eb0f 94bc ddd0 4e3a c0dc b23b
000002e0: 1d22 0fbd 5ff5 4b3c b7d7 35bb c1a8 ae3c
000002f0: 4aab aebc 16ae 9bbc b5fa 7fbc 43fb b0ba
00000300: 8a9f d3ba a1f5 1b3c 629f 193d baff 37bc
00000310: 4b30 25bb 46b0 b5bc 20be 1dbd 75a8 c8bb
00000320: fd64 95bc 2242 a1bc 69c9 213b e182 debb
00000330: 0162 fa3c 3fd1 60bd 4038 a33b 74a9 f7bb
00000340: 7bea 0dbd 9da8 9abc 3f6c 81bc 0711 9e39
00000350: 1731 2bbd 632d 9a3c 3119 c4bc 911f aabc
00000360: abce 48bd 17ed c1bc 5a26 3a3c facc 3bbd
00000370: e1f3 b0bb 4adf 3ebc 71bd 7dbb 5a95 50bc
00000380: 766c 923b c9e4 89bc c151 28bc e048 0d3b
00000390: c3ad 023b a0ad 3fbd 0cbf 75bc 5a66 0bbd
000003a0: 4036 88bc f19e 5cbc 1781 2cbc dc24 edbc
000003b0: 0bdc 03bb b7cc 3cbb eb1b 5abd a902 da3b
000003c0: 9972 85bd f74a 943c 3e1a b23c 357f 81bc
000003d0: 79d0 413c c0fd 0bbd 3d2b 663c bd4c ed3c
000003e0: 8b80 10b8 c630 60bc 20e6 bcbc ef8f 90bc
000003f0: 37ad a7bd 6e4e f73c d6de c6bb 1bbc 1f3d

network_body._body_endoder.seq_layers.2.bias f4 [128]
-0.03208031 0.014312763 0.01789827 -0.01444709 -0.013305353 -0.025310785 0.04227115 -0.005470624
0.012100612 -0.047645923 -0.05197914 -0.007168947 0.030071694 0.011410682 -0.032248903 -0.012923969
-0.054343585 -0.045766756 0.02573165 0.015602887 -0.06541145 0.022209024 -0.027657056 0.04372568
0.027528564 0.02828951 -0.023543783 0.013544038 0.054064974 0.03337979 -0.008712259 -0.019487945
0.01919492 -0.056719307 0.040100694 -0.027575355 -0.017067613 0.06730867 0.0023999757 -0.020643104
0.069859296 -0.0021815442 -0.077800155 -0.063843645 0.047696766 -0.032152098 -0.021333758 0.074443
-0.031461563 -0.020180074 0.043309912 -0.078187294 -0.033530228 -0.031910595 -0.0441109 -0.022956476
-0.020184292 -0.0015826324 0.048955236 0.006465116 0.029795626 -0.042691145 -0.023553418 0.003969165
-0.06000897 -0.014783276 0.039298348 -0.050332915 0.10588016 -0.008657497 0.013629924 -0.021054445
-0.004673291 0.050995037 0.010487412 -0.0035543973 0.016717203 0.03809057 0.06226443 -0.068038955
0.020281032 -0.040329587 0.12668896 0.011903243 0.0045795934 -0.025631094 0.022361005 0.023171
-0.02563294 0.016847735 0.030834576 0.020410093 0.032859392 0.017865824 0.049976464 0.029038118
-0.053557105 0.023807876 -0.026558282 0.042027455 0.08849999 0.0023961074 0.02056984 0.011476632
0.040770054 0.010658869 0.023695007 -0.04184971 0.041478883 -0.11547468 0.005622952 0.058949873
0.0073600505 0.005901199 -0.0023282983 -0.016895529 -0.011839594 0.0023664515 -0.062097136 0.012928635
0.049883947 0.03014285 -0.039049175 -0.02394963 -0.024747321 0.04584551 0.1237704 -0.012667934
00000000: a566 03bd 1480 6a3c 659f 923c 7db3 6cbc
00000010: b2fe 59bc 9058 cfbc 8324 2d3d ec42 b3bb
00000020: a541 463c 5f28 43bd 14e8 54bd 7ce9 eabb
00000030: ea58 f63c dff3 3a3c 6d17 04bd 0ebf 53bc
00000040: 6197 5ebd ec75 3bbd 2ecb d23c 40a3 7f3c
00000050: 70f6 85bd b3ef b53c 0d91 e2bc b319 333d
00000060: 9583 e13c 67bf e73c e4de c0bc d0e7 5d3c
00000070: 3c73 5d3d 3fb9 083d ddbd 0ebc 2fa5 9fbc
00000080: aa3e 9d3c 8152 68bd a040 243d b6e5 e1bc
00000090: 61d1 8bbc 21d9 893d e948 1d3b ba1b a9bc
000000a0: 6412 8f3d 3df8 0ebb b055 9fbd 75c0 82bd
000000b0: af5d 433d ebb1 03bd 22c4 aebc 9275 983d
000000c0: d7dd 00bd af50 a5bc bc65 313d a920 a0bd
000000d0: fe56 09bd afb4 02bd a2ad 34bd 380f bcbc
000000e0: 8759 a5bc 5570 cfba 4985 483d 53d9 d33b
000000f0: f515 f43c e9dc 2ebd 19f3 c0bc c50f 823b
00000100: f7cb 75bd 8e35 72bc 4ef7 203d e329 4ebd
00000110: b3d7 d83d 2dd8 0dbc 0b50 5f3c 5f7a acbc
00000120: 6822 99bb 2ce0 503d 65d3 2b3c e4f0 68bb
00000130: 84f2 883c dc04 1c3d fd08 7f3d 0258 8bbd
00000140: 6824 a63c a330 25bd c0ba 013e d205 433c
00000150: 6a10 963b 4df8 d1bc 6d2e b73c 1cd1 bd3c
00000160: 2cfc d1bc 4304 8a3c cb98 fc3c 1133 a73c
00000170: 9297 063d 595b 923c 1fb4 4c3d 59e1 ed3c
00000180: b25e 5bbd bc08 c33c c190 d9bc fb24 2c3d
00000190: 7c3f b53d 0308 1d3b 1582 a83c 7c08 3c3c
000001a0: 80fe 263d 89a2 2e3c 081c c23c 9a6a 2bbd
000001b0: c3e5 293d fd7d ecbd bd40 b83b 6c75 713d
000001c0: 942c f13b d85e c13b 5d96 18bb 7e68 8abc
000001d0: dbfa 41bc 7816 1b3b 9159 7ebd a0d2 533c
000001e0: 1c53 4c3d 23ee f63c 07f2 1fbd 0432 c4bc
000001f0: e5ba cabc 80c8 3b3d 567b fd3d 2b8d 4fbc

network_body._body_endoder.seq_layers.2.weight f4 [128, 128]
0.13681456 0.04918752 -0.04762449 0.07976733 -0.012551898 -0.24844429 -0.12671748 -0.08413419
0.11448403 0.12451559 0.03142611 0.07347061 0.13184649 0.04572738 0.092511185 0.17795496
0.007280848 0.12732935 -0.09905505 -0.082528636 0.012270133 0.011057063 0.20150517 0.054061234
-0.039723925 -0.05231965 -0.092109755 0.11442536 0.07511969 -0.15359055 -0.21469574 -0.02289793
0.0037967274 -0.17605324 -0.0004100047 0.060039286 -0.11776259 0.20732123 0.097891755 -0.038327385
-0.06460286 -0.020689918 0.14653045 0.044551354 0.0055559087 -0.048977718 -0.11094658 -0.1510838
-0.09420928 -0.030866217 0.15113476 -0.054167535 0.1166687 0.014712598 0.06081646 -0.0011374927
-0.114557214 -0.06242545 -0.17548788 -0.015016923 -0.0060308925 0.13294613 -0.07244976 -0.057233483
-0.03639071 0.032562383 -0.051500276 -0.12842557 -0.1283207 -0.022854375 -0.13028559 -0.086917765
0.06461995 0.18270583 -0.014888479 -0.08418668 -0.20949996 0.04721804 -0.010937456 -0.017500905
-0.1356744 0.21388128 0.056356963 0.010260585 -0.13914724 0.031439923 -0.022063931 0.153199
0.061940704 0.0036113875 0.052816764 0.08800976 -0.03604459 0.18877006 -0.1681968 -0.011198797
0.16106366 0.114400014 -0.03453261 -0.055621654 -0.12751931 -0.08163927 0.18581276 0.09985626
-0.01251099 -0.052728944 0.114315614 -0.038379576 -0.18532431 -0.048485994 -0.021611735 -0.12180735
0.02126268 0.023789417 -0.04114145 -0.031621445 0.24126206 -0.056845296 -0.12321424 0.09380924
0.17479728 0.18426514 -0.12080028 0.11459835 0.035867937 0.22960447 0.049043983 -0.057325784
0.010943235 0.13702418 -0.12578732 -0.11447712 -0.03180869 -0.0041554184 -0.035301775 0.038375422
0.175442 0.00023436404 0.009698667 -0.08839838 -0.13179299 0.046070337 -0.09593391 0.09163194
0.095321044 -0.075791 -0.17040437 0.011820764 -0.068443686 -0.06055037 -0.09751746 0.18085982
-0.067218326 -0.07323594 -0.0015620326 -0.037397083 -0.068183176 -0.1604711 0.07232034 -0.014823444
0.10356123 -0.0881713 -0.16581754 0.024951968 0.116161995 0.18249482 -0.15045467 -0.12790339
-0.0046113166 0.066305116 -0.042495813 -0.0039969687 -0.006309236 -0.013391751 -0.13430482 -0.009488968
0.0237006 -0.13693185 -0.06654692 0.061205514 -0.05919728 0.027514461 -0.071563266 0.06793029
0.07511421 0.062251892 -0.11099217 -0.063546605 -0.20543258 -0.051695984 -0.08101374 0.15352021
0.09531282 -0.023640998 -0.0440671 -0.036636367 -0.03473388 -0.07186289 0.10936335 -0.017263802
-0.07859196 -0.13088098 0.10904734 -0.012265781 -0.015308204 0.09698443 0.10963134 0.13662441
0.05845806 0.044551153 0.071149215 -0.112212844 0.0573083 -0.048663955 0.026446473 0.13662477
0.12614666 0.123795 -0.07578727 -0.15762958 -0.041895565 0.061623365 -0.16223328 -0.065231614
-0.06334438 -0.038966514 -0.22164741 -0.15949285 -0.15785187 0.015796492 0.069426835 -0.008461446
-0.08406915 0.0367516 0.16040993 -0.09932191 0.0454656 -0.14441149 -0.058801655 0.0012094511
0.06077489 0.035859745 -0.06228032 0.026658256 -0.067963466 0.14641267 0.045797385 0.048518617
-0.06933649 0.060240895 -0.056886338 0.047017284 0.028255414 -0.07679122 0.025180968 0.0704484
00000000: 1e19 0c3e da78 493d e611 43bd 0e5d a33d
00000010: 7aa6 4dbc 2e68 7ebe 3ac2 01be 8c4e acbd
00000020: 9a76 ea3d 0802 ff3d aab8 003d c277 963d
00000030: c402 073e a24c 3b3d 8176 bd3d d339 363e
00000040: 2e94 ee3b a062 023e 60dd cabd c604 a9bd
00000050: ab08 493c af28 353c 5f57 4e3e 506f 5d3d
00000060: 8eb5 22bd 214d 56bd 0aa4 bcbd d857 ea3d
00000070: 5ad8 993d d746 1dbe 33d9 5bbe 7194 bbbc
00000080: 84d2 783b 4d47 34be e6f5 d6b9 c1eb 753d
00000090: 832d f1bd 044c 543e 797b c83d 2dfd 1cbd
000000a0: 814e 84bd e77d a9bc 140c 163e 7b7b 363d
000000b0: 570e b63b dc9c 48bd f637 e3bd b6b5 1abe
000000c0: ccf0 c0bd 26db fcbc 12c3 1a3e c7de 5dbd
000000d0: 00f0 ee3d 1c0d 713c ae1a 793d ec17 95ba
000000e0: f99c eabd d4b1 7fbd 18b3 33be 8a09 76bc
000000f0: cb9e c5bb 0823 083e 8a60 94bd a86d 6abd
00000100: 6d0e 15bd 2260 053d f4f1 52bd fe81 03be
00000110: 8066 03be 1939 bbbc 9669 05be f101 b2bd
00000120: 7757 843d 3d17 3b3e cfee 73bc 116a acbd
00000130: 2887 56be b467 413d 0433 33bc 0f5e 8fbc
00000140: 3bee 0abe b203 5b3e 8fd6 663d 031c 283c
00000150: 9d7c 0ebe 26c7 003d 6bbf b4bc 33e0 1c3e
00000160: 89b5 7d3d 07ad 6c3b 6456 583d 763e b43d
00000170: 7ea3 13bd f04c 413e c83b 2cbe 297b 37bc
00000180: dfed 243e 8e4a ea3d 1172 0dbd 88d3 63bd
00000190: 6c94 02be 7d32 a7bd b345 3e3e 7081 cc3d
000001a0: e5fa 4cbc 4efa 57bd 4e1e ea3d e733 1dbd
000001b0: a8c5 3dbe 4099 46bd 180b b1bc 2276 f9bd
000001c0: 122f ae3c 06e2 c23c f083 28bd 7d85 01bd
000001d0: 670d 773e 9dd6 68bd bf57 fcbd 0f1f c03d
000001e0: 0ffe 323e 00b0 3c3e 2366 f7bd 8ab2 ea3d
000001f0: 42ea 123d 6f1d 6b3e 58e2 483d 71ce 6abd
00000200: 414b 333c 1150 0c3e 64ce 00be fb72 eabd
00000210: d449 02bd 2d2a 88bb 9898 10bd 8c2f 1d3d
00000220: 11a7 333e 9ebf 7539 28e7 1e3c 360a b5bd
00000230: bef4 06be 40b4 3c3d ff78 c4bd 87a9 bb3d
00000240: ae37 c33d 5038 9bbd 7c7e 2ebe e1ab 413c
00000250: 342c 8cbd aa03 78bd 3cb7 c7bd 5133 393e
00000260: c3a9 89bd b9fc 95bd 1ebd ccba af2d 19bd
00000270: 9fa3 8bbd 8952 24be b01c 943d 08de 72bc
00000280: e917 d43d 2893 b4bd 13cc 29be 1268 cc3c
00000290: 57e6 ed3d ecdf 3a3e ca10 1abe 1bf9 02be
000002a0: 871a 97bb faca 873d 1710 2ebd 01f9 82bb
000002b0: b5bd cebb 1369 5bbc 3487 09be 9e77 1bbc
000002c0: c327 c23c dd37 0cbe c049 88bd a2b2 7a3d
000002d0: d978 72bd 0266 e13c c38f 92bd 091f 8b3d
000002e0: 7bd5 993d d7fb 7e3d dd4f e3bd b924 82bd
000002f0: eb5c 52be 2bbf 53bd 88ea a5bd 6734 1d3e
00000300: 5e33 c33d c4aa c1bc b47f 34bd 0410 16bd
00000310: 1d45 0ebd da2c 93bd e4f9 df3d d16c 8dbc
00000320: d2f4 a0bd aa05 06be 3654 df3d 6af6 48bc
00000330: 43cf 7abc c69f c63d 6586 e03d 45e7 0b3e
00000340: b871 6f3d 457b 363d aeb6 913d d9cf e5bd
00000350: 1cbc 6a3d db53 47bd 46a6 d83c 5de7 0b3e
00000360: 972c 013e 3c88 fd3d 5b36 9bbd a669 21be
00000370: af9a 2bbd c868 7c3d 7b20 26be 2798 85bd
00000380: b3ba 81bd 5a9b 1fbd 8af7 62be 1852 23be
00000390: eca3 21be a567 813c a82f 8e3d e0a1 0abc
000003a0: 722c acbd d988 163d 8042 243e 4969 cbbd
000003b0: 233a 3a3d 9be0 13be 01da 70bd 7286 9e3a
000003c0: 17ef 783d abe1 123d a619 7fbd 6a62 da3c
000003d0: 6e30 8bbd 34ed 153e 0a96 3b3d 75bb 463d
000003e0: 4a00 8ebd 28bf 763d a601 69bd 3295 403d
000003f0: e677 e73c b744 9dbd 5148 ce3c 4047 903d
