results/playPoker5/MoveToBet/MoveToBet-5251.onnx (onnx, 768393 bytes, 7 tensors)

action_model._continuous_distribution.log_sigma f4 [1, 17]
0.014581955 0.00017740055 0.047487218 0.023436498 0.016762234 -0.0015941358 -0.0057337377 -0.025472866
0.017419122 0.011639348 0.035900936 -0.0063674184 -0.01792762 -0.0026624193 -0.02473898 -0.007859128
-0.05289969
00000000: 27e9 6e3c 9904 3a39 f581 423d e6fd bf3c
00000010: f450 893c 52f2 d0ba 14e2 bbbb 79ac d0bc
00000020: 8cb2 8e3c f7b2 3e3c dc0c 133d c7a5 d0bb
00000030: f2dc 92bc fc7b 2ebb 67a9 cabc 92c3 00bc
00000040: 58ad 58bd

action_model._continuous_distribution.mu.bias f4 [17]
-0.0108042145 -0.0017519341 0.005139475 0.0053164926 -0.022917634 0.007852019 0.007088657 -0.013937086
-0.009187849 0.030730907 -0.0071846666 0.018095057 0.00088047603 -0.014085416 -0.009920442 -0.012168691
-0.00026500234
00000000: 2904 31bc 27a1 e5ba 0b69 a83b f935 ae3b
00000010: c3bd bbbc c1a5 003c f747 e83b 6058 64bc
00000020: a288 16bc 62bf fb3c 5a6d ebbb 163c 943c
00000030: bfcf 663a 84c6 66bc 5989 22bc 305f 47bc
00000040: 03f0 8ab9

action_model._continuous_distribution.mu.weight f4 [17, 128]
0.018272616 -0.021036578 -0.017639788 -0.032716915 0.0035122507 0.029178765 0.0141291665 -0.012899766
0.008389858 0.007814707 0.014722515 0.0091974335 -0.012090363 0.03006805 -0.032005683 0.018337432
-0.020722399 0.036740627 0.013607108 0.016206801 -0.010717249 0.02282558 -0.018964155 -0.026968043
-0.048142966 -0.015972879 -0.042002402 0.040043946 0.029706046 0.04405417 -0.032722667 0.0011432768
-0.032165613 0.038068645 0.019380923 -0.0047803936 -0.0128084365 0.035401452 -0.0074000023 0.046279386
-0.007965981 -0.00056815124 -0.0011483127 0.019108914 -0.009699716 -0.028560126 0.013982097 0.026790021
-0.02915558 -0.011047372 -0.012662909 -0.0036624037 0.006818702 -0.026286742 -0.02146885 -0.032073345
-0.0014637694 0.0120695485 -0.0030662965 -0.0053273193 0.026643023 0.014717183 -0.02475698 0.013841714
0.02247542 0.0015020077 0.016733652 0.015568338 -0.031025631 0.0037790525 0.009232428 -0.02710359
0.009255368 -0.025282763 -0.011618422 -0.003912985 -0.030444792 -0.02321951 0.033837356 -0.005588806
-0.0029018354 0.0006899192 0.013698834 -0.0023383596 -0.00048360406 -0.012262472 -0.003920148 -0.043157052
0.026653409 -0.06292242 -0.0047401832 -0.0151811745 0.027976023 -0.03144135 -0.045800485 -0.0066260793
-0.0625097 -0.044267748 -0.0063337833 0.0003059626 -0.022837432 0.025508111 0.03972742 0.020361511
0.0043059457 0.008809029 -0.040923934 0.004496044 0.016690288 0.010835206 0.032326084 0.013220889
0.024838692 -0.0018872061 -0.01829613 0.009876776 -0.0038749352 -0.022917852 -0.012595971 -0.045195617
0.02552961 0.007716659 0.005420024 0.0030274158 -0.04381765 -0.031089298 -0.012745341 -0.0010635552
0.0016344606 -0.018908892 0.01100689 -0.007945884 0.0036207922 0.041643783 0.0020101478 0.0041947854
-0.01655683 -0.015468071 -0.010795551 0.0014662589 0.010341952 0.010296055 0.008262943 -0.0038838885
-0.028068945 0.005400805 0.023847941 0.013612048 0.012478612 -0.016297871 -0.010129936 -0.02504067
-0.011930957 -0.029919252 0.0003208296 -0.0064323456 0.0023897847 -0.0091182515 0.0003347219 0.00029505923
0.00034650858 -0.0034846696 -0.031337447 -0.018576816 0.008557882 0.010422057 0.012163347 -0.006169421
0.033267327 -0.018769434 0.0007149445 0.0012398534 -0.0004080796 -0.015661858 -0.002185665 -0.029222142
-0.015474653 0.0058016167 0.028946716 -0.018359581 -0.033308845 0.0013113348 0.0038417024 -0.034261394
-0.009814933 -0.015383567 -0.01641043 0.038514066 -0.007328629 0.00089885166 -0.0064110607 -0.004741132
0.013367526 -0.0115525825 -0.016498653 -0.0081379805 -0.005389517 0.013411834 -0.010205894 -0.0020823777
-0.006710963 0.014643496 -0.003899372 -0.010361918 -0.0017600458 -0.010123057 -0.016874736 -0.02361174
0.039841406 -0.010222626 -0.011707828 -0.029956328 0.0027947894 0.018460365 -0.0024050816 -0.0031390009
-0.0029743372 0.0019711088 -0.01288279 0.020057308 0.004772232 0.051094543 0.016647758 -0.0026603602
0.003507761 -0.009504047 0.015335089 -0.0029208774 0.0018250768 -0.0020483176 0.0062404214 -0.02274872
0.0043141693 -0.009748806 -0.014237127 -0.01542217 -0.012184553 0.014965513 0.00041946318 -0.017024292
0.042755514 0.006419832 -0.010226844 0.004162881 -0.003687682 0.017472256 0.009577363 0.0013339925
0.03190295 -0.04602218 -0.0041794954 -0.02018701 -0.007250559 -0.0019944247 -0.016026208 -0.0034497294
00000000: 74b0 953c e754 acbc 5181 90bc 2c02 06bd
00000010: ca2d 663b 4e08 ef3c 057e 673c 8a59 53bc
00000020: 9d75 093c 4209 003c b436 713c d5b0 163c
00000030: a816 46bc 4551 f63c 6418 03bd 6238 963c
00000040: 05c2 a9bc 577d 163d 59f0 5e3c 20c4 843c
00000050: 6697 2fbc b6fc ba3c b75a 9bbc 16ec dcbc
00000060: 8f31 45bd 8ed9 82bc b60a 2cbd 1f05 243d
00000070: 185a f33c 2572 343d 3408 06bd 01da 953a
00000080: 17c0 03bd deed 1b3d bec4 9e3c d9a4 9cbb
00000090: 7ada 51bc 1d01 113d b87b f2bb 748f 3d3d
000000a0: bf83 02bc fcef 14ba fb82 96ba 4c8a 9c3c
000000b0: 8feb 1ebc edf6 e9bc 2a15 653c bf76 db3c
000000c0: afd7 eebc 0900 35bc 1778 4fbc f004 70bb
000000d0: 6b6f df3b 4b57 d7bc 71df afbc 575f 03bd
000000e0: f3db bfba 5bbf 453c ebf3 48bb cb90 aebb
000000f0: 7842 da3c 5720 713c 26cf cabc 5bc8 623c
00000100: 5f1e b83c 04df c43a 0315 893c 5812 7f3c
00000110: 7729 febc fba9 773b 9c43 173c 5908 debc
00000120: d4a3 173c cc1d cfbc 325b 3ebc 7f38 80bb
00000130: 5b67 f9bc d836 bebc 0a99 0a3d 4d22 b7bb
00000140: b82c 3ebb b2db 343a 1371 603c 2a3f 19bb
00000150: 3d8c fdb9 89e8 48bc 9674 80bb 73c5 30bd
00000160: 4058 da3c 78dd 80bd 8a53 9bbb 76ba 78bc
00000170: f92d e53c a5c8 00bd 4a99 3bbd 951f d9bb
00000180: 1605 80bd 1952 35bd a08b cfbb 9b69 a039
00000190: 9115 bbbc 63f6 d03c 38b9 223d 2fcd a63c
000001a0: e418 8d3b bf53 103c db9f 27bd 8d53 933b
000001b0: 12ba 883c 2686 313c 5b68 043d 6d9c 583c
000001c0: 837a cb3c 215c f7ba c4e1 95bc 33d2 213c
000001d0: a0f2 7dbb 38be bbbc 555f 4ebc 0a1f 39bd
000001e0: 7923 d13c 07dc fc3b 759a b13b 9c67 463b
000001f0: 237a 33bd fcae febc d6d1 50bc fe66 8bba
00000200: 663b d63a d2e6 9abc 3e56 343c 742f 02bc
00000210: d04a 6d3b ac92 2a3d afbc 033b 6974 893b
00000220: 30a2 87bc cb6d 7dbc d3df 30bc 7c2f c03a
00000230: 4a71 293c c9b0 283c 4b61 073c d688 7ebb
00000240: d8f0 e5bc 3cf9 b03b c25c c33c 1105 5f3c
00000250: 1873 4c3c 1d83 85bc 08f8 25bc 1722 cdbc
00000260: 107a 43bc 3819 f5bc 0535 a839 6dc6 d2bb
00000270: ef9d 1c3b b864 15bc 9d7d af39 2eb2 9a39
00000280: 98ab b539 0e5f 64bb b25b 00bd 682e 98bc
00000290: 5c36 0c3c 46c1 2a3c c648 473c db28 cabb
000002a0: 5243 083d 5bc2 99bc 1d6b 3b3a 9482 a23a
000002b0: 84f3 d5b9 4c4d 80bc 603d 0fbb 4663 efbc
000002c0: 6689 7dbc 7d1b be3b aa21 ed3c d566 96bc
000002d0: db6e 08bd 18e1 ab3a 12c5 7b3b ad55 0cbd
000002e0: d0ce 20bc 5b0b 7cbc 2b6f 86bc edc0 1d3d
000002f0: ff24 f0bb eaa0 6b3a e013 d2bb 7f5b 9bbb
00000300: 7803 5b3c 0b47 3dbc 2f28 87bc 2a55 05bc
00000310: 8c9a b0bb 4fbd 5b3c 9f36 27bc 8078 08bb
00000320: a3e7 dbbb 46eb 6f3c 9b8c 7fbb 09c5 29bc
00000330: 56b1 e6ba 2edb 25bc e33c 8abc 686d c1bc
00000340: be30 233d cd7c 27bc 31d2 3fbc f966 f5bc
00000350: c928 373b 313a 973c 939e 1dbb b2b7 4dbb
00000360: 19ed 42bb b82d 013b 5612 53bc 394f a43c
00000370: 6260 9c3b 8348 513d e160 883c 7059 2ebb
00000380: 77e2 653b ddb6 1bbc 0640 7b3c 316c 3fbb
00000390: 6a37 ef3a 113d 06bb 737c cc3b 865b babc
000003a0: e05d 8d3b 75b9 1fbc d742 69bc 45ad 7cbc
000003b0: b8a1 47bc e931 753c 65eb db39 8776 8bbc
000003c0: 6820 2f3d 745d d23b 7e8e 27bc c768 883b
000003d0: 0aad 71bb fa21 8f3c 5fea 1c3c 5cd9 ae3a
000003e0: abac 023d c181 3cbd 26f4 88bb 3a5f a5bc
000003f0: 1996 edbb e5b4 02bb 6549 83bc db14 62bb

network_body._body_endoder.seq_layers.0.bias f4 [128]
-0.019817328 0.008521755 -0.012924891 -0.032323644 -0.0041652606 0.01459754 -0.008908076 0.0065246546
-0.0036731828 0.013319316 -0.0012721027 0.024712577 -0.0010962175 -0.006873321 0.004386319 0.014246899
0.0014536541 0.003364883 -0.016254658 -0.010167379 -0.005564845 -0.027089221 -0.0066369656 -0.030043593
-0.00030807513 0.006142255 -0.017635686 -0.009735057 0.008624743 0.0005323666 0.005805066 0.009501085
-0.0033733924 -0.0071513364 0.008291277 0.012680516 0.004338021 0.010488553 0.011921631 -0.017010441
-0.025214558 -0.0026245953 0.0070745116 0.0049014473 -0.021549376 -0.00824151 -0.0345367 -0.019157274
-0.010477648 0.009389946 0.0155535415 0.024622334 -0.01234751 0.01782786 0.015236345 -0.0131165935
0.049129166 0.00509413 0.016398478 0.009843262 0.0062325653 0.009760615 -0.0034371845 -0.0036373832
0.0025693658 0.013774155 0.00401202 -0.0062959036 0.019939749 0.01384581 0.025666598 -0.025015384
-0.00303133 0.0005491461 0.032108523 -0.02737146 0.009288244 0.0022315816 -0.04481412 0.0061046924
-0.018192917 0.016124854 0.0051250895 -0.0007015483 -0.023611719 -0.010164596 -0.012064233 -0.032257937
0.021502865 -0.02683181 0.01857829 -0.013599149 -0.01726583 -0.006419208 0.0048861145 -0.0031957736
0.0026309933 -0.011420635 0.0005249489 0.007140025 0.030568276 0.0008631207 0.0057894886 0.0137237
-0.0057406593 0.006391621 -0.023294752 0.013530814 -0.024299705 0.012058605 0.0057493644 0.009717096
0.029602444 0.009090851 -0.0134521285 0.012496222 0.0064814477 0.014936333 0.02934724 0.008640411
0.0075260927 0.020728046 -0.0073463013 0.005385795 0.003309884 -0.020645797 -0.0073529948 -0.012302543
00000000: f357 a2bc d59e 0b3c ecc2 53bc cc65 04bd
00000010: bd7c 88bb 852a 6f3c 2ef3 11bc c5cc d53b
00000020: c8b9 70bb 4339 5a3c afbc a6ba 0872 ca3c
00000030: f5ae 8fba 9839 e1bb 1cbb 8f3b d36b 693c
00000040: 8a88 be3a 5e85 5c3b 7d28 85bc 1495 26bc
00000050: 4e59 b6bb 37ea ddbc e77a d9bb fb1d f6bc
00000060: 2585 a1b9 f844 c93b b778 90bc ca7f 1fbc
00000070: cb4e 0d3c 858e 0b3a 6c38 be3b 70aa 1b3c
00000080: 2214 5dbb c255 eabb 23d8 073c f0c1 4f3c
00000090: f525 8e3b 2ed8 2b3c f252 433c 7b59 8bbc
000000a0: c38e cebc 6701 2cbb 4ed1 e73b 529c a03b
000000b0: 5188 b0bc 6607 07bc 5b76 0dbd b7ef 9cbc
000000c0: 71aa 2bbc 4ad8 193c 48d4 7e3c c7b4 c93c
000000d0: 364d 4abc bb0b 923c dda1 793c fbe6 56bc
000000e0: aa3b 493d a9ec a63b 1a56 863c a245 213c
000000f0: 8c3a cc3b fdea 1f3c 6342 61bb 2a61 6ebb
00000100: ce62 283b feac 613c 4377 833b de4d cebb
00000110: af58 a33c 89d9 623c c242 d23c 10ed ccbc
00000120: 47a9 46bb 92f4 0f3a 3a84 033d 1d3a e0bc
00000130: b82d 183c ba3f 123b 038f 37bd df09 c83b
00000140: 5009 95bc 4518 843c 5ef0 a73b 1ce8 37ba
00000150: 5d6d c1bc 6889 26bc 10a9 45bc e620 04bd
00000160: c726 b03c 62ce dbbc 7f31 983c f7ce 5ebc
00000170: 1271 8dbc 3858 d2bb b31b a03b 2f70 51bb
00000180: be6c 2c3b 9d1d 3bbc b99c 093a dff6 e93b
00000190: 526a fa3c 0d43 623a c0b5 bd3b 5fd9 603c
000001a0: 241c bcbb ce70 d13b a3d4 bebc 59b0 5d3c
000001b0: 2d10 c7bc 7591 453c 2a65 bc3b 7434 1f3c
000001c0: d380 f23c cbf1 143c 5166 5cbc f4bc 4c3c
000001d0: 5362 d43b 85b7 743c a069 f03c 8390 0d3c
000001e0: 719d f63b ddcd a93c 3eb9 f0bb 537b b03b
000001f0: a4ea 583b 6021 a9bc 64f1 f0bb 9b90 49bc

network_body._body_endoder.seq_layers.0.weight f4 [128, 1350]
0.0063774274 0.033540327 0.009445841 -0.0022358578 0.0022348496 -0.045552615 0.050629117 -0.0025515524
-0.02080525 0.025904763 -0.03444019 -0.028448127 -0.04182725 0.0022730604 -0.006868338 -0.030831294
0.0059722397 -0.028920574 0.04276077 -0.008188495 0.036171064 0.03360627 -0.0038140323 0.008806436
-0.0003356088 -0.017873716 0.004266676 0.0066859163 -0.016797993 -0.030540278 -0.008840542 0.005959363
0.017869098 -0.0041074185 -0.028082538 -0.040258367 -0.037673306 0.054403722 -0.026016317 0.06669717
-0.02807515 -0.017540194 0.035399772 -0.016139427 -0.021845492 0.021946225 0.02259652 -0.021315817
0.005743268 0.0048535285 -0.00359393 -0.047933232 0.016188854 -0.04924769 0.023975093 0.022065371
-0.011412786 -0.035832386 0.0119285565 -0.002789723 -0.0024157253 -0.026523482 0.007223333 -0.018577984
0.0076617273 0.021492196 0.040225014 0.01643605 0.016203307 -0.036338344 -0.008494651 -0.049746472
-0.025157193 -0.06275106 -0.0013356942 0.043306805 -0.05106777 0.04107257 -0.037754323 -0.0030319756
-0.0529612 0.016649177 -0.0062123835 -0.040875345 -0.032223146 0.035666205 -0.015571009 0.0030805012
-0.020221956 -0.03377522 -0.010962948 -0.03541613 -0.05105262 0.001438894 -0.009953388 -0.08140134
0.01811476 -0.047830034 0.0011099324 0.03679158 0.028793318 0.015810901 -0.032188546 0.017761048
-0.00074567774 -0.0051493985 -0.010525678 -0.018976867 0.015268571 0.012309168 0.012914874 0.011177463
-0.0022049374 -0.03534445 -0.011405605 0.012629446 0.023841243 -0.01734246 0.039002977 -0.060264647
-0.001780592 -0.044237126 0.018097054 0.006511546 -0.011551239 -0.002072493 -0.00030556 -0.040101387
0.036443997 -0.039821677 -0.0017269886 -0.012209394 0.015213438 0.023245921 -0.024169676 0.028536296
0.009240792 -0.029758237 0.030688152 0.036309768 -0.021851871 0.01659109 0.015410735 -0.036420133
-0.01313558 -0.04245588 -0.00867529 0.009509995 0.0128642805 -0.032135937 0.0022411088 -0.0037860442
-0.045400254 -0.008098885 -0.038704883 0.010077077 -0.035486173 -0.04073251 -0.031805154 -0.0022353304
-0.028123705 -0.03118873 0.054615963 -0.033984717 -0.057576135 -0.041206628 -0.033715244 0.0063024736
-0.025961407 0.013638757 -0.022815065 0.015760385 0.03363601 -0.011417299 0.0026229748 -0.007715415
0.0043949797 0.03308368 0.016809536 0.050266035 0.020270452 -0.06759314 -0.008352982 -0.029379329
-0.025176913 0.0028653822 -0.017729713 -0.04961426 -0.005335474 -0.029359095 -0.030692387 0.0107439775
0.016660405 0.040036757 -0.03511602 -0.029764498 -0.08451151 0.02861888 0.0045119394 -0.023414068
-0.033509765 -0.045740712 0.0055870707 -0.023280693 -0.0016162473 0.016923403 -0.033736154 0.044870805
-0.056253128 -0.0016719628 0.00670972 -0.014466781 -0.012364023 -0.0013570319 -0.0299253 0.04097522
0.0038887763 -0.032991823 0.006619948 0.014553282 0.047299977 -0.01015688 -0.012411023 -0.0010851941
0.039920118 -0.0003133065 -0.03844549 -0.0038023065 -0.037009455 -0.06879509 -0.035092197 0.004792272
-0.05548206 0.007709834 -0.019322054 -0.0027603204 -0.026552416 -0.0015333695 0.024491223 0.016553871
-0.02107961 -0.044021636 -0.04211562 0.0093747275 -0.0029014281 0.027901907 0.05271832 0.018670006
-0.009088318 0.027659839 0.060711384 -0.017543029 -0.013461937 0.0015716591 0.029311256 -0.026189197
00000000: bdf9 d03b 9561 093d bbc2 1a3c 7887 12bb
00000010: 8e76 123b 6195 3abd 7a60 4f3d f237 27bb
00000020: c66f aabc 3a36 d43c 2811 0dbd 0c0c e9bc
00000030: 0d53 2bbd a0f7 143b cc0f e1bb e991 fcbc
00000040: c7b2 c33b d7ea ecbc eb25 2f3d 0a29 06bc
00000050: 1c28 143d baa6 093d d8f4 79bb df48 103c
00000060: a7f4 afb9 e66b 92bc 79cf 8b3b 8815 db3b
00000070: f29b 89bc 9b2f fabc ecd7 10bc c346 c33b
00000080: 3762 923c 8697 86bb 5a0d e6bc f5e5 24bd
00000090: 534f 1abd 70d6 5e3d 2c20 d5bc 8798 883d
000000a0: dbfd e5bc 74b0 8fbc 5aff 103d d536 84bc
000000b0: 51f5 b2bc 92c8 b33c 561c b93c 829e aebc
000000c0: 0632 bc3b 590a 9f3b 2488 6bbb a355 44bd
000000d0: 7d9e 843c f2b7 49bd 6a67 c43c 70c2 b43c
000000e0: b2fc 3abc fbc4 12bd fe6f 433c c9d3 36bb
000000f0: 2551 1ebb c647 d9bc b6b1 ec3b db30 98bc
00000100: 3a0f fb3b 6710 b03c fcc2 243d e5a4 863c
00000110: ccbc 843c 84d7 14bd 262d 0bbc f5c2 4bbd
00000120: 7516 cebc a183 80bd 7612 afba 7a62 313d
00000130: 702c 51bd b63b 283d 47a4 1abd 1cb4 46bb
00000140: d8ed 58bd db63 883c 4091 cbbb e86c 27bd
00000150: 6bfc 03bd ba16 123d 8c1d 7fbc 3ce2 493b
00000160: 84a8 a5bc e357 0abd f09d 33bc 8110 11bd
00000170: 8d1c 51bd 4599 bc3a 8913 23bc bfb5 a6bd
00000180: 6865 943c 6de9 43bd 277b 913a c5b2 163d
00000190: f7df eb3c dd85 813c 23d8 03bd 9e7f 913c
000001a0: 9679 43ba 49bc a8bb e573 2cbc 6075 9bbc
000001b0: 0729 7a3c 65ac 493c e898 533c ae21 373c
000001c0: b680 10bb 58c5 10bd 93de 3abc bceb 4e3c
000001d0: b64e c33c c611 8ebc 96c1 1f3d 10d8 76bd
000001e0: c162 e9ba fd31 35bd 4640 943c cf5e d53b
000001f0: 6841 3dbc aad2 07bb 9233 a0b9 5a41 24bd
00000200: 4d46 153d 0e1c 23bd 1f5c e2ba e909 48bc
00000210: c941 793c 3b6e be3c 7cff c5bc f3c4 e93c
00000220: b166 173c 8cc7 f3bc b865 fb3c 8db9 143d
00000230: b202 b3bc 0aea 873c 4f7d 7c3c 472d 15bd
00000240: 9e36 57bc 38e6 2dbd ce22 0ebc cfcf 1b3c
00000250: b4c4 523c f9a0 03bd 91df 123b 481f 78bb
00000260: 9ef5 39bd 30b1 04bc 0389 1ebd 531a 253c
00000270: f359 11bd 22d7 26bd 1f46 02bd 9f7e 12bb
00000280: af63 e6bc 827f ffbc fdb4 5f3d 8f33 0bbd
00000290: f4d4 6bbd 48c8 28bd ff18 0abd fb84 ce3b
000002a0: 04ad d4bc 1875 5f3c a9e6 babc ec1b 813c
000002b0: eac5 093d 9f0f 3bbc 37e6 2b3b 98d1 fcbb
000002c0: c303 903b c182 073d 27b4 893c c2e3 4d3d
000002d0: 380e a63c 466e 8abd f2da 08bc ebac f0bc
000002e0: d03f cebc 23c9 3b3b e73d 91bc 5338 4bbd
000002f0: 33d5 aebb 7c82 f0bc 9a6e fbbc 8207 303c
00000300: 677b 883c 95fd 233d d1d5 0fbd add4 f3bc
00000310: 5f14 adbd 2472 ea3c e4d8 933b dcce bfbc
00000320: 8941 09bd 9d5a 3bbd bf13 b73b 27b7 bebc
00000330: 43d8 d3ba f3a2 8a3c ec2e 0abd 73ca 373d
00000340: ae69 66bd c325 dbba 36dd db3b 1406 6dbc
00000350: 7992 4abc 6fde b1ba e725 f5bc a2d5 273d
00000360: d7da 7e3b 6f22 07bd 26ec d83b e470 6e3c
00000370: 9fbd 413d 0b69 26bc 9a57 4bbc 123d 8eba
00000380: 4783 233d 4943 a4b9 0579 1dbd 1e30 79bb
00000390: 3a97 17bd 71e4 8cbd d6bc 0fbd 7e08 9d3b
000003a0: 2841 63bd c6a2 fc3b 4949 9ebc 7ee6 34bb
000003b0: 7484 d9bc 58fb c8ba d1a1 c83c fc9b 873c
000003c0: 25af acbc 0850 34bd 6e81 2cbd 7598 193c
000003d0: e325 3ebb 8a92 e43c 2aef 573d d7f1 983c
000003e0: 2be7 14bc e396 e23c 80ac 783d 66b6 8fbc
000003f0: 758f 5cbc 2100 ce3a 291e f03c ba8a d6bc

network_body._body_endoder.seq_layers.2.bias f4 [128]
-0.030432658 -0.0004412459 -0.02372913 0.010037213 -0.015468767 -0.0014128555 -0.01261895 0.021102086
-0.01033875 -0.0062067253 -0.008100392 0.0034370902 0.0065807514 -0.0020009296 0.00088102446 -0.0030403798
0.009810114 -0.02490784 -0.029954368 0.00010018855 -0.004540335 0.009933612 0.0032513933 0.0049332744
0.004155211 -0.00034729886 0.027905462 -0.03910346 -0.007105225 -0.0129734725 0.0050207884 0.00036697387
0.0016735991 0.008520903 0.009158122 -0.013001896 0.011009439 -0.0020820189 -0.0035881388 -0.015525051
-0.0014746712 -0.0015491784 -0.023178304 -0.004362276 0.0064103063 0.0035934113 0.012514817 -0.0064910864
0.027079215 0.0098380605 0.015060099 -0.00831405 -0.009013955 0.017061783 -0.0097904 0.013011195
-0.014647314 -0.012312091 -0.0009633401 -0.009351638 0.009213099 -0.015260803 0.0035391033 -0.014321124
0.029243473 -0.011301322 0.01630916 -0.016062122 0.0043163556 -0.005776899 0.01484748 0.005276035
-0.017890597 -0.011174832 0.012296042 0.013928442 0.028606026 -0.008100375 0.0061165188 0.009116226
-0.0071538864 -0.004226316 -0.0036284933 -0.006132155 -0.0018749175 0.011718892 0.00039382468 0.007730552
0.0027118176 0.015968334 0.0022520372 0.028364955 -0.012751717 -0.022353167 0.013429704 0.013900995
0.016077876 0.014682161 -0.0024163865 0.0059597045 0.017101945 -0.019741701 -0.009376728 -0.00041278268
-0.024437252 0.0062690726 0.001478427 -0.041953277 -0.022401879 -0.027225208 -0.036455825 0.0040459465
-0.011066539 7.567489e-05 0.013229167 -0.016921652 0.015929574 0.020261182 -0.009357235 -0.025110979
-0.0215013 0.01839342 -0.012049954 0.01785174 0.014449434 0.011857871 -0.021020385 -0.027727695
00000000: e94d f9bc 0657 e7b9 9863 c2bc 1f73 243c
00000010: b670 7dbc 902f b9ba b6bf 4ebc 48de ac3c
00000020: dc63 29bc c961 cbbb 82b7 04bc ce40 613b
00000030: 58a3 d73b 0722 03bb 8df4 663a 1c41 47bb
00000040: 9aba 203c 870b ccbc dd62 f5bc 511c d238
00000050: 17c7 94bb 97c0 223c 5415 553b 4ea7 a13b
00000060: 7028 883b aa15 b6b9 ff99 e43c f32a 20bd
00000070: f3d2 e8bb b08e 54bc 6d85 a43b 6666 c039
00000080: ab5c db3a 429b 0b3c f30b 163c e805 55bc
00000090: ef60 343c 7b72 08bb fb26 6bbb c95c 7ebc
000000a0: c149 c1ba cd0d cbba 6de0 bdbc 6cf1 8ebb
000000b0: 8c0d d23b 707f 6b3b f20a 4d3c 2eb3 d4bb
000000c0: 3bd5 dd3c d12f 213c a2be 763c a737 08bc
000000d0: 44af 13bc 27c5 8b3c ea67 20bc e82c 553c
000000e0: 4afb 6fbc a7b8 49bc a988 7cba 9d37 19bc
000000f0: 8af2 163c 7208 7abc 4df0 673b 26a3 6abc
00000100: 0290 ef3c 2e29 39bc ca9a 853c b694 83bc
00000110: 3770 8d3b 244c bdbb d842 733c 97e2 ac3b
00000120: 4d8f 92bc a416 37bc 5775 493c 1f34 643c
00000130: 2f57 ea3c 6fb7 04bc 146d c83b 395c 153c
00000140: 266b eabb e97c 8abb 04cc 6dbb 3ff0 c8bb
00000150: cbbf f5ba 9800 403c 417a ce39 9250 fd3b
00000160: c0b8 313b 06d0 823c ea96 133b 9f5d e83c
00000170: 94ec 50bc fd1d b7bc 4308 5c3c 00c1 633c
00000180: c0b5 833c 728d 703c 3d5c 1ebb a049 c33b
00000190: 6119 8c3c 59b9 a1bc d9a0 19bc c16a d8b9
000001a0: a230 c8bc cb6c cd3b c7c7 c13a 33d7 2bbd
000001b0: 2584 b7bc 6607 dfbc b452 15bd dc93 843b
000001c0: 6e50 35bc a6b3 9e38 26bf 583c 479f 8abc
000001d0: bd7e 823c c7fa a53c 174f 19bc 8ab5 cdbc
000001e0: 7f23 b0bc ccad 963c 2c6d 45bc d03d 923c
000001f0: 52bd 6c3c 8447 423c f132 acbc 3125 e3bc

network_body._body_endoder.seq_layers.2.weight f4 [128, 128]
-0.007212176 0.11288529 -0.037251703 0.119725145 0.192033 0.011679161 0.10416561 -0.0966113
0.038586717 0.048017263 -0.21652028 -0.23004103 0.11830049 0.034582105 0.031106433 -0.0051817903
-0.07674265 -0.14129345 0.0046118265 -0.08113646 -0.08595528 -0.089135855 0.05557491 0.15347455
0.107108735 0.07555611 -0.07972595 -0.07301354 -0.040458113 -0.22450197 -0.050598137 -0.111633316
0.017331267 0.03835973 0.055442024 -0.15460806 -0.06299533 0.023370434 0.0153453015 0.1366964
-0.111542255 -0.014853707 0.023406383 0.004724989 0.020500299 0.024135416 0.17281069 -0.0528797
0.016330492 -0.17186213 -0.023096299 -0.16460907 -0.16331156 0.0022773265 -0.13210294 0.013787747
0.039629407 0.18192777 -0.13133693 -0.018442089 -0.006085453 0.0649691 -0.09337206 0.088321924
-0.017370597 -0.023065256 0.01771687 -0.0015482723 -0.02743506 0.13825673 0.072138116 -0.09567803
0.1513138 0.02046295 -0.024129804 0.15715356 0.07767745 -0.11000621 0.08474984 -0.0099999895
-0.09257845 0.030491065 -0.034496173 -0.010110647 0.1772192 0.0064736996 -0.027116247 -0.06477714
0.085542895 0.03278016 -0.059844825 0.046624873 0.025501741 0.032877993 -0.017067084 -0.050468054
-0.00770154 -0.01868493 0.02209843 -0.058383778 0.08768571 -0.023128305 0.0043994538 -0.025869908
0.011068891 0.05101007 0.12629372 -0.05425707 0.18402809 0.038443122 0.072309636 -0.2879527
-0.16671748 -0.086496554 0.075542875 0.023479167 -0.10099314 -0.09269302 -0.028791256 -0.12492576
0.01800527 -0.18909863 0.22639823 -0.0009738508 0.03492409 0.031635784 0.084974065 -0.10942795
0.02668205 0.07687933 -0.102476135 -0.02093843 -0.048736196 0.005396856 0.17585665 0.08190147
0.06341254 -0.13664311 -0.07650664 -0.053462915 -0.047116846 -0.0724889 -0.084517 0.09915971
0.053266693 -0.052833073 0.037991244 0.11186952 -0.12085977 0.15623002 0.07397259 0.0029404322
-0.07323198 -0.0070785484 -0.06725751 0.011939011 -0.15931882 0.029891545 -0.013787576 -0.028198026
0.016012225 -0.15598059 -0.08501312 0.049718454 -0.024922919 -0.10135605 0.05893442 -0.091131814
0.0285141 -0.028011546 0.13228229 0.09902749 0.06232865 0.07528147 -0.022033103 -0.051806867
-0.07462515 0.049509436 0.022943297 0.0073031913 -0.005086757 0.09857318 0.038032833 0.01852022
-0.081997834 0.11255563 0.19580819 0.04744266 -0.123457745 0.050382458 0.23627493 -0.02922044
0.051377296 0.058062784 0.06704045 0.08906114 -0.14054973 -0.14325307 -0.07745668 -0.13335037
-0.051454857 0.040540602 -0.014156373 0.10196748 -0.08723139 0.17985024 0.035584725 -0.020359898
-0.10898621 0.0072021945 -0.016819322 -0.049626105 0.083351925 0.0012315884 -0.042947587 -0.015415507
-0.17996421 -0.07254189 -0.1483983 -0.01651814 0.042484887 0.03435092 -0.030510513 -0.012787387
-0.032096665 -0.1520083 -0.02056163 0.05749747 -0.1727586 -0.004684192 0.0057553137 0.044921104
-0.013771103 0.1458369 0.0828152 -0.18168518 -0.030297348 0.0054102237 -0.15193218 -0.019092696
-0.12457465 -0.00061832723 -0.01319995 -0.054297503 0.19231763 -0.14834349 0.08134925 -0.1412107
-0.038760584 -0.010223915 -0.19435862 0.061924763 -0.18468253 -0.1264477 -0.06400087 0.11166088
00000000: 1e54 ecbb 6730 e73d 3e95 18bd 7532 f53d
00000010: 4ca4 443e f459 3f3c c854 d53d 25dc c5bd
00000020: 1b0d 1e3d c0ad 443d 7eb7 5dbe e08f 6bbe
00000030: 8747 f23d f7a5 0d3d ebd2 fe3c 02cc a9bb
00000040: 402b 9dbd 3baf 10be ce1e 973b df2a a6bd
00000050: 5209 b0bd dc8c b6bd 84a2 633d 6f28 1d3e
00000060: d35b db3d 29bd 9a3d 5c47 a3bd 1f88 95bd
00000070: 68b7 25bd d8e3 65be fe3f 4fbd 02a0 e4bd
00000080: 4dfa 8d3c 181f 1d3d 2d17 633d 9351 1ebe
00000090: b203 81bd 5a73 bf3c dc6a 7b3c 24fa 0b3e
000000a0: 4470 e4bd f65c 73bc bebe bf3c 15d4 9a3b
000000b0: 3ef0 a73c a3b7 c53c 49f5 303e 6298 58bd
000000c0: 86c7 853c a0fc 2fbe 7334 bdbc 488f 28be
000000d0: 253b 27be 333f 153b fe45 07be 01e6 613c
000000e0: 7252 223d 464b 3a3e 307d 06be dd13 97bc
000000f0: 7b68 c7bb 850e 853d da39 bfbd 20e2 b43d
00000100: c84c 8ebc 59f3 bcbc f822 913c 66ef caba
00000110: 7ebf e0bc 2c93 0d3e 26bd 933d d8f2 c3bd
00000120: 01f2 1a3e eba1 a73c deab c5bc ddec 203e
00000130: 5b15 9f3d f04a e1bd 5391 ad3d ffd6 23bc
00000140: c599 bdbd 66c8 f93c dc4b 0dbd 21a7 25bc
00000150: f378 353e 5421 d43b e422 debc e1a9 84bd
00000160: 1d31 af3d 7d44 063d d91f 75bd b9f9 3e3d
00000170: 07e9 d03c 13ab 063d 45d0 8bbc 97b7 4ebd
00000180: 335d fcbb 2311 99bc c407 b53c d423 6fbd
00000190: 9194 b33d 9277 bdbc 4b29 903b 21ed d3bc
000001a0: 4b5a 353c efef 503d 2453 013e a93c 5ebd
000001b0: dc71 3c3e 8976 1d3d 1317 943d 896e 93be
000001c0: fdb7 2abe 1b25 b1bd 39b6 9a3d 6257 c03c
000001d0: 7ed5 cebd d7d5 bdbd a4db ebbc 14d9 ffbd
000001e0: ca7f 933c 12a3 41be f0d4 673e 054a 7fba
000001f0: 900c 0f3d 8694 013d e206 ae3d c31b e0bd
00000200: 5194 da3c e972 9d3d 02df d1bd 1287 abbc
00000210: 9b9f 47bd 1cd8 b03b c413 343e f5bb a73d
00000220: 6fde 813d 2cec 0bbe 83af 9cbd eefb 5abd
00000230: 98fd 40bd 0f75 94bd 4017 adbd 3f14 cb3d
00000240: 2d2e 5a3d 7e67 58bd b59c 1b3d d91b e53d
00000250: 5485 f7bd c3fa 1f3e f17e 973d 44b4 403b
00000260: a6fa 95bd 2bf3 e7bb 4ebe 89bd d79b 433c
00000270: 7924 23be 1ddf f43c 49e5 61bc 8cff e6bc
00000280: 122c 833c 60b9 1fbe 5c1b aebd 94a5 4b3d
00000290: 262b ccbc c393 cfbd 3865 713d 51a3 babd
000002a0: 6796 e93c 7878 e5bc 0275 073e edce ca3d
000002b0: 544c 7f3d 2c2d 9a3d c47e b4bc 7033 54bd
000002c0: 12d5 98bd 68ca 4a3d 95f3 bb3c 9c4f ef3b
000002d0: cfae a6bb bce0 c93d 51c8 1b3d b7b7 973c
000002e0: 7bee a7bd 9183 e63d f181 483e 3c53 423d
000002f0: 6ad7 fcbd d65d 4e3d 0ef2 713e b45f efbc
00000300: 0071 523d 3ed3 6d3d 814c 893d b065 b63d
00000310: 45ec 0fbe efb0 12be 9ca1 9ebd 008d 08be
00000320: 54c2 52bd e70d 263d 22f0 67bc 53d4 d03d
00000330: 5fa6 b2bd a92a 383e 4ac1 113d cdc9 a6bc
00000340: 2934 dfbd 6300 ec3b adc8 89bc be44 4bbd
00000350: 6ab4 aa3d 406d a13a cfe9 2fbd 5391 7cbc
00000360: 8a48 38be d890 94bd b9f5 17be 0d51 87bc
00000370: a204 2e3d 8db3 0c3d 2ff1 f9bc 3082 51bc
00000380: cb77 03bd 10a8 1bbe dd70 a8bc 7882 6b3d
00000390: a1e7 30be da7d 99bb 1297 bc3b 31ff 373d
000003a0: 31a0 61bc 4556 153e 049b a93d ae0b 3abe
000003b0: 2532 f8bc 3f48 b13b 1c94 1bbe 4968 9cbc
000003c0: fe20 ffbd 3d17 22ba 9a44 58bc 0f67 5ebd
000003d0: eaee 443e 5be7 17be 709a a63d 8a99 10be
000003e0: 6bc3 1ebd 3582 27bc f205 47be d2a4 7d3d
000003f0: 6b1d 3dbe 827b 01be e312 83bd 76ae e43d
