results/playPoker3/MoveToBet/MoveToBet-500004.onnx (onnx, 768393 bytes, 7 tensors)

action_model._continuous_distribution.log_sigma f4 [1, 17]
00000000: e58f 693c 0658 8ebb 14c8 e13c 1655 cb3b
00000010: 2975 323c 96b3 99bb af1c fc3b a523 ecbc
00000020: 3cd1 bb3c c247 7c3c e831 183c 5de2 df3b
00000030: 9ec7 2dbc f4d1 c639 683b 7cbc 2bc1 cabb
00000040: 11f7 1fbd
0.014255499 -0.0043439893 0.027561225 0.0062052114 0.010892191 -0.0046905978 0.007693849 -0.02882559
0.02292692 0.015397968 0.009289242 0.0068324045 -0.0106066745 0.0003792193 -0.015395023 -0.006187578
-0.03905398

action_model._continuous_distribution.mu.bias f4 [17]
00000000: 5af9 b5bb 887d 753b 8437 0f3c 696c 1a3b
00000010: d0b6 76bc 8cf1 e33b dfd6 403b 818f 27bc
00000020: 3c31 6bbc 8987 e63c e9ef e9bb 7b81 213c
00000030: 72ff 85bb 4c2f 2cbc 0265 05bc 9b9c 30bc
00000040: 7273 0ebb
-0.0055534067 0.0037458856 0.008741263 0.0023563153 -0.015058234 0.006956285 0.0029424948 -0.010227085
-0.014355 0.0281408 -0.007139195 0.009857531 -0.0040892893 -0.010509323 -0.008141758 -0.010779525
-0.0021736291

action_model._continuous_distribution.mu.weight f4 [17, 128]
00000000: 86df 523c 3c40 aabc e9d9 c5bc f796 e8bc
00000010: 2101 aaba ccbb 063d 6c9b 1f3c 4182 e0bb
00000020: 0514 713b 72f9 223b 5a93 063c 4d10 5a3c
00000030: d50c 0ebc 12ba 063d 5a41 06bd 59c3 9c3c
00000040: 52c8 95bc 49ee 013d 6d00 083c ba09 0d3c
00000050: 833c ccbb 6c71 d53c 5460 5cbc 0f2e dbbc
00000060: 7cd7 37bd 51a8 adbc 0c79 0cbd b428 0f3d
00000070: bf4a c13c e22b 203d 3557 f9bc 74fe a7bb
00000080: e0b2 e2bc f188 163d a18f 4a3c ea0c fbbb
00000090: 0583 d9bb 4209 193d b35e 10bc 45b3 253d
000000a0: 131f 82bb eada dabb 9b9f 9fbb 935b 9a3c
000000b0: 951c 09bb 4669 e7bc 5bef 8a3c 1923 b43c
000000c0: b034 b7bc 30d8 3dbc c2da e8bb 7eda 8bbb
000000d0: 59a1 9b3b 66f9 9dbc 641d d2bb f999 eebc
000000e0: cd0a 95bb 799b 293c c02a 903b 70aa b2bb
000000f0: 9011 b83c 0762 1f3c 2448 9bbc 134d 293c
00000100: feae 843c 65d5 723a 8892 7d3c 1a42 453c
00000110: 6b1c c5bc f28e 0c3c 6fbb 8b3c ba26 c1bc
00000120: 3eb8 4c3b a61c febc d754 18bc 00ff aabb
00000130: e646 d1bc d8a4 a6bc d89a df3c 9fad a6ba
00000140: ad7f 11bc 6ed1 953a f5bc 673c 9c48 b0bb
00000150: ab59 2f39 44fa 0bbc 2c91 22bb d383 12bd
00000160: 4330 be3c 3150 71bd 1ff3 2fbc 3787 2ebc
00000170: 18e6 b63c 3cba e8bc b2d1 23bd a4b8 d1ba
00000180: b7b8 63bd 3bc8 2fbd 72e1 36bc 85b0 f93a
00000190: 1ddd 88bc 892b bd3c 979f 0a3d 914e 9a3c
000001a0: 1009 dd3a 31b9 2a3c f1c3 02bd 3555 613a
000001b0: 67c3 713c 4f3c b03b 0cc4 d73c da72 aa3c
000001c0: 1447 983c c35b 06bb 6a79 7bbc f54d c93b
000001d0: 7f60 ac3a 5527 71bc 424d 80bc 9b73 33bd
000001e0: 2884 a33c e3dd 653b 3106 afb9 56be 153c
000001f0: 6418 1bbd dd6e c3bc 5cd6 91bc 772e e8bb
00000200: 6671 63bb 6984 cfbc 08bc de3b b129 a7bb
00000210: 9f14 0f3a b972 1a3d bbad 0bbb 9ec5 3b3c
00000220: b3aa a5bc efab 96bc 5cac 82bc f100 4f3c
00000230: 258a 9b3c ccc0 1e3c b68b 503c f4a2 06bc
00000240: 8932 b6bc 8204 4039 f3fa 9a3c a714 ec3b
00000250: b993 b13c 1a84 95bc 6c7f 25bc eed7 ccbc
00000260: 3316 02bb 62a4 12bd 86ba 013c 849c 31bc
00000270: 6e8c 73bb e2f9 54bc 9857 efb9 54e2 00bb
00000280: 5c4e 7a3b a74d 803b dd9d 12bd 4ada 8ebc
00000290: 286d edba 2e86 db3a 140a ee3b 31d7 1dbc
000002a0: f5ed 3e3d e75c a6bc f11d 17bc 8fcf 003c
000002b0: b7f7 4e3c 0551 88bc d7aa 80bb a5eb ffbc
000002c0: 275d e0bb ce3c 1b3c 66a3 243d f3e3 98bc
000002d0: 76ed 0ebd 4271 5d3c 8d6c 703c 8231 c7bc
000002e0: 1c5f a1bc 9fcb 5bbc 07da 65bc 7b77 dd3c
000002f0: dc86 5fbc c83f 9dbb 87de f33b ca32 26bc
00000300: 427f 613c 36e5 05bc 7741 9cbc 35dd 8dbc
00000310: aee1 b6ba 95ff bb3c 16e9 ecba c629 daba
00000320: 198a 42bc 4609 673c da22 903b 0e91 91bb
00000330: dd9f 993b f57b e7bb f342 a3bc cf6a 89bc
00000340: ed68 253d e43d 80bc 2ae1 2bbc 0f21 febc
00000350: 853f 71b9 cf22 073d ff2b 6a3b 1467 cf3b
00000360: 92ca 05ba 2f49 3e3a c29f 46bc 6dc3 de3c
00000370: 01b9 663a e254 2c3d a3e1 be3c 8054 903b
00000380: a3d8 503c faa9 a7bb 6e82 6b3c 4845 e4bb
00000390: f91d 133c fab0 3bbc 522b 473b cfc9 fcbc
000003a0: 9de3 7fbb a569 33bc 97c6 95b9 fa1b a3bc
000003b0: 7283 9dbc bd6d 1a3c efa1 93bb 190d 00bc
000003c0: d736 1f3d e50e ab3b 3fd2 bbba 4199 85bb
000003d0: 70c8 003b 6908 e23c 20ac 2b3b 0954 113c
000003e0: 14ca e53c d9cc 31bd 0acf 19bc e01a 5fbc
000003f0: a868 033b e93f 5d3c 1b99 d4bc 0997 17bc
0.012870675 -0.020782582 -0.02415176 -0.028392298 -0.0012970307 0.03289394 0.009741645 -0.006851465
0.0036785614 0.002486792 0.008213842 0.0133095505 -0.008670052 0.032892294 -0.032777168 0.019136118
-0.018283997 0.031721387 0.008300883 0.008608276 -0.0062327995 0.02605506 -0.013450701 -0.02675536
-0.044883236 -0.021198424 -0.034295127 0.034950927 0.023595212 0.03910435 -0.030437091 -0.0051267687
-0.027673185 0.03675169 0.012363345 -0.0076614516 -0.006637933 0.037362345 -0.008811641 0.040454168
-0.0039709895 -0.0066789286 -0.0048713214 0.018842494 -0.0020921577 -0.02824844 0.016959837 0.021989392
-0.02236399 -0.011587188 -0.007106156 -0.0042679897 0.0047494587 -0.019283962 -0.006412195 -0.029126154
-0.0045484067 0.010352009 0.0043996274 -0.0054524466 0.022469312 0.009727961 -0.018955298 0.010333317
0.016196724 0.00092633656 0.01547683 0.012039686 -0.024061402 0.008579003 0.017057149 -0.023578037
0.0031237747 -0.03101952 -0.009297571 -0.0052183867 -0.025546502 -0.020342276 0.027295515 -0.0012716538
-0.008880538 0.0011430213 0.014144172 -0.0053797495 0.00016722704 -0.008543555 -0.0024805767 -0.03577025
0.023216372 -0.058914367 -0.010739117 -0.010652355 0.022326514 -0.028409116 -0.039994903 -0.0016000462
-0.05559608 -0.042915564 -0.011162149 0.0019049799 -0.016706998 0.023092048 0.033843603 0.018836292
0.0016863663 0.01042013 -0.031925146 0.00085957657 0.01475606 0.005378283 0.0263386 0.020806719
0.01858858 -0.0020501472 -0.015348772 0.0061433264 0.0013151317 -0.01471885 -0.01566184 -0.04381142
0.019960478 0.0035074882 -0.00033383214 0.009139618 -0.037865058 -0.023856575 -0.01780241 -0.007085617
-0.0034705042 -0.025331693 0.0067973174 -0.0051014055 0.000545809 0.037707064 -0.0021313268 0.01146069
-0.020222997 -0.018392531 -0.015951328 0.012634502 0.01898677 0.009689521 0.012728622 -0.008217562
-0.022240894 0.00018312226 0.01891849 0.0072046104 0.021676885 -0.018251467 -0.0101011805 -0.025005307
-0.0019849658 -0.0358013 0.007918006 -0.010840539 -0.003716256 -0.01299903 -0.00045650895 -0.0019666152
0.0038193678 0.003915507 -0.03579508 -0.017438073 -0.0018114196 0.0016748363 0.007264385 -0.009633825
0.046613652 -0.020307971 -0.009223447 0.007861986 0.012632302 -0.016640196 -0.0039266157 -0.031240294
-0.006847042 0.009474946 0.04019489 -0.018663382 -0.03489443 0.013515772 0.014674318 -0.0243156
-0.019698672 -0.013415246 -0.014029033 0.027034512 -0.013642993 -0.004798863 0.007442299 -0.010143945
0.013763251 -0.008172324 -0.019074185 -0.017317394 -0.0013952756 0.02294902 -0.0018074836 -0.001664453
-0.011873745 0.014101332 0.004398686 -0.0044423407 0.0046882466 -0.0070643374 -0.019929385 -0.016774563
0.04038327 -0.015654512 -0.010490695 -0.031021623 -0.00023007214 0.03299218 0.003573179 0.0063294265
-0.00051037327 0.000725883 -0.01212305 0.027192796 0.00088013714 0.042073138 0.023300951 0.0044046044
0.012746963 -0.0051166983 0.014374359 -0.006966267 0.008979314 -0.011455769 0.003039081 -0.030857949
-0.003904558 -0.010950481 -0.00028567456 -0.019910801 -0.019227717 0.009425578 -0.004505388 -0.007815623
0.03887066 0.0052202814 -0.0014329626 -0.004077107 0.001965072 0.0275919 0.0026195124 0.008870133
0.02805046 -0.04340825 -0.009387741 -0.013617247 0.0020051394 0.013504007 -0.025951913 -0.009252318

network_body._body_endoder.seq_layers.0.bias f4 [128]
00000000: e79a 78bc 447f 173c 9d17 4ebc 630b f0bc
00000010: b3ce 1ebc 9119 793c b533 62bb 32aa 7f3a
00000020: b0a2 b4bb 5d47 173c bc81 12bb 764f b93c
00000030: 42c3 4ebb c1ad 85bb 0c2c 8d3b ddf4 4b3c
00000040: a279 d1b9 f749 343b 64e4 29bc a5e6 1cbc
00000050: 8360 8fba 7e1e a7bc bf32 d6bb 29bb ddbc
00000060: ed6f 543a ad7e ea3b 644d 60bc 7c5c a8bb
00000070: 42f7 d33b 051a 79bb 32b2 933a cb68 0c3c
00000080: 6672 14bb 793f d4bb aa65 1f3b 5901 733c
00000090: 1de2 f2b8 a115 213c 20bc 073c ef4d 9dbc
000000a0: 7db2 a3bc b592 83bb b4c5 053c 7517 e73b
000000b0: 94f4 99bc 2d75 16bc 6fcc 01bd 35a3 48bc
000000c0: c232 0dbc a479 fb3b 2f10 513c ca22 9e3c
000000d0: 10b9 1cbc 78e3 933c c5ab 7a3c 9cdd edbb
000000e0: e482 3e3d 1983 203c a2a4 893c c13b 343c
000000f0: 19a6 ad3b 03d2 273c 5324 91bb 820a 12bc
00000100: 6ffc 053a 0b82 c23b 5e05 08bb 7bb2 fbbb
00000110: 81f7 953c 56a0 113c c579 8a3c 36a5 90bc
00000120: 7a24 98bb ecb4 3a3b ce3c fd3c 3e40 97bc
00000130: 600e ca3b 1297 e63b 4fa6 30bd fd09 853b
00000140: d0a9 91bc 4380 4e3c 9a37 993b ea02 a33a
00000150: bdee 9bbc 486d a8bb 191c 3ebc c983 d7bc
00000160: 4c1d 923c a103 bbbc 50b1 843c 68d0 5bbc
00000170: e7e9 45bc ac05 9fb7 1d16 b63b d986 a4bb
00000180: 86a5 1fba f9da 12bc b376 e339 dd50 7cbb
00000190: 9724 eb3c 7e17 843a 2733 133b 0a81 193b
000001a0: d1cb e6bb 1f7f 173b 8b33 8dbc 0137 9f3b
000001b0: 971e 3cbc 8af5 963b c401 ceb9 e78d 923b
000001c0: 9294 dd3c 9f66 013c 7259 56bc d095 c43b
000001d0: 8635 5e3b 9e37 843c 2bda ca3c 68a0 df3b
000001e0: 0adf 2b3c 06ad 923c 217b 8cbb 51d0 8b3b
000001f0: 226e cd3a 1693 a6bc 3509 f5b9 e9df 2bbc
-0.01517365 0.009246651 -0.012578872 -0.029302305 -0.009692836 0.015203849 -0.0034515683 0.0009752839
-0.005512558 0.009233323 -0.002235516 0.022620898 -0.0031549488 -0.004079551 0.0043082293 0.012448517
-0.0003995421 0.0027509907 -0.010369394 -0.009576474 -0.0010938797 -0.020400282 -0.006536811 -0.027066784
0.00081038364 0.007156214 -0.013690326 -0.005137978 0.0064686844 -0.0038009894 0.0011268316 0.0085699065
-0.0022651195 -0.006477293 0.002432207 0.014831864 -0.00011581576 0.009831817 0.008284599 -0.0192022
-0.01998257 -0.0040152916 0.008164812 0.007052357 -0.018793382 -0.00918321 -0.031689104 -0.012245943
-0.008618059 0.007674413 0.012760206 0.019303698 -0.009565607 0.018052801 0.015299742 -0.007259084
0.046511546 0.009796881 0.016802136 0.011000575 0.0052993414 0.010242942 -0.004429379 -0.008913638
0.0005111163 0.0059359125 -0.0020755152 -0.0076811886 0.018306496 0.008888325 0.016903767 -0.017656904
-0.00464302 0.0028489185 0.030912783 -0.01846325 0.0061662644 0.007037052 -0.043127354 0.0040600286
-0.017781168 0.012603822 0.0046758177 0.0012436782 -0.019034738 -0.0051399805 -0.011603379 -0.026307957
0.017836235 -0.022828879 0.01619783 -0.013416387 -0.012079692 -1.8956918e-05 0.0055568353 -0.005020958
-0.00060900336 -0.00896334 0.00043385252 -0.0038500347 0.02870397 0.0010077802 0.002246091 0.002342286
-0.00704334 0.0023116542 -0.017236492 0.004858852 -0.011481903 0.0046069073 -0.00039292697 0.0044724825
0.027048383 0.007898002 -0.013082849 0.0059993044 0.0033906414 0.016139802 0.024762234 0.006824542
0.010490188 0.01790477 -0.004287139 0.0042667766 0.0015673081 -0.020333808 -0.000467369 -0.010490396

network_body._body_endoder.seq_layers.0.weight f4 [128, 1350]
00000000: bdf9 d03b 9561 093d bbc2 1a3c 7887 12bb
00000010: 8e76 123b 6195 3abd 7a60 4f3d f237 27bb
00000020: c66f aabc 3a36 d43c 2811 0dbd 0c0c e9bc
00000030: 0d53 2bbd a0f7 143b cc0f e1bb e991 fcbc
00000040: c7b2 c33b d7ea ecbc eb25 2f3d 0a29 06bc
00000050: 1c28 143d baa6 093d d8f4 79bb df48 103c
00000060: a7f4 afb9 e66b 92bc 79cf 8b3b 8815 db3b
00000070: f29b 89bc 9b2f fabc ecd7 10bc c346 c33b
00000080: 3762 923c 8697 86bb 5a0d e6bc f5e5 24bd
00000090: 534f 1abd 70d6 5e3d 2c20 d5bc 8798 883d
000000a0: dbfd e5bc 74b0 8fbc 5aff 103d d536 84bc
000000b0: 51f5 b2bc 92c8 b33c 561c b93c 829e aebc
000000c0: 0632 bc3b 590a 9f3b 2488 6bbb a355 44bd
000000d0: 7d9e 843c f2b7 49bd 6a67 c43c 70c2 b43c
000000e0: b2fc 3abc fbc4 12bd fe6f 433c c9d3 36bb
000000f0: 2551 1ebb c647 d9bc b6b1 ec3b db30 98bc
00000100: 3a0f fb3b 6710 b03c fcc2 243d e5a4 863c
00000110: ccbc 843c 84d7 14bd 262d 0bbc f5c2 4bbd
00000120: 7516 cebc a183 80bd 7612 afba 7a62 313d
00000130: 702c 51bd b63b 283d 47a4 1abd 1cb4 46bb
00000140: d8ed 58bd db63 883c 4091 cbbb e86c 27bd
00000150: 6bfc 03bd ba16 123d 8c1d 7fbc 3ce2 493b
00000160: 84a8 a5bc e357 0abd f09d 33bc 8110 11bd
00000170: 8d1c 51bd 4599 bc3a 8913 23bc bfb5 a6bd
00000180: 6865 943c 6de9 43bd 277b 913a c5b2 163d
00000190: f7df eb3c dd85 813c 23d8 03bd 9e7f 913c
000001a0: 9679 43ba 49bc a8bb e573 2cbc 6075 9bbc
000001b0: 0729 7a3c 65ac 493c e898 533c ae21 373c
000001c0: b680 10bb 58c5 10bd 93de 3abc bceb 4e3c
000001d0: b64e c33c c611 8ebc 96c1 1f3d 10d8 76bd
000001e0: c162 e9ba fd31 35bd 4640 943c cf5e d53b
000001f0: 6841 3dbc aad2 07bb 9233 a0b9 5a41 24bd
00000200: 4d46 153d 0e1c 23bd 1f5c e2ba e909 48bc
00000210: c941 793c 3b6e be3c 7cff c5bc f3c4 e93c
00000220: b166 173c 8cc7 f3bc b865 fb3c 8db9 143d
00000230: b202 b3bc 0aea 873c 4f7d 7c3c 472d 15bd
00000240: 9e36 57bc 38e6 2dbd ce22 0ebc cfcf 1b3c
00000250: b4c4 523c f9a0 03bd 91df 123b 481f 78bb
00000260: 9ef5 39bd 30b1 04bc 0389 1ebd 531a 253c
00000270: f359 11bd 22d7 26bd 1f46 02bd 9f7e 12bb
00000280: af63 e6bc 827f ffbc fdb4 5f3d 8f33 0bbd
00000290: f4d4 6bbd 48c8 28bd ff18 0abd fb84 ce3b
000002a0: 04ad d4bc 1875 5f3c a9e6 babc ec1b 813c
000002b0: eac5 093d 9f0f 3bbc 37e6 2b3b 98d1 fcbb
000002c0: c303 903b c182 073d 27b4 893c c2e3 4d3d
000002d0: 380e a63c 466e 8abd f2da 08bc ebac f0bc
000002e0: d03f cebc 23c9 3b3b e73d 91bc 5338 4bbd
000002f0: 33d5 aebb 7c82 f0bc 9a6e fbbc 8207 303c
00000300: 677b 883c 95fd 233d d1d5 0fbd add4 f3bc
00000310: 5f14 adbd 2472 ea3c e4d8 933b dcce bfbc
00000320: 8941 09bd 9d5a 3bbd bf13 b73b 27b7 bebc
00000330: 43d8 d3ba f3a2 8a3c ec2e 0abd 73ca 373d
00000340: ae69 66bd c325 dbba 36dd db3b 1406 6dbc
00000350: 7992 4abc 6fde b1ba e725 f5bc a2d5 273d
00000360: d7da 7e3b 6f22 07bd 26ec d83b e470 6e3c
00000370: 9fbd 413d 0b69 26bc 9a57 4bbc 123d 8eba
00000380: 4783 233d 4943 a4b9 0579 1dbd 1e30 79bb
00000390: 3a97 17bd 71e4 8cbd d6bc 0fbd 7e08 9d3b
000003a0: 2841 63bd c6a2 fc3b 4949 9ebc 7ee6 34bb
000003b0: 7484 d9bc 58fb c8ba d1a1 c83c fc9b 873c
000003c0: 25af acbc 0850 34bd 6e81 2cbd 7598 193c
000003d0: e325 3ebb 8a92 e43c 2aef 573d d7f1 983c
000003e0: 2be7 14bc e396 e23c 80ac 783d 66b6 8fbc
000003f0: 758f 5cbc 2100 ce3a 291e f03c ba8a d6bc
0.0063774274 0.033540327 0.009445841 -0.0022358578 0.0022348496 -0.045552615 0.050629117 -0.0025515524
-0.02080525 0.025904763 -0.03444019 -0.028448127 -0.04182725 0.0022730604 -0.006868338 -0.030831294
0.0059722397 -0.028920574 0.04276077 -0.008188495 0.036171064 0.03360627 -0.0038140323 0.008806436
-0.0003356088 -0.017873716 0.004266676 0.0066859163 -0.016797993 -0.030540278 -0.008840542 0.005959363
0.017869098 -0.0041074185 -0.028082538 -0.040258367 -0.037673306 0.054403722 -0.026016317 0.06669717
-0.02807515 -0.017540194 0.035399772 -0.016139427 -0.021845492 0.021946225 0.02259652 -0.021315817
0.005743268 0.0048535285 -0.00359393 -0.047933232 0.016188854 -0.04924769 0.023975093 0.022065371
-0.011412786 -0.035832386 0.0119285565 -0.002789723 -0.0024157253 -0.026523482 0.007223333 -0.018577984
0.0076617273 0.021492196 0.040225014 0.01643605 0.016203307 -0.036338344 -0.008494651 -0.049746472
-0.025157193 -0.06275106 -0.0013356942 0.043306805 -0.05106777 0.04107257 -0.037754323 -0.0030319756
-0.0529612 0.016649177 -0.0062123835 -0.040875345 -0.032223146 0.035666205 -0.015571009 0.0030805012
-0.020221956 -0.03377522 -0.010962948 -0.03541613 -0.05105262 0.001438894 -0.009953388 -0.08140134
0.01811476 -0.047830034 0.0011099324 0.03679158 0.028793318 0.015810901 -0.032188546 0.017761048
-0.00074567774 -0.0051493985 -0.010525678 -0.018976867 0.015268571 0.012309168 0.012914874 0.011177463
-0.0022049374 -0.03534445 -0.011405605 0.012629446 0.023841243 -0.01734246 0.039002977 -0.060264647
-0.001780592 -0.044237126 0.018097054 0.006511546 -0.011551239 -0.002072493 -0.00030556 -0.040101387
0.036443997 -0.039821677 -0.0017269886 -0.012209394 0.015213438 0.023245921 -0.024169676 0.028536296
0.009240792 -0.029758237 0.030688152 0.036309768 -0.021851871 0.01659109 0.015410735 -0.036420133
-0.01313558 -0.04245588 -0.00867529 0.009509995 0.0128642805 -0.032135937 0.0022411088 -0.0037860442
-0.045400254 -0.008098885 -0.038704883 0.010077077 -0.035486173 -0.04073251 -0.031805154 -0.0022353304
-0.028123705 -0.03118873 0.054615963 -0.033984717 -0.057576135 -0.041206628 -0.033715244 0.0063024736
-0.025961407 0.013638757 -0.022815065 0.015760385 0.03363601 -0.011417299 0.0026229748 -0.007715415
0.0043949797 0.03308368 0.016809536 0.050266035 0.020270452 -0.06759314 -0.008352982 -0.029379329
-0.025176913 0.0028653822 -0.017729713 -0.04961426 -0.005335474 -0.029359095 -0.030692387 0.0107439775
0.016660405 0.040036757 -0.03511602 -0.029764498 -0.08451151 0.02861888 0.0045119394 -0.023414068
-0.033509765 -0.045740712 0.0055870707 -0.023280693 -0.0016162473 0.016923403 -0.033736154 0.044870805
-0.056253128 -0.0016719628 0.00670972 -0.014466781 -0.012364023 -0.0013570319 -0.0299253 0.04097522
0.0038887763 -0.032991823 0.006619948 0.014553282 0.047299977 -0.01015688 -0.012411023 -0.0010851941
0.039920118 -0.0003133065 -0.03844549 -0.0038023065 -0.037009455 -0.06879509 -0.035092197 0.004792272
-0.05548206 0.007709834 -0.019322054 -0.0027603204 -0.026552416 -0.0015333695 0.024491223 0.016553871
-0.02107961 -0.044021636 -0.04211562 0.0093747275 -0.0029014281 0.027901907 0.05271832 0.018670006
-0.009088318 0.027659839 0.060711384 -0.017543029 -0.013461937 0.0015716591 0.029311256 -0.026189197

network_body._body_endoder.seq_layers.2.bias f4 [128]
00000000: 5f7f c7bc 1fcb 30bb 416e 9abc ab15 af3b
00000010: 5e41 27bc 7691 5cbb bd4e 2dbc 546c 9e3c
00000020: 9be7 88bc 724e d7b9 d6ac cbbb 0c9b c23b
00000030: 4282 083c 6fed 63bb 153b 72bb 70c3 b0ba
00000040: 65b6 223c e539 93bc eb7e 97bc 3007 93bb
00000050: 6b79 b83a 08be d23b 0784 2cbb edef 833b
00000060: 7258 e53b a3f8 93ba f9d8 b33c f90a e8bc
00000070: 7769 ffbb cadd 27bc 1346 b9ba 20b2 32b9
00000080: 0b9e 9d39 69b8 ff3b 2c13 383b 5607 c5bb
00000090: 25ea 413c e3b0 053a d1b6 18bb 23cb 30bc
000000a0: cb8f 873b 2f68 45b8 e677 8bbc 2444 17bb
000000b0: a894 bc3b 1472 36ba e7a6 0d3c ea65 a4bb
000000c0: 8853 a93c ef09 ff3b 8de7 8c3c b9c2 12bc
000000d0: 9074 94bb 6494 563c 98b3 23bc e085 d53b
000000e0: 291c d8bb b10d 30bc c3f4 0cbb ff5f cabb
000000f0: 3565 243a f318 27bc ed91 943b 5453 5ebc
00000100: 5c20 ce3c 9d28 53ba 9976 3a3c fa08 1abc
00000110: a110 47bb bd5f c9bb 6143 0139 2cf2 0e3c
00000120: bd93 53bc 29aa edbb 88cd 7f3c c7bf df3b
00000130: 4dc5 c83c d03e 85bb c46c b23b 3a2f 1f3c
00000140: ced4 37ba fee3 d7ba 0569 04bc d070 8dbb
00000150: cfa7 f1ba 113f 503c 9f31 723b bc8d 253c
00000160: 40f4 3e3b 1ab9 0c3c 5c5e 7ebb 53d4 e43c
00000170: 9b25 49bb 61ec 9abc 0da1 833c 93fe 4d3c
00000180: 66e7 773c e3c5 3a3c 28bc c5bb b9c0 9a3b
00000190: a3a0 653c 088a 73bc 35b7 5e39 da47 e6ba
000001a0: 9400 90bc 6d4e a23b 7365 ec3a 1242 0ebd
000001b0: bbf6 92bc 2e89 acbc 9e20 e3bc e534 afba
000001c0: 2f59 59bc 33fa 863b 5782 143c 9f5b 6abc
000001d0: 8796 2b3c dee6 9f3c e153 a5bb 29cd acbc
000001e0: 4ba1 3dbc df50 283c bb67 2bbc 4c4f 8e3c
000001f0: d39a 273c cf5a 353c d367 a2bc 7dfd a9bc
-0.024352727 -0.0026976538 -0.018851401 0.005343159 -0.010208456 -0.0033656037 -0.010577855 0.019338764
-0.016712 -0.00041066442 -0.006215672 0.005938893 0.008331837 -0.0034778973 -0.0036961485 -0.0013485979
0.009931182 -0.017971942 -0.018493136 -0.004486941 0.0014074271 0.006431345 -0.0026323812 0.004026404
0.006999069 -0.001128931 0.021954047 -0.028325545 -0.007794555 -0.01024575 -0.0014135264 -0.0001704176
0.00030063125 0.007803966 0.00280876 -0.0060128374 0.01183561 0.00050999055 -0.0023302326 -0.010790619
0.0041370145 -4.706549e-05 -0.017024945 -0.0023081386 0.005755026 -0.0006959748 0.00864575 -0.005017032
0.020669714 0.0077831666 0.017200256 -0.008957558 -0.004530497 0.0130969025 -0.009991549 0.0065162033
-0.006595154 -0.010745452 -0.0021508194 -0.0061759944 0.00062711845 -0.010198819 0.0045339973 -0.013569672
0.025161915 -0.0008055063 0.011380815 -0.009401554 -0.0030374902 -0.006145446 0.000123275 0.00872473
-0.0129136415 -0.0072529507 0.015612967 0.0068282816 0.024508143 -0.0040663257 0.005445095 0.0097158495
-0.00070126064 -0.0016471145 -0.008081679 -0.004316427 -0.0018436852 0.012710349 0.0036955846 0.010104593
0.0029137284 0.0085890535 -0.0038813567 0.027933275 -0.003069258 -0.018911542 0.016068006 0.012572902
0.015130853 0.011399719 -0.006034393 0.0047226814 0.01401535 -0.014864452 0.0002123982 -0.0017569021
-0.0175784 0.0049531967 0.0018035605 -0.03473098 -0.017939916 -0.021061506 -0.027725514 -0.0013367204
-0.013265892 0.0041191815 0.009064279 -0.014304071 0.0104729 0.019519266 -0.0050453995 -0.021093922
-0.0115741 0.010273187 -0.010461743 0.017371796 0.010229784 0.011069014 -0.019824898 -0.020750755

network_body._body_endoder.seq_layers.2.weight f4 [128, 128]
00000000: ca0d 69bc a007 eb3d d9d7 3abd 8ff8 e63d
00000010: 6c88 3d3e f08f b93c 5e3a c13d 6030 b8bd
00000020: c0d7 1b3d 8a9f 3f3d 99f4 5dbe f2a2 61be
00000030: 0509 e23d 0004 133d 1475 e43c 53c1 b3ba
00000040: 2ce0 9cbd 2417 0cbe b21d 93bb 6aa8 b9bd
00000050: e5f9 bdbd bc47 c7bd 57ab 493d 93ca 153e
00000060: 5607 d53d 7a85 a23d fd48 b0bd b69d a9bd
00000070: 9b3a 20bd e6aa 64be 8411 26bd f543 edbd
00000080: c414 073c 2af8 013d ac1c 8a3d c0b4 13be
00000090: fbb2 8cbd 94d3 c63c a75e d93c 9936 043e
000000a0: a469 f1bd 4c3f 1ebc 2034 e13c f473 713c
000000b0: 50ae 623c 4879 8e3c 397a 2b3e 626b 80bd
000000c0: 0dea 1d3c f9c4 2bbe b229 1abc 6551 1ebe
000000d0: 958a 2fbe caa4 343c 63f4 01be bab5 183c
000000e0: 0e9f 453d a1b1 463e 0eac f4bd cf85 e4bb
000000f0: e781 dbbb d187 8e3d 6735 bcbd 47d9 b43d
00000100: d9b2 afbc a333 ffbc dfe4 973c 5dce 74bb
00000110: 6bd2 91bc a4ea 0e3e 707d 8f3d 87cb d4bd
00000120: be6a 143e 4255 893c c27c 82bc d6a1 183e
00000130: 2d72 a23d 980b e1bd 6664 a43d 9bf4 9fbb
00000140: dd97 ccbd e9ff 043d cf80 0fbd 71b0 3cbc
00000150: 69d5 2d3e 3de2 ae38 efa2 05bd 7a51 92bd
00000160: f32c c63d c4c0 d13c 3d87 43bd e437 253d
00000170: a48b 8b3c 24c1 bb3c 0969 5dbc 424f 3bbd
00000180: d972 04bc 9e21 dfbc 5723 cd3c 4283 6cbd
00000190: 9408 c43d 9047 94bc 5ba0 d33b acf3 8fbc
000001a0: 7996 073c 1f87 5f3d eded f33d a4b9 52bd
000001b0: b67d 323e 0f14 073d 87f7 823d 70ae 90be
000001c0: d5c8 22be 1395 a8bd 0be1 8c3d 1aba f93c
000001d0: 1fe9 bfbd c534 afbd 14ca aabc 3541 febd
000001e0: 9a90 fe3c f925 3cbe cf5e 643e 9bcb 863b
000001f0: 057e e63c 5e57 c53c ffde 9a3d ee80 f3bd
00000200: fc2b ec3c a109 9c3d a867 c9bd 9df1 99bc
00000210: c323 3bbd dfdd 873b e2d2 353e f627 a23d
00000220: 95ac 783d 06f2 09be 11ed a0bd b7ef 67bd
00000230: 2bd5 3abd f34a 95bd aec5 aebd 68de c73d
00000240: f432 533d f471 5abd 0000 283d eb87 e93d
00000250: 5155 f4bd 1a83 223e 988b 9a3d 8771 a03b
00000260: e208 97bd abe2 20bc 2c55 86bd a7c1 5f3c
00000270: a8e0 25be f5fa e53c 7515 8ebc 3444 debc
00000280: 142d 903c 25ae 1ebe 2c36 afbd 7f22 403d
00000290: 8d9c bdbc 1198 d1bd f81e 6d3d 4cdb b4bd
000002a0: da90 fe3c 90e6 ffbc e262 073e b72c c73d
000002b0: e3e9 813d ae1a 9d3d ebce 94bc 5b80 49bd
000002c0: 7c4e 90bd e4a9 3c3d ff9f b33c d994 913b
000002d0: 738e 54bb 499e cb3d c952 133d 6ea7 993c
000002e0: c558 b1bd 9a17 e83d ca8f 493e 0347 423d
000002f0: 2ff5 fdbd f521 473d 9a83 713e ea7b 00bd
00000300: 5734 573d 6e8f 743d fa12 8a3d bc27 b63d
00000310: 4df6 11be f7eb 13be f3f7 a0bd c5a5 06be
00000320: 9307 50bd 4ca5 273d 2872 9bbc 3126 d43d
00000330: a216 b0bd 2617 363e 77e4 203d 815c b9bc
00000340: 6110 dcbd 2005 b83b 704d 96bc 1900 53bd
00000350: 1479 af3d 4cfe 723b ea27 2abd c2fd 54bc
00000360: 1ef6 3bbe d03e 90bd a213 13be b775 68bc
00000370: 54cc 343d 20b4 183d 036f 03bd 8fc6 7fbc
00000380: 2bd9 05bd 6fda 19be b518 a7bc 3e09 5e3d
00000390: 6321 34be 9412 b2bb aa04 963b 08c0 223d
000003a0: 5d4a 84bc 863f 143e 78eb ad3d 2759 3bbe
000003b0: 5771 efbc f635 d43b 7138 1ebe c147 b3bc
000003c0: 6fe6 01be e40d c1ba b1f4 37bc eeeb 62bd
000003d0: 8542 433e 1493 18be 38af 9d3d 77a1 11be
000003e0: bcc0 14bd 2edc 68bc 6cb1 49be a973 723d
000003f0: aed7 3cbe eca7 fdbd 0eef 7dbd 36ab e53d
-0.014224479 0.11476064 -0.045616005 0.112778775 0.18509072 0.022651643 0.09434961 -0.08993602
0.038047552 0.046783008 -0.21675338 -0.22034815 0.110368766 0.035892487 0.027887858 -0.0013714231
-0.07659945 -0.13680702 -0.004489624 -0.090653256 -0.09276179 -0.09730479 0.049235668 0.14628057
0.1040179 0.07935615 -0.086076714 -0.08282034 -0.03911839 -0.22330818 -0.040544048 -0.115852274
0.008244697 0.03173081 0.0674375 -0.1442442 -0.06870075 0.02427081 0.026534392 0.12911452
-0.117877275 -0.009658646 0.027490675 0.014737118 0.013835505 0.017391816 0.16745843 -0.06270482
0.009638322 -0.16774358 -0.009409355 -0.15460737 -0.17142709 0.011025617 -0.12690882 0.009320671
0.04824739 0.19403698 -0.11946879 -0.006973959 -0.006698835 0.06959499 -0.09189873 0.08830505
-0.021447586 -0.031152552 0.018541751 -0.0037354447 -0.01780053 0.13956696 0.07006347 -0.10390382
0.14493844 0.016764287 -0.01592863 0.14905486 0.079319336 -0.109885395 0.08026962 -0.004881454
-0.09989903 0.032470617 -0.03503495 -0.011516676 0.16975941 8.339107e-05 -0.03262609 -0.07144447
0.09676542 0.025604613 -0.047736395 0.040336505 0.01703436 0.022919245 -0.013513812 -0.045729883
-0.008084022 -0.02723771 0.025041265 -0.057742365 0.09571949 -0.01810053 0.006458325 -0.017572246
0.008275622 0.05457222 0.11910615 -0.051446572 0.17430767 0.032978114 0.06394868 -0.28258085
-0.15896924 -0.08231559 0.06878861 0.030484248 -0.09370636 -0.08554987 -0.020848311 -0.12414781
0.03107481 -0.1837386 0.22301792 0.004113627 0.028136263 0.024089511 0.075620644 -0.11889826
0.028829567 0.07619024 -0.09834224 -0.018791968 -0.045688402 0.004146322 0.17756227 0.07917778
0.060711462 -0.13471231 -0.07857717 -0.056625094 -0.04561345 -0.07289686 -0.08533798 0.097592175
0.051562265 -0.05333133 0.041015625 0.114028774 -0.11930335 0.15870324 0.07546157 0.004896346
-0.07374741 -0.009819667 -0.06559214 0.01365701 -0.16198981 0.028073767 -0.017344216 -0.027132131
0.01759962 -0.15496118 -0.08555254 0.046907898 -0.023145938 -0.102340825 0.057890862 -0.0883089
0.03107493 -0.03123787 0.13221315 0.097253256 0.063434385 0.07671104 -0.018165072 -0.049194675
-0.0704622 0.046060458 0.021926878 0.004442793 -0.003243354 0.099423 0.035967622 0.018756595
-0.086595096 0.11332627 0.19683757 0.047431003 -0.12400281 0.04861637 0.23585358 -0.031368174
0.05254015 0.059707098 0.06741901 0.088942975 -0.14254113 -0.14445482 -0.078597926 -0.13149174
-0.050788473 0.040929124 -0.018975332 0.10358847 -0.08598067 0.17782268 0.03928038 -0.022627117
-0.107453115 0.0056158453 -0.018347472 -0.051513765 0.08568016 0.0037077842 -0.04154197 -0.012999954
-0.18355605 -0.070432305 -0.14362958 -0.014188222 0.044140175 0.037281156 -0.03208829 -0.015611305
-0.03267781 -0.15024732 -0.020397523 0.054208033 -0.17590861 -0.0054343436 0.0045781927 0.039733917
-0.01614874 0.14477357 0.08492178 -0.18295728 -0.02922885 0.006476159 -0.15451218 -0.0218848
-0.1268556 -0.0014728871 -0.011227773 -0.05540078 0.19068344 -0.14899856 0.07699436 -0.1422175
-0.03631662 -0.014212651 -0.19696587 0.059192333 -0.1844165 -0.12385544 -0.06199556 0.112142965
