results/BetOrNot11/MoveToBet/MoveToBet-29156149.onnx (onnx, 949148 bytes, 9 tensors)

action_model._continuous_distribution.log_sigma f4 [1, 16]
0	0xbee5e405	-0.44900528
1	0xbf2c2746	-0.67247427
2	0xbe861eb8	-0.26195312
3	0xbe12e5ce	-0.14345476
4	0xbeac3e47	-0.33641264
5	0xbeeb6fcf	-0.4598374
6	0xbe8f3c0b	-0.27975497
7	0xbf24e1d5	-0.6440709
8	0xbf33b3fa	-0.701965
9	0xbf1041a1	-0.5635014
10	0xbe616ea9	-0.2201487
11	0x3ebe4148	0.3715918
12	0xbf0b88ee	-0.54505813
13	0xbf033cc8	-0.5126462
14	0x3f7056d5	0.93882495
15	0x3f975262	1.1822016

action_model._continuous_distribution.mu.bias f4 [16]
0	0x3d809b58	0.062796295
1	0xbd6f8fbb	-0.05848668
2	0x3d9ffed2	0.07812275
3	0x3d513c01	0.051082615
4	0xbd9d8e69	-0.07693178
5	0x3e14a3fb	0.14515679
6	0xbc983f7d	-0.018584961
7	0x3d06d055	0.032913525
8	0xbd129542	-0.035786875
9	0x3d3d550c	0.046223685
10	0xbc75e6b2	-0.015008615
11	0x3e7a725b	0.24457686
12	0x3dc89c1b	0.097954
13	0xbc4062a8	-0.0117422715
14	0x3e47580d	0.19467182
15	0x3e920f89	0.28527477

action_model._continuous_distribution.mu.weight f4 [16, 128]
0	0x3c9ff79d	0.01952725
1	0x3d84a214	0.064762264
2	0xbcb01ecb	-0.021499058
3	0x3e27df6c	0.16393822
4	0x3e056e51	0.13030364
5	0x3c8f1ef5	0.017470816
6	0xbd03e3e2	-0.032199748
7	0xbb1f0171	-0.0024262334
8	0xbdb8a3ff	-0.09015655
9	0xbbce4124	-0.0062943865
10	0x3dadd75b	0.084883414
11	0xbdc32dcb	-0.09530219
12	0xbde9b1e4	-0.11410883
13	0x3c1075ea	0.008817175
14	0xbe16b8aa	-0.14718881
15	0xbdbd6dd4	-0.09249464
16	0x3d894efd	0.06704519
17	0x3c8c7eb3	0.017150259
18	0x3d03d3fe	0.032184593
19	0xbd9d6a8e	-0.07686339
20	0xbd6aae68	-0.057295233
21	0x3d5d2885	0.05399372
22	0xbd6a2c63	-0.057171237
23	0x3c3834fc	0.011243101
24	0x3e1641a6	0.1467348
25	0x3cc54ce3	0.024084514
26	0xbe2fd45b	-0.17170851
27	0x3d2d7050	0.042343438
28	0xbc3a09be	-0.011354862
29	0xbd6e35ea	-0.058156885
30	0x3dc3ba70	0.095570445
31	0x3c774e91	0.015094415
32	0x3daf8c65	0.085717
33	0xbc4acc75	-0.012377848
34	0x3b36c0a2	0.0027885814
35	0x3de71fe5	0.1128538
36	0x3dcdf56b	0.100565754
37	0x3d25c7ab	0.04047362
38	0xba1e7025	-0.00060439325
39	0x3cc4eff9	0.02404021
40	0x3a354b1a	0.0006915793
41	0x3c3aaf7e	0.01139438
42	0x3da4d60e	0.0804864
43	0x3d9cc5c8	0.07654911
44	0xbd47b361	-0.048755053
45	0x3bb8a593	0.0056349724
46	0x3dc7f90a	0.09764297
47	0x3d0f4045	0.0349734
48	0xbdc11b84	-0.09429076
49	0x3d0c4b84	0.034251705
50	0xbe102b9c	-0.14079136
51	0xbcef2e83	-0.029196983
52	0xbd06ec55	-0.032940228
53	0xbc3e6261	-0.011620135
54	0x3db82d2e	0.08992992
55	0x3e057946	0.13034543
56	0x3e1316a4	0.14364105
57	0xbd5b0c29	-0.053478394
58	0x3c9fb23f	0.019494174
59	0xbdf91f79	-0.12164206
60	0x3c840bff	0.016119001
61	0xbdbf20d6	-0.09332435
62	0x3d5e751f	0.054310914
63	0x3da9775b	0.082747184
64	0xbd0296fb	-0.031882267
65	0xbda7babe	-0.08189915
66	0xbbb84d89	-0.0056244773
67	0xbe229131	-0.15875699
68	0x3db4cc8d	0.088280775
69	0x3d04f3d0	0.03245908
70	0xbd1ca7c2	-0.038245924
71	0x3df3812f	0.11889874
72	0x3d3f9344	0.046771303
73	0xbdaed8f4	-0.08537474
74	0xbd220563	-0.03955592
75	0x3d315df1	0.04330248
76	0xbda04ee0	-0.07827544
77	0xbe9238e0	-0.28559017
78	0x3e12b86b	0.14328162
79	0x3e35d8cd	0.17758484
80	0x3dd14d5f	0.102198355
81	0xbdd09e76	-0.10186474
82	0xbe3b8394	-0.18311912
83	0x3b28485d	0.0025677898
84	0x3d9e7114	0.07736412
85	0xbd81b918	-0.06334132
86	0xbd721063	-0.05909766
87	0xbc22c42c	-0.009934466
88	0x3c523b7e	0.012831567
89	0x3d2cfbf9	0.042232487
90	0x3debca74	0.11513224
91	0x3cb6ba7e	0.022305723
92	0xbd47d591	-0.048787657
93	0xbdcef8ed	-0.101060726
94	0x3c55acd5	0.013041695
95	0x3d4b13f4	0.049579576
96	0x3da383d9	0.07984132
97	0x3b9227a4	0.004460292
98	0x3cc8b986	0.024502527
99	0xbdcd0360	-0.10010409
100	0x3e102ada	0.14078847
101	0xbd4e14ec	-0.05031292
102	0x3e110589	0.14162268
103	0x3bdd870c	0.0067604836
104	0xbd2814b4	-0.04103537
105	0xbcc4b206	-0.02401067
106	0xbd8f093a	-0.06984182
107	0xbd8330ea	-0.06405814
108	0xbd0cbe95	-0.03436144
109	0xbd8e8415	-0.069587864
110	0xbd2e2cdd	-0.042523254
111	0xbe2618ac	-0.16220349
112	0x3dafd6f8	0.08585924
113	0x3c7d44f9	0.015458339
114	0x3d50f9b9	0.051019404
115	0x3d12ef98	0.035873026
116	0x3d2d63d8	0.042331547
117	0x3d778954	0.0604337
118	0xbe30679b	-0.17227022
119	0xbd57279e	-0.052528016
120	0xbc3e08be	-0.011598764
121	0xbd044edd	-0.032301772
122	0x3d52b9ae	0.05144661
123	0xbe15fcf0	-0.14647269
124	0xbd1626d7	-0.036658134
125	0x3da95514	0.082681805
126	0xbe3a4cb6	-0.18193325
127	0xbbaae8b8	-0.0052157305
128	0x3dfe6ea7	0.12423449
129	0xbc796380	-0.015221477
130	0x3dd0f0cb	0.102021776
131	0xbc21acf5	-0.009867896
132	0x3b43ed5c	0.0029896116
133	0x3b09acec	0.002100761
134	0xbe7add9c	-0.244986
135	0xbd2c0c4c	-0.042003915
136	0xbe23e05f	-0.1600356
137	0x3e0ccdd2	0.13750389
138	0xbd06f033	-0.032943916
139	0xbdfb26b7	-0.12263244
140	0x3d9892ee	0.074498996
141	0xbc12be23	-0.008956465
142	0xbdbc0d8b	-0.091822706
143	0xbde2a49b	-0.11066552
144	0xbd61e425	-0.055149216
145	0x3ac59ed3	0.001507724
146	0xbbb5eb33	-0.0055517196
147	0xbd81f44a	-0.063454226
148	0x3d237e08	0.039915115
149	0xbc8324af	-0.016008703
150	0xbcc51870	-0.024059504
151	0x3e13be8f	0.14428161
152	0x3c139ce3	0.009009573
153	0xbcebb167	-0.028771115
154	0x3d609c03	0.054836284
155	0x3db5755e	0.08860277
156	0x3d60b5d3	0.0548609
157	0xbd894ba6	-0.06703882
158	0x3db7b55f	0.08970141
159	0x3b26c3c7	0.0025446282
160	0xbd6ca655	-0.057775814
161	0xbd09e5f3	-0.033666562
162	0xbbfd6cb1	-0.0077339043
163	0xbcb80c60	-0.022466838
164	0xbd9c8c70	-0.07643974
165	0xbdbb0669	-0.09132082
166	0x3da6357e	0.081156716
167	0xbbbccef6	-0.0057619764
168	0xbc3c7b14	-0.0115039535
169	0xbc86a64e	-0.016436722
170	0x3d646ffc	0.05577086
171	0x3d93f536	0.07224505
172	0x3c28a342	0.01029283
173	0x3dc31927	0.09526282
174	0xbe424fd7	-0.18975769
175	0xbd934057	-0.07190006
176	0x3de5b782	0.11216642
177	0x3d7203bd	0.059085596
178	0x3dd7bed2	0.10534443
179	0x3bc99cb8	0.0061527155
180	0x3d335230	0.043779552
181	0xbd5c6fab	-0.053817432
182	0x3ace6367	0.0015746177
183	0xbd4739ba	-0.048639037
184	0x3dba5293	0.09097781
185	0x3c17a4ff	0.009255647
186	0x3cddf337	0.027093513
187	0xbdf9f35e	-0.12204622
188	0xbbc43c47	-0.005988631
189	0x3dfe9073	0.12429895
190	0xbe0a639a	-0.13514557
191	0xbe16b441	-0.14717199
192	0x3d6e5f0c	0.058196113
193	0x3d24b305	0.04020979
194	0x3c1cc970	0.009569511
195	0xbdc533aa	-0.09628995
196	0x3d28bd17	0.041195955
197	0x3d1d75ac	0.0384423
198	0x3d1ab235	0.037767608
199	0x3dd3e28c	0.10345945
200	0xbc168e53	-0.009189206
201	0xbd31443e	-0.04327797
202	0xbdead044	-0.11465505
203	0xbc1ca4f4	-0.009560812
204	0x3ddaf3b8	0.10691017
205	0x3eb68413	0.3564764
206	0xbbe6d36a	-0.0070442455
207	0x3c2cc0bb	0.010543997
208	0x3c6952e2	0.014240952
209	0xbd9a20dc	-0.07525799
210	0x3a8c4837	0.0010702674
211	0x3d45f5f7	0.048330273
212	0xbd615525	-0.05501284
213	0x3889efbb	6.577322e-05
214	0xb8a3c290	-7.808686e-05
215	0x3ab5cf9b	0.0013871075
216	0x3e0b17bf	0.13583277
217	0xbe10fb81	-0.14158441
218	0xbd95553a	-0.07291646
219	0x3dce3c61	0.1007011
220	0x3e04d621	0.12972309
221	0x3caf8eca	0.021430392
222	0x3c0ae38a	0.008477101
223	0x3d9a80c0	0.07544088
224	0xbd10c8fc	-0.035347924
225	0x3d983a7d	0.07433031
226	0xbcbb8f97	-0.022895617
227	0x3db3b8d2	0.08775486
228	0x3e2cfd17	0.16893421
229	0xbd75c39f	-0.060001012
230	0x3d5421ad	0.05178993
231	0xbb3a8ebd	-0.0028466426
232	0xbc16618c	-0.00917853
233	0x3cea2c99	0.028585719
234	0x3d14fd3e	0.036374323
235	0x3e59207c	0.21203798
236	0x3dce454f	0.10071813
237	0xbd877381	-0.066138275
238	0x3d82755d	0.063700415
239	0xbd692be3	-0.05692662
240	0xbd368038	-0.044555873
241	0xbd680dec	-0.056653902
242	0xbdb2ef4f	-0.08737051
243	0x3d876ba7	0.0661233
244	0xbd0dc4ea	-0.03461162
245	0x3d1ab43d	0.037769545
246	0xbd99f395	-0.07517163
247	0x3db33912	0.0875112
248	0xbaba7160	-0.0014224462
249	0x3e0152f4	0.126293
250	0x3cd1d57f	0.025614498
251	0x3d84ef19	0.06490917
252	0x3d46b7b1	0.048515026
253	0xbda0ccff	-0.078516
254	0x3e37a883	0.17935376
255	0x3ceb87e8	0.028751329

action_model._discrete_distribution.branches.0.bias f4 [2]
0	0x3cd825cd	0.026385212
1	0xbcd825aa	-0.026385147

action_model._discrete_distribution.branches.0.weight f4 [2, 128]
0	0x3b3344f4	0.0027354332
1	0x39b595e9	0.00034634702
2	0xbc1a1acd	-0.009405804
3	0x3c7ece8d	0.015552175
4	0x3b8871c7	0.004163954
5	0x3bbe5cc6	0.0058093993
6	0xba3b7509	-0.00071509235
7	0xbac20968	-0.0014803829
8	0x3b5f57f7	0.003407953
9	0x3b2df64c	0.002654451
10	0x3a0004dc	0.00048835366
11	0xbbe1e4f6	-0.0068937493
12	0xb97d7c60	-0.00024174294
13	0xbbf6da0d	-0.007533318
14	0xba22051a	-0.000618057
15	0xbba2b28a	-0.004965131
16	0x3b0c15b1	0.0021375234
17	0xbc595a67	-0.0132661825
18	0x3b4bdf68	0.0031108502
19	0xbc4d6e40	-0.012538493
20	0x394580dd	0.0001883539
21	0xbc4c8b48	-0.012484379
22	0x3bac4fe3	0.0052585467
23	0x3b989ede	0.0046576103
24	0x3b65e0fe	0.0035076733
25	0xbc6547fe	-0.013994215
26	0xbaef4570	-0.0018254947
27	0x3c3b9c1d	0.0114507945
28	0xbbc3f6c9	-0.005980347
29	0x3b0fd499	0.0021946786
30	0x3bb3deb3	0.0054891943
31	0xbc386b32	-0.011256026
32	0x3b98217f	0.004642665
33	0xbaabe35f	-0.0013114027
34	0xbc0257f4	-0.00795554
35	0x3b83b06b	0.0040188334
36	0x3c31c2b2	0.010849642
37	0x3ca717d3	0.020397102
38	0xbc2d200b	-0.010566722
39	0xb93c4bcf	-0.00017957318
40	0xbbe4c2a7	-0.006981212
41	0xbbfa7a95	-0.0076440074
42	0x3c175eac	0.00923888
43	0xbb0b5857	-0.0021262371
44	0x3b34e401	0.0027601721
45	0xbbc3648e	-0.005962915
46	0x3a0d1185	0.0005381334
47	0x3b94795f	0.00453107
48	0xbb7f7aae	-0.0038983035
49	0x3b95f0d0	0.004575826
50	0xbc518a7b	-0.012789364
51	0xbbd59815	-0.0065183737
52	0x3beadcf3	0.0071674525
53	0x3bd58e7e	0.0065172305
54	0xbc4fb6e5	-0.012677883
55	0xbbec8a79	-0.0072186557
56	0x3bd89f42	0.006610782
57	0x3b36a112	0.0027867001
58	0xba2a017b	-0.0006485206
59	0x3b98ab08	0.0046590604
60	0x3bec15b6	0.0072047366
61	0xbc0890ab	-0.008335273
62	0x3a630d28	0.0008661323
63	0xbb6a19cf	-0.003572095
64	0x3bd92609	0.0066268486
65	0xbc6bb281	-0.01438582
66	0x3bac4ffd	0.005258559
67	0xbaceed36	-0.0015787247
68	0x3b89c7c7	0.0042047235
69	0xbc6bf1d3	-0.014400917
70	0x3b4cbf78	0.0031242054
71	0xbbd28b94	-0.0064253304
72	0x3acfd521	0.0015856364
73	0x3c9729d4	0.018452562
74	0x3bd9a84a	0.006642376
75	0xbbcfb7ae	-0.006339035
76	0x3aaee74d	0.001334408
77	0x3b2727e4	0.0025505954
78	0xbc28ef50	-0.010310963
79	0x3b99b0ac	0.0046902504
80	0x3b4741a5	0.0030404117
81	0x3b0e0e83	0.002167613
82	0xbb8847fb	-0.0041589714
83	0x3b91d1a0	0.004450038
84	0xbc02b243	-0.007977071
85	0x3c3f8807	0.011690146
86	0xbcc0b647	-0.023524417
87	0xbb968819	-0.004593861
88	0xba1529e2	-0.000569014
89	0xbaaa96da	-0.0013014928
90	0xbbd1b55e	-0.0063997945
91	0xbc309dce	-0.010779811
92	0x3b05c48b	0.0020411338
93	0x3c1f2c60	0.00971517
94	0x3b377f8b	0.0027999606
95	0xbb4512b8	-0.0030070972
96	0xbc14b171	-0.009075508
97	0x3b817349	0.0039505106
98	0x3b2c7af9	0.0026318415
99	0x3b47f205	0.0030509245
100	0xbc715234	-0.014729071
101	0x3c3ea6de	0.011636464
102	0x3b5f04b0	0.0034029894
103	0x3abc27fd	0.0014355179
104	0x3bc0cc16	0.005883704
105	0x3c4e8bd1	0.012606577
106	0xbc057efe	-0.008147953
107	0xbb9f7779	-0.004866537
108	0x3b8e5cac	0.0043445434
109	0xbbb300c6	-0.0054627387
110	0x3bd4c6c7	0.0064934227
111	0xbb831e9b	-0.004001451
112	0x3a012540	0.000492651
113	0x3bf1e05c	0.007381482
114	0x3b149282	0.0022670333
115	0x3b87411a	0.0041276338
116	0x3aef9fc5	0.0018281868
117	0xbc63070c	-0.013856661
118	0xbc1c2889	-0.009531149
119	0xbc748ade	-0.014925687
120	0xbb51342d	-0.0031921968
121	0x3b184694	0.0023235427
122	0x3b323202	0.0027190452
123	0xbbfe38ca	-0.0077582346
124	0x3bea5e1c	0.007152332
125	0x3be290ed	0.006914249
126	0xb8f68525	-0.00011754994
127	0xbb83cb43	-0.0040220334
128	0xbb043cf5	-0.0020177935
129	0xbac34404	-0.001489759
130	0x3b73b075	0.0037184034
131	0x3c41f943	0.011839214
132	0x3b890cc5	0.0041824304
133	0x3c0fdb44	0.008780304
134	0xbb87c30a	-0.0041431235
135	0xbaef0212	-0.001823487
136	0x3b628b6b	0.0034567963
137	0x3aed6eea	0.001811472
138	0x3add55cc	0.0016886531
139	0x3b8082f0	0.003921859
140	0xbb6ac770	-0.003582444
141	0xbbf7934a	-0.0075554
142	0xbb6eed52	-0.0036457372
143	0x3cb307a2	0.021854226
144	0xbb3d6b53	-0.0028903082
145	0xbc42a04d	-0.011879039
146	0x3b86bd79	0.0041119424
147	0x3b810f75	0.00393861
148	0xbc1832eb	-0.009289484
149	0x3a960c75	0.0011447804
150	0x3be6abb0	0.0070395097
151	0x3b008fa9	0.0019616878
152	0xbaf767aa	-0.0018875499
153	0xbc515e04	-0.012778763
154	0x3b019b01	0.0019776227
155	0x3bdf3f27	0.0068129483
156	0xbb9fdaad	-0.004878363
157	0xbc448c2e	-0.011996312
158	0xb963a89a	-0.00021711216
159	0xbbe93a64	-0.0071175564
160	0xbaaddaae	-0.0013264024
161	0xbb881700	-0.0041531324
162	0xbc0c1c9b	-0.008551742
163	0x3c4661c0	0.012108266
164	0x3c0e783f	0.008695661
165	0xb93e1225	-0.00018126571
166	0xbc346549	-0.011010476
167	0x3c2956df	0.010335653
168	0xbc04a5c3	-0.008096161
169	0xbc67973d	-0.014135179
170	0x3b8be729	0.0042695
171	0x3ac13d12	0.0014742932
172	0x3b19a09e	0.0023441683
173	0xbbcb3486	-0.0062013296
174	0x3b464396	0.0030252687
175	0xbbc10d01	-0.0058914428
176	0x3a1433ac	0.00056534517
177	0x3b6bdebf	0.0035990921
178	0xbb27d262	-0.0025607576
179	0x3bd49710	0.0064877346
180	0x3bd15ec2	0.00638947
181	0xbbb3e86c	-0.0054903533
182	0xbc65944b	-0.014012407
183	0x3b142538	0.0022605192
184	0x3c817743	0.015803939
185	0xbbdaf9a7	-0.006682593
186	0xb92d37f7	-0.00016519414
187	0x3bf0a1ce	0.0073435074
188	0x3b9e9f97	0.004840802
189	0x3a973686	0.0011536635
190	0xbc2e5a6d	-0.010641676
191	0xbb4e9b8f	-0.0031525826
192	0xbc85f9d1	-0.016354473
193	0xb9c38ecf	-0.000372997
194	0x3b9eba7d	0.0048440085
195	0x3b3df595	0.002898549
196	0xba3ef976	-0.00072850974
197	0xbb69efa9	-0.0035695827
198	0x3bdd2d47	0.0067497822
199	0xbc0ebb67	-0.008711672
200	0xba8c9419	-0.0010725289
201	0x3c847341	0.016168239
202	0x3be4b3be	0.0069794348
203	0x3c59862c	0.013276618
204	0xbb2d4587	-0.0026439147
205	0xbbec957a	-0.0072199674
206	0xbc050e86	-0.008121138
207	0x3b9c5d1c	0.0047718417
208	0xba345a5f	-0.00068799214
209	0x3a4f2af8	0.0007902826
210	0x3b2d7b9d	0.0026471384
211	0x3b0e62a1	0.0021726268
212	0xbbff6e15	-0.007795105
213	0xbbdd803a	-0.0067596706
214	0x3b771821	0.003770359
215	0xbc12d735	-0.008962442
216	0xbb94c8c1	-0.0045405333
217	0x3c1a3536	0.009412101
218	0xbbe8dae0	-0.00710617
219	0xbbd05a12	-0.0063583935
220	0xbaf43969	-0.0018632832
221	0x3b617126	0.0034399717
222	0x3b8cee7b	0.00430089
223	0x3c02f122	0.007992061
224	0xbc220035	-0.009887745
225	0xbc1113e4	-0.00885484
226	0x3bb4de66	0.005519676
227	0xbbec9d64	-0.007220911
228	0xbad49bad	-0.0016220711
229	0xbbc9bcb5	-0.006156529
230	0xbbb428d5	-0.0054980316
231	0x3c19ba45	0.009382789
232	0x3b7e5f14	0.0038813995
233	0x3c9c1944	0.019055016
234	0xba4232f3	-0.0007408105
235	0x3c2fc83c	0.010728892
236	0x3c002dd1	0.0078234235
237	0x3bfdc92f	0.00774493
238	0x3c0086ec	0.007844668
239	0x3a26d988	0.0006364812
240	0xbb8748e3	-0.004128562
241	0x3b821427	0.0039696875
242	0xbb8a8489	-0.004227225
243	0xbc8f3e3e	-0.017485734
244	0x3b6a97ca	0.003579604
245	0xbab3c7ee	-0.00137162
246	0xbae60252	-0.0017548299
247	0x3b5b56ce	0.0033468488
248	0xbbc497b0	-0.005999528
249	0x3bb3bed6	0.005485396
250	0x3bf3f220	0.007444635
251	0x3b3f9afc	0.0029236665
252	0xbab05c5e	-0.0013455262
253	0x3baae00f	0.005214698
254	0x3b7db94a	0.0038715177
255	0xba88df49	-0.0010442521

network_body._body_endoder.seq_layers.0.bias f4 [128]
0	0x3d8d648a	0.06903942
1	0x3d0ef97b	0.034905892
2	0xbd43746a	-0.047718443
3	0x3d1f4bc6	0.038890623
4	0x3e8061f3	0.2507473
5	0x3e12ba72	0.14328936
6	0x3d3f3da8	0.04668966
7	0x3de29baf	0.110648505
8	0x3d5a5645	0.05330493
9	0xbe185502	-0.14876178
10	0x3c72c78c	0.0148180835
11	0x3dda6669	0.106640644
12	0x3cfece00	0.031104088
13	0x3dd8c066	0.10583572
14	0x3dc4d6b8	0.09611267
15	0xbca28b8e	-0.019841935
16	0x3dd614b4	0.104531676
17	0x3e665194	0.22492057
18	0x3c396761	0.011316151
19	0x3ddf6b82	0.10909177
20	0x3c17c388	0.009262927
21	0xbcb66ca5	-0.022268603
22	0x3bbe5407	0.0058083567
23	0x3dbc0d65	0.09182242
24	0x3da9992c	0.08281168
25	0x3d8f6de2	0.0700338
26	0x3dae3e90	0.085080266
27	0x3c470b84	0.012148742
28	0x3e108bfc	0.141159
29	0x3dda39e0	0.1065557
30	0x3d570497	0.05249461
31	0x3db1bcd5	0.08678595
32	0x3df2343f	0.118263714
33	0x3cda9f08	0.02668716
34	0x3da4e437	0.08051341
35	0x3d948c1b	0.072532855
36	0x3d0082b6	0.031374656
37	0x3dce075b	0.10059997
38	0x3e0e8d3f	0.13921069
39	0x3d9ff5e2	0.0781057
40	0x3daf1b36	0.08550112
41	0x3d62a131	0.055329505
42	0x3df341a2	0.11877753
43	0x3e07ec2e	0.13273689
44	0x3d8c47cf	0.06849634
45	0x3e14c512	0.14528301
46	0x3aff69e3	0.0019486513
47	0x3d9bcfaa	0.07607968
48	0x3cf44c01	0.029821398
49	0x3c9711b5	0.01844106
50	0x3d3530e1	0.044236068
51	0xbd94e199	-0.07269592
52	0x3e30b109	0.17255034
53	0xbd145cc8	-0.036221296
54	0x3da28d36	0.0793709
55	0xbd03c97a	-0.032174565
56	0x3d4d968e	0.05019241
57	0xbd90456c	-0.07044491
58	0x3e34a047	0.17639266
59	0x3d8c5070	0.0685128
60	0x3e44cad8	0.19218004
61	0xbd3405ff	-0.04395103
62	0xbde43d87	-0.11144548
63	0x3cee9f6a	0.029128749
64	0x3d063e94	0.032774523
65	0xbe1c6e03	-0.15276341
66	0x3e291e46	0.16515455
67	0x3e106c33	0.14103775
68	0xbe7e98a4	-0.24862915
69	0x3cc19e73	0.023635125
70	0x3e063330	0.13105464
71	0xbc75c9d0	-0.015001729
72	0xbd859214	-0.06522003
73	0x3dd21b3e	0.10259102
74	0x3cba6787	0.022754444
75	0x3db460f5	0.088075556
76	0x3e291a12	0.16513851
77	0xbaf3398b	-0.0018556578
78	0xbd70f929	-0.058831368
79	0x3da3e07a	0.080018
80	0x3d8e505e	0.069489226
81	0x3dd33cbc	0.103143185
82	0x3d783590	0.060597956
83	0x3daa5e4a	0.083187655
84	0xbd20d2ae	-0.03926342
85	0x3e54d0de	0.20782802
86	0x3dc235f0	0.09482944
87	0x3d9f83e8	0.07788831
88	0x3d1a14db	0.037617546
89	0x3d9780cd	0.07397614
90	0x3dc269b6	0.09492819
91	0x3df9825a	0.12183066
92	0x3db79015	0.08963028
93	0x3da8880f	0.08229076
94	0xbc0ab2e7	-0.008465505
95	0x3b625414	0.0034534978
96	0x3e05bd01	0.1306038
97	0xbc3b6f06	-0.011440044
98	0x3db0cb2a	0.086325005
99	0x3da94fd9	0.08267183
100	0x3daee268	0.08539277
101	0x3dbd809f	0.09253048
102	0xbbb50cec	-0.005525222
103	0xbd5af561	-0.053456668
104	0x3c4e4782	0.012590291
105	0x3ca43898	0.020046517
106	0x3e01e5a7	0.12685262
107	0x3d4c86ee	0.049933366
108	0x3e2d693e	0.16934678
109	0x3def7a2b	0.116932236
110	0x3e466ec1	0.19378187
111	0x3de7eff2	0.11325063
112	0x3de6fd02	0.11278726
113	0x3cdf49a7	0.0272568
114	0xba69d6f4	-0.0008920275
115	0x3d2e7dda	0.04260049
116	0x3dbb227c	0.09137437
117	0x3d70b704	0.058768287
118	0xbd38246d	-0.044956613
119	0x3c9ead2b	0.019369682
120	0x3ce9658a	0.0284908
121	0x3cf6e3fb	0.030138006
122	0x3e57d11a	0.2107586
123	0x3cd3b449	0.025842803
124	0x3e9592e3	0.29213628
125	0x3df0f39d	0.117652155
126	0x3dc126ef	0.09431254
127	0x3c840842	0.016117219

network_body._body_endoder.seq_layers.0.weight f4 [128, 1700]
0	0x3b9b8608	0.0047462024
1	0xbbdd6434	-0.00675633
2	0xbaca84e3	-0.001545098
3	0x3c1fa89e	0.009744791
4	0xbcd5fb95	-0.02612094
5	0x3d01aa7f	0.03165674
6	0xbc0d1c0b	-0.008612643
7	0xbbd51f18	-0.006503951
8	0xbb78c7e9	-0.0037960953
9	0x3c857004	0.016288765
10	0x3d04d4e1	0.03242958
11	0xbd2108a4	-0.03931488
12	0x3d64a943	0.055825483
13	0xbbb8e084	-0.0056419987
14	0xbd11a6b0	-0.035559356
15	0x3a8c1681	0.0010687859
16	0xbb12ecad	-0.0022418902
17	0xbc9b176b	-0.018932065
18	0xbb2e2e19	-0.002657777
19	0x3b8fee68	0.004392434
20	0x3cb4098e	0.021977212
21	0xbc2a27a7	-0.01038543
22	0xbc169385	-0.009190445
23	0x3bdd60b2	0.0067559117
24	0x3aeb0dfb	0.0017933244
25	0x3bf032d9	0.0073302803
26	0xba7c5d94	-0.00096269813
27	0xbc1bf065	-0.009517764
28	0xbce9356f	-0.028467862
29	0x3c6a921a	0.01431706
30	0x3c5fe2b6	0.013664892
31	0x3bfbafd5	0.007680873
32	0xbba9d1e5	-0.005182492
33	0xbca8123a	-0.020516504
34	0xbd0353d9	-0.032062385
35	0x3c4f895b	0.012667025
36	0xbd6e2d23	-0.058148514
37	0x3c16ac06	0.009196287
38	0x3cdf5c69	0.027265744
39	0xbb239d9c	-0.0024965769
40	0xbb8eb901	-0.0043555503
41	0xbc474788	-0.0121630505
42	0xbb01f312	-0.001982872
43	0x3b8a1d2b	0.004214903
44	0xbc03cc17	-0.008044264
45	0x3c143d20	0.009047776
46	0xbd42aa4b	-0.047525685
47	0xbcb858b5	-0.022503236
48	0x3bd5e5a3	0.006527619
49	0x3d281fab	0.041045826
50	0xbcbc7ba7	-0.02300818
51	0x3c95bf4c	0.018279694
52	0xbd2f54fe	-0.042805664
53	0x3cd826c3	0.02638567
54	0xbd1d7936	-0.038445674
55	0xbd4f31f3	-0.050584745
56	0xbc9f5b94	-0.019452848
57	0x3c1550c7	0.009113497
58	0xbcc510ac	-0.024055801
59	0xbc3242d8	-0.010880195
60	0xbd7db21f	-0.061937448
61	0xbc63aeda	-0.013896668
62	0xbc6f0f0f	-0.014590993
63	0xbbfe1ed5	-0.0077551403
64	0xbc108517	-0.008820794
65	0xbc925f5d	-0.017867738
66	0xbc7c5f46	-0.015403574
67	0xbc3776b9	-0.011197739
68	0x3bdae80a	0.0066804932
69	0xbb2e97c6	-0.0026640757
70	0x3c043295	0.0080687
71	0x3c1165a3	0.00887433
72	0x3c8ffc2f	0.017576305
73	0xbd215e12	-0.039396353
74	0xbd35bdfa	-0.04437063
75	0x3ce861af	0.028366892
76	0xbc34f93d	-0.011045751
77	0xbc839dc2	-0.016066436
78	0xbcf6b799	-0.030116843
79	0x3ccea9f9	0.025227534
80	0xbbc5da25	-0.0060379677
81	0xbbd413e4	-0.0064720977
82	0xbc1f0c4b	-0.009707521
83	0x3bc0c957	0.0058833766
84	0xbcb21d68	-0.021742538
85	0xbb3fc088	-0.0029259045
86	0xbc5888fc	-0.013216253
87	0x3b15cbed	0.0022857145
88	0xbcb85ed1	-0.02250615
89	0x3c8efab4	0.017453529
90	0x3b9c416d	0.0047685415
91	0x3cb63a81	0.022244694
92	0x3cc0482e	0.023471918
93	0x3cece8ac	0.02891954
94	0xbcac91ec	-0.021065675
95	0xbd34db8d	-0.044154692
96	0xbca643eb	-0.020296058
97	0xbb2e05ef	-0.002655383
98	0xbd4d4bef	-0.050121244
99	0xbbe5be8b	-0.00701124
100	0xbcabbd74	-0.020964362
101	0xbc00e13b	-0.007866199
102	0xbb380f03	-0.002808512
103	0x3d3028f0	0.04300779
104	0xbc27ccf4	-0.010241736
105	0xbb4c4de5	-0.0031174358
106	0xba81c42e	-0.0009900385
107	0xbbcc44a2	-0.0062337676
108	0xbb39fb56	-0.0028378568
109	0xbd1221f5	-0.035676915
110	0xbd28a703	-0.0411749
111	0xbbe48b70	-0.00697463
112	0xbc620ced	-0.013797027
113	0x39c61510	0.00037781196
114	0xbcbf1d53	-0.023329413
115	0x3c5c761d	0.013455895
116	0xbb81020d	-0.003937012
117	0x3cbec1c6	0.023285758
118	0xbc08900a	-0.008335123
119	0x3c05093f	0.00811988
120	0xbc130780	-0.008973956
121	0xbb978383	-0.0046238317
122	0xbbcd7a63	-0.006270693
123	0xbc8e6a61	-0.01738471
124	0xbc93ec9c	-0.01805716
125	0xbc1061f4	-0.008812416
126	0xbd09d299	-0.033648107
127	0xbb3916ed	-0.0028242425
128	0xbc8230c2	-0.01589239
129	0xbdb6642b	-0.08905824
130	0x3ce1f3dd	0.027582103
131	0xbc0b7c94	-0.008513588
132	0xbd1ad751	-0.037802998
133	0xbcf9de7f	-0.030501602
134	0xbd8a23bc	-0.06745097
135	0xbc58005a	-0.013183678
136	0xbca89c29	-0.020582275
137	0x3c2a65f8	0.010400288
138	0xbd7c962d	-0.061666656
139	0xbd174bab	-0.036937397
140	0xba95f52c	-0.0011440865
141	0xbcc1fa4b	-0.02367892
142	0xbcdeb130	-0.027184099
143	0x3cae7cfe	0.021299835
144	0xbd8e6bcc	-0.06954154
145	0xbbd703c0	-0.0065617263
146	0x3c11a13b	0.008888538
147	0xbc43d38b	-0.011952291
148	0x3b3ca972	0.002878752
149	0xbcf8649c	-0.030321412
150	0xbc80f7f0	-0.015743226
151	0xbc369877	-0.011144749
152	0xbd3f975c	-0.046775207
153	0xbd0852ac	-0.033281967
154	0xbb097b9b	-0.0020978216
155	0x3c815fb9	0.015792714
156	0xbc19ec84	-0.009394769
157	0xbdae0ffa	-0.08499141
158	0x3ca34bc9	0.019933598
159	0x3cf2ea92	0.029652867
160	0xbc55cee8	-0.013049819
161	0xbd00afc0	-0.03141761
162	0xbc10514d	-0.008808446
163	0x3becaf2e	0.0072230315
164	0x3c92ffe8	0.017944291
165	0xbd0db492	-0.034596033
166	0xbc6f6726	-0.014611995
167	0x3d1996d9	0.037497375
168	0x3c89b64b	0.016810557
169	0xbb9b9e21	-0.004749075
170	0xbcc3c53e	-0.023897763
171	0x3d4f0ecd	0.050551224
172	0xbc832c60	-0.01601237
173	0xbbc63c87	-0.006049696
174	0xbc4f985c	-0.012670603
175	0x3c82e524	0.015978403
176	0xbcc1a58b	-0.023638507
177	0xbd18cb14	-0.037303045
178	0xbc19e748	-0.009393521
179	0xbaedeeda	-0.0018152848
180	0xbc61e936	-0.013788512
181	0xbcb4fd66	-0.022093486
182	0xbb90c47f	-0.0044179554
183	0x3af7e0bd	0.0018911582
184	0xbd259ccd	-0.04043274
185	0x3c1b02f7	0.009461156
186	0xbbe9addf	-0.0071313228
187	0x3c8cfac3	0.017209416
188	0xbcd99c01	-0.026563646
189	0xbcbb0a07	-0.02283193
190	0xbca9e159	-0.020737337
191	0xbbc37b7f	-0.0059656496
192	0xbbf8113a	-0.007570413
193	0x3b9ccf54	0.0047854576
194	0x3d1023bc	0.03519033
195	0xbc5d09eb	-0.013491134
196	0xbb989f89	-0.00465769
197	0xbcc08c47	-0.02350439
198	0xbd2864c5	-0.041111726
199	0xbc06b67b	-0.008222218
200	0xbcc0a8c3	-0.023517972
201	0xbcc6e542	-0.02427924
202	0xbaf479cf	-0.0018652024
203	0xbc3647e2	-0.011125537
204	0x3cc482b4	0.023988105
205	0xbd7cc76f	-0.061713632
206	0xbaab6c61	-0.0013078564
207	0xbc6b5b12	-0.014364975
208	0xbd2c5f02	-0.042082794
209	0xbccc16b7	-0.024913175
210	0xbcbee551	-0.023302706
211	0xbbc52c71	-0.0060172607
212	0xbd466923	-0.04844011
213	0x3c48d1ce	0.012257053
214	0xbcf821a3	-0.030289477
215	0xbcdc7796	-0.026912492
216	0xbd660f61	-0.05616701
217	0xbcf057cf	-0.029338745
218	0x3b7e1ecf	0.0038775688
219	0xbd50d39b	-0.050983053
220	0xbc3f7f82	-0.011688115
221	0xbc926e4e	-0.017874863
222	0xbc3587c1	-0.01107973
223	0xbc98c03c	-0.018646352
224	0xbb289024	-0.002572068
225	0xbcc133be	-0.023584243
226	0xbc955365	-0.018228242
227	0xbb9a370b	-0.0047062687
228	0xba2da75b	-0.0006624364
229	0xbd4a510d	-0.049393702
230	0xbc8f0494	-0.017458238
231	0xbd1225fc	-0.035680756
232	0xbc9fdc73	-0.019514298
233	0xbc822079	-0.015884625
234	0xbc815f2d	-0.015792454
235	0xbd0952ac	-0.033526108
236	0xbbcf6083	-0.0063286438
237	0xbbebea62	-0.0071995715
238	0xbd8070b7	-0.06271499
239	0xbb6206a9	-0.0034488833
240	0xbd983616	-0.07432191
241	0x3c0357a0	0.008016497
242	0x3c3b21e4	0.011421654
243	0xbccd93b6	-0.025094848
244	0x3ac84f7a	0.0015282475
245	0xbd333184	-0.043748394
246	0x3b919447	0.004442725
247	0x3c9cc228	0.01913555
248	0xbc1762bb	-0.009239848
249	0xbcbd5e94	-0.023116387
250	0xbd0818e6	-0.03322687
251	0xbcda3332	-0.02663574
252	0xbdbce814	-0.09223953
253	0x3cb232fe	0.02175283
254	0xbc793cbf	-0.015212237
255	0x3cf24749	0.029575007

network_body._body_endoder.seq_layers.2.bias f4 [128]
0	0xbd92beb1	-0.07165278
1	0x3c917310	0.017755061
2	0x3d8a2246	0.067448184
3	0x3d74756a	0.059682287
4	0xbd5cde0f	-0.05392271
5	0xbd54ea06	-0.051980995
6	0xbc989a9a	-0.018628407
7	0x3b88a572	0.0041701132
8	0xbd2f2e83	-0.042768966
9	0xbd8f430e	-0.069952115
10	0xbd361fc2	-0.04446388
11	0x3d8b5d97	0.0680496
12	0x3e0abe33	0.13549118
13	0x3d15ae1c	0.036542997
14	0xbcd5bb70	-0.026090354
15	0xbe1084e2	-0.14113191
16	0xbcffc3dd	-0.031221325
17	0xbcf9718a	-0.030449647
18	0x3dbcc4e0	0.092172384
19	0xbcea5704	-0.028605945
20	0xbdc1b10b	-0.094575964
21	0xbc4b84de	-0.012421815
22	0xbd8b7206	-0.068088576
23	0xbd6c1c76	-0.05764433
24	0xbd077e4f	-0.03307944
25	0x3d99f99d	0.07518313
26	0x3c387443	0.011258188
27	0xbc6934d2	-0.014233785
28	0x3e4022ef	0.18763326
29	0x3d83226a	0.06403048
30	0x3d673d72	0.056455083
31	0x3c1112f7	0.008854619
32	0x3c9e1ed6	0.019301813
33	0xbe10c361	-0.14137031
34	0x3d95b592	0.073100224
35	0x3bf8a2e2	0.0075877765
36	0xbd6619a3	-0.056176793
37	0x3cf997a3	0.030467814
38	0x3e010515	0.12599595
39	0x3d32cae7	0.043650534
40	0x3df8dbab	0.12151273
41	0xbcb7b6ef	-0.022426097
42	0xbe0a968f	-0.13533996
43	0xbc69a780	-0.0142611265
44	0x3d0eeef1	0.03489584
45	0x3ad55076	0.001627459
46	0xbdb2b7be	-0.08726452
47	0x3c135a68	0.0089937225
48	0xbba069fc	-0.004895447
49	0x3c24cf15	0.010059138
50	0x3d7b80ac	0.061402008
51	0xbd0e3696	-0.034720026
52	0xbd51d804	-0.0512314
53	0xbbbce48f	-0.005764551
54	0xbb8cf810	-0.0043020323
55	0x3d834b36	0.0641083
56	0xbc322441	-0.010872901
57	0x3b885e59	0.0041616377
58	0x3dab262d	0.08356891
59	0x3cf8a838	0.03035365
60	0x3d8b0710	0.067884564
61	0xbd908cde	-0.07058118
62	0xbdec7bd3	-0.11547055
63	0x3e42569d	0.18978353
64	0xbdd24058	-0.10266179
65	0xbdc10ce7	-0.09426289
66	0x3d422d43	0.047406446
67	0xbd9efd06	-0.07763104
68	0x3e17f4df	0.14839505
69	0xbdcae1c3	-0.09906342
70	0xbce29245	-0.027657637
71	0x3e3604e4	0.17775303
72	0x3c2ae43e	0.010430394
73	0xbcf7f6a2	-0.03026897
74	0x3dd65cf7	0.104669504
75	0x3d17b90e	0.037041716
76	0x3c1a0195	0.009399791
77	0x3e16a531	0.14711453
78	0x3d2e4ffe	0.042556755
79	0xbd29e17b	-0.0414748
80	0xbd0fffd8	-0.0351561
81	0xbda7fb6b	-0.08202251
82	0x3e63566e	0.22200939
83	0xbdb7284c	-0.08943233
84	0xbd4bab5c	-0.049723968
85	0xbd681fa0	-0.056670785
86	0x3bc5dd72	0.006038361
87	0x3d0200c4	0.03173901
88	0x3d916dd5	0.07101027
89	0xbc96f3d8	-0.01842682
90	0x3d96382e	0.07334934
91	0x3ba0fa23	0.004912631
92	0x3ae0e1ee	0.0017157176
93	0x3cccd54d	0.025004053
94	0x3debe3db	0.11518069
95	0x3de018a1	0.109421976
96	0xbdc92907	-0.098222785
97	0xbdeab2c4	-0.11459878
98	0xbd28e912	-0.0412379
99	0x3dd5ac64	0.104332715
100	0xbe0880ae	-0.13330337
101	0x3d163113	0.036667895
102	0x3d8084af	0.062753074
103	0x3cc0c43d	0.023531074
104	0x3d7e6164	0.062104598
105	0x3d0e94fd	0.034810055
106	0xbd60e95b	-0.054910045
107	0x3c9e262f	0.019305317
108	0x3d528f9b	0.051406484
109	0xbe627da5	-0.22118242
110	0x3dcec690	0.100964665
111	0x3e0ed561	0.13948585
112	0xbd061045	-0.03273036
113	0xbbe195fd	-0.006884335
114	0x3c76ef33	0.015071678
115	0xbda64e19	-0.08120365
116	0xbd51b73a	-0.05120013
117	0xbda302bf	-0.07959508
118	0xbdd07dd8	-0.10180253
119	0x3d3ac422	0.045597203
120	0x3d681d19	0.056668375
121	0x3db8752e	0.09006725
122	0xbcc23135	-0.023705104
123	0xbdd0afe8	-0.101898015
124	0xbdcc49eb	-0.09975036
125	0x3bf46798	0.0074586384
126	0x3e4d6341	0.20057394
127	0x3dd76554	0.10517374

network_body._body_endoder.seq_layers.2.weight f4 [128, 128]
0	0x3e477c84	0.19481093
1	0xbc97244b	-0.018449923
2	0x3d90177f	0.070357315
3	0x3e006799	0.1253952
4	0x3e24c192	0.16089466
5	0xbca7aa8d	-0.020467067
6	0x3e5a3d2f	0.21312402
7	0xbdb63a2d	-0.08897815
8	0x3cbde152	0.02317873
9	0x3e1906a9	0.14943947
10	0x3dc03e01	0.09386826
11	0x3e255fc6	0.16149816
12	0x3d4d6063	0.05014075
13	0x3dbe6e0a	0.09298332
14	0xbd1a62eb	-0.03769199
15	0x3e0cf090	0.13763642
16	0xbcf13e9b	-0.029448798
17	0x3d1ca993	0.038247656
18	0xbba21eba	-0.0049475105
19	0xbde5de23	-0.1122401
20	0x3dbc9d93	0.092097424
21	0xbd02c9ab	-0.031930607
22	0x3d525ea0	0.051359773
23	0x3db6ee04	0.08932117
24	0xbe6654e1	-0.22493316
25	0xbdcc1ba9	-0.09966213
26	0xbdd9c819	-0.10633869
27	0xbd04ad68	-0.032391936
28	0xbd16819d	-0.036744703
29	0xbee96194	-0.4558226
30	0xbef34a14	-0.47517455
31	0xbd8a8bf1	-0.06764973
32	0xbdd62735	-0.10456697
33	0xbda5c9da	-0.08095141
34	0x3d329cc8	0.04360655
35	0xbd072c9a	-0.03300152
36	0x3dd51f17	0.104063205
37	0x3de63dea	0.11242278
38	0x3e1589df	0.14603375
39	0xbe355620	-0.17708635
40	0xbdd2d053	-0.10293641
41	0x3b66ad91	0.0035198668
42	0x3e932345	0.28737846
43	0xbc86e155	-0.016464869
44	0xbd694abc	-0.056956038
45	0xbe5b4f47	-0.2141696
46	0xbe2528eb	-0.1612889
47	0xbe08cd39	-0.13359536
48	0xbda387e1	-0.07984901
49	0x3bbfa892	0.0058489526
50	0x3e3f5d72	0.1868799
51	0x3bead214	0.0071661565
52	0x3e0f5357	0.13996635
53	0xbd265516	-0.040608488
54	0x3ca4c6f2	0.020114396
55	0x3e08cd7f	0.1335964
56	0xbe94e03a	-0.2907732
57	0xbe3663ef	-0.17811559
58	0xbc43236b	-0.0119103
59	0xbe8cc657	-0.2749507
60	0x3cdcbd76	0.02694581
61	0x3e642330	0.22279048
62	0x3c30f4f6	0.010800591
63	0x3cbec2b4	0.023286201
64	0xbd24b8fb	-0.040215474
65	0xbdc71f94	-0.0972282
66	0x3df717c3	0.12065079
67	0x3df2f0a0	0.11862302
68	0xbeb26254	-0.34840643
69	0x3e67b78e	0.22628614
70	0xbe503c5a	-0.20335522
71	0xbc4c38ca	-0.012464711
72	0x3dac0319	0.08399028
73	0x3d5c7053	0.05381806
74	0x3de32157	0.110903434
75	0x3da505f7	0.08057778
76	0xbe5aa3d8	-0.21351564
77	0xbdc9bd1b	-0.09850522
78	0xbc9925c4	-0.018694766
79	0xbd09eb1a	-0.033671476
80	0xbddf1c29	-0.10894043
81	0x3e5838f7	0.2111548
82	0x3d3bcb46	0.045848154
83	0x3dbaeea9	0.09127552
84	0xbe2f3f7e	-0.17114064
85	0xbcb5e40a	-0.022203464
86	0x3dfce8d4	0.12349096
87	0x3dceb5a3	0.10093238
88	0xbcfe683b	-0.03105556
89	0x3d5f05f0	0.05444902
90	0x3ed299cc	0.41132963
91	0x3e01d545	0.12679012
92	0xbda6f4c8	-0.08152157
93	0x3d131dce	0.035917096
94	0xbe93dda0	-0.28880024
95	0xbc588fdd	-0.013217893
96	0x3e4c9349	0.1997806
97	0x3e46da91	0.19419314
98	0xbdc1ca85	-0.09462456
99	0x3e816966	0.25275725
100	0xbd58033c	-0.05273746
101	0xbe24c1ce	-0.16089556
102	0x3dc95e39	0.09832425
103	0xbce83b81	-0.028348686
104	0xbd94916b	-0.07254299
105	0xbe352d9e	-0.17693183
106	0x3da44abe	0.080220684
107	0x3df071ff	0.11740493
108	0xbed3f1eb	-0.41395506
109	0xbd17765f	-0.03697812
110	0x3d8f51e6	0.06998043
111	0xbebab78c	-0.3646816
112	0xbd0c867f	-0.034307953
113	0x3dc88290	0.09790528
114	0xbe246c50	-0.16056943
115	0xbe0e05c6	-0.1386939
116	0x3db16957	0.0866267
117	0x3e205b4f	0.15659831
118	0xbda844ea	-0.08216269
119	0x3d3502a1	0.04419196
120	0x3e0cdd2d	0.13756247
121	0x3eb66cd5	0.35629907
122	0xbebe6e97	-0.37193748
123	0x3e1b01e1	0.15137435
124	0x3d81983d	0.06327865
125	0x3e8cff68	0.2753861
126	0x3c8f6087	0.017502083
127	0xbe122f0a	-0.14275756
128	0x3d1626ac	0.036657974
129	0x3dc3f33b	0.09567877
130	0xbe11261e	-0.14174697
131	0xbe845f90	-0.25854158
132	0xbd562b75	-0.052287538
133	0x3d8e3b05	0.06944851
134	0xbe7cd8d5	-0.2469209
135	0x3da24c68	0.079247296
136	0x3e242f23	0.16033606
137	0x3d186d65	0.0372137
138	0x3d9d491e	0.076799616
139	0xbefa8e37	-0.48936626
140	0x3b72d300	0.0037052035
141	0x3df2e328	0.11859733
142	0xbcda92de	-0.02668136
143	0x3e2f2747	0.17104827
144	0x3e2d3396	0.1691421
145	0xbc8d3558	-0.01723735
146	0xbe1e4d84	-0.15459257
147	0xbdf454cf	-0.119302385
148	0xbd40cbb4	-0.047069266
149	0xbe45b454	-0.19307071
150	0xbe607ec4	-0.21923357
151	0x3e1541f2	0.14575937
152	0xbda1d389	-0.07901675
153	0xbdc241e9	-0.094852276
154	0xbd3267ad	-0.043555904
155	0xbd618585	-0.055058975
156	0xbe0bec6f	-0.13664411
157	0xbdd835f5	-0.105571665
158	0x3baf3a3a	0.0053475173
159	0x3cf5837b	0.029969921
160	0x3dd0346e	0.1016625
161	0xbdc67317	-0.096899204
162	0xbed2d60a	-0.41178924
163	0xbe0c5f06	-0.13708124
164	0xbc4d80e8	-0.012542941
165	0x3ec66e30	0.3875594
166	0xbe14559c	-0.14485782
167	0xbe853e77	-0.2602422
168	0x3e22169e	0.1582894
169	0xbe968799	-0.29400328
170	0xbed32009	-0.41235378
171	0xbe22779c	-0.1586594
172	0xbd5a2c18	-0.053264707
173	0x3e502211	0.20325495
174	0xbd63cde7	-0.055616286
175	0xbe2760b6	-0.16345486
176	0xbe6a7cfd	-0.22899242
177	0xbe4ef69e	-0.20211264
178	0xbd54e5a0	-0.0519768
179	0x3e0f484a	0.1399242
180	0x3d6e594d	0.058190633
181	0xbcfdd75e	-0.030986484
182	0x3dbef0d8	0.09323281
183	0xbd795441	-0.060871366
184	0x3d2d4241	0.042299513
185	0xbdc81a12	-0.097705975
186	0xbecad207	-0.39613363
187	0x3e425e09	0.18981184
188	0xbe80b30d	-0.25136605
189	0xbe03c5ed	-0.12868471
190	0xbd073755	-0.033011753
191	0x3c540613	0.012940901
192	0xbd87a489	-0.066231795
193	0xbda028c9	-0.07820279
194	0xbe31d844	-0.17367655
195	0x3e26b618	0.16280401
196	0x3d6d268c	0.05789809
197	0xbdbba798	-0.09162825
198	0x3e1e5e0b	0.15465562
199	0xbe392f8d	-0.18084545
200	0xbd50a4cc	-0.050938413
201	0xbe8dabcc	-0.27670133
202	0x3e5330bb	0.20624058
203	0xbd3a62b4	-0.045504287
204	0x3e197aea	0.14988294
205	0x3ebbc574	0.36674082
206	0x3dd760b8	0.105164945
207	0x3ec7fcee	0.39060158
208	0x3e1faaf4	0.15592557
209	0xbe1fc05b	-0.15600722
210	0xbc2f49b4	-0.010698725
211	0xbdfd5c64	-0.12371138
212	0x3d81f289	0.06345088
213	0x3ea2fc7c	0.31833255
214	0xbd6ca535	-0.05777474
215	0x3e228cd5	0.15874036
216	0xbd8ee26c	-0.0697678
217	0x3d7fd565	0.06245937
218	0xbd2d9182	-0.042375095
219	0xbd81d336	-0.063391134
220	0xbe913d17	-0.2836692
221	0xbe8bdf49	-0.2731879
222	0xbe563668	-0.20919192
223	0xbd8ee525	-0.069772996
224	0xbdad8a1d	-0.08473609
225	0x3d388a2b	0.045053642
226	0xba78ad77	-0.00094862975
227	0xbe6bbb90	-0.23020768
228	0xbe4f0eb8	-0.20220459
229	0xbd065677	-0.032797303
230	0xbbb6a5ad	-0.0055739493
231	0xbc18e90c	-0.009332906
232	0xbdd4e58a	-0.103953436
233	0x3ddfe8a4	0.109330446
234	0x3e1bb027	0.15203916
235	0xbea8cc7d	-0.32968512
236	0x3e8fa444	0.28055012
237	0xbc256ecf	-0.01009722
238	0x3dd812a4	0.105504304
239	0x3ddcfcd2	0.10790409
240	0xbeb25bb9	-0.34835604
241	0xbdbc8bd9	-0.09206361
242	0xbc91724d	-0.017754698
243	0x3d0d7d5a	0.034543373
244	0xbdba4d16	-0.09096734
245	0x3c9ad6e5	0.018901298
246	0xbdb0161b	-0.08597966
247	0x3d028bbd	0.031871546
248	0xbda99a52	-0.082813874
249	0x3df7e656	0.1210448
250	0xbdd6225f	-0.104557745
251	0xbe64415b	-0.22290556
252	0x3ea3d8d1	0.32001355
253	0xbcd6791b	-0.026180794
254	0xbe34cd99	-0.17656554
255	0x3e22e619	0.15908088
