results/BetOrNot11/MoveToBet/MoveToBet-10970.onnx (onnx, 949148 bytes, 9 tensors)

action_model._continuous_distribution.log_sigma f4 [1, 16]
0	0xbe7e711c	-0.24847835
1	0xbea2b6c5	-0.31780067
2	0x3c9253f8	0.017862305
3	0x3dc7809b	0.097413264
4	0xbd9bb0bb	-0.07602068
5	0xbe8e3361	-0.27773574
6	0xb98947da	-0.0002618421
7	0xbeb21655	-0.34782663
8	0xbed4172c	-0.4142393
9	0xbea57ec5	-0.3232328
10	0x3e1494a1	0.14509822
11	0x3f134b39	0.57536656
12	0xbe4fa42e	-0.20277473
13	0xbe6a0d6b	-0.22856681
14	0x3f8c2619	1.0949126
15	0x3fb7c389	1.4356548

action_model._continuous_distribution.mu.bias f4 [16]
0	0x3d3a4eb4	0.045485213
1	0xbd7d2ec3	-0.061812174
2	0x3d514681	0.05109263
3	0x3d3c164a	0.045919694
4	0xbd7b1449	-0.061298642
5	0x3e0215df	0.12703656
6	0xbc16ee69	-0.009212115
7	0x3c587a90	0.013212815
8	0xbce99019	-0.028511094
9	0x3d43e675	0.047827203
10	0x3a230fac	0.0006220292
11	0x3e4a6c88	0.19767964
12	0x3db31eec	0.08746132
13	0xbc8132be	-0.015771266
14	0x3e29eceb	0.16594283
15	0x3e68a219	0.22718085

action_model._continuous_distribution.mu.weight f4 [16, 128]
0	0x3d641154	0.055680588
1	0x3d91f92f	0.07127606
2	0xbd50b453	-0.05095322
3	0x3e07989b	0.13241808
4	0x3dd550ff	0.104158394
5	0x3bd5863d	0.0065162466
6	0xbc6707bf	-0.014100968
7	0xbd328a47	-0.043588903
8	0xbd7c2b41	-0.061564688
9	0xbbc86196	-0.006115149
10	0x3d8867fa	0.06660457
11	0xbdd13eb0	-0.10217035
12	0xbda3c523	-0.07996585
13	0x3b24976c	0.0025114669
14	0xbd9b4108	-0.07580763
15	0xbd3e0031	-0.0463869
16	0x3d9685ab	0.07349714
17	0x3c8a2dd3	0.016867554
18	0x3cd7f74d	0.02636304
19	0xbdb3803b	-0.087646924
20	0xbdaba639	-0.08381314
21	0x3d234f09	0.039870296
22	0xbd7e96d5	-0.062155563
23	0x3dbdfb92	0.09276499
24	0x3d7e432c	0.06207578
25	0x3cac7aa0	0.021054566
26	0xbde1e84d	-0.11030636
27	0x3d13bd89	0.036069427
28	0xbcf884a8	-0.030336693
29	0xbdc654c3	-0.09684136
30	0x3dd3956d	0.10331235
31	0x3cb716e1	0.022349777
32	0xb9a6a316	-0.00031783496
33	0xbd22c5f1	-0.039739553
34	0xbb08e4f9	-0.0020888431
35	0x3e09944b	0.13435476
36	0x3d95d6c3	0.07316353
37	0xbc46869e	-0.012117056
38	0xbcb9ea6a	-0.022694785
39	0x3d8d61b6	0.069034025
40	0xbb4b0370	-0.003097739
41	0xbc6401ff	-0.0139164915
42	0x3d2e153f	0.04250073
43	0x3d08a4bb	0.033360224
44	0xbcb64d3c	-0.022253625
45	0xbcf6c4a0	-0.030123055
46	0x3e17f1ee	0.14838383
47	0x3cf038e2	0.029323999
48	0xbe149fcd	-0.14514084
49	0x3d504c48	0.050853997
50	0xbde31ec4	-0.110898525
51	0x3d04a715	0.032385904
52	0xbbf39f48	-0.0074347593
53	0xbc1d8b5d	-0.009615746
54	0x3de18b3b	0.11012884
55	0x3dd54fa5	0.104155816
56	0x3e076976	0.13223824
57	0xbd9207bc	-0.071303815
58	0x3c8f197e	0.01746821
59	0xbe50f382	-0.20405391
60	0x3c9480e7	0.018127872
61	0xbd87b820	-0.06626916
62	0xbd911285	-0.070836104
63	0x3d836fb2	0.064177886
64	0x3bfe321f	0.0077574397
65	0xbdf426fa	-0.11921497
66	0xbc04771c	-0.0080850385
67	0xbddc04cc	-0.107431024
68	0x3da5137a	0.080603555
69	0x3d8ddae7	0.06926518
70	0xbba547d8	-0.005043965
71	0x3e015f1f	0.12633942
72	0x3cfa3b43	0.030545836
73	0xbce912f9	-0.02845143
74	0x3b9c59b1	0.0047714342
75	0x3d920c16	0.071312115
76	0xbd82fed5	-0.063962616
77	0xbe838ad1	-0.25691846
78	0x3de6cefa	0.112699464
79	0x3e2329f0	0.15933967
80	0x3dbdfecb	0.092771135
81	0xbdc9d69d	-0.09855387
82	0xbe2c1546	-0.1680499
83	0xbb304357	-0.0026895606
84	0x3d8dbaef	0.069204204
85	0xbddc08fa	-0.107439
86	0xbd8c939f	-0.06864094
87	0xbc665072	-0.014057266
88	0x3d5e329a	0.054247476
89	0x3cb042fd	0.021516318
90	0x3d94f4d9	0.072732635
91	0x3c635063	0.013874146
92	0xbd0d94fc	-0.03456591
93	0xbd691b0d	-0.056910563
94	0x3c16bf60	0.009200901
95	0x3d3e72c6	0.046496175
96	0x3d4f0f2e	0.050551586
97	0x3c913f28	0.01773031
98	0x3ced5779	0.028972374
99	0xbdbdf2f4	-0.09274855
100	0x3e74b1e3	0.23895983
101	0xbd43df15	-0.04782017
102	0x3d33c8a2	0.04389251
103	0x3c933c5e	0.017973121
104	0x3cb7c690	0.02243355
105	0x3c1956bf	0.009359061
106	0xbd8c5b78	-0.06853384
107	0xbdc8a527	-0.09797125
108	0xbd004c9b	-0.031323057
109	0x3bc07003	0.005872728
110	0xbcc2f898	-0.02380018
111	0xbe2758a4	-0.16342407
112	0x3d99d680	0.07511616
113	0x3d2e5856	0.042564712
114	0x3d5ef65f	0.054434177
115	0xbc8d663d	-0.017260665
116	0x3d26898c	0.04065852
117	0x3d95391d	0.07286284
118	0xbe044d38	-0.12920082
119	0xbd573f23	-0.052550446
120	0xbbf4fda6	-0.0074765263
121	0x3c2fcb06	0.010729557
122	0x3d3a1026	0.045425557
123	0xbddfcebc	-0.10928103
124	0x3c08587c	0.008321878
125	0x3a80a286	0.0009814061
126	0xbe496073	-0.19665699
127	0x3ccf30d7	0.025291843
128	0x3dc10542	0.09424831
129	0xbc5d6290	-0.013512269
130	0x3d81a65d	0.063305594
131	0x3d83a106	0.06427197
132	0xbb5207b6	-0.0032048053
133	0xbc1f24e4	-0.009713385
134	0xbeb671b0	-0.35633612
135	0xbd956d70	-0.07296264
136	0xbd80b835	-0.06285135
137	0x3de1ed1c	0.11031553
138	0xbb962b52	-0.004582801
139	0x3cc28593	0.023745334
140	0x3cfd1d89	0.030897873
141	0xbc8d8bf1	-0.017278643
142	0xbdf38c2d	-0.11891971
143	0xbda4dac7	-0.08049541
144	0xbd28f70c	-0.041251227
145	0x3adabeb5	0.0016688915
146	0xbbe5ac1b	-0.007009042
147	0xbd9bbab7	-0.076039724
148	0x3d418d95	0.047254164
149	0x3d7b09af	0.061288532
150	0xbc9e2d8b	-0.019308826
151	0x3da1a555	0.07892863
152	0xbbe32b4f	-0.006932653
153	0xbcdbae1d	-0.026816422
154	0xbc1fae42	-0.009746136
155	0x3d98cc1c	0.07460806
156	0x3d3661ca	0.044526853
157	0x3ce2f508	0.02770473
158	0x3ddabe66	0.10680847
159	0x3c5864b0	0.0132075995
160	0x3cb4c51e	0.022066649
161	0xbd1f55fe	-0.038900368
162	0xbc666aa4	-0.014063511
163	0x3d776425	0.06039824
164	0xbd8c4f65	-0.06851081
165	0xbd8947a7	-0.0670312
166	0x3dcef746	0.101057574
167	0x3c48a626	0.012246644
168	0xbbed34d5	-0.007238964
169	0x3c89a472	0.016802046
170	0x3e048bb8	0.12943923
171	0x3cff8607	0.031191839
172	0xbbc81b31	-0.006106757
173	0x3d596cee	0.0530824
174	0xbe3f6a6e	-0.18692943
175	0xbc813199	-0.01577072
176	0x3de01d3d	0.10943077
177	0x3de6e191	0.11273492
178	0x3d2d032c	0.042239353
179	0xbc82602d	-0.015915
180	0x3c6dcada	0.014513696
181	0xbd3ba056	-0.045807205
182	0x3d67a472	0.05655331
183	0xbd78ab09	-0.060709987
184	0x3e01b98e	0.1266844
185	0x3d8ab6aa	0.06773122
186	0x3cc96f45	0.02458919
187	0xbe05a0aa	-0.1304957
188	0x3a38a207	0.0007043187
189	0x3e18d395	0.14924462
190	0xbe24ff8e	-0.16113111
191	0xbde69f07	-0.11260801
192	0x3a4a8215	0.0007725072
193	0xbc687ca7	-0.014189876
194	0x3c0a34ba	0.008435423
195	0xbdf43009	-0.119232245
196	0xbcbdb15f	-0.023155866
197	0x3d3f5023	0.046707284
198	0x3d30ee88	0.04319623
199	0x3da641b4	0.081180006
200	0xbd7e5d02	-0.062100418
201	0xbd576e05	-0.052595157
202	0xbd99b1d2	-0.0750462
203	0xbc012baf	-0.00788395
204	0x3d8e4dff	0.0694847
205	0x3ea0ddc3	0.3141919
206	0xbd17f7b3	-0.03710146
207	0x3d81b429	0.06333191
208	0x3d82cb42	0.063864246
209	0xbe4e4660	-0.20144033
210	0xbc445141	-0.011982263
211	0xbb8df1f3	-0.004331821
212	0xbd6d6cc9	-0.057965074
213	0xbce5c914	-0.028049983
214	0x3c4e5adc	0.012594905
215	0x3d1abfc5	0.037780542
216	0x3dbac0f7	0.091188364
217	0xbdb66c8a	-0.08907421
218	0xbbc47d3c	-0.0059963744
219	0x3dc134b7	0.09433883
220	0x3dc9a545	0.09845976
221	0x3cdd9b5c	0.02705162
222	0x3be868cd	0.0070925714
223	0x3d8e2271	0.06940163
224	0xbd08eace	-0.033427052
225	0xbd00171b	-0.031272035
226	0xbb9d99f8	-0.0048096143
227	0x3d07271e	0.03299629
228	0x3d4d4eb5	0.05012389
229	0xbd158a0b	-0.0365086
230	0x3dae0ff6	0.08499138
231	0xbd6b3c36	-0.05743047
232	0x3d020f6c	0.03175299
233	0xbc42779b	-0.0118693365
234	0xbcde9d41	-0.027174594
235	0x3e75b28b	0.2399389
236	0x3e0794e4	0.13240391
237	0xbc621266	-0.013798332
238	0x3d949543	0.07255032
239	0x39e6383e	0.00043910922
240	0xbd61ac8a	-0.055096187
241	0x3c0cea3e	0.00860077
242	0xbda21606	-0.07914357
243	0x3e08a451	0.13343932
244	0xbc9ced95	-0.019156257
245	0x3cbf8354	0.023378052
246	0xbe069266	-0.13141784
247	0x3dd782f1	0.10523022
248	0xbc1216cc	-0.008916568
249	0x3d9be441	0.07611895
250	0x3c1b97e2	0.009496661
251	0x3c3b4fff	0.011432647
252	0x3c720db5	0.014773776
253	0xbd93ab8f	-0.072104566
254	0x3e0ee6ed	0.13955279
255	0x3d34bd90	0.044126093

action_model._discrete_distribution.branches.0.bias f4 [2]
0	0x3c949368	0.018136695
1	0xbc949344	-0.018136628

action_model._discrete_distribution.branches.0.weight f4 [2, 128]
0	0x39f82b21	0.0004733438
1	0xbb226e3f	-0.002478495
2	0xbc11dadf	-0.008902281
3	0x3c525964	0.012838695
4	0xbb029111	-0.0019922892
5	0x3c2648e0	0.010149211
6	0xbc448244	-0.011993948
7	0xbc0b8b6d	-0.008517128
8	0x39b59b14	0.00034638552
9	0xba36878b	-0.00069629465
10	0x3acd04a5	0.0015641643
11	0x3b0ddae4	0.0021645362
12	0xb930f560	-0.00016876077
13	0xbbe4e066	-0.006984758
14	0xbbc2254b	-0.005924856
15	0x3c088588	0.008332618
16	0x39c06653	0.0003669733
17	0xbc61e2ae	-0.013786955
18	0x3b316a1b	0.00270713
19	0xbc16cb4a	-0.009203741
20	0xbc47e1c2	-0.012199821
21	0xbbce2c86	-0.0062919287
22	0x3c0e8a13	0.008699912
23	0xbb608d0a	-0.0034263753
24	0x3b23d6ca	0.002499985
25	0xbc41ce5d	-0.011828986
26	0xbbed9b07	-0.0072511467
27	0x3be21fa1	0.006900743
28	0xbb686c2e	-0.003546487
29	0xbb8c516a	-0.0042821663
30	0xbb537a0b	-0.0032268788
31	0xbb9c6d6d	-0.0047737868
32	0xbb7a3b22	-0.0038182219
33	0x3b4b7a6a	0.0031048306
34	0xbbfab2ea	-0.0076507227
35	0x3c063160	0.008190483
36	0x3c4eb9e1	0.012617559
37	0x3a78cf44	0.0009491334
38	0xbc040c9a	-0.008059645
39	0x39e10666	0.0004292011
40	0xbbe35d18	-0.006938588
41	0xbc824f70	-0.01590702
42	0x3a0d907f	0.0005400255
43	0x38ffc1ce	0.000121954465
44	0x3addc8e2	0.001692083
45	0xbb00b4f6	-0.001963911
46	0x3b8d3698	0.0043094866
47	0xbb5b4105	-0.0033455503
48	0xbc17b031	-0.009258316
49	0x3ba65c71	0.005076938
50	0xbc25aab6	-0.010111501
51	0x3a05bdc0	0.00051018223
52	0xbbe9524a	-0.0071204053
53	0x3aebb0f3	0.0017981812
54	0xbc072386	-0.008248216
55	0xbb149618	-0.002267247
56	0x3c638134	0.013885785
57	0x3b17f2a2	0.0023185392
58	0xb79c1401	-1.8605964e-05
59	0xbafb5303	-0.001917452
60	0x3bb5d6e1	0.005549297
61	0xbb1995d1	-0.0023435245
62	0xbb93f171	-0.004514866
63	0xbb80b8ee	-0.0039282953
64	0xbbbcbb17	-0.0057596075
65	0xbc82aae9	-0.015950637
66	0x3b9d1a99	0.0047944305
67	0xbc39640c	-0.011315357
68	0x3baa7fec	0.0052032378
69	0xbbec8634	-0.0072181467
70	0x3b46fab1	0.0030361826
71	0xbc13d02c	-0.0090218
72	0x3c0f4710	0.00874497
73	0x3baf5941	0.005351216
74	0x3b8addba	0.0042378576
75	0x3c00b6ab	0.007856051
76	0x3aa8ff53	0.0012893475
77	0xbc045d92	-0.0080789495
78	0xbc34fde1	-0.011046858
79	0x3be908ce	0.0071116453
80	0x3ae8466e	0.0017721185
81	0x3c684745	0.014177148
82	0xbb7af24a	-0.0038291388
83	0x3a48adaa	0.00076552725
84	0xbbc6b3f3	-0.006063932
85	0x3b1897fa	0.0023283944
86	0xbbd3f2e6	-0.0064681647
87	0xbc439a00	-0.011938572
88	0xbb3d5739	-0.00288911
89	0x3a81ac36	0.0009893242
90	0xbc1b5c92	-0.00948252
91	0xbb057223	-0.002036222
92	0xbbf8ba77	-0.0075905877
93	0x3bc2ac80	0.0059409738
94	0x3b451d0c	0.0030077128
95	0x3a92193b	0.0011146435
96	0xbc1eb8ac	-0.009687584
97	0xbbd73825	-0.0065679722
98	0x3b560bd0	0.003266085
99	0xbc17d037	-0.009265951
100	0xbbef47ca	-0.007302259
101	0x3b88268b	0.0041549853
102	0xbbd014cc	-0.0063501354
103	0x3b62efd6	0.0034627817
104	0x3bc26e18	0.0059335344
105	0x3c8be644	0.017077573
106	0xbc67d075	-0.014148821
107	0x3bc6bfed	0.00606536
108	0x3b942bf3	0.0045218407
109	0x3c1c9adc	0.009558406
110	0x3c434b51	0.011919812
111	0x39f044ec	0.00045827718
112	0xbb097aa2	-0.0020977636
113	0xbb5a7bbe	-0.0033337916
114	0xbb8d3ce0	-0.0043102354
115	0xbbc3eb69	-0.005978991
116	0x3a88b1cd	0.0010428965
117	0x3bfdd9b5	0.0077469
118	0xbc4a261d	-0.0123381885
119	0xbb8c929c	-0.004289938
120	0xbb692115	-0.0035572697
121	0xbab180a3	-0.0013542365
122	0x3baca41a	0.005268586
123	0x3b7119df	0.0036789102
124	0xbbee02d9	-0.007263523
125	0x3b99c425	0.0046925717
126	0x3b1fed58	0.0024402943
127	0x3a855a65	0.0010174034
128	0x39801421	0.0002442906
129	0x3aaefdea	0.0013350819
130	0x3b52b054	0.0032148557
131	0x3c6e6da8	0.014552511
132	0x3c2963db	0.010338749
133	0x3b9182c0	0.0044406354
134	0x3be9d2f5	0.0071357437
135	0x3baad3e1	0.005213246
136	0x3bd5974a	0.006518279
137	0x3ba92777	0.0051621753
138	0x3a20a53d	0.0006128138
139	0xbba84f95	-0.00513644
140	0xbb6f905f	-0.0036554558
141	0xbc04c6a5	-0.008104001
142	0x3ad9b5ee	0.0016610005
143	0x3c0c3026	0.008556401
144	0xba92c4d3	-0.0011197574
145	0xbc3a17f1	-0.011358247
146	0x3b93f7e9	0.004515637
147	0x3a1e4aeb	0.00060383853
148	0x3b4b1177	0.0030985752
149	0xbba56705	-0.0050476813
150	0x3b6bcd57	0.0035980546
151	0x3c2496f7	0.010045758
152	0xba669ed8	-0.0008797473
153	0xbc74d7ad	-0.014943999
154	0x3bf2970f	0.0074032615
155	0x3c3a2cd1	0.011363224
156	0xbbef9b8b	-0.0073122433
157	0xbbb4dc00	-0.00551939
158	0x3c0b3f5c	0.008498993
159	0xbc5ed1e9	-0.013599851
160	0x3be9c92e	0.007134578
161	0xbc0c662a	-0.00856928
162	0xbc111b0d	-0.008856547
163	0x3c020935	0.007936765
164	0x3be30214	0.006927738
165	0x3c9dd4c2	0.01926649
166	0xbc5d785b	-0.0135174645
167	0x3c1f5d7e	0.00972688
168	0xbc055914	-0.008138914
169	0xbbc06c7c	-0.0058723073
170	0x3c5478eb	0.012968282
171	0xba4ae02a	-0.00077390915
172	0x3b5fa049	0.0034122637
173	0xbc271fbb	-0.010200436
174	0xba439338	-0.0007460597
175	0x3b021a0c	0.001985195
176	0x3bc22961	0.005925343
177	0x3b4b084a	0.0030980282
178	0xbbabaa72	-0.0052388245
179	0xba0dc4d5	-0.00054080534
180	0x3ca963a9	0.020677404
181	0xba4a2ddb	-0.00077125215
182	0xbc9713ad	-0.018442
183	0xbb305a25	-0.00269092
184	0x3c0bbd66	0.008529043
185	0xbbcba293	-0.0062144487
186	0xba506ec9	-0.00079510786
187	0x3c6410bd	0.013920006
188	0x3bd4de9d	0.006496264
189	0xbb9e8810	-0.0048379973
190	0xbbac6215	-0.0052607157
191	0xbb3743c1	-0.0027963968
192	0xbb8206c8	-0.0039680935
193	0x3a9c3cfc	0.001192003
194	0x3badf01b	0.005308164
195	0x3c4f0384	0.0126351155
196	0xbae25b5b	-0.0017269658
197	0xbc302b15	-0.010752459
198	0x3be00f3f	0.006837755
199	0xbbc864ca	-0.0061155306
200	0xbc06deba	-0.008231813
201	0x3cefc733	0.02926979
202	0x3c19bf71	0.009384022
203	0xba70bc32	-0.0009183317
204	0xbb2a51c9	-0.002598869
205	0x3b5f73dd	0.003409616
206	0xbbf2003e	-0.007385283
207	0x3b1a0ac1	0.0023504945
208	0x3a18236f	0.000580362
209	0xbc37d126	-0.0112192985
210	0x3b17de39	0.0023173227
211	0x3bbfed61	0.005857155
212	0xbc1f0f7d	-0.009708283
213	0x3b2a87a6	0.0026020794
214	0xbc59ad93	-0.013286012
215	0xbad40713	-0.0016176425
216	0xbb118581	-0.0022204819
217	0x3be959a8	0.0071212836
218	0xbb83d69b	-0.0040233857
219	0xbc776eb2	-0.015102075
220	0x3bfe8e84	0.007768454
221	0x3bec64c6	0.0072141616
222	0x3b861f7e	0.0040931096
223	0x3b7da479	0.003870277
224	0xbc17f8ec	-0.009275656
225	0x3ada0eb6	0.0016636464
226	0x3ba0158c	0.004885381
227	0x3ba6fc22	0.0050959745
228	0xbc144192	-0.009048836
229	0x3aada7c0	0.0013248846
230	0x3b8b6db3	0.0042550205
231	0x3bf106a8	0.00735553
232	0x3b7b1a22	0.0038315137
233	0x3c6ef20e	0.0145840775
234	0x3bac5c09	0.005259995
235	0xb954d39e	-0.00020296729
236	0x3bfa8bd2	0.0076460624
237	0xbbee6e16	-0.007276307
238	0x3b1e7c99	0.0024183153
239	0xbb7a8f71	-0.003823247
240	0xbac99c22	-0.0015381614
241	0x3c70990b	0.014684926
242	0x3b1a01f0	0.002349969
243	0xbbf1cb47	-0.007378969
244	0x3b8f07b8	0.004364934
245	0xbcbc35e5	-0.022974918
246	0x3a89eca3	0.0010522794
247	0xbbeed815	-0.0072889426
248	0xbbb8a199	-0.0056344983
249	0x3c16210f	0.009163155
250	0x3ba06741	0.0048951213
251	0xbc0b7c46	-0.008513516
252	0x3c562535	0.013070394
253	0x3bf3acdc	0.007436378
254	0x3aac2dc9	0.0013136204
255	0xbbc759b6	-0.0060836924

network_body._body_endoder.seq_layers.0.bias f4 [128]
0	0x3c6bbb06	0.014387852
1	0x3d197039	0.03746054
2	0xbc406806	-0.011743551
3	0x3d24a1e4	0.040193453
4	0x3e76941d	0.24079938
5	0x3e0a4c43	0.13505654
6	0x3d0dbad9	0.03460202
7	0x3db35a40	0.08757448
8	0x3e0d6c38	0.13810813
9	0xbe2f0eb5	-0.17095454
10	0x3d6b6399	0.05746803
11	0x3d998cff	0.07497596
12	0xbc0c2c81	-0.008555532
13	0x3decf94c	0.11570987
14	0x3dc54d3f	0.09633874
15	0xbdb91dff	-0.090389244
16	0x3e18b244	0.14911753
17	0x3e5f4673	0.21804218
18	0x3d574319	0.052554224
19	0x3e0dbd06	0.13841638
20	0x39a19105	0.0003081636
21	0x3cb4a31c	0.022050433
22	0x3cb90dfc	0.022589676
23	0x3e10d01f	0.14141892
24	0x3d67e708	0.056616813
25	0x3dbc522e	0.09195362
26	0x3e175e53	0.14782076
27	0x3d2b7a06	0.041864417
28	0x3e28c919	0.16482963
29	0x3de9074b	0.11378344
30	0x3c327099	0.010891103
31	0x3db23b76	0.087027475
32	0x3dd6e1c0	0.10492277
33	0x3cebe787	0.028796924
34	0x3d84222f	0.064518325
35	0x3d853f63	0.06506231
36	0xbbc544bf	-0.006020158
37	0x3e2bbdd2	0.1677163
38	0x3dfdb4b2	0.123879805
39	0x3db80053	0.08984437
40	0x3d88b9ea	0.06676085
41	0x3d96f9e2	0.0737188
42	0x3dbe9b89	0.0930701
43	0x3dc88ae7	0.097921185
44	0x3da4a854	0.080399185
45	0x3e39cf33	0.18145446
46	0x3c3d114d	0.011539769
47	0x3dc7a0a1	0.097474344
48	0x3c5341d4	0.012894113
49	0x3d5e3b42	0.05425573
50	0x3db524d6	0.088449165
51	0xbd58ba26	-0.0529119
52	0x3e56b803	0.20968632
53	0xbd05519f	-0.032548543
54	0x3d9c207d	0.07623384
55	0xbc5d64b4	-0.013512779
56	0x3d504b4f	0.05085307
57	0xbdd6a9e3	-0.10481622
58	0x3e4227f0	0.18960547
59	0x3d909456	0.07059543
60	0x3e30e988	0.17276585
61	0xbd12d449	-0.035846982
62	0xbdd16dc1	-0.10226012
63	0x3ceb3121	0.02870995
64	0x3da4c6a8	0.08045703
65	0xbdf39a96	-0.11894719
66	0x3e15bbcd	0.14622422
67	0x3df1412b	0.11780008
68	0xbe7add88	-0.2449857
69	0x3cbf3835	0.023342231
70	0x3dda49d6	0.10658614
71	0xbcae8ad4	-0.021306433
72	0xbd616540	-0.0550282
73	0x3ddc08b8	0.107438505
74	0xbc5e9a19	-0.013586544
75	0x3d83e95e	0.06440996
76	0x3e382158	0.1798147
77	0x3c7b7c4b	0.015349458
78	0xbd7d672c	-0.06186597
79	0x3dd93c03	0.106071495
80	0x3d59c0a4	0.053162232
81	0x3dfc0ea7	0.12307482
82	0x3d62b336	0.05534669
83	0x3dc7e5cd	0.09760628
84	0xbcd1c485	-0.025606403
85	0x3e613793	0.21993856
86	0x3dbb4e4d	0.09145794
87	0x3d837e5d	0.06420586
88	0x3ceaefd8	0.02867882
89	0x3d341248	0.043962747
90	0x3d9fa095	0.077943005
91	0x3d69a67a	0.05704353
92	0x3d8fbf22	0.070188776
93	0x3dd18511	0.102304585
94	0x3d8d584c	0.06901607
95	0x3c0c5dbb	0.008567269
96	0x3e2809bf	0.16409968
97	0xbd47ae01	-0.048749927
98	0x3dbbc203	0.09167864
99	0x3daa51b1	0.08316363
100	0x3dcfc220	0.10144448
101	0x3db04eff	0.08608817
102	0x3caaef8f	0.020866184
103	0xbdb5b1fb	-0.08871838
104	0x3cb6c21d	0.022309357
105	0x3c5100d3	0.012756544
106	0x3e051905	0.12997825
107	0x3d2df7d3	0.04247267
108	0x3e187c18	0.14891088
109	0x3e04d69b	0.1297249
110	0x3e1e814b	0.15479009
111	0x3e003b76	0.12522683
112	0x3da9a835	0.08284036
113	0x3d70f7b5	0.05882998
114	0x3a8c9b17	0.0010727373
115	0x3d25927c	0.0404229
116	0x3d8cce14	0.06875244
117	0x3dba2db9	0.09090752
118	0xbd1eab15	-0.038737375
119	0x3c7bfdb4	0.015380312
120	0x3d3dcb4f	0.04633647
121	0x3d0d725c	0.03453289
122	0x3e5c0868	0.21487582
123	0x3cbdabb2	0.02315316
124	0x3e89369c	0.26799476
125	0x3de3e22f	0.111271255
126	0x3da21e44	0.07915929
127	0x3d405db5	0.046964366

network_body._body_endoder.seq_layers.0.weight f4 [128, 1700]
0	0x3c64b18a	0.013958344
1	0x3b4d4caa	0.0031326213
2	0x3bfe05ca	0.007752155
3	0x3c9fc8e2	0.019504968
4	0xbc88f94f	-0.016720442
5	0x3d27b734	0.0409462
6	0x3a245f75	0.0006270328
7	0x3b3f9e63	0.0029238693
8	0x3bbfc7f8	0.0058526956
9	0x3cd44a30	0.025914282
10	0x3d2c760a	0.04210476
11	0xbcf7e315	-0.030259648
12	0x3d85905f	0.06521677
13	0x3b3ff405	0.0029289734
14	0xbcd0ad32	-0.025473211
15	0x3c168011	0.009185807
16	0x3c00cf0a	0.007861862
17	0xbc20e92a	-0.009821216
18	0x3be65c93	0.0070300787
19	0x3c5ba683	0.013406399
20	0x3d0007eb	0.03125755
21	0xba1e1973	-0.0006031014
22	0x3acb24ac	0.00154986
23	0x3c86e950	0.016468674
24	0x3c3c2829	0.011484184
25	0x3c8ce4b7	0.017198903
26	0x3c0c1640	0.008550227
27	0xba17606f	-0.00057745626
28	0xbc96bfd3	-0.018402016
29	0x3cc4a8ae	0.024006214
30	0x3cba6196	0.02275161
31	0x3c83bc2d	0.01608094
32	0x3b41d487	0.002957614
33	0xbc4ac69d	-0.012376455
34	0xbcbb3080	-0.022850275
35	0x3cb8c756	0.022555988
36	0xbd48183d	-0.04885124
37	0x3c9b4a95	0.018956462
38	0x3d162f58	0.036666244
39	0x3bde9681	0.006792844
40	0x3ba00af4	0.004884118
41	0xbb334190	-0.002735231
42	0x3bfb3276	0.0076659275
43	0x3c62c304	0.013840441
44	0x3ad5c3d0	0.0016308967
45	0x3c944cbb	0.018102994
46	0xbd1c32cb	-0.038134377
47	0xbc644425	-0.013932263
48	0x3c8819c3	0.016613847
49	0x3d495ee5	0.049162764
50	0xbc536d4b	-0.012904475
51	0x3ce0621e	0.027390536
52	0xbd07a6a3	-0.0331179
53	0x3d10ff31	0.03539962
54	0xbceeec3f	-0.029165385
55	0xbd272076	-0.04080244
56	0xbc0ebf27	-0.008712566
57	0x3c9a3989	0.018826263
58	0xbc6b5b03	-0.014364961
59	0xba84974b	-0.001011589
60	0xbd56bb1d	-0.05242454
61	0xbba2690a	-0.0049563693
62	0xbb944753	-0.004525104
63	0x3afd7e83	0.0019340072
64	0x398b6abb	0.00026591666
65	0xbc1b1e52	-0.009467678
66	0xbbee0295	-0.0072634914
67	0xbb4862d0	-0.0030576475
68	0x3c823148	0.01589264
69	0x3becbeb9	0.0072248843
70	0x3c8e4302	0.017365936
71	0x3c98a764	0.018634506
72	0x3cdcfe75	0.026976803
73	0xbcf6a2b4	-0.03010688
74	0xbd0fe599	-0.03513107
75	0x3d1ace94	0.037794665
76	0xbab71a39	-0.0013969607
77	0xbbd30e51	-0.0064409156
78	0xbca7754f	-0.02044168
79	0x3d0c6c1e	0.034282796
80	0x3b5bc3e8	0.0033533517
81	0x3b098d44	0.0020988742
82	0x39c68e31	0.00037871444
83	0x3c6561e1	0.014000387
84	0xbc3eb0cc	-0.011638831
85	0x3bcaab09	0.0061849398
86	0xbb673cd4	-0.003528406
87	0x3c39224d	0.011299682
88	0xbc58b11f	-0.013225823
89	0x3cdf1db9	0.027235853
90	0x3c7e18d9	0.015508854
91	0x3d02e5cc	0.031957433
92	0x3d07d5ac	0.033162758
93	0x3d1ee03d	0.03878807
94	0xbc3d47e4	-0.011552785
95	0xbd103d06	-0.035214446
96	0xbc279ca0	-0.010230213
97	0x3be67ba4	0.007033782
98	0xbd2813e9	-0.041034613
99	0x3ab60903	0.0013888184
100	0xbc521d10	-0.012824312
101	0x398f99e0	0.0002738973
102	0x3bd1d5ab	0.006403645
103	0x3d58aa21	0.052896623
104	0xba779895	-0.0009445039
105	0x3bd9ab71	0.006642752
106	0x3c09cc4b	0.008410524
107	0x3b484149	0.003055649
108	0x3bd1c65f	0.0064018215
109	0xbcd70889	-0.026249187
110	0xbd012181	-0.031526092
111	0x3b2dbaf0	0.0026509129
112	0xbb87109e	-0.004121854
113	0x3c1a8d22	0.009433063
114	0xbc645c85	-0.013938074
115	0x3cb471a7	0.02202685
116	0x3bc97f72	0.006149226
117	0x3d00a029	0.03140274
118	0x3ae7d15f	0.0017686299
119	0x3c8d276e	0.017230716
120	0x3a3b24fd	0.00071389956
121	0x3b8fdb0f	0.0043901275
122	0x3b453d61	0.00300964
123	0xbbf91d7e	-0.0076023927
124	0xbbefc270	-0.00731688
125	0x3a6c05a2	0.0009003525
126	0xbcc4421d	-0.023957307
127	0x3be6d48b	0.00704438
128	0xbbd10b1d	-0.0063794986
129	0xbda414fe	-0.080118164
130	0x3d1a34ab	0.037647884
131	0x3a9a152e	0.001175558
132	0xbceb3e97	-0.028716369
133	0xbcb50e4f	-0.02210155
134	0xbd72f035	-0.05931111
135	0xbba544b1	-0.005043589
136	0xbc3a49ee	-0.011370165
137	0x3ca635a1	0.020289244
138	0xbd568147	-0.052369382
139	0xbcdea2bf	-0.027177213
140	0x3c07462a	0.0082564745
141	0xbc6bc1fb	-0.01438951
142	0xbc930052	-0.017944489
143	0x3cfbb888	0.03072764
144	0xbd755246	-0.059892915
145	0x3b48ca4f	0.0030638163
146	0x3c9812ec	0.01856371
147	0xbb3ddc98	-0.0028970595
148	0x3c490875	0.012270083
149	0xbcb22df8	-0.021750435
150	0xbbb95eb7	-0.005657043
151	0xbb466d51	-0.003027756
152	0xbd1634e4	-0.036671534
153	0xbcc60297	-0.024171157
154	0x3bf8b5dd	0.007590039
155	0x3ccb3752	0.024806652
156	0xb8f00465	-0.0001144491
157	0xbd9a075a	-0.075209334
158	0x3cfb47ca	0.03067388
159	0x3d213dce	0.039365582
160	0xbb5c2202	-0.0033589606
161	0xbcb08794	-0.021549024
162	0x3a38acec	0.00070448103
163	0x3c8468fa	0.016163338
164	0x3ce57584	0.028010137
165	0xbccc098d	-0.024906898
166	0xbbb50d4f	-0.005525268
167	0x3d3bfee9	0.0458974
168	0x3ccc6530	0.024950594
169	0x3b5e3c78	0.0033910554
170	0xbc709c16	-0.014685651
171	0x3d778ffe	0.060440056
172	0xbbdc0aac	-0.0067151394
173	0x3b732b96	0.0037104837
174	0xbb564e83	-0.0032700605
175	0x3ccefe6e	0.025267806
176	0xbc6be953	-0.014398891
177	0xbce45acc	-0.027875327
178	0x3985d613	0.00025527235
179	0x3bffed41	0.0078102653
180	0xbb86c930	-0.004113339
181	0xbc559e45	-0.013038223
182	0x3ba2f79c	0.004973365
183	0x3c2b6960	0.010462135
184	0xbcf8996c	-0.030346595
185	0x3c90000d	0.01757815
186	0x3b42cd0e	0.0029724273
187	0x3cd79d95	0.026320258
188	0xbc8a3f2c	-0.016875826
189	0xbc6264d6	-0.0138179865
190	0xbc3bb62f	-0.01145701
191	0x3b7a214e	0.0038166824
192	0x3b4fbe35	0.0031699066
193	0x3c6d89fc	0.01449823
194	0x3d37d54b	0.044881146
195	0xbb6d67d3	-0.0036225214
196	0x3b9f1899	0.004855227
197	0xbc6e9e57	-0.014564118
198	0xbcfe53fb	-0.031045904
199	0x3ac045ee	0.0014669278
200	0xbc6c712a	-0.014431277
201	0xbc821512	-0.015879188
202	0x3bcd9dc8	0.0062749125
203	0xbb43a774	-0.0029854449
204	0x3d07fcf5	0.033200223
205	0xbd54463e	-0.0518248
206	0x3c02e5f5	0.007989396
207	0xbb96e3d8	-0.004604798
208	0xbd05dddd	-0.03268229
209	0xbc7ffad4	-0.015623767
210	0xbc6668de	-0.014063088
211	0x3b5f83af	0.003410559
212	0xbd1ee3a1	-0.038791303
213	0x3cb3431b	0.021882584
214	0xbca8df59	-0.020614313
215	0xbc924958	-0.017857239
216	0xbd3f97e1	-0.046775702
217	0xbcaa212b	-0.020767769
218	0x3c64c865	0.013963793
219	0xbd2f9461	-0.042866115
220	0xbacfaa38	-0.0015843576
221	0xbc0f96f0	-0.008764014
222	0xbab66fa5	-0.0013918771
223	0xbc1dd12e	-0.009632392
224	0x3bdbd112	0.0067082727
225	0xbc62217e	-0.0138019305
226	0xbbf55d93	-0.0074879616
227	0x3ba40d88	0.005006496
228	0x3c13ebf5	0.0090284245
229	0xbd21e52a	-0.03952519
230	0xbc022d34	-0.007945348
231	0xbcdb0ee5	-0.0267405
232	0xbc1acdb9	-0.009448462
233	0xbbcb038a	-0.0061954902
234	0xbbdbbbe9	-0.0067057502
235	0xbccdd520	-0.02512604
236	0x3aed6e86	0.0018114604
237	0x3a768e08	0.00094053196
238	0xbd5b25e4	-0.053502932
239	0x3bd30744	0.006440075
240	0xbd852bc0	-0.06502485
241	0x3c91a063	0.017776674
242	0x3caa934b	0.020822188
243	0xbc817a6d	-0.015805447
244	0x3c306bf9	0.01076793
245	0xbd0c93d9	-0.034320686
246	0x3c66e01a	0.014091516
247	0x3ceb9c54	0.028761066
248	0x39e43ab0	0.00043531274
249	0xbc6660a1	-0.014061124
250	0xbcc342c7	-0.023835553
251	0xbc93fc8e	-0.018064763
252	0xbda83ffa	-0.082153276
253	0x3cf4b19e	0.02986985
254	0xbba76500	-0.0051084757
255	0x3d1e7503	0.03868581

network_body._body_endoder.seq_layers.2.bias f4 [128]
0	0xbdd8ddea	-0.10589202
1	0x3b94759a	0.0045306208
2	0x3c00ad38	0.007853799
3	0x3d3ef8c3	0.046623956
4	0xbcb9209e	-0.02259856
5	0xbd41fc8b	-0.047359984
6	0x39d767f0	0.00041085435
7	0xbc36c4e1	-0.011155338
8	0xbcfe97dc	-0.031078272
9	0xbcfe8f80	-0.031074286
10	0xbd0a0e50	-0.033705056
11	0x3d2c769a	0.042105295
12	0x3e1c20c0	0.15246868
13	0x3d0bf3b6	0.034167968
14	0xbd443520	-0.047902226
15	0xbd925e17	-0.071468525
16	0x3cb94491	0.022615703
17	0xbcfec8e3	-0.03110165
18	0x3daa2e40	0.08309603
19	0xbd09d382	-0.033648975
20	0xbda43e5e	-0.08019708
21	0x3d95a25a	0.07306357
22	0xbd5ee45e	-0.054417007
23	0xbd534466	-0.0515789
24	0xbb497af4	-0.0030743452
25	0x3d855376	0.065100595
26	0x3d28aee1	0.041182403
27	0x3be38fde	0.0069446405
28	0x3e385d27	0.18004285
29	0x3dca844c	0.09888515
30	0x3d8475f2	0.06467809
31	0x3bbb3592	0.005713173
32	0x3cedaa0e	0.029011752
33	0xbdf17b97	-0.11791151
34	0x3d867553	0.065653466
35	0x3ce3f9bd	0.027829045
36	0xbda8315f	-0.08212542
37	0x3dd09611	0.10184873
38	0x3e0046f8	0.12527072
39	0x3d510994	0.051034525
40	0x3debf75f	0.11521792
41	0xbc6aafeb	-0.014324169
42	0xbdd510ad	-0.10403571
43	0xbd1c0ebb	-0.038099986
44	0xbbca45f8	-0.0061728917
45	0x3ccac2ef	0.024751155
46	0xbd507b07	-0.050898578
47	0x3d093e17	0.03350648
48	0xbd506078	-0.05087325
49	0xbd1e0db1	-0.038587276
50	0x3c5b9db4	0.013404299
51	0xbcf92950	-0.030415207
52	0xbd98f9bf	-0.0746951
53	0xbb2c1a4d	-0.0026260794
54	0xbcad82e5	-0.02118058
55	0x3d402f34	0.046920016
56	0xbd713423	-0.058887612
57	0x3c53b691	0.012921945
58	0x3da03296	0.078221485
59	0xbcd14f97	-0.025550647
60	0x3d7f9098	0.062393755
61	0xbd97226a	-0.07379611
62	0xbda4c048	-0.08044487
63	0x3e415649	0.18880571
64	0xbda574e5	-0.080789365
65	0xbd5dc221	-0.054140214
66	0x3d35ff35	0.044432838
67	0xbcf74650	-0.030184895
68	0x3d8c0b5d	0.06838105
69	0xbd668999	-0.056283567
70	0xbd007c6a	-0.03136865
71	0x3e461c8b	0.19346826
72	0x3c02dd22	0.0079872925
73	0x3bb7555c	0.0055948924
74	0x3dfcee2d	0.12350116
75	0x3c2833dc	0.0102662705
76	0x3c6d4166	0.014480924
77	0x3ddaff2b	0.10693201
78	0x3cd4073a	0.025882352
79	0xbce9be6d	-0.028533185
80	0x3d0cb735	0.034354407
81	0xbdec9252	-0.11551346
82	0x3e4f1fa3	0.20226912
83	0xbd1f7558	-0.038930267
84	0xbd43d334	-0.04780884
85	0xba9c7793	-0.0011937491
86	0x3c1eedd1	0.009700255
87	0x3ce93647	0.028468264
88	0x3da16d02	0.0788212
89	0xbc3e69fd	-0.011621949
90	0x3d2dba58	0.04241404
91	0xbc0435bc	-0.008069452
92	0x3c91a243	0.017777568
93	0x3d0c01e3	0.034181487
94	0x3dd582c0	0.10425329
95	0x3d82fe56	0.06396167
96	0xbda7e3ba	-0.08197732
97	0xbdbef6d8	-0.093244255
98	0xbd1dee41	-0.038557295
99	0x3d72f4f4	0.059315637
100	0xbd61a880	-0.055092335
101	0x3d553fff	0.052062985
102	0x3d2d399b	0.042291265
103	0x3d199cb3	0.037502956
104	0x3db02c97	0.08602255
105	0xbaa68fe3	-0.0012707677
106	0xbccf4d8f	-0.025305538
107	0x3d6acf8b	0.057326835
108	0x3d3ebb3d	0.046565283
109	0xbe4fd6f1	-0.20296837
110	0x3dcdf686	0.10056786
111	0x3e02d9bd	0.12778373
112	0xbcbc3083	-0.022972351
113	0x3da0a275	0.07843486
114	0x3d29875b	0.04138885
115	0xbd4d5043	-0.05012537
116	0xbd0be70c	-0.03415589
117	0x3c2ef84b	0.010679315
118	0xbdd69cf6	-0.10479157
119	0x3a203491	0.00061113486
120	0x3d8e1930	0.06938398
121	0x3d5cc864	0.053902045
122	0xbd0ea820	-0.034828305
123	0xbd9393a5	-0.07205895
124	0xbe149e02	-0.145134
125	0x3d6d9192	0.058000155
126	0x3e72c9e6	0.2370983
127	0x3dccc185	0.099978484

network_body._body_endoder.seq_layers.2.weight f4 [128, 128]
0	0x3de61d76	0.11236088
1	0xbd82f57f	-0.06394481
2	0x3d91d388	0.071204245
3	0x3e045bc9	0.12925638
4	0x3dfc84aa	0.12329991
5	0xbd41b3b8	-0.047290534
6	0x3d937a5a	0.07201071
7	0xbd23c382	-0.039981373
8	0x3d61d58e	0.055135302
9	0x3e1bf424	0.15229851
10	0x3de50dc0	0.11184263
11	0x3dae9006	0.08523564
12	0x3cfeda5a	0.031109978
13	0x3d9aa2b6	0.07550566
14	0x3d29a37a	0.04141567
15	0x3dfcf506	0.12351422
16	0xbcea4176	-0.028595667
17	0x3cf8a3fe	0.030351635
18	0x3c0deb9f	0.0086621335
19	0xbdb86dbc	-0.09005305
20	0x3c84ef55	0.016227404
21	0xbcfa9419	-0.030588197
22	0x3dd24b2b	0.102682434
23	0xbc4dc622	-0.012559446
24	0xbe4b3987	-0.19846164
25	0xbe5a6333	-0.21326904
26	0xbe1e628b	-0.15467279
27	0x3ce18e98	0.027533814
28	0x3c4105b9	0.01178115
29	0xbeca5924	-0.39521134
30	0xbebbaddc	-0.36656082
31	0xbd8adf13	-0.06780829
32	0xbde6d505	-0.11271099
33	0xbd6cb158	-0.057786316
34	0x3d642af2	0.05570502
35	0xbcf45778	-0.029826865
36	0x3d7b5dc8	0.061368734
37	0x3e0a20a7	0.13489018
38	0x3df00e96	0.11721532
39	0xbe08a8a5	-0.13345583
40	0xbd73fb46	-0.059565805
41	0x3d60d0e4	0.054886714
42	0x3e5d6dd6	0.2162393
43	0x3ce06b31	0.027394863
44	0x3d91bff4	0.0711669
45	0xbe6e137e	-0.23249623
46	0xbe0da919	-0.13834037
47	0xbe41fc46	-0.18943891
48	0xbdb5f39d	-0.08884356
49	0x3ccc8874	0.02496741
50	0x3e24d0f9	0.16095342
51	0xba57b7b0	-0.00082289707
52	0x3d83a3ff	0.06427764
53	0xbba1da38	-0.004939344
54	0x3d1a101d	0.037613023
55	0x3e19826b	0.14991157
56	0xbe76a5b5	-0.2408665
57	0xbe72df40	-0.23717976
58	0xbdf6b67c	-0.12046525
59	0xbe9968fa	-0.29962903
60	0x3d9861b7	0.074405126
61	0x3e66db71	0.22544648
62	0xbdb7ff22	-0.089842096
63	0xbc9a2260	-0.01881522
64	0x3cc74311	0.024323972
65	0xbda90593	-0.08253016
66	0xbba5ef50	-0.0050639287
67	0x3d656023	0.055999886
68	0xbeb1ead7	-0.3474948
69	0x3e244ee0	0.16045713
70	0xbe232ae8	-0.15934336
71	0xbdd8f80b	-0.105941854
72	0x3dca40da	0.09875651
73	0x3dc9f801	0.09861756
74	0x3da33613	0.07969298
75	0xbdab6cb2	-0.08370341
76	0xbe81ad59	-0.25327566
77	0xbd92b4f8	-0.07163423
78	0xbd32fd1a	-0.043698408
79	0xbddd6499	-0.10810203
80	0xbe16f15f	-0.14740513
81	0x3dfea677	0.124340944
82	0xbc14f928	-0.009092607
83	0x3ca8141a	0.020517398
84	0xbe16ebf0	-0.1473844
85	0xbda7a4f6	-0.08185761
86	0x3dfe9c85	0.124321975
87	0x3df2267b	0.11823746
88	0x3d1dc070	0.0385136
89	0x3bd9655e	0.0066343984
90	0x3ebf7464	0.37393486
91	0x3cd0024b	0.025391718
92	0xbdc0ca39	-0.09413571
93	0x3d2a15a6	0.04152455
94	0xbe753504	-0.23946005
95	0xbc69a7a7	-0.014261163
96	0x3e39d400	0.18147278
97	0x3e54f0c7	0.20794974
98	0xbca699ac	-0.020336948
99	0x3e44b10a	0.1920816
100	0xbd8fcebd	-0.07021854
101	0xbe4230d8	-0.18963945
102	0x3d8e08a8	0.06935245
103	0x3d6c3b9a	0.057674028
104	0xbd40b32a	-0.047045864
105	0xbdf389e1	-0.11891533
106	0x3dd9e6bc	0.10639712
107	0x3db44ff7	0.088043146
108	0xbedc2577	-0.42997333
109	0xbc6f3afe	-0.014601467
110	0x3cc0dea8	0.02354367
111	0xbe9e9388	-0.30971932
112	0xbcf70d07	-0.03015758
113	0x3dc5816d	0.09643827
114	0xbe27386e	-0.1633012
115	0xbdcb1b5f	-0.0991733
116	0x3c9c8f6c	0.019111358
117	0x3df414af	0.119180076
118	0xbe07ae12	-0.13249996
119	0x3cfba1f4	0.030716874
120	0x3dce8886	0.100846335
121	0x3eb60bd9	0.35555914
122	0xbebd4dc4	-0.36973393
123	0x3dd23c0d	0.1026536
124	0x3aa829a6	0.0012829795
125	0x3e828bc5	0.2549726
126	0x3c830cd9	0.015997337
127	0xbe33e2ca	-0.17566982
128	0x3de6c5b6	0.11268179
129	0x3de4aeb5	0.11166135
130	0xbdc5e934	-0.096636206
131	0xbe81a333	-0.25319824
132	0x3da5a38c	0.08087835
133	0x3db9c085	0.09069923
134	0xbe337034	-0.17523271
135	0x3dcc06b2	0.099622145
136	0x3e072130	0.13196254
137	0x3dd61544	0.10453275
138	0x3d840ad6	0.06447379
139	0xbec4dea4	-0.3845111
140	0xbd383eef	-0.044981893
141	0x3d3fe090	0.04684502
142	0x3c9becd4	0.019033827
143	0x3e1e53b4	0.15461618
144	0x3e4ebc02	0.20188907
145	0x3caa6229	0.02079876
146	0xbe066dfa	-0.1312789
147	0x3d3f1fbe	0.04666113
148	0xbd411a82	-0.04714442
149	0xbce64e1f	-0.028113423
150	0xbe2a39ac	-0.16623563
151	0x3e95e030	0.29272604
152	0xbde3c621	-0.111217745
153	0xbdcb0732	-0.09913482
154	0x3c9b63cb	0.018968483
155	0xbb9c21e4	-0.0047647823
156	0xbdf3a008	-0.11895758
157	0xbd81964c	-0.06327495
158	0x3c7e8f6b	0.015537123
159	0x3d097f0e	0.033568434
160	0x3e1f8d02	0.15581134
161	0xbdcd6e82	-0.10030843
162	0xbea43c18	-0.32077098
163	0xbe08fab1	-0.13376881
164	0xbca1f175	-0.019768456
165	0x3ebf9c71	0.37424043
166	0xbe3a41e7	-0.18189202
167	0xbe4e1c79	-0.20128049
168	0x3da5ed42	0.08101894
169	0xbe59defe	-0.21276471
170	0xbea5a828	-0.32354856
171	0xbe589275	-0.21149619
172	0xbc656762	-0.014001699
173	0x3e54b903	0.20773701
174	0xbca2a99f	-0.019856272
175	0xbdce0056	-0.10058658
176	0xbdf79726	-0.12089376
177	0xbe3b42d1	-0.18287207
178	0xbd8e1b8c	-0.06938848
179	0x3dd9fb5f	0.10643648
180	0x3c5204dd	0.012818542
181	0x3b9634cf	0.004583932
182	0x3c54a0f5	0.012977828
183	0xbdc5309f	-0.09628414
184	0x3d3fd866	0.046837233
185	0xbd3fdd7f	-0.046842095
186	0xbeb9f609	-0.36320522
187	0x3dfbf259	0.123020835
188	0xbe8f55c6	-0.27995127
189	0xbe074b81	-0.13212396
190	0xbd7555ac	-0.059896156
191	0xbbe46840	-0.0069704354
192	0xbc5035e8	-0.012708165
193	0xbdafa2ba	-0.085759595
194	0xbe2de3a1	-0.16981365
195	0x3e081e0a	0.13292709
196	0x3d6dd799	0.058066938
197	0xbdb2860f	-0.08716976
198	0x3e45a5dc	0.19301552
199	0xbdde59c6	-0.10856967
200	0xbd17ed40	-0.037091494
201	0xbe831b43	-0.25606737
202	0x3e4bc1b4	0.1989811
203	0xbd58397f	-0.052789208
204	0x3e070063	0.13183741
205	0x3ea28d28	0.3174832
206	0x3de63ca2	0.112420335
207	0x3ebb23c1	0.36550716
208	0x3e13a2e3	0.14417605
209	0x3ad67254	0.0016360977
210	0x3c57ca54	0.013170797
211	0xbd9d9eeb	-0.07696327
212	0x3d745105	0.05964758
213	0x3e907f12	0.28221947
214	0x3b80250a	0.0039106654
215	0x3e4808e3	0.1953464
216	0xbd4812f3	-0.048846196
217	0x3e1a30ce	0.1505768
218	0xbd2b7f61	-0.041869525
219	0xbe189e91	-0.14904238
220	0xbe00643f	-0.12538241
221	0xbdb15575	-0.08658878
222	0xbe991386	-0.29897708
223	0xbd953c54	-0.07286897
224	0xbcf9e829	-0.03050621
225	0x3d9bcdf4	0.07607642
226	0x3d7b7887	0.06139424
227	0xbe003213	-0.12519102
228	0xbe3d101b	-0.18463175
229	0x3d9f335a	0.077734664
230	0xbc0793a6	-0.008274948
231	0xbbe1815a	-0.006881875
232	0xbe23d2f7	-0.15998445
233	0x3cb2f5f7	0.0218458
234	0x3e186d3a	0.14885417
235	0xbe93d0e4	-0.28870308
236	0x3e6aff5e	0.22948977
237	0xbd987743	-0.07444622
238	0x3cf3e84f	0.02977386
239	0x3cbd54cb	0.023111722
240	0xbe6c6334	-0.23084718
241	0xbdcdb6a4	-0.100446016
242	0xbd42c3fa	-0.04755018
243	0x3d083d12	0.033261366
244	0xbccb12fb	-0.024789324
245	0x3d6f5e52	0.05843956
246	0xbd923043	-0.071381114
247	0x3d63ec44	0.055645242
248	0xbdb78d06	-0.08962445
249	0x3df7fe5e	0.121090636
250	0xbd8245dc	-0.06360981
251	0xbe284960	-0.1643424
252	0x3e9bcaf7	0.30428287
253	0xbc043494	-0.008069176
254	0xbe04849c	-0.12941211
255	0x3de821eb	0.11334594
