results/playPoker5/MoveToBet.onnx (onnx, 768393 bytes, 7 tensors)

action_model._continuous_distribution.log_sigma f4 [1, 17]
-0.0050998335 -0.0043916083 -0.05962552 -0.09420666 -0.20643745 -0.24231137 -0.30691627 -0.055356227
-0.030025268 -0.26539475 -0.19356105 -0.24885215 -0.23055403 -0.09195028 -0.26487434 -0.16782497
-0.2625382
00000000: 811c a7bb 7be7 8fbb e439 74bd 6cef c0bd
00000010: 5764 53be 7920 78be 2124 9dbe 36bd 62bd
00000020: 8df7 f5bc d2e1 87be de34 46be 19d3 7ebe
00000030: 5b16 6cbe 6e50 bcbd 9c9d 87be 4fda 2bbe
00000040: 686b 86be

action_model._continuous_distribution.mu.bias f4 [17]
-0.025989749 0.0307772 0.044580445 0.02961473 0.010878486 0.036028244 0.014268886 0.0002925849
-0.04717144 0.05839276 -0.04504185 0.011425154 -0.012537032 -0.06689793 -0.035908222 -0.015284837
0.018007245
00000000: 74e8 d4bc 7720 fc3c fc99 363d 979a f23c
00000010: ad3b 323c 5a92 133d 0cc8 693c 1566 9939
00000020: d736 41bd 3f2d 6f3d ce7d 38bd 9230 3b3c
00000030: 2068 4dbc c801 89bd 8014 13bd 416d 7abc
00000040: ee83 933c

action_model._continuous_distribution.mu.weight f4 [17, 128]
0.024783876 -0.029575476 -0.015251329 -0.04991594 -0.05948389 0.04449682 -0.065275125 -0.044639956
0.030342843 -0.029989254 0.01835435 -0.021742286 -0.056501362 -0.00204341 -0.046973012 -0.014630633
-0.015712963 0.051138885 -0.036282156 0.029086089 -0.008880795 0.068745814 0.0051013664 -0.028028205
-0.03558881 0.022723584 -0.06820011 0.04967832 0.06652182 0.007913878 -0.031501222 -0.053774964
-0.03603208 0.0483108 0.014773379 0.006273965 -0.008526416 0.04347187 0.0031816405 0.011920775
-0.025825173 0.019414708 -0.05104674 0.0039811223 -0.008418874 0.0009371448 0.05155294 0.031863656
-0.04395851 0.04294869 0.0068165422 -0.029777266 0.021204116 -0.08363702 0.013976884 -0.01278361
-0.006191911 -0.030764362 -0.014554108 -0.012773144 -0.03626912 0.019994576 -0.054958127 0.024688756
-0.016391575 0.024138583 0.03767743 -0.006021737 -0.03844658 -0.042667624 0.010199101 -0.017928855
0.002953811 -0.022898726 -0.004674855 0.03984305 -0.029951552 -0.033476677 0.051629324 -0.0014871616
-0.049826726 -0.014059367 0.00895287 0.005857346 0.031204227 -0.04424022 -0.025645612 -0.046492774
-0.00067117665 -0.012729294 -0.070184164 -0.042575944 0.051306598 -0.07009631 -0.06841757 0.009091921
-0.07470071 -0.068486154 -0.01035872 0.0637607 0.0013209294 -0.019346355 -0.01993303 0.0116804885
0.0036414578 -0.041300457 -0.09503538 -0.022016892 0.023390872 -0.008238531 0.021493545 0.00798605
0.00040726966 0.011623572 -0.030343542 0.024623709 -0.010193541 -0.0363114 -0.020214265 -0.0147997355
-0.049395207 -0.043438207 0.015507724 -0.01799228 -0.06134964 0.0015369704 0.007351403 0.013985431
-0.026662445 -0.02775599 -0.01151933 0.031152373 -0.035684384 0.037170425 -0.034502923 0.025513006
-0.039031282 -0.016380357 -0.048928514 -0.018560424 -0.035582896 0.024639376 -0.032261733 -0.03664146
-0.04996434 -0.029886989 -0.001910965 0.016055344 -0.00077293516 -8.5403655e-05 0.017030908 0.010423357
-0.05311598 -0.030801583 0.026245994 -0.03143103 0.0017839065 -0.03506376 -0.03655015 -0.049421117
-0.02107885 0.012094373 -0.06268118 -0.07784306 0.00066622434 -0.0067334683 0.029101888 -0.029648138
0.06950724 -0.05397712 -0.07192161 -0.02147159 -0.04162794 -0.023221025 0.016796004 -0.062313385
0.029930688 -0.035492543 0.008368348 -0.03154411 -0.07394819 0.035375312 -0.014148198 0.00052239257
-0.025380595 0.01758263 -0.0051095933 0.053020954 0.028326014 -0.018293435 0.023312196 -0.030953616
0.030517517 -0.07518325 0.03499947 0.020712264 -0.02215566 -0.008209983 -0.017812086 -0.023347022
-0.050174974 0.049255613 -0.028942578 0.0077695334 0.035667785 -0.03347969 -0.019389598 -0.054286785
0.06300946 0.014725942 -0.0117133055 -0.026533466 0.017547574 0.028413571 0.030407509 -0.000951344
-0.0048335465 0.0067939367 -0.017407646 0.060541905 -0.03133993 0.002077354 0.027737068 0.02143833
0.020441314 -0.005117376 -0.01553779 -0.012587283 -0.026445892 0.04565474 -0.027376669 -0.0038210838
0.010665473 0.0043872204 -0.0037954373 -0.012690116 -0.013555044 -0.03396065 -0.027092936 0.03504801
0.05536755 -0.023406278 0.05399479 -0.004996709 -0.010050949 0.05106299 -0.045936175 -0.006751787
-0.0060225227 -0.08112107 -0.040862806 0.009232844 0.0016023689 0.02847159 -0.034764826 -0.036781915
00000000: 8e07 cb3c 4548 f2bc b6e0 79bc a874 4cbd
00000010: 61a5 73bd 4c42 363d f7ae 85bd 63d8 36bd
00000020: 8e91 f83c 06ac f5bc dd5b 963c e11c b2bc
00000030: f96d 67bd bbea 05bb c666 40bd 53b5 6fbc
00000040: 79b8 80bc 0277 513d 999c 14bd f345 ee3c
00000050: c180 11bc 9bca 8c3d 5d29 a73b 689b e5bc
00000060: 92c5 11bd cf26 ba3c 80ac 8bbd 7e7b 4b3d
00000070: 983c 883d 36a9 013c 6d07 01bd 2343 5cbd
00000080: 6096 13bd 8ce1 453d 0b0c 723c d595 cd3b
00000090: 61b2 0bbc 8f0f 323d 1283 503b 5b4f 433c
000000a0: 508f d3bc 980b 9f3c 6316 51bd 1374 823b
000000b0: 51ef 09bc b9aa 753a 2d29 533d 7783 023d
000000c0: d70d 34bd f7ea 2f3d 4d5d df3b 74ef f3bc
000000d0: 41b4 ad3c e349 abbd 4dff 643c 5972 51bc
000000e0: 84e5 cabb 8b05 fcbc 5a74 6ebc 7346 51bc
000000f0: ee8e 14bd aacb a33c c61b 61bd 1340 ca3c
00000100: a047 86bc 47be c53c a653 1a3d fe51 c5bb
00000110: 297a 1dbd 3fc4 2ebd 211a 273c 89df 92bc
00000120: ba94 413b 1c96 bbbc 872f 99bb 7732 233d
00000130: f55c f5bc d71e 09bd 4579 533d ddec c2ba
00000140: 1c17 4cbd 4259 66bc 0faf 123c fbee bf3b
00000150: 02a0 ff3c 3c35 35bd bf16 d2bc 356f 3ebd
00000160: e7f1 2fba 878e 50bc b7bc 8fbd 1d64 2ebd
00000170: de26 523d a78e 8fbd 831e 8cbd 48f6 143c
00000180: b0fc 98bd 7842 8cbd 9fb7 29bc f894 823d
00000190: 0923 ad3a 3f7c 9ebc 984a a3bc 855f 3f3c
000001a0: 86a5 6e3b ab2a 29bd e9a1 c2bd c55c b4bc
000001b0: 379e bf3c e7fa 06bc 3b13 b03c ecd7 023c
000001c0: cf86 d539 cb70 3e3c 0593 f8bc a9b7 c93c
000001d0: cf02 27bc 43bb 14bd 6398 a5bc 977a 72bc
000001e0: a152 4abd 43ec 31bd 1c14 7e3c 8c64 93bc
000001f0: c349 7bbd 2b74 c93a 0ae4 f03b 2623 653c
00000200: 336b dabc 8860 e3bc 92bb 3cbc 4333 ff3c
00000210: ca29 12bd 0440 183d f052 0dbd a700 d13c
00000220: 44df 1fbd 1930 86bc 4469 48bd 080c 98bc
00000230: 5fbf 11bd 84d8 c93c e124 04bd 5b15 16bd
00000240: 68a7 4cbd 8fd5 f4bc 5879 faba 7f86 833c
00000250: cd9e 4aba bd1a b3b8 6784 8b3c bac6 2a3c
00000260: 2490 59bd 9a53 fcbc d701 d73c d3bd 00bd
00000270: f8d1 e93a 049f 0fbd 9cb5 15bd cc6d 4abd
00000280: 8dad acbc 7a27 463c fe5e 80bd 2f6c 9fbd
00000290: 8fa5 2e3a 6da4 dcbb 1567 ee3c a7e0 f2bc
000002a0: d059 8e3d 1d17 5dbd a34b 93bd 30e5 afbc
000002b0: 0f82 2abd 053a bebc c697 893c 523c 7fbd
000002c0: 3431 f53c a160 11bd 651b 093c 6634 01bd
000002d0: 2672 97bd b4e5 103d d8cd 67bc 2cf1 083a
000002e0: f7ea cfbc 7309 903c 606e a7bb 802c 593d
000002f0: f50b e83c 1ddc 95bc 38f9 be3c 7092 fdbc
00000300: dfff f93c adf9 99bd 9b5b 0f3d c4ac a93c
00000310: c97f b5bc 2a83 06bc a7ea 91bc 4142 bfbc
00000320: 4684 4dbd 41c0 493d fc18 edbc 9297 fe3b
00000330: 6218 123d 0022 09bd efd6 9ebc d25b 5ebd
00000340: 1b0b 813d 1445 713c 2ae9 3fbc b65c d9bc
00000350: eebf 8f3c 94c3 e83c 2b19 f93c 9d63 79ba
00000360: ba62 9ebb ac9f de3b 7b9a 8ebc cafa 773d
00000370: 4c5e 00bd 3724 083b d938 e33c 709f af3c
00000380: 8b74 a73c a9af a7bb 3792 7ebc e43a 4ebc
00000390: 0ea5 d8bc 7700 3b3d 0945 e0bc 266b 7abb
000003a0: 3cbe 2e3c acc2 8f3b dfbc 78bb 34ea 4fbc
000003b0: fa15 5ebc 531a 0bbd 01f2 ddbc 818e 0f3d
000003c0: 16c9 623d 86be bfbc a429 5d3d 6fbb a3bb
000003d0: bcac 24bc 6d27 513d 9227 3cbd 183e ddbb
000003e0: 9558 c5bb ce22 a6bd c25f 27bd 5b45 173c
000003f0: 9406 d23a 403d e93c 9065 0ebd a2a8 16bd

network_body._body_endoder.seq_layers.0.bias f4 [128]
-0.042605847 0.01891041 -0.013815259 -0.038660694 0.015010649 0.017202817 -0.0414809 -0.004911793
-0.009679595 0.011114485 -0.020348942 0.029972253 0.03504814 -0.041747287 0.014860695 0.017074108
-0.01604631 -0.0113708265 -0.04943965 -0.033587318 -0.027011843 -0.033391334 -0.030143991 -0.041611467
0.0014187096 0.017625758 -0.032904543 -0.04817674 0.02797257 -0.019624703 0.028179096 -0.0073987325
0.013420307 0.025684068 0.021695998 0.017007833 -0.021735491 0.009557514 0.0009200279 -0.0073454618
-0.044201232 0.0031523893 0.0062998384 0.009712939 -0.03211599 -0.0014074048 -0.05120679 -0.023067918
-0.011402059 0.015485589 0.01597724 0.019250821 -0.004684677 0.020577954 0.0137734655 -0.0339071
0.062128533 0.011143022 0.029869994 0.0139548965 -0.0022167698 0.00903641 -0.013390508 -0.0045588994
-0.009380148 0.04274061 -0.0081031155 -0.02647063 0.032568116 0.013645491 0.0117744915 -0.042089604
-0.0048465 -0.0018746183 0.044430114 -0.040159438 -0.0052775266 0.0072803698 -0.048623353 -0.011149719
-0.029181767 0.021667562 0.011822888 0.0011405563 -0.026576929 -0.016926667 -0.02409651 -0.04183859
0.032037348 -0.031575218 0.03286468 -0.022504231 -0.026871711 -0.06346096 0.014377299 -0.00879542
0.0051444788 -0.031205053 -0.00091006706 0.02846189 0.03868767 -0.0060931747 0.0016423599 0.036298558
-0.012956711 0.007142463 -0.013595098 0.018152278 -0.04346065 -0.026761265 -0.032716155 0.00224799
0.030708278 0.01490828 -0.020593822 -0.0011393473 -0.009185903 0.021585621 0.030930856 0.022393415
-0.0122955805 0.035086587 -0.04875196 -0.0021388882 -0.018198358 -0.031223593 -0.089109555 -0.014988491
00000000: 7883 2ebd 01ea 9a3c 6559 62bc ad5a 1ebd
00000010: 3aef 753c ecec 8c3c e0e7 29bd 1bf3 a0bb
00000020: 2a97 1ebc 8719 363c d3b2 a6bc 5f88 f53c
00000030: a38e 0f3d 34ff 2abd 467a 733c 00df 8b3c
00000040: 8d73 83bc b44c 3abc 3b81 4abd db92 09bd
00000050: f147 ddbc 5ac5 08bd 88f0 f6bc c970 2abd
00000060: fff3 b93a e563 903c eac6 06bd f954 45bd
00000070: bb26 e53c fcc3 a0bc d9d7 e63c 1171 f2bb
00000080: d9e0 5b3c 6567 d23c cebb b13c 0354 8b3c
00000090: a10e b2bc 1f97 1c3c 072e 713a 33b2 f0bb
000000a0: 5a0c 35bd 5198 4e3b e06e ce3b 0523 1f3c
000000b0: 0e8c 03bd ab78 b8ba 36be 51bd eef8 bcbc
000000c0: b4cf 3abc 45b7 7d3c b3e2 823c e6b3 9d3c
000000d0: eb81 99bb 1993 a83c 1aaa 613c 2ce2 0abd
000000e0: 7d7a 7e3d 3991 363c ebb1 f43c 14a3 643c
000000f0: 3a47 11bb 730d 143c dc63 5bbc d262 95bb
00000100: 31af 19bc c710 2f3d eec2 04bc efd8 d8bc
00000110: 2566 053d 5691 5f3c cce9 403c 2666 2cbd
00000120: 64cf 9ebb c1b5 f5ba 5afc 353d 397e 24bd
00000130: 1aef acbb 2b90 ee3b 4829 47bd 50ad 36bc
00000140: 9a0e efbc 2c80 b13c c9b4 413c b87e 953a
00000150: dcb7 d9bc cba9 8abc 0b66 c5bc f15e 2bbd
00000160: 9839 033d 0455 01bd 1d9d 063d cb5a b8bc
00000170: 1022 dcbc d2f7 81bd c38e 6b3c aa1a 10bc
00000180: 0493 a83b bda1 ffbc 9191 6eba e928 e93c
00000190: f676 1e3d 41a9 c7bb 7444 d73a ccad 143d
000001a0: 6348 54bc 520b ea3b f9bd 5ebc 16b4 943c
000001b0: cb03 32bd 713a dbbc 6001 06bd 0453 133b
000001c0: ed8f fb3c dc41 743c 60b4 a8bc 2756 95ba
000001d0: 7880 16bc 54d4 b03c b562 fd3c 6572 b73c
000001e0: 6773 49bc f4b6 0f3d 23b0 47bd 972c 0cbb
000001f0: b914 95bc 9fc8 ffbc 127f b6bd 4a92 75bc

network_body._body_endoder.seq_layers.0.weight f4 [128, 1350]
0.0063774274 0.033540327 0.009445841 -0.0022358578 0.0022348496 -0.045552615 0.050629117 -0.0025515524
-0.02080525 0.025904763 -0.03444019 -0.028448127 -0.04182725 0.0022730604 -0.006868338 -0.030831294
0.0059722397 -0.028920574 0.04276077 -0.008188495 0.036171064 0.03360627 -0.0038140323 0.008806436
-0.0003356088 -0.017873716 0.004266676 0.0066859163 -0.016797993 -0.030540278 -0.008840542 0.005959363
0.017869098 -0.0041074185 -0.028082538 -0.040258367 -0.037673306 0.054403722 -0.026016317 0.06669717
-0.02807515 -0.017540194 0.035399772 -0.016139427 -0.021845492 0.021946225 0.02259652 -0.021315817
0.005743268 0.0048535285 -0.00359393 -0.047933232 0.016188854 -0.04924769 0.023975093 0.022065371
-0.011412786 -0.035832386 0.0119285565 -0.002789723 -0.0024157253 -0.026523482 0.007223333 -0.018577984
0.0076617273 0.021492196 0.040225014 0.01643605 0.016203307 -0.036338344 -0.008494651 -0.049746472
-0.025157193 -0.06275106 -0.0013356942 0.043306805 -0.05106777 0.04107257 -0.037754323 -0.0030319756
-0.0529612 0.016649177 -0.0062123835 -0.040875345 -0.032223146 0.035666205 -0.015571009 0.0030805012
-0.020221956 -0.03377522 -0.010962948 -0.03541613 -0.05105262 0.001438894 -0.009953388 -0.08140134
0.01811476 -0.047830034 0.0011099324 0.03679158 0.028793318 0.015810901 -0.032188546 0.017761048
-0.00074567774 -0.0051493985 -0.010525678 -0.018976867 0.015268571 0.012309168 0.012914874 0.011177463
-0.0022049374 -0.03534445 -0.011405605 0.012629446 0.023841243 -0.01734246 0.039002977 -0.060264647
-0.001780592 -0.044237126 0.018097054 0.006511546 -0.011551239 -0.002072493 -0.00030556 -0.040101387
0.036443997 -0.039821677 -0.0017269886 -0.012209394 0.015213438 0.023245921 -0.024169676 0.028536296
0.009240792 -0.029758237 0.030688152 0.036309768 -0.021851871 0.01659109 0.015410735 -0.036420133
-0.01313558 -0.04245588 -0.00867529 0.009509995 0.0128642805 -0.032135937 0.0022411088 -0.0037860442
-0.045400254 -0.008098885 -0.038704883 0.010077077 -0.035486173 -0.04073251 -0.031805154 -0.0022353304
-0.028123705 -0.03118873 0.054615963 -0.033984717 -0.057576135 -0.041206628 -0.033715244 0.0063024736
-0.025961407 0.013638757 -0.022815065 0.015760385 0.03363601 -0.011417299 0.0026229748 -0.007715415
0.0043949797 0.03308368 0.016809536 0.050266035 0.020270452 -0.06759314 -0.008352982 -0.029379329
-0.025176913 0.0028653822 -0.017729713 -0.04961426 -0.005335474 -0.029359095 -0.030692387 0.0107439775
0.016660405 0.040036757 -0.03511602 -0.029764498 -0.08451151 0.02861888 0.0045119394 -0.023414068
-0.033509765 -0.045740712 0.0055870707 -0.023280693 -0.0016162473 0.016923403 -0.033736154 0.044870805
-0.056253128 -0.0016719628 0.00670972 -0.014466781 -0.012364023 -0.0013570319 -0.0299253 0.04097522
0.0038887763 -0.032991823 0.006619948 0.014553282 0.047299977 -0.01015688 -0.012411023 -0.0010851941
0.039920118 -0.0003133065 -0.03844549 -0.0038023065 -0.037009455 -0.06879509 -0.035092197 0.004792272
-0.05548206 0.007709834 -0.019322054 -0.0027603204 -0.026552416 -0.0015333695 0.024491223 0.016553871
-0.02107961 -0.044021636 -0.04211562 0.0093747275 -0.0029014281 0.027901907 0.05271832 0.018670006
-0.009088318 0.027659839 0.060711384 -0.017543029 -0.013461937 0.0015716591 0.029311256 -0.026189197
00000000: bdf9 d03b 9561 093d bbc2 1a3c 7887 12bb
00000010: 8e76 123b 6195 3abd 7a60 4f3d f237 27bb
00000020: c66f aabc 3a36 d43c 2811 0dbd 0c0c e9bc
00000030: 0d53 2bbd a0f7 143b cc0f e1bb e991 fcbc
00000040: c7b2 c33b d7ea ecbc eb25 2f3d 0a29 06bc
00000050: 1c28 143d baa6 093d d8f4 79bb df48 103c
00000060: a7f4 afb9 e66b 92bc 79cf 8b3b 8815 db3b
00000070: f29b 89bc 9b2f fabc ecd7 10bc c346 c33b
00000080: 3762 923c 8697 86bb 5a0d e6bc f5e5 24bd
00000090: 534f 1abd 70d6 5e3d 2c20 d5bc 8798 883d
000000a0: dbfd e5bc 74b0 8fbc 5aff 103d d536 84bc
000000b0: 51f5 b2bc 92c8 b33c 561c b93c 829e aebc
000000c0: 0632 bc3b 590a 9f3b 2488 6bbb a355 44bd
000000d0: 7d9e 843c f2b7 49bd 6a67 c43c 70c2 b43c
000000e0: b2fc 3abc fbc4 12bd fe6f 433c c9d3 36bb
000000f0: 2551 1ebb c647 d9bc b6b1 ec3b db30 98bc
00000100: 3a0f fb3b 6710 b03c fcc2 243d e5a4 863c
00000110: ccbc 843c 84d7 14bd 262d 0bbc f5c2 4bbd
00000120: 7516 cebc a183 80bd 7612 afba 7a62 313d
00000130: 702c 51bd b63b 283d 47a4 1abd 1cb4 46bb
00000140: d8ed 58bd db63 883c 4091 cbbb e86c 27bd
00000150: 6bfc 03bd ba16 123d 8c1d 7fbc 3ce2 493b
00000160: 84a8 a5bc e357 0abd f09d 33bc 8110 11bd
00000170: 8d1c 51bd 4599 bc3a 8913 23bc bfb5 a6bd
00000180: 6865 943c 6de9 43bd 277b 913a c5b2 163d
00000190: f7df eb3c dd85 813c 23d8 03bd 9e7f 913c
000001a0: 9679 43ba 49bc a8bb e573 2cbc 6075 9bbc
000001b0: 0729 7a3c 65ac 493c e898 533c ae21 373c
000001c0: b680 10bb 58c5 10bd 93de 3abc bceb 4e3c
000001d0: b64e c33c c611 8ebc 96c1 1f3d 10d8 76bd
000001e0: c162 e9ba fd31 35bd 4640 943c cf5e d53b
000001f0: 6841 3dbc aad2 07bb 9233 a0b9 5a41 24bd
00000200: 4d46 153d 0e1c 23bd 1f5c e2ba e909 48bc
00000210: c941 793c 3b6e be3c 7cff c5bc f3c4 e93c
00000220: b166 173c 8cc7 f3bc b865 fb3c 8db9 143d
00000230: b202 b3bc 0aea 873c 4f7d 7c3c 472d 15bd
00000240: 9e36 57bc 38e6 2dbd ce22 0ebc cfcf 1b3c
00000250: b4c4 523c f9a0 03bd 91df 123b 481f 78bb
00000260: 9ef5 39bd 30b1 04bc 0389 1ebd 531a 253c
00000270: f359 11bd 22d7 26bd 1f46 02bd 9f7e 12bb
00000280: af63 e6bc 827f ffbc fdb4 5f3d 8f33 0bbd
00000290: f4d4 6bbd 48c8 28bd ff18 0abd fb84 ce3b
000002a0: 04ad d4bc 1875 5f3c a9e6 babc ec1b 813c
000002b0: eac5 093d 9f0f 3bbc 37e6 2b3b 98d1 fcbb
000002c0: c303 903b c182 073d 27b4 893c c2e3 4d3d
000002d0: 380e a63c 466e 8abd f2da 08bc ebac f0bc
000002e0: d03f cebc 23c9 3b3b e73d 91bc 5338 4bbd
000002f0: 33d5 aebb 7c82 f0bc 9a6e fbbc 8207 303c
00000300: 677b 883c 95fd 233d d1d5 0fbd add4 f3bc
00000310: 5f14 adbd 2472 ea3c e4d8 933b dcce bfbc
00000320: 8941 09bd 9d5a 3bbd bf13 b73b 27b7 bebc
00000330: 43d8 d3ba f3a2 8a3c ec2e 0abd 73ca 373d
00000340: ae69 66bd c325 dbba 36dd db3b 1406 6dbc
00000350: 7992 4abc 6fde b1ba e725 f5bc a2d5 273d
00000360: d7da 7e3b 6f22 07bd 26ec d83b e470 6e3c
00000370: 9fbd 413d 0b69 26bc 9a57 4bbc 123d 8eba
00000380: 4783 233d 4943 a4b9 0579 1dbd 1e30 79bb
00000390: 3a97 17bd 71e4 8cbd d6bc 0fbd 7e08 9d3b
000003a0: 2841 63bd c6a2 fc3b 4949 9ebc 7ee6 34bb
000003b0: 7484 d9bc 58fb c8ba d1a1 c83c fc9b 873c
000003c0: 25af acbc 0850 34bd 6e81 2cbd 7598 193c
000003d0: e325 3ebb 8a92 e43c 2aef 573d d7f1 983c
000003e0: 2be7 14bc e396 e23c 80ac 783d 66b6 8fbc
000003f0: 758f 5cbc 2100 ce3a 291e f03c ba8a d6bc

network_body._body_endoder.seq_layers.2.bias f4 [128]
-0.054487977 -0.042064253 -0.057799887 0.02985631 -0.103705734 -0.024581103 0.00044756997 0.033087514
-0.0553134 -0.014001361 -0.040920444 -0.016678145 0.009870521 0.005827961 -0.013738082 -0.026389461
0.009955354 -0.058546502 -0.049982753 -0.017638532 -0.0013117047 0.021151345 -0.0013522462 0.013336604
0.021417856 -0.029659647 0.04689238 -0.09927667 -0.032238763 -0.048472 -0.009710251 -0.005684139
-0.034116156 0.006212937 -0.04845816 -0.0010506319 0.014984319 -0.02273625 0.0038533043 -0.04620265
0.037468787 -0.03978655 -0.028919566 -0.035963785 -6.265215e-05 -0.04850432 0.02640772 -0.04081538
0.031481504 0.0012611266 0.013346297 0.0048086923 -0.0042798463 0.0018948618 -0.009053841 0.010337499
-0.0601715 0.0065558953 -0.021380652 0.0054216525 0.010906605 -0.044717647 0.0067581357 -0.053462647
0.059064627 -0.006468399 0.023708101 -0.02549684 -0.029206464 -0.05274979 -0.008508369 0.0037998399
-0.045171738 -0.022388155 0.017279232 0.01336804 0.054552373 -0.022489661 -0.007541215 0.02224096
0.0072963685 -0.008365025 -0.04321982 0.0013955168 -0.011566728 0.018429449 -0.009444409 0.02405216
-0.008729366 0.013753291 -0.044568412 0.0452391 -0.048357546 -0.042206902 0.052793372 0.041569177
0.031118473 0.036969487 -0.014851445 0.010350624 0.0017623306 -0.046793796 -0.06360349 -0.0048542386
-0.03115144 -0.0030698625 0.0043560225 -0.050171286 -0.03271267 -0.046078574 -0.07960698 0.0004143359
-0.016762756 0.011868831 0.03452036 -0.06136882 0.026277186 0.030329019 -0.03708216 -0.0437846
-0.04957747 0.015254289 -0.06431096 0.030874683 0.018869858 -0.0044695917 -0.056002576 -0.04772317
00000000: c92e 5fbd 914b 2cbd 93bf 6cbd 3895 f43c
00000010: ac63 d4bd 4f5e c9bc d3a7 ea39 c686 073d
00000020: 4e90 62bd f765 65bc 329c 27bd 9ba0 88bc
00000030: f7b7 213c 7bf8 be3b b115 61bc b62e d8bc
00000040: c81b 233c 75ce 6fbd b7ba 4cbd af7e 90bc
00000050: 82ed abba 9645 ad3c da3d b1ba c681 5a3c
00000060: 8074 af3c caf8 f2bc 3912 403d 9151 cbbd
00000070: cb0c 04bd 938a 46bd bf17 1fbc 0442 babb
00000080: 62bd 0bbd e595 cb3b 107c 46bd 5bb5 89ba
00000090: ca80 753c 5f41 babc b887 7c3b fd3e 3dbd
000000a0: df78 193d 39f7 22bd bae8 ecbc c34e 13bd
000000b0: 1e64 83b8 77ac 46bd 0155 d83c 072e 27bd
000000c0: c0f2 003d 634c a53a 6daa 5a3c 3c92 9d3b
000000d0: f43d 8cbb 035d f83a 9056 14bc 9d5e 293c
000000e0: 6476 76bd d6d2 d63b 7a26 afbc 1ea8 b13b
000000f0: 9eb1 323c da29 37bd 5a73 dd3b a6fb 5abd
00000100: c0ed 713d ddf4 d3bb 7e37 c23c c0de d0bc
00000110: 6542 efbc 2a10 58bd b066 0bbc bc06 793b
00000120: 0006 39bd 5d67 b7bc 2d8d 8d3c a005 5b3c
00000130: 4f72 5f3d 3d3c b8bc 4c1c f7bb ac32 b63c
00000140: 6016 ef3b 750d 09bc 4407 31bd c6e9 b63a
00000150: 6082 3dbc 5bf9 963c b9bc 1abc 0909 c53c
00000160: 9d05 0fbc 7c55 613c 5e8d 36bd a24c 393d
00000170: 9012 46bd 25e1 2cbd dd3d 583d 7144 2a3d
00000180: 2bec fe3c 516d 173d 7a53 73bc aa95 293c
00000190: 01fe e63a daaa 3fbd 8c42 82bd 4e10 9fbb
000001a0: 4e31 ffbc bf2f 49bb f7bc 8e3b 6880 4dbd
000001b0: b8fd 05bd e3bc 3cbd fc08 a3bd 393b d939
000001c0: 0c52 89bc 7c75 423c 3965 0d3d df5d 7bbd
000001d0: 4143 d73c 9074 f83c 77e3 17bd 7b57 33bd
000001e0: bf11 4bbd 20ed 793c 77b5 83bd e7ec fc3c
000001f0: f694 9a3c a775 92bb f562 65bd 5f79 43bd

network_body._body_endoder.seq_layers.2.weight f4 [128, 128]
0.0038955985 0.12682408 0.0061551086 0.13951474 0.19634059 0.012643712 0.112343684 -0.100621544
0.013565107 0.01356796 -0.21374965 -0.255912 0.12681185 0.04147918 0.025760917 -0.020809645
-0.09388264 -0.17085929 0.015197244 -0.06256155 -0.060437333 -0.06702498 0.07430699 0.17792857
0.13032918 0.02269603 -0.06174252 -0.058326047 -0.052480012 -0.22767268 -0.044954848 -0.095526904
0.014214969 0.03660473 -0.009269932 -0.16605558 -0.037602782 0.049147647 0.013684952 0.14529826
-0.10326304 -0.033891097 0.0020943473 -0.042605266 0.043362662 0.08385115 0.17999256 -0.036028028
-0.014043878 -0.18685126 -0.050685167 -0.15438473 -0.18843137 -0.04645344 -0.13421144 0.024017856
-0.002208596 0.13339183 -0.20122686 -0.103864886 -0.014063151 0.030912535 -0.13985611 0.068700455
-0.105754234 -0.014817202 -0.011225743 0.013472136 -0.076570965 0.13354725 0.10351239 -0.07075766
0.10061651 0.040826026 -0.06045662 0.15188172 0.09339934 -0.12414902 0.09508103 -0.008840137
-0.07642066 0.0452847 -0.024068143 -0.016119393 0.18435103 0.017957892 0.017327344 -0.05097336
0.061864417 0.047884688 -0.06071436 0.052741665 0.0501237 0.032073166 -0.015053146 -0.09070348
0.014504974 -0.0002154543 0.024318324 -0.057365324 0.08298341 -0.022527779 -0.009943638 -0.037099015
0.005550303 0.02676122 0.14931025 -0.059289653 0.21315224 0.046747603 0.06406162 -0.3096135
-0.19216749 -0.09989492 0.029737245 -0.00095973094 -0.07085507 -0.15179749 -0.029057894 -0.11688167
0.023320155 -0.18954633 0.2325315 -0.028656399 0.06147783 0.049602017 0.11086834 -0.065836355
0.04312664 0.13767692 -0.08168801 0.02267237 -0.025163978 -0.022709617 0.19662458 0.04790017
-0.0038630464 -0.22422162 -0.06558704 -0.09021226 -0.07017034 -0.04109948 -0.04207889 0.05314625
0.036350146 -0.12846714 0.052030787 0.1396774 -0.07686039 0.18472005 0.11843858 0.03220917
-0.02329287 -0.06770656 -0.041377734 0.014825009 -0.116456345 0.0015579058 0.04594534 0.005107357
8.0879196e-05 -0.14409308 -0.06984151 0.026791397 0.002630187 -0.041460086 0.06398835 -0.057587825
0.03220002 -0.035442222 0.100056805 0.070183665 0.0957388 0.113367595 -0.012537389 -0.05032423
-0.10292273 0.027707838 -0.05034287 0.0059172846 -0.027701039 0.025018271 0.029486014 0.06199525
-0.13173394 0.05254062 0.16979845 0.014513169 -0.08775216 0.021895947 0.22017339 -0.03458088
0.0336843 0.07920271 0.087597474 0.07514265 -0.16709632 -0.10107296 -0.07188161 -0.11420796
-0.083485365 0.09378827 -0.065149195 0.1200208 -0.061583437 0.16332158 0.06083277 -0.08122703
-0.085965745 0.0764852 0.024536293 -0.07224256 0.084832825 0.022687417 -0.00096734765 0.006346294
-0.18724933 -0.028094854 -0.12666583 -0.0541293 0.06868112 0.023226265 0.011808002 -0.037788864
0.029250318 -0.1419958 -0.046245486 0.041135795 -0.21844831 0.010307808 -0.044660356 0.02747017
-0.074534364 0.11107578 0.08591154 -0.16517709 -0.007736338 0.011183614 -0.15357877 -0.07905966
-0.121405974 -0.008536337 -0.0076995157 -0.089527555 0.18715881 -0.21624061 0.10453944 -0.088789806
-0.05448041 0.048012134 -0.18097316 0.03140688 -0.15954225 -0.09543524 -0.029725876 0.13288154
00000000: 4c4d 7f3b 2cde 013e cbb0 c93b f4dc 0e3e
00000010: 820d 493e 9227 4f3c 7214 e63d ab12 cebd
00000020: 2f40 5e3c 264c 5e3c 30e1 5abe e606 83be
00000030: f7da 013e 13e6 293d 8f08 d33c fd78 aabc
00000040: 8b45 c0bd bdf5 2ebe dcfd 783c 4520 80bd
00000050: 238d 77bd 6544 89bd 432e 983d e832 363e
00000060: 0375 053e 06ed b93c bae5 7cbd 4be7 6ebd
00000070: 48f5 56bd 0723 69be 9322 38bd 9ca3 c3bd
00000080: e7e5 683c d7ee 153d eae0 17bc 790a 2abe
00000090: 6005 1abd 0b4f 493d d936 603c 11c9 143e
000000a0: 937b d3bd 64d1 0abd 5141 093b dc82 2ebd
000000b0: 0c9d 313d 27ba ab3d f84f 383e 2092 13bd
000000c0: 4b18 66bc f055 3fbe 409b 4fbd 0817 1ebe
000000d0: 27f4 40be f645 3ebd b96e 09be 18c1 c43c
000000e0: 18be 10bb de97 083e 6a0e 4ebe 1db7 d4bd
000000f0: 2169 66bc 493c fd3c 7136 0fbe d3b2 8c3d
00000100: ad95 d8bd dac3 72bc 2eec 37bc 3cba 5c3c
00000110: 3dd1 9cbd 9cc0 083e 4efe d33d 64e9 90bd
00000120: 0710 ce3d 3139 273d 5ca1 77bd e286 1b3e
00000130: 2748 bf3d d741 febd d8b9 c23d 39d6 10bc
00000140: 6f82 9cbd 737c 393d 8e2a c5bc d10c 84bc
00000150: 84c6 3c3e 6e1c 933c 13f2 8d3c 71c9 50bd
00000160: 8b65 7d3d bc22 443d 9faf 78bd a507 583d
00000170: 824e 4d3d 275f 033d 78a1 76bc bfc2 b9bd
00000180: 45a6 6d3c 93eb 61b9 3937 c73c e7f7 6abd
00000190: 35f3 a93d 2d8c b8bc a4ea 22bc 23f5 17bd
000001a0: 51df b53b 593a db3c c9e4 183e b5d9 72bd
000001b0: 9544 5a3e 6a7a 3f3d bd32 833d a985 9ebe
000001c0: 8ec7 44be b595 ccbd 869b f33c 7496 7bba
000001d0: 771c 91bd cd70 1bbe d20a eebc a85f efbd
000001e0: e909 bf3c 6f18 42be bd1c 6e3e d3c0 eabc
000001f0: 2dd0 7b3d 7c2b 4b3d f10e e33d 36d5 86bd
00000200: 8fa5 303d 2efb 0c3e 0b4c a7bd 68bb b93c
00000210: b024 cebc 8509 babc f457 493e f832 443d
00000220: 2a2b 7dbb 5a9a 65be 7f52 86bd 35c1 b8bd
00000230: 78b5 8fbd ee57 28bd ea5a 2cbd e2af 593d
00000240: e4e3 143d e48c 03be 3c1e 553d 9807 0f3e
00000250: fb68 9dbd 4127 3d3e ed8f f23d c3ed 033d
00000260: b0d0 bebc bda9 8abd b37b 29bd 98e4 723c
00000270: aa80 eebd a532 cc3a 2e31 3c3d 9e5b a73b
00000280: b09d a938 238d 13be 1109 8fbd a279 db3c
00000290: 375f 2c3b 0dd2 29bd 530c 833d 36e1 6bbd
000002a0: 2be4 033d dd2b 11bd 95ea cc3d 74bc 8f3d
000002b0: b412 c43d 452d e83d 9f69 4dbc c820 4ebd
000002c0: 27c9 d2bd 8cfb e23c 5334 4ebd c8e5 c13b
000002d0: 4aed e2bc 1ef3 cc3c a78c f13c bbee 7d3d
000002e0: 43e5 06be d534 573d a5df 2d3e a5c8 6d3c
000002f0: 68b7 b3bd 215f b33c 2275 613e aea4 0dbd
00000300: 8cf8 093d 0835 a23d 4e66 b33d 64e4 993d
00000310: 4c1b 2bbe 57ff cebd aa36 93bd dde5 e9bd
00000320: 60fa aabd 1114 c03d f16c 85bd 77cd f53d
00000330: ea3e 7cbd c63d 273e c82b 793d 5b5a a6bd
00000340: cf0e b0bd 46a4 9c3d 5600 c93c e8f3 93bd
00000350: d5bc ad3d f6da b93c 9a95 7dba 93f4 cf3b
00000360: 4abe 3fbe 2e27 e6bc b0b4 01be afb6 5dbd
00000370: b0a8 8c3d 0245 be3c 5a76 413c 7fc8 1abd
00000380: 5d9e ef3c 5967 11be e86b 3dbd 027e 283d
00000390: eab0 5fbe 15e2 283c c7ed 36bd 1f09 e13c
000003a0: 79a5 98bd b37b e33d 64f2 af3d 2f24 29be
000003b0: 1b81 fdbb 7a3b 373c c143 1dbe 08ea a1bd
000003c0: b2a3 f8bd fedb 0bbc 384c fcbb 395a b7bd
000003d0: 8fa6 3f3e 2e6e 5dbe c618 d63d 6ed7 b5bd
000003e0: da26 5fbd 5fa8 443d 0751 39be 80a4 003d
000003f0: 0b5f 23be 8d73 c3bd ae83 f3bc 1912 083e
