Assets/MoveToBet.onnx (onnx, 636216 bytes, 9 tensors)

action_model._continuous_distribution.log_sigma f4 [1, 2]
0	0xbd176d29	-0.036969338
1	0xbd1266e3	-0.03574265

action_model._continuous_distribution.mu.bias f4 [2]
0	0x3bea91c2	0.007158489
1	0x3a164ba2	0.0005733316

action_model._continuous_distribution.mu.weight f4 [2, 128]
0	0x3caaab4b	0.020833632
1	0x3aeda3da	0.0018130497
2	0x3c3889ad	0.011263293
3	0x3bfc9fca	0.007709478
4	0xbd190926	-0.03736224
5	0xbc810b3a	-0.015752424
6	0xbd13ef42	-0.036116846
7	0xbccf53dd	-0.025308544
8	0x3c99815a	0.018738437
9	0xbc561dce	-0.013068629
10	0xbbc44e80	-0.0059908032
11	0xbc457e8f	-0.0120541
12	0xbc97684f	-0.018482355
13	0xbcbad822	-0.022808138
14	0x3d66e9ef	0.05637544
15	0x3d08da39	0.03341124
16	0x3d1a7ed9	0.037718628
17	0x3d6561a9	0.05600134
18	0xbaa4fc24	-0.0012587351
19	0xbc3931b0	-0.01130335
20	0xbd067879	-0.032829735
21	0x3ce9ccbe	0.028540011
22	0xbc51afff	-0.012798308
23	0xbce6c321	-0.028169217
24	0xba7842df	-0.0009470414
25	0xbcb481cd	-0.02203455
26	0xbd03033b	-0.031985503
27	0x3c8dd2f6	0.017312508
28	0x3ccc87e0	0.024967134
29	0x3ba98b5d	0.005174084
30	0x3c11c5aa	0.008897224
31	0xbcc91f24	-0.024550982
32	0xbc77daf5	-0.015127887
33	0x3b971ab0	0.0046113357
34	0x3c612507	0.013741738
35	0x3c04c238	0.008102946
36	0xbc92f129	-0.01793726
37	0xbaa50f37	-0.0012593035
38	0x3d094b21	0.033518914
39	0x3d48cdb3	0.049024295
40	0xbc0bcc29	-0.008532562
41	0xbc8c42f5	-0.017121771
42	0xbc53455f	-0.012894957
43	0xbc9cee5c	-0.019156627
44	0xbc93090b	-0.017948648
45	0x3b9b225e	0.0047343215
46	0xbc0a3191	-0.008434669
47	0xbb90a17b	-0.004413781
48	0x3c6ea90f	0.014566674
49	0xbbd006c6	-0.0063484637
50	0x3bba2f0a	0.005681877
51	0x38aa266c	8.113388e-05
52	0x3bde8ff6	0.006792064
53	0x3d447a40	0.04796815
54	0xbca75909	-0.020428197
55	0xbba266e7	-0.0049561146
56	0xb91b6dd4	-0.00014822866
57	0xbbed06e7	-0.007233489
58	0x3c7a78d2	0.015287595
59	0xbd299d72	-0.041409917
60	0xbb68d597	-0.00355277
61	0x3ac1731c	0.0014759037
62	0xbc25c1bd	-0.010116992
63	0x3c274078	0.010208242
64	0x3c8327ed	0.016010249
65	0x3d0895f5	0.033346135
66	0x3c438bf7	0.011935226
67	0x3d104b1e	0.035227887
68	0x3cfe842b	0.031068882
69	0xbcb84338	-0.02249299
70	0x3bd902a9	0.0066226316
71	0x3ccf725d	0.025323087
72	0xbc055a65	-0.0081392275
73	0xbc844d29	-0.016150074
74	0x3ca8ab14	0.020589389
75	0x3c702d68	0.014659263
76	0xbbe7012f	-0.0070497016
77	0xbca6a534	-0.020342447
78	0xbcac42b3	-0.021027898
79	0xbc1f191b	-0.009710575
80	0xbcffd82f	-0.031231014
81	0x3cfc1a3e	0.030774232
82	0x3cae9980	0.021313429
83	0xbcb52e2a	-0.02211674
84	0x3cfd98d5	0.030956665
85	0x3bd0dbe3	0.006373869
86	0x3d55e29c	0.052218065
87	0xbd1682ff	-0.03674602
88	0x3cf02744	0.029315598
89	0x3d5eb6da	0.0543736
90	0x3cf4e836	0.029895883
91	0x3ac77024	0.0015215916
92	0xba6670a9	-0.00087905914
93	0x3cb5b2f7	0.022180064
94	0x3b25cee0	0.002530031
95	0xbd76b6b5	-0.060232837
96	0xbb04452a	-0.0020182827
97	0x3bb9f07a	0.005674419
98	0x38b6b2cf	8.711742e-05
99	0xbca71d7c	-0.020399801
100	0xbbf147b5	-0.0073632845
101	0xbcb152a9	-0.02164586
102	0xbcf02535	-0.029314617
103	0x3c367719	0.0111367935
104	0xbbb468a2	-0.0055056373
105	0x3bb4e77f	0.0055207605
106	0x3a2de347	0.0006633293
107	0x3cfa8d63	0.030584997
108	0x3c66e6d3	0.014093119
109	0xbc9cdf50	-0.019149452
110	0xbcf1db45	-0.029523501
111	0x3c873c5c	0.016508274
112	0x3d83372e	0.06407009
113	0x3d129959	0.035790775
114	0xbd06b5f0	-0.032888353
115	0xbab100a2	-0.0013504217
116	0xba40203c	-0.0007329022
117	0xbcb550e1	-0.022133293
118	0xbcae881c	-0.021305136
119	0xbd1a1259	-0.037615154
120	0xbb22ea93	-0.0024859055
121	0x39e5923c	0.00043787237
122	0x36d7bbf3	6.4293795e-06
123	0x3bdc7591	0.006727882
124	0xbbcc1cb3	-0.006229007
125	0x3bc4b0ff	0.006002545
126	0x3c8fd4dc	0.017557554
127	0x3c99707b	0.018730393
128	0x3ce95c33	0.028486347
129	0x3cd5438c	0.026033185
130	0x3d342f3e	0.043990366
131	0xbb8da8c9	-0.0043230993
132	0xbcd9846c	-0.026552401
133	0x3b1f4563	0.0024302832
134	0x3bbfe0ff	0.005855679
135	0xbc0f37b0	-0.008741304
136	0xbc287927	-0.010282791
137	0x3b71e391	0.0036909322
138	0xbd1900e5	-0.03735437
139	0x3bb03b60	0.005378172
140	0xbc20601b	-0.009788538
141	0xbc23e1b4	-0.010002542
142	0x3bee9d4c	0.007281935
143	0x3b6c9d32	0.0036104438
144	0xbd012f98	-0.03153953
145	0x3b77def5	0.0037822102
146	0x3d4920b3	0.04910345
147	0x3c25457c	0.010087367
148	0xbd041c72	-0.03225369
149	0xbcf3e35c	-0.0297715
150	0xbcc99c89	-0.024610775
151	0x3cb6cfc6	0.022315871
152	0xbbb30f6a	-0.005464484
153	0x3c4f5d7d	0.012656567
154	0x3cdabefa	0.026702393
155	0x3c75e5f8	0.015008442
156	0xbc8eb495	-0.017420093
157	0xbc8ffe3f	-0.017577289
158	0xbd315343	-0.043292295
159	0xbd01c2ba	-0.031679846
160	0xbca5a5e3	-0.020220703
161	0x3cad9d9e	0.021193322
162	0xbbf49e89	-0.007465188
163	0x3cc1139c	0.02356892
164	0x3cf57d7c	0.029967062
165	0xbcd23366	-0.025659274
166	0x3c142bee	0.009043677
167	0xbc3db96b	-0.011579852
168	0x3cbd107d	0.023079151
169	0xbc29120e	-0.010319246
170	0xbc20e108	-0.009819277
171	0x3cfc7179	0.030815827
172	0xbcba84d0	-0.022768408
173	0xbbc229ab	-0.0059253774
174	0xbcab0a31	-0.020878883
175	0x3c6d0dc1	0.014468611
176	0x3cbe54bf	0.02323377
177	0xbca0d78b	-0.019634029
178	0x3a88601d	0.001040462
179	0xbd01d102	-0.031693466
180	0x3c16cb85	0.009203796
181	0x3d062a48	0.032755166
182	0xbc4b9eec	-0.012428027
183	0x3c7b7252	0.01534708
184	0xb9a6ec37	-0.0003183798
185	0xbcccd25a	-0.025002647
186	0xbd8b4a15	-0.068012394
187	0x3c37df85	0.011222725
188	0xbc0f29bf	-0.00873798
189	0xbb60cff1	-0.003430363
190	0xbc9f789d	-0.019466693
191	0xbb86def1	-0.004115932
192	0xbc3227e9	-0.010873773
193	0xbd62f545	-0.05540969
194	0x3c17273e	0.009225665
195	0xbd2d9b9d	-0.042384733
196	0xbc86394a	-0.01638474
197	0xbd30e097	-0.043182936
198	0x3ca9da52	0.020733986
199	0x3c30fc95	0.010802408
200	0x3c958bc4	0.018255122
201	0x3cea6a55	0.028615156
202	0xbc8f2eab	-0.017478308
203	0xbd14455c	-0.03619896
204	0xbc5666e4	-0.0130860545
205	0xbb39dd0c	-0.0028360514
206	0x3cd5bd3b	0.026091209
207	0x3a5c2b23	0.0008398762
208	0x3b240091	0.0025024752
209	0x3d466c83	0.04844333
210	0xbc8ee285	-0.017441997
211	0x3cb974ed	0.022638762
212	0x3c8bb4de	0.017054018
213	0xbc56a003	-0.013099673
214	0xbc9499ce	-0.018139746
215	0xbbee65f9	-0.0072753397
216	0xbb3b6e1b	-0.0028599564
217	0x3c39c3fa	0.011338228
218	0xbb1e85bb	-0.0024188596
219	0x3bce14a9	0.006289084
220	0xbce4871b	-0.027896455
221	0x3c7133d2	0.014721828
222	0xba4a989a	-0.0007728428
223	0xbc36ddb3	-0.011161256
224	0x3bf9fcdd	0.0076290206
225	0xbda14b04	-0.07875636
226	0x3d3650e4	0.044510737
227	0x3be116fd	0.0068691955
228	0x3b276e1d	0.002554781
229	0x3cd3823c	0.025818937
230	0xbb42c105	-0.00297171
231	0x3c897a49	0.016781943
232	0xbcf29907	-0.029613985
233	0x3d0d8aea	0.034556307
234	0xbd0049b3	-0.031320285
235	0xbcf38a8a	-0.029729147
236	0xbd108a4a	-0.035288133
237	0x3cf0309b	0.029320052
238	0x3c038cda	0.008029187
239	0x3c4e1fca	0.012580821
240	0x3c1fc044	0.00975043
241	0x3b8fe1bb	0.004390923
242	0xbd120c11	-0.03565604
243	0xbbbbb816	-0.005728732
244	0x3c9e62ee	0.019334283
245	0xbceef5d9	-0.029169964
246	0xbbba9276	-0.005693729
247	0x3b9881b6	0.0046541346
248	0xbb00ca0c	-0.001965168
249	0xbc13f80d	-0.009031308
250	0x3c6e66bb	0.01455086
251	0xbc19ff00	-0.009399176
252	0x3cb43e20	0.02200228
253	0xbcc06ca3	-0.023489302
254	0x3c7f41ce	0.015579654
255	0x3c71a4d9	0.014748775

action_model._discrete_distribution.branches.0.bias f4 [5]
0	0xbb3d4855	-0.0028882225
1	0x3b39a632	0.002832782
2	0x3a01c59a	0.00049504044
3	0x39e8f47e	0.0004443265
4	0x3a1b9f40	0.0005936511

action_model._discrete_distribution.branches.0.weight f4 [5, 128]
0	0xbb9b3268	-0.0047362335
1	0xbc4bdb06	-0.012442356
2	0x3ad4097b	0.0016177142
3	0xbc0fad1b	-0.008769299
4	0xbc2d272d	-0.010568422
5	0xbc129580	-0.008946776
6	0x3c487f1a	0.012237335
7	0xbc55c2e5	-0.013046955
8	0xbc07cc04	-0.008288387
9	0xbbe47681	-0.0069721346
10	0xbc41e16e	-0.011833532
11	0x3c62c9f1	0.013842092
12	0xbc1cc044	-0.009567324
13	0xbb270d5c	-0.002549014
14	0x3c8d35d7	0.017237587
15	0x39685cea	0.00022159857
16	0xbb33d714	-0.002744143
17	0x3bdff8fc	0.006835101
18	0xbaf42d22	-0.0018629173
19	0xbb0f8773	-0.0021900802
20	0xbc265542	-0.010152163
21	0xbbf8222c	-0.007572433
22	0xbca9323e	-0.02065384
23	0xbbfffbc3	-0.0078119948
24	0xbc285428	-0.010273971
25	0x3bdbedf1	0.0067117144
26	0x394c53c7	0.00019486166
27	0xbbd980ac	-0.0066376533
28	0x3b8288a7	0.0039835754
29	0x3c684ac7	0.014177985
30	0xbb7430a6	-0.0037260442
31	0x3cb3ee33	0.021964168
32	0x3b378e0b	0.0028008248
33	0x3cc4ceeb	0.024024447
34	0xbc33173a	-0.010930831
35	0xbcab2e99	-0.020896243
36	0x3c82b025	0.015953133
37	0x3b762148	0.0037556458
38	0xbbb7c20e	-0.00560785
39	0xbc063c93	-0.008193153
40	0x3c0f0731	0.008729742
41	0xbc34f716	-0.011045238
42	0x3a302fde	0.0006721
43	0xbc55ba71	-0.013044939
44	0x3be9b25a	0.007131857
45	0xbc9eda16	-0.0193911
46	0xbb9d075b	-0.0047921366
47	0xbc278440	-0.010224402
48	0xbc36bb03	-0.0111529855
49	0xbbb715d2	-0.005587318
50	0x3c5624af	0.0130702695
51	0x3bfd20d3	0.00772486
52	0x3bb2d859	0.0054579196
53	0xbaa31a41	-0.0012443737
54	0x3bdda91f	0.0067645456
55	0xbbee0641	-0.007263929
56	0x3ca1c47e	0.019747015
57	0x3b7c2be9	0.003847832
58	0xbb2cee1b	-0.002638704
59	0x3cb1597f	0.02164912
60	0x3c1094a4	0.008824501
61	0x3c294556	0.010331472
62	0xba6a7450	-0.00089437235
63	0xbb7a06fe	-0.003815114
64	0xba101078	-0.0005495618
65	0x39b24053	0.0003399873
66	0x3b3e5501	0.0029042365
67	0xbcb7a94b	-0.022419592
68	0x3c5790ed	0.013157112
69	0x3b07a764	0.0020699138
70	0xbbd40892	-0.006470748
71	0x3c08f637	0.008359483
72	0x3c88dbfc	0.01670646
73	0x3ca7ae87	0.020468963
74	0x3bd43aa5	0.0064767175
75	0xbcb1041e	-0.021608409
76	0xbc33a3f3	-0.0109643815
77	0xba69c2de	-0.0008917282
78	0x39bcc71c	0.00036006502
79	0x3c6403a0	0.01391688
80	0x3c08d07d	0.008350489
81	0xbc482abe	-0.012217222
82	0x3b72ae1b	0.0037030044
83	0x3b9ef865	0.0048513883
84	0xbbed0fe8	-0.007234562
85	0x3c754c5c	0.014971819
86	0x3c43e9da	0.01195761
87	0xbbba9efa	-0.005695221
88	0x3c0493b4	0.008091856
89	0x3c0e5855	0.008688052
90	0x3c800e47	0.015631808
91	0x3cbf96b1	0.023387285
92	0xba673fb5	-0.0008821444
93	0x3c80291b	0.0156446
94	0xbc407206	-0.011745935
95	0xba4ba545	-0.00077684625
96	0x3c7da5b3	0.0154814
97	0xbbc33817	-0.005957614
98	0xbc035512	-0.008015888
99	0x3a16b169	0.0005748482
100	0x3be995e4	0.007128464
101	0x3cc7f473	0.024408555
102	0x399766ee	0.00028877653
103	0xbbd21d52	-0.0064121867
104	0xbbfb729d	-0.007673575
105	0x3aeca4cc	0.0018054484
106	0xbb2e369b	-0.002658284
107	0x3b24585d	0.0025077083
108	0x3c38e123	0.0112841455
109	0x3c65e48f	0.014031543
110	0x3ce0e19c	0.027451329
111	0xbca7b619	-0.020472573
112	0x3b5a73fa	0.0033333288
113	0x3b984135	0.004646445
114	0x3b050523	0.0020297251
115	0xbb6acdf5	-0.0035828326
116	0x3bb00f7e	0.0053729406
117	0x3c93ca89	0.018040912
118	0x3c7b5ae1	0.015341491
119	0xbc036837	-0.008020452
120	0x3cb06a61	0.0215351
121	0x3c843e63	0.01614303
122	0xbb5e76fe	-0.0033945437
123	0xb9f15144	-0.0004602765
124	0x3b8f6850	0.0043764487
125	0xbc3a0666	-0.011354065
126	0x3c8c5bd6	0.017133635
127	0x3aa58abb	0.0012629846
128	0xbacc5640	-0.0015589669
129	0x3cd2ee02	0.025748257
130	0xbc62cc0a	-0.013842592
131	0x3b19e23b	0.002348079
132	0x3bb53817	0.005530368
133	0xbc6aa641	-0.014321865
134	0x3c03d09a	0.00804534
135	0xbb6862cd	-0.003545928
136	0xbaed10d2	-0.0018086678
137	0x3b5b5b1e	0.0033471058
138	0x3c83e3f6	0.016099911
139	0x3c994bc8	0.018712893
140	0xbc20115a	-0.009769762
141	0x3c8732c9	0.016503708
142	0xbc807e48	-0.015685216
143	0xbc207cf0	-0.009795412
144	0x39a5bf84	0.00031613943
145	0xbd00ec8d	-0.031475592
146	0xbbfc908d	-0.0077076615
147	0x3b3a045f	0.0028383953
148	0x3bf554b6	0.007486905
149	0xbc1f6a8f	-0.009729995
150	0x3c8e5651	0.017375143
151	0xbabc9fac	-0.0014390848
152	0x3ac45417	0.0014978674
153	0xbcdc234a	-0.026872296
154	0x3ccfe938	0.025379762
155	0x3ac47954	0.0014989772
156	0xbc3379b4	-0.010954309
157	0x3af8f616	0.0018994238
158	0x3c826764	0.015918441
159	0x3c2e6663	0.010644528
160	0x3baf9c61	0.005359218
161	0xbc87c7ce	-0.016574766
162	0x3ba82188	0.0051309504
163	0x3bcde81a	0.006283772
164	0xbcb57208	-0.0221491
165	0x3bff8239	0.007797506
166	0xb964dff8	-0.0002182721
167	0xbc69ae32	-0.014262723
168	0x3afb4c95	0.0019172603
169	0x3ccb1a6c	0.024792872
170	0x3b46416d	0.00302514
171	0x3b63f5c4	0.003478394
172	0x3bd99ac7	0.0066407654
173	0x3ca7dfc1	0.020492436
174	0xbc629e99	-0.013831758
175	0xbc4356f1	-0.011922584
176	0x3c4ba1c2	0.012428703
177	0x3a4fd3cc	0.00079279835
178	0x3cd73e6d	0.026274884
179	0x3c255bc9	0.010092684
180	0x3a5b157e	0.00083573896
181	0xbbba40aa	-0.005683978
182	0xbc0efbf9	-0.008727067
183	0x3acb46ff	0.0015508829
184	0x3c79895c	0.015230503
185	0xbab9c0d0	-0.0014171842
186	0xbcaa0258	-0.02075307
187	0x3c3617b2	0.011114048
188	0x3c29b542	0.010358157
189	0x3be40416	0.006958495
190	0x3c5431fe	0.012951372
191	0x3ac911dd	0.0015340407
192	0xbabff253	-0.0014644362
193	0x3c273ef5	0.010207881
194	0xbb873a1f	-0.0041268016
195	0x3c9e94e9	0.019358115
196	0xbc1358a2	-0.0089933
197	0x3bd38f1b	0.0064562685
198	0xb9ac82c6	-0.0003290383
199	0xbc5ac2bc	-0.013352092
200	0x3b10b279	0.0022079034
201	0xbbe9eb4a	-0.0071386443
202	0x3c4ddc95	0.012564798
203	0x3c0bae37	0.008525423
204	0xbb0a0da1	-0.0021065252
205	0x3cdfa36b	0.027299603
206	0x3b8960e4	0.0041924585
207	0xbc5311ea	-0.012882689
208	0xbb73a129	-0.0037174916
209	0xbcc194ca	-0.023630518
210	0xb99089aa	-0.00027568388
211	0x3a04897d	0.0005055888
212	0x3c1ef73b	0.009702499
213	0x3c2e9fb1	0.010658191
214	0xbcba166b	-0.022715768
215	0x3a851767	0.0010154069
216	0xbb5576af	-0.0032571962
217	0xbc577e1a	-0.013152624
218	0xbc3c88db	-0.011507238
219	0x3ba3ab92	0.004994818
220	0xbc0664b5	-0.008202721
221	0xbcb1fbcc	-0.021726511
222	0x3c2915d5	0.010320147
223	0x3ba3ce14	0.0049989317
224	0xbc2dcbf8	-0.010607712
225	0x3c17e225	0.009270226
226	0x3c216fbc	0.0098533
227	0x3b6be75e	0.003599606
228	0x3c3c1d7a	0.011481637
229	0xbc020d3f	-0.007937728
230	0x3c96ef00	0.018424511
231	0xbcd7a421	-0.02632338
232	0x3bace219	0.0052759764
233	0x3c5a3637	0.01331859
234	0xbadc480b	-0.0016806138
235	0xbcc20dcd	-0.023688221
236	0xbc0d29c2	-0.008615913
237	0xbc549109	-0.012974032
238	0xbc4dee7a	-0.012569064
239	0x3c11f539	0.008908563
240	0x3a1ab2dc	0.0005901286
241	0xbb3e0c3d	-0.0028998994
242	0x3b2929dc	0.0025812304
243	0x3c04770e	0.0080850255
244	0x3c1d839b	0.009613897
245	0xbc33e109	-0.0109789455
246	0x3c67cecb	0.014148424
247	0xbbd8e9a8	-0.006619651
248	0xbca44185	-0.020050773
249	0xbcf557b8	-0.029949054
250	0x3a7f8799	0.00097476837
251	0x3b9810da	0.0046406807
252	0xbbe5d445	-0.00701383
253	0x3c196b27	0.009363926
254	0xbc38b77a	-0.011274213
255	0x3bfd95c5	0.007738801

network_body._body_endoder.seq_layers.0.bias f4 [128]
0	0x3ab2dde6	0.0013646453
1	0xbb9c47c0	-0.0047692955
2	0xbc0ce373	-0.00859915
3	0x3abe63a1	0.0014525541
4	0x3b204486	0.0024454906
5	0x3c46fa18	0.012144588
6	0xbb84b5a3	-0.004049973
7	0x3ba0820a	0.0048983144
8	0xbc842d1a	-0.016134787
9	0x3c9aba4d	0.018887663
10	0x3c7e86e8	0.015535094
11	0x3d131e5f	0.035917636
12	0xbc0ec795	-0.008714576
13	0xbafe7ce2	-0.001941588
14	0xbcbee80f	-0.023304014
15	0xbb0fccce	-0.0021942141
16	0xbc224cf9	-0.009906047
17	0xbc7afe70	-0.015319452
18	0xbc29b619	-0.010358357
19	0xba182fd9	-0.00058054697
20	0x3c3b51ee	0.011433108
21	0xbbd05150	-0.0063573495
22	0x3c6892d7	0.014195166
23	0xbc19f84f	-0.00939758
24	0x3b935440	0.0044961274
25	0x3b35f624	0.002776512
26	0x3a9bbd77	0.0011882026
27	0xbc9ccee5	-0.019141624
28	0xbb669831	-0.0035185928
29	0x3a120365	0.0005569964
30	0x3c3586ef	0.011079534
31	0x3c03a124	0.008034024
32	0xbb529feb	-0.0032138776
33	0x3c0d956d	0.008641583
34	0xba97b2d7	-0.0011573684
35	0x3c8da9c6	0.017292868
36	0xbab8d551	-0.0014101659
37	0xbb9d828c	-0.004806822
38	0x3b1c069d	0.0023807653
39	0x3c47285e	0.01215562
40	0xbbab59aa	-0.0052291946
41	0xbad74a10	-0.0016425271
42	0xbbdcc4c9	-0.006737326
43	0x3cafcbcf	0.021459488
44	0xbbe5d018	-0.007013332
45	0xbb592409	-0.003313305
46	0xbb411d36	-0.0029466874
47	0xbb73bcb8	-0.0037191343
48	0x3c0abd66	0.008468008
49	0x3c15def1	0.009147392
50	0x3c06e146	0.00823242
51	0xbc3680c2	-0.011139097
52	0x3b8ba30c	0.00426138
53	0x3a89d16a	0.0010514681
54	0x3c002b04	0.007822756
55	0xbbdf2cd5	-0.0068107643
56	0x3c6c682e	0.014429135
57	0x3ab2e9bc	0.001364998
58	0x3baeb848	0.0053320266
59	0xbcce2418	-0.025163695
60	0xbc069178	-0.008213393
61	0xbbfee584	-0.0077788252
62	0x3c3e1cbc	0.0116035305
63	0xbbb0bd63	-0.0053936704
64	0xbb471e37	-0.0030383
65	0x3b17a8e1	0.002314143
66	0x3b879e6a	0.0041387575
67	0x3aab515c	0.0013070512
68	0x3ba5360c	0.0050418433
69	0x3ac617c8	0.0015113289
70	0x3c0208e5	0.007936691
71	0xbb7d5b26	-0.0038659065
72	0x3bb98404	0.0056614894
73	0xbac35918	-0.0014903871
74	0xbc32f46a	-0.010922531
75	0x3b591983	0.0033126778
76	0x3b916dd4	0.0044381414
77	0xbaa5ba58	-0.0012644036
78	0x3b9d2b25	0.004796403
79	0xbc8f9147	-0.017525328
80	0x3c0cd098	0.0085946545
81	0xbbb4e37f	-0.0055202837
82	0xbc7d27dd	-0.015451399
83	0xbb92d5a2	-0.0044810334
84	0x3baa96d5	0.005205969
85	0xbc91ede6	-0.017813634
86	0xbccc201b	-0.024917653
87	0xbb9bc84c	-0.004754102
88	0xba788bca	-0.00094812794
89	0xbb990e0d	-0.0046708644
90	0xbc4c81f3	-0.012482154
91	0xbca890a4	-0.020576783
92	0x3af84cad	0.001894375
93	0x3c27ce1d	0.010242012
94	0xbbcbe9e3	-0.00622295
95	0xbbf6f0fd	-0.0075360523
96	0x3b147b35	0.0022656445
97	0xbb209620	-0.0024503544
98	0xbcb23c70	-0.021757334
99	0xbb6faf1b	-0.0036572877
100	0x3c0b32a3	0.008495959
101	0x3b140ac6	0.002258943
102	0x3c292ba4	0.010325346
103	0xbb8f0927	-0.0043651047
104	0x3b8a5ace	0.0042222505
105	0xbbb195f7	-0.0054194885
106	0xbca17280	-0.019707918
107	0xbbeadc1b	-0.007167352
108	0xbc441a33	-0.011969137
109	0xbc01896e	-0.007906301
110	0x3ad91745	0.0016562721
111	0xbc1726d2	-0.009225564
112	0x3a030dc7	0.00049993064
113	0x3bbbb17d	0.0057279454
114	0xbc17a328	-0.009255208
115	0xba218136	-0.00061609165
116	0x3ba260d9	0.004955393
117	0x3a5f07da	0.0008507945
118	0x3c16eb54	0.00921138
119	0xb95c23e3	-0.00020994204
120	0xba57f79f	-0.00082384975
121	0x3b9cc8fd	0.004784702
122	0x3bdf27cc	0.006810164
123	0x3aec1388	0.0018011192
124	0xbc265836	-0.010152867
125	0x3b5bd505	0.0033543718
126	0xbb4c8cdb	-0.0031211886
127	0x3c474135	0.012161543

network_body._body_endoder.seq_layers.0.weight f4 [128, 1100]
0	0xbcb97bb1	-0.022641988
1	0xbb73d9d4	-0.0037208693
2	0x3c9b2b53	0.018941557
3	0x3ca74926	0.020420622
4	0xbbb85da6	-0.005626398
5	0xbcb68d6f	-0.022284238
6	0xbcea3d8d	-0.028593803
7	0xbce9b1f4	-0.028527237
8	0xbd8deb9b	-0.06929704
9	0xbc888ecb	-0.016669651
10	0x3cd62647	0.026141299
11	0xbc529262	-0.012852283
12	0xbb15379f	-0.0022768748
13	0xbce92595	-0.028460303
14	0x3bbe1aee	0.00580155
15	0x3ca437e9	0.020046191
16	0x3ca6932a	0.020333845
17	0xbc135385	-0.008992081
18	0xbc832160	-0.016007125
19	0xbc063694	-0.008191723
20	0xbcef36e3	-0.029200977
21	0xbc615c56	-0.013754925
22	0x3cbe5058	0.02323167
23	0x3d500c37	0.0507929
24	0x3bbbdb9d	0.005732967
25	0x3c00dfa3	0.007865819
26	0xbd2eb965	-0.042657275
27	0x3d2346c0	0.039862394
28	0x3b2507c1	0.0025181624
29	0x3cb28543	0.02179206
30	0xbda72b79	-0.081625886
31	0x3d083b9e	0.03325998
32	0x3b339c35	0.002740634
33	0x3c17eaf8	0.0092723295
34	0xbca6aff6	-0.020347577
35	0xbb745758	-0.0037283506
36	0x3d059d6e	0.03262084
37	0x3c41cad1	0.01182814
38	0x3c8e4052	0.017364655
39	0x3b8eaa94	0.0043538306
40	0x3d12981a	0.035789587
41	0xbd495104	-0.04914953
42	0x3d2aa830	0.041664302
43	0xbd42860f	-0.04749113
44	0x3d1c43a6	0.038150452
45	0xbbf2d9ea	-0.0074112313
46	0xbc797565	-0.015225743
47	0x3cace137	0.021103485
48	0xbccb564e	-0.024821427
49	0x3c934918	0.01797919
50	0xbcf9c5b1	-0.030489774
51	0xbd1cb8d6	-0.03826221
52	0xbcc47f97	-0.02398662
53	0xbd3d492b	-0.046212357
54	0x3bf0bbdd	0.007346614
55	0xbc874177	-0.016510708
56	0xbd76c3b0	-0.060245216
57	0xbd4d9fc0	-0.050201178
58	0xbc8e1b09	-0.017346876
59	0x3a7354c2	0.0009282344
60	0xbc9b3357	-0.01894538
61	0x3bcf9801	0.006335259
62	0xbd6cbf93	-0.057799887
63	0x3cf45645	0.029826293
64	0xbba3b38e	-0.00499577
65	0xbb9439fd	-0.0045235143
66	0x3cd7b395	0.026330749
67	0xbd09bd8d	-0.033628035
68	0xbcdff469	-0.027338224
69	0xbd06c740	-0.032904863
70	0x3d23d0ff	0.039994236
71	0x3cfdb4f3	0.030970072
72	0x3d5098ee	0.050927095
73	0xbcc92228	-0.02455242
74	0xbc58d187	-0.013233549
75	0x3d29b4d8	0.04143223
76	0xbd6e35e9	-0.05815688
77	0xb914cfdf	-0.00014191818
78	0xbc737fb6	-0.014861992
79	0xbd2b59b0	-0.04183358
80	0xbd41df2c	-0.047331974
81	0xbc349494	-0.011021752
82	0xbd2b0d76	-0.041760884
83	0x3d4b5cbf	0.049648996
84	0x3c6e9ee9	0.014564254
85	0xbcba55ef	-0.022746054
86	0x3bceaf63	0.006307529
87	0xbd2a2de9	-0.04154769
88	0xbc062fe2	-0.008190127
89	0xbd06fa5c	-0.032953605
90	0xbb805b68	-0.0039171465
91	0x3c2047f1	0.009782777
92	0xbc5cb7b1	-0.01347153
93	0xbb87c586	-0.0041434197
94	0xba794bd3	-0.0009509895
95	0xbca859ea	-0.020550687
96	0x3bf19bba	0.0073733004
97	0xbda031b1	-0.07821978
98	0xbd029724	-0.03188242
99	0x3c76c666	0.01506195
100	0x3c934270	0.017976016
101	0x3c05c14e	0.008163763
102	0xbd472976	-0.048623525
103	0xbd124b75	-0.035716493
104	0xbbbe3a09	-0.005805258
105	0x3d0360ae	0.032074623
106	0x3a352227	0.0006909691
107	0xbabbff8a	-0.0014343124
108	0xbc94b2b5	-0.01815162
109	0x3b0b8d7f	0.0021294055
110	0x3be44871	0.0069666435
111	0xbc9695c7	-0.018381966
112	0x3c3eb810	0.011640564
113	0x3c8a29d6	0.016865652
114	0x3ca4cb62	0.020116512
115	0xbcf4e6e4	-0.029895253
116	0x3d07977e	0.03310346
117	0xbd1f4ca0	-0.038891435
118	0xbcf91065	-0.030403325
119	0xbc8c82de	-0.017152246
120	0x3b1358aa	0.0022483268
121	0x3bd12f21	0.006383792
122	0xbc9c2945	-0.019062648
123	0xbbb641de	-0.005562051
124	0x3c668cef	0.014071687
125	0x3909ad7d	0.00013129968
126	0xbc648f1a	-0.013950134
127	0x3cc125d9	0.023577617
128	0xbcd0ce3b	-0.025488963
129	0xbd8a46e4	-0.067518026
130	0x3c85dfc4	0.016342051
131	0x3cd39dc0	0.025832057
132	0x3d02fdf6	0.031980477
133	0x3d11377b	0.0354533
134	0x3c4c4832	0.012468385
135	0x3cda019b	0.026612094
136	0x3d15b158	0.03654608
137	0xbd4d0d52	-0.05006153
138	0xbd04c6b3	-0.032416057
139	0xbc0e2665	-0.008676146
140	0x3d061d8e	0.03274303
141	0x3d37ec19	0.044902895
142	0xbc94149c	-0.018076234
143	0xbd1ad470	-0.037800252
144	0xbd63c18f	-0.055604514
145	0xbcec0551	-0.028811129
146	0x3c1ef3c8	0.009701677
147	0xbcada94e	-0.021198895
148	0xbd86ba60	-0.06578517
149	0x3c176625	0.009240662
150	0x3ca1daea	0.019757707
151	0x3b7487d8	0.0037312414
152	0x3c5af172	0.013363229
153	0xbd41fc66	-0.047359847
154	0x3d1c8a31	0.038217727
155	0xbce0d1c7	-0.02744378
156	0x3b816893	0.003949234
157	0xbd65386a	-0.055962004
158	0xbc987d18	-0.018614337
159	0xbd6fcfbc	-0.05854772
160	0x3bf9e97f	0.007626712
161	0xbd1f8bd6	-0.038951717
162	0x3d64b93a	0.05584071
163	0xbbcb7213	-0.006208667
164	0xbc56816d	-0.013092381
165	0xbc6a352b	-0.014294903
166	0xbccea419	-0.025224732
167	0xbd615949	-0.05501679
168	0xbd0eee53	-0.034895252
169	0xba816b6a	-0.0009873931
170	0x3d0fa0b7	0.03506538
171	0x3cc210f7	0.02368973
172	0x3d64dcf1	0.05587477
173	0x3cc2164c	0.023692273
174	0x3d8d724c	0.06906566
175	0xbc1a9b45	-0.009436433
176	0x3b5c026c	0.003357078
177	0xbc6cba2c	-0.014448684
178	0xbcac473c	-0.021030061
179	0x3c7b253c	0.015328702
180	0xbd62eb3f	-0.05540013
181	0xbd0f2b9c	-0.0349537
182	0x3cae32dd	0.021264488
183	0x3ceb2e3d	0.028708572
184	0x3c83d3c1	0.016092183
185	0x3c0add77	0.008475653
186	0xbc3fa939	-0.011698061
187	0x3d2c162b	0.04201333
188	0xbd3b216b	-0.045686167
189	0xbd2a7bed	-0.04162209
190	0xbd7e0185	-0.062013168
191	0x3d52ad1a	0.051434614
192	0xbc434666	-0.01191864
193	0x3d38d7ec	0.045127794
194	0xbc1638bf	-0.009168803
195	0xbcccd345	-0.025003085
196	0xbd093fa5	-0.03350796
197	0xbcf64586	-0.030062448
198	0xbd3a4fc0	-0.04548621
199	0x3aa43e28	0.0012530731
200	0x3ce09b84	0.027417906
201	0x3b98b975	0.00466078
202	0x3d62569c	0.05525838
203	0x3ccd9def	0.025099723
204	0x3cd8b43f	0.026453136
205	0xbc96f7f0	-0.018428773
206	0xbd31e322	-0.0434295
207	0xbcca105e	-0.024666008
208	0x3ce8c0fe	0.028412338
209	0xbd0354e3	-0.032063376
210	0x3c361ee0	0.01111576
211	0xbd09bb6a	-0.033625998
212	0xbc2511a4	-0.010075007
213	0xbd3b2c49	-0.04569653
214	0xbd447305	-0.047961254
215	0xbc41d810	-0.0118312985
216	0xbd5dadfb	-0.054121
217	0xbd5e655d	-0.054295886
218	0xbd0b6cf8	-0.034039468
219	0x3c29fd4e	0.010375334
220	0xbcb8be15	-0.022551576
221	0xbd8e327e	-0.06943224
222	0xbb44bcde	-0.00300198
223	0xbd00958e	-0.031392626
224	0xbd1374ea	-0.03600017
225	0xbcb6178c	-0.022228025
226	0x3c8d5a4c	0.017254971
227	0x3caabcb9	0.020841943
228	0x3ba808b9	0.005127993
229	0xbc1579c6	-0.009123271
230	0x3caaa98d	0.020832801
231	0x3c4f4d93	0.0126527725
232	0x3d027ffb	0.031860333
233	0xbcd92f85	-0.026511917
234	0xbd8fb964	-0.07017782
235	0x3ced4389	0.028962867
236	0xbd51940a	-0.05116657
237	0xbc9fad31	-0.019491764
238	0x3b326476	0.0027220524
239	0xbc984968	-0.01858969
240	0xbd1415de	-0.036153667
241	0xbbef5cde	-0.007304772
242	0x3d90e126	0.07074194
243	0xbd22be84	-0.03973247
244	0x3d09bbf7	0.033626523
245	0xbd07eb51	-0.0331834
246	0x3d1230dc	0.035691127
247	0xbd0db536	-0.034596644
248	0xbb2c6d55	-0.0026310284
249	0x3c47ccfa	0.012194866
250	0xbd7cff59	-0.061766956
251	0xba32167b	-0.0006793511
252	0xba1c87cf	-0.0005971165
253	0x3c891c09	0.016737001
254	0xbca66768	-0.02031298
255	0xbcfdde47	-0.03098978

network_body._body_endoder.seq_layers.2.bias f4 [128]
0	0x3c165078	0.009174459
1	0xba9f632a	-0.001216029
2	0x3c20e3ed	0.009819967
3	0x3ab81c8d	0.0014046595
4	0xbaae2065	-0.0013284801
5	0xbcc41b37	-0.023938758
6	0xbaba4dfc	-0.0014213915
7	0xbb90dddb	-0.0044209785
8	0x3b1d9aa3	0.002404847
9	0xbbd02e04	-0.0063531417
10	0x3c773eaf	0.0150906285
11	0x3bc86b75	0.0061163255
12	0xbab48f91	-0.0013775696
13	0xbb1b6dba	-0.0023716525
14	0x3cf37330	0.029718012
15	0x3cc1808c	0.023620866
16	0x3c01710f	0.00790049
17	0x3c61530b	0.013752709
18	0x3c085d5c	0.00832304
19	0x3c1d0101	0.009582759
20	0x3a0a5467	0.0005276859
21	0x3cccfcde	0.02502292
22	0x3a9b15aa	0.0011832018
23	0xbbcc4055	-0.006233255
24	0xbbe6462c	-0.007027408
25	0x3b92341f	0.0044617797
26	0xba3cdec5	-0.0007204826
27	0x3981b39b	0.00024738614
28	0x3c879e97	0.016555114
29	0x3bcb771a	0.0062092664
30	0x3b80f493	0.0039354055
31	0xbc5df92b	-0.013548176
32	0x39a7b666	0.0003198862
33	0x3c34f144	0.01104385
34	0x3b86473e	0.004097848
35	0x3a8b026d	0.0010605581
36	0xbc02a90d	-0.007974875
37	0xbbbdfcce	-0.005797959
38	0x3ba136e0	0.0049198717
39	0x3ca6de13	0.020369565
40	0xbba7f93c	-0.0051261466
41	0xb9981e7a	-0.00029014406
42	0xbcbf9597	-0.02338676
43	0x395c0c7e	0.00020985489
44	0xba930a98	-0.0011218367
45	0x3b80eb1f	0.0039342786
46	0xbaf00170	-0.0018310975
47	0x39aa0a5d	0.00032432648
48	0x3b818970	0.0039531514
49	0xbb425edd	-0.0029658594
50	0x3a376a66	0.00069967506
51	0x3a9f4d19	0.0012153714
52	0x3b9ed68f	0.0048473547
53	0x3c80f932	0.015743826
54	0x3b156abb	0.0022799212
55	0xbaa0125a	-0.00122125
56	0xbb6c0dcb	-0.0036018963
57	0xbba98a80	-0.005173981
58	0x3b53c13d	0.0032311224
59	0xbb843e9e	-0.004035785
60	0xbc19d485	-0.0093890475
61	0x3be1fbb7	0.006896462
62	0xbba03c75	-0.0048900195
63	0xbb3438e2	-0.0027499725
64	0x3ba451e0	0.005014643
65	0x3c2bb302	0.0104796905
66	0x3bcdc2e6	0.006279337
67	0x3bf09bcd	0.0073427917
68	0x3c1e7490	0.009671345
69	0x3a8982d5	0.0010491261
70	0x3bad5151	0.0052892347
71	0xba8c7aaa	-0.0010717709
72	0xbbb51f95	-0.0055274465
73	0xba3b97ec	-0.0007156122
74	0x3bd8fdb9	0.006622043
75	0x3c0ece37	0.008716158
76	0xbc20cf26	-0.009815013
77	0x3b940513	0.0045172065
78	0xbb06bb83	-0.0020558543
79	0x3ac2e8fb	0.0014870459
80	0xbc98378b	-0.018581172
81	0x3c8082a6	0.015687298
82	0x3c6c70b5	0.014431168
83	0xbac20957	-0.0014803809
84	0x3bb4d6af	0.0055187563
85	0x3b8a6c17	0.004224311
86	0x3c313609	0.010816106
87	0xbcad4b34	-0.021154024
88	0x3c9e1382	0.019296411
89	0x3cc0122f	0.02344617
90	0x3c433b07	0.011915929
91	0xbc1caa9f	-0.009562164
92	0x3accc23d	0.0015621852
93	0x3c9ae29e	0.018906888
94	0xba376e80	-0.0006997362
95	0x39fbbcb1	0.00048015037
96	0xba7110ca	-0.0009195922
97	0x3b78d700	0.0037969947
98	0x3be301ed	0.00692772
99	0xbb76bb70	-0.0037648343
100	0xbbb551e8	-0.0055334456
101	0x3a91fc3f	0.0011137797
102	0xba95ca88	-0.0011428157
103	0x3c369633	0.011144209
104	0xbc12d0f8	-0.008960955
105	0x3a9d29ed	0.0011990644
106	0x3c021fc3	0.007942143
107	0x3c71be31	0.014754818
108	0x3c2ff923	0.010740551
109	0xba8e1d4f	-0.0010842475
110	0x3c00ea6c	0.0078683905
111	0x3c4bd23a	0.012440259
112	0x3c5502ef	0.013001188
113	0x3c23b841	0.00999266
114	0xbb9bcbc6	-0.0047545163
115	0xbb7acbce	-0.003826845
116	0x3ad1139d	0.001595128
117	0xbcac1272	-0.02100489
118	0xbc1dab73	-0.009623396
119	0xbb086fc7	-0.0020818578
120	0xbb98340a	-0.0046448754
121	0x3a65a3c9	0.00087600626
122	0x3ba17015	0.0049266913
123	0x3a289882	0.0006431417
124	0xbb98006e	-0.004638723
125	0x3af93339	0.0019012458
126	0x3c60872f	0.013704105
127	0x3bbc2a78	0.0057423674

network_body._body_endoder.seq_layers.2.weight f4 [128, 128]
0	0xbc561cc2	-0.01306838
1	0xbd9a648f	-0.07538711
2	0x3c5df8da	0.0135481
3	0xbaf90523	-0.0018998723
4	0x3d83a58a	0.064280584
5	0xbdaf3fae	-0.08557068
6	0x3e0329a5	0.12808855
7	0xbe0f536e	-0.1399667
8	0xbccb13a2	-0.024789635
9	0x3dfff39f	0.12497639
10	0xbc240b02	-0.01001239
11	0xbc89ec28	-0.01683624
12	0x3d801a35	0.062549986
13	0x3d84654f	0.064646356
14	0x3d517446	0.051136278
15	0x3e6aba15	0.22922547
16	0xba64c797	-0.0008727251
17	0xbd6d6ec5	-0.057966966
18	0xbda4c733	-0.08045807
19	0xbe106285	-0.14100082
20	0xbdaa8118	-0.08325404
21	0x3d277706	0.040884994
22	0xbd3156b7	-0.04329559
23	0xbdbd81ec	-0.09253296
24	0xbde6dc0e	-0.11272441
25	0x3c738179	0.014862412
26	0x3d830237	0.06396907
27	0xbc226f2e	-0.009914203
28	0x3cb0d34c	0.02158513
29	0x3d05fc99	0.0327116
30	0x3c68ebb3	0.014216351
31	0xbce13a1f	-0.027493535
32	0xb999465f	-0.00029234865
33	0x3dddcff2	0.10830678
34	0xbc153f1f	-0.0091092875
35	0xbbe95871	-0.0071211387
36	0xbe233091	-0.15936495
37	0xbe492cf1	-0.1964605
38	0xbdce8a17	-0.10084932
39	0xbc040ac0	-0.008059204
40	0x3c950794	0.01819209
41	0xbdc4e83b	-0.09614607
42	0x3dd9940f	0.10623943
43	0xbd197e22	-0.037473805
44	0x3dd12ae2	0.10213257
45	0x3e11fecc	0.14257354
46	0x3c4618e3	0.012090894
47	0xbce44fa2	-0.027870003
48	0x3db52c86	0.08846383
49	0xbd01dbc8	-0.03170374
50	0x3c695a86	0.014242774
51	0x3e1f5eef	0.15563558
52	0xbc494c9f	-0.012286334
53	0xbdfb808f	-0.1228038
54	0xbcc03db8	-0.02346693
55	0x3d14e7d1	0.03635389
56	0x3dba837b	0.09107109
57	0xbbe4e8af	-0.006985746
58	0x3abeaaff	0.001454681
59	0xbcb20171	-0.021729203
60	0xbdc7a1be	-0.09747647
61	0xbd0c24b1	-0.03421468
62	0x3c7f6307	0.015587575
63	0x3d2c04d9	0.04199681
64	0xbdabf4dc	-0.083963126
65	0x3dca2d21	0.09871889
66	0xbe581296	-0.2110084
67	0xbca5d525	-0.020243237
68	0x3cce7e7c	0.025206797
69	0xbd3b4419	-0.04571924
70	0x3dfbf769	0.12303049
71	0xbc2217e8	-0.009893395
72	0xbd8ea141	-0.069643505
73	0x3d5d8215	0.054079134
74	0xbd963eb1	-0.07336176
75	0x3c9c231c	0.01905971
76	0x3ca82486	0.020525228
77	0x3df67bee	0.120353565
78	0xbd801d71	-0.062556155
79	0xbd045bd3	-0.032314133
80	0x3bf938ae	0.0076056337
81	0xbc3fe8dc	-0.011713233
82	0x3b542d11	0.0032375494
83	0xbd894045	-0.067017116
84	0x3d256805	0.040382404
85	0x3dfc9974	0.12333956
86	0x3dc76371	0.09735764
87	0xbe20f326	-0.15717754
88	0x3da1ee5e	0.07906793
89	0xbd40a1f0	-0.047029436
90	0xbd32cc38	-0.04365179
91	0xbda7eadc	-0.08199093
92	0x3c071a6e	0.008246047
93	0xbdecc9d0	-0.1156193
94	0x3d5b7d3f	0.05358624
95	0x3e3230a2	0.17401364
96	0xbdc4f44d	-0.09616909
97	0xbd17736e	-0.036975317
98	0xbd63b2be	-0.055590384
99	0xbcae23da	-0.02125733
100	0x3c04fd2d	0.008117002
101	0x3d0a27f7	0.03372952
102	0xbd81a3b5	-0.06330053
103	0xbc18512a	-0.009296695
104	0x3d2120e2	0.039338
105	0xbace1b42	-0.0015724676
106	0xbda4bbb6	-0.080436155
107	0x3d4d5f03	0.05013944
108	0xbdd0d4de	-0.10196851
109	0xbc4df81d	-0.012571362
110	0x3da5b0c0	0.08090353
111	0xbd465341	-0.04841924
112	0xbce72908	-0.028217807
113	0x3d1bca91	0.03803498
114	0xbc8a2c50	-0.016866833
115	0xbcbfd38f	-0.023416309
116	0xbc38628d	-0.011253965
117	0x3db1f9c6	0.086902186
118	0xbe14de6a	-0.14537969
119	0xbe08c2e3	-0.13355593
120	0x3dc2ae32	0.09505881
121	0x3dd933ff	0.106056206
122	0xbd403d0f	-0.04693323
123	0x3d26ae19	0.040693376
124	0xbd89d3e7	-0.0672987
125	0x3db25d99	0.087092586
126	0xbe58dadc	-0.21177238
127	0xbe42f07a	-0.19037047
128	0x3daef7ba	0.08543344
129	0xbd253065	-0.040329356
130	0xbddecc73	-0.10878839
131	0x3ddac7f2	0.10682668
132	0xbd0f24a8	-0.034947067
133	0xbb1943b2	-0.0023386297
134	0xbd464f00	-0.048415184
135	0xbe196112	-0.14978436
136	0xbdd3aea5	-0.10336045
137	0xbdf22363	-0.11823156
138	0xbcaa9643	-0.020823603
139	0xbe33cdc1	-0.17558958
140	0xbe06fa5a	-0.13181439
141	0xbc61f90b	-0.013792287
142	0x3d90e757	0.070753746
143	0x3d54fea6	0.052000664
144	0x3b2b4b7c	0.0026137521
145	0x3de088b1	0.10963572
146	0x3d8c2cd4	0.06844488
147	0x3e3bf683	0.18355756
148	0xbdcd671e	-0.10029434
149	0xbe11e430	-0.14247203
150	0xbe2fb488	-0.17158711
151	0xbd36a95e	-0.044595115
152	0x3e017fcb	0.12646405
153	0x3e255e62	0.16149285
154	0xbd7ad8f4	-0.06124206
155	0x3e226398	0.15858305
156	0x3d6396f0	0.055563867
157	0x3e437522	0.19087651
158	0x3d760f7a	0.060073353
159	0x3e2e7672	0.17037371
160	0x3e42231e	0.18958709
161	0x3e3d337a	0.18476668
162	0xbda6c47b	-0.081429444
163	0x3d5238f3	0.051323842
164	0x3d928d82	0.07155897
165	0xbc522f2d	-0.01282863
166	0x3d21246d	0.03934138
167	0xbd73ad01	-0.05949116
168	0xbd698581	-0.057012085
169	0x3c046857	0.008081517
170	0x3d823d4a	0.06359346
171	0x3ced3644	0.02895654
172	0x3d7b20c8	0.06131056
173	0x3dd2de0f	0.102962606
174	0xbda1b03b	-0.078949414
175	0x3db2d919	0.08732814
176	0xbd47ced5	-0.048781235
177	0x3ce408b4	0.027836181
178	0x3ddff8c5	0.10936121
179	0x3d80bf37	0.06286471
180	0xbda3eae6	-0.08003788
181	0x3c3a034b	0.011353324
182	0x3d937c52	0.072014466
183	0x3d328424	0.04358305
184	0x3bb4b050	0.005514182
185	0xbcffba9d	-0.031216914
186	0xbc562362	-0.013069959
187	0x3d943e9a	0.07238503
188	0xbb3c9a7c	-0.0028778603
189	0xbd07d1a3	-0.03315891
190	0xbb86fecf	-0.004119731
191	0xbc1191ac	-0.008884829
192	0x3d2b93f8	0.04188916
193	0xbd3772e6	-0.04478731
194	0x3d3df728	0.046378285
195	0xbd5e1838	-0.054222316
196	0x3da84ee7	0.082181744
197	0x3cec0b18	0.028813884
198	0xbcf659fd	-0.030072207
199	0x3ca3ba7f	0.01998639
200	0x3cbc8f0b	0.023017427
201	0x3db7c605	0.08973316
202	0xbd9aa5e6	-0.07551174
203	0x3d9a8c3f	0.07546281
204	0x3c91e221	0.017808022
205	0x3d4fd31c	0.05073844
206	0x3cefcfaa	0.029273827
207	0xbd0e3a5b	-0.03472362
208	0x3c8a6da8	0.016897991
209	0x3cddfb00	0.027097225
210	0x3c61c2d8	0.0137793645
211	0xbe3d48e3	-0.18484835
212	0x3da5af38	0.08090061
213	0xbd0e14af	-0.034687694
214	0x3e0397e2	0.12850907
215	0xbe043a97	-0.12912975
216	0xbd4c8f38	-0.04994127
217	0xbdf6d0e2	-0.1205156
218	0xbdb9f44b	-0.09079798
219	0x3c42e5f1	0.011895643
220	0xbd165a43	-0.036707174
221	0xbda8f517	-0.08249872
222	0x3d2f5260	0.04280317
223	0x3e38260e	0.17983267
224	0x3bda7efc	0.0066679697
225	0xbd14580a	-0.036216773
226	0x3d90e165	0.070742406
227	0xbcfd19c1	-0.03089607
228	0x3d925424	0.07144955
229	0x3d2200f1	0.03955168
230	0xbd54726e	-0.05186694
231	0xbafa65a9	-0.0019103783
232	0x3e1ee59b	0.15517275
233	0xbbd802f0	-0.006592147
234	0xbd726483	-0.059177887
235	0xbd16c0ce	-0.036804967
236	0x3cac3b5d	0.0210244
237	0x3d6da87c	0.058022007
238	0xbc9d87f8	-0.019229874
239	0x3e1fd461	0.1560836
240	0x3e0a2be8	0.13493311
241	0xbd6e1777	-0.058127847
242	0xbd56fa76	-0.052484952
243	0xbcd49b92	-0.025953088
244	0x3d1de25a	0.038545944
245	0x3d5a02b1	0.053225223
246	0xbce0f2d2	-0.027459536
247	0x3c13d30f	0.009022488
248	0x3d9b8e82	0.075955406
249	0xbd306c2c	-0.04307191
250	0xbe264b27	-0.16239606
251	0xbd9436a9	-0.07236988
252	0xbd37e4ea	-0.044896044
253	0x3e534fe7	0.20635949
254	0x3d1ad434	0.03780003
255	0x3e131358	0.14362848
