results/MoveToBet2/MoveToBet/MoveToBet-3059.onnx (onnx, 645297 bytes, 12 tensors)

action_model._continuous_distribution.log_sigma f4 [1, 2]
0.0 0.0
00000000: 0000 0000 0000 0000

action_model._continuous_distribution.mu.bias f4 [2]
0.0 0.0
00000000: 0000 0000 0000 0000

action_model._continuous_distribution.mu.weight f4 [2, 128]
-0.01401638 0.014296884 -0.0074499096 -0.032477256 -0.011993977 -0.028452773 -1.4093009e-05 -0.0013964812
0.026047507 -0.00013304844 0.013124572 -0.020370742 0.002887562 0.018280033 0.013229239 -0.010986085
0.0034897358 -0.010938322 0.005174486 0.011304277 -0.039312657 0.024820192 0.0021377306 -0.014777727
0.018367885 -0.006315715 0.008577299 -0.0074062506 0.01343966 -0.0048919925 0.013577637 -0.014750018
-0.02619086 0.0077042133 0.010740458 0.020700071 -0.010441842 -0.0069690854 0.02393953 0.0085816225
-0.032806132 0.00462638 -0.02992991 -0.00929385 0.008261072 0.0061629256 0.018084956 -0.026782556
0.02345583 -0.003094427 -0.011915349 0.003353076 -0.014913797 0.0026915602 -0.01643841 -0.009282328
-0.0082359575 -0.011934292 -0.023870885 -0.023476975 -0.041058626 -0.010251697 -0.01285616 -0.0076478072
0.017954474 0.012830198 0.040652186 0.0019451423 -0.010988731 -0.0060585174 0.0073992545 -0.004367498
-0.022427607 -0.006226064 -0.011008416 -0.0037465114 -0.008749178 -0.022878824 -0.0066093765 -0.009205545
-0.007848662 -0.00031541687 -0.006880554 0.0013213279 0.013258017 0.037745867 -0.017341949 0.012787925
0.010347003 0.011053055 0.026851228 -0.003897255 0.01539624 -0.029855192 0.013669695 0.018973684
0.024819484 -0.024773732 0.021706866 0.015237078 0.002214411 0.007384257 0.0046195206 -0.01343774
-0.0055083325 -0.01440842 0.004136 -0.0028450529 -0.007775729 0.035026196 0.006400093 0.013916125
-0.000513826 -0.037637614 -0.009584523 -0.011375347 -0.027717192 0.019897426 0.021231428 -0.019667452
-0.0047092373 -0.0134869935 0.0078173345 -0.0081717735 -0.0015447753 -0.030896306 -0.015569552 0.003690062
0.019554248 0.02296798 -0.0043129353 0.003736538 -0.014232809 -0.012311501 -0.0016307327 0.00153205
0.014689559 -0.0019549213 0.032504868 0.011346468 0.0016623009 -0.00473849 0.010798976 0.028294532
0.008754167 0.0049591507 -0.02277457 -0.0134506095 -0.0016297208 0.020406099 0.02881215 0.0017197777
0.005071147 0.009078516 0.0012935827 0.00039783708 0.004381238 0.0030185112 -0.0019249391 0.014337979
0.00796727 0.018124659 0.0049147517 -0.015363178 -0.01644438 0.00064113893 -0.024334064 -0.009951154
0.0019393069 -0.0038926068 0.04192662 0.016840344 0.03480076 0.017739763 0.0043796664 -0.0054495833
0.0050110896 0.014798748 0.008747198 -0.00078178773 0.02515222 -0.0005741244 0.009681939 -0.00063601875
-0.0026122404 -0.008397574 0.014851932 0.012599534 -0.026662156 -0.0029801528 0.0065341587 0.02697005
0.029699175 -0.0120999655 -0.0067077624 0.0022360394 -0.033646014 0.0027961712 0.002137667 0.0054203304
-0.00022940598 0.004048785 0.008275631 -0.032978278 -0.027310908 -0.054615986 0.0050745695 -0.0020815504
0.015457972 0.02520127 0.0045213355 -0.00091916247 -0.013612519 0.024719637 -0.023357159 -0.012185645
0.009003028 -0.011130191 -0.019900618 -0.0023324343 -0.00016817577 0.0055424436 0.009349988 0.010503351
-0.0068556643 0.0072153783 0.026724953 0.0089271935 -0.0016155042 -0.0125708 -0.005681931 -0.014359745
0.015067671 0.023778439 0.024910722 0.018516358 -0.0009262259 -0.008933692 0.0032146138 0.0003059852
-0.0046574087 0.016939573 0.005338281 0.0052848584 0.0024712794 0.010864086 0.028732857 0.027901307
0.009112874 0.012728253 -0.026185771 0.008130035 0.017988745 0.0009364555 -0.0136844935 -0.029773667
00000000: f5a4 65bc 7a3d 6a3c 5f1e f4bb df06 05bd
00000010: 6382 44bc ca15 e9bc 0371 6cb7 220a b7ba
00000020: 9561 d53c eb82 0bb9 7208 573c 8be0 a6bc
00000030: 403d 3d3b 02c0 953c 73bf 583c fbfe 33bc
00000040: 0db4 643b a636 33bc bc8e a93b 9335 393c
00000050: 4f06 21bd b753 cb3c 2b19 0c3b 481e 72bc
00000060: 3f78 963c 0ff4 cebb cd87 0c3c 22b0 f2bb
00000070: 0532 5c3c 024d a0bb bd74 5e3c 0faa 71bc
00000080: 378e d6bc a073 fc3b bff8 2f3c 3293 a93c
00000090: 4214 2bbc ed5c e4bb d51c c43c ef99 0c3c
000000a0: b95f 06bd e398 973b 922f f5bc 3b45 18bc
000000b0: 7359 073c 5ef2 c93b e726 943c 1767 dbbc
000000c0: 7126 c03c dfcb 4abb 9938 43bc 48bf 5b3b
000000d0: 0059 74bc e364 303b d8a9 86bc e814 18bc
000000e0: 1cf0 06bc 0c88 43bc e08c c3bc c952 c0bc
000000f0: 172d 28bd bcf6 27bc a5a2 52bc 759a fabb
00000100: 4315 933c c035 523c e882 263d 25f4 fe3a
00000110: 140a 34bc 8786 c6bb 7275 f23b 3b1d 8fbb
00000120: 1aba b7bc 0304 ccbb a55c 34bc 0888 75bb
00000130: b658 0fbc 5f6c bbbc 7893 d8bb dbd2 16bc
00000140: ad97 00bc 895e a5b9 4576 e1bb 6830 ad3a
00000150: 2738 593c 699b 1a3d b410 8ebc 7284 513c
00000160: 7a86 293c df17 353c 1bf7 db3c 1769 7fbb
00000170: 8340 7c3c e092 f4bc dbf6 5f3c b36e 9b3c
00000180: 3b52 cb3c 48f2 cabc 99d2 b13c f0a4 793c
00000190: a71f 113b a3f7 f13b 595f 973b f729 5cbc
000001a0: 3e7f b4bb 4b11 6cbc 4887 873b 1174 3abb
000001b0: 8bcb febb a177 0f3d dfb7 d13b 7500 643c
000001c0: 47b2 06ba e629 1abd 6708 1dbc aa5f 3abc
000001d0: 2a0f e3bc edff a23c 88ed ad3c a31d a1bc
000001e0: f24f 9abb 8df8 5cbc 4714 003c e7e2 05bc
000001f0: 0f7a caba 401a fdbc 6f17 7fbc f8d4 713b
00000200: 3b30 a03c 5827 bc3c 8653 8dbb b5e0 743b
00000210: ba30 69bc 2eb6 49bc 4fbe d5ba 11cf c83a
00000220: 7aac 703c 231e 00bb d323 053d 89e6 393c
00000230: 90e1 d93a 5645 9bbb 30ee 303c efc9 e73c
00000240: a36d 0f3c 5f80 a23b bc91 babc f25f 5cbc
00000250: 5b9c d5ba b12a a73c 7507 ec3c 2a6a e13a
00000260: dd2b a63b 0ebe 143c 6f8d a93a ca94 d039
00000270: 7d90 8f3b 37d2 453b 3d4e fcba d8e9 6a3c
00000280: 2789 023c 2a7a 943c ed0b a13b d7b5 7bbc
00000290: 5db6 86bc 1b12 283a 3b58 c7bc 2a0a 23bc
000002a0: 5730 fe3a 1b1b 7fbb 3fbb 2b3d c3f4 893c
000002b0: 3e8b 0e3d fb52 913c 4e83 8f3b 6b92 b2bb
000002c0: 1134 a43b 7376 723c 6850 0f3c e3f0 4cba
000002d0: 070c ce3c d680 16ba ffa0 1e3c 7fba 26ba
000002e0: 1f32 2bbb fa95 09bc 8555 733c 476e 4e3c
000002f0: 986a dabc ab4e 43bb 7f1c d63b 4bf0 dc3c
00000300: af4b f33c ef3e 46bc cacc dbbb 848a 123b
00000310: 67d0 09bd f83f 373b 1a18 0c3b 079d b13b
00000320: b38c 70b9 acab 843b 8396 073c 3b14 07bd
00000330: 20bb dfbc 03b5 5fbd 9348 a63b 9f6a 08bb
00000340: 6f43 7d3c e572 ce3c b627 943b f3f3 70ba
00000350: 0b07 5fbc d680 ca3c 8357 bfbc 4da6 47bc
00000360: 7081 133c 685b 36bc 9f06 a3bc c1db 18bb
00000370: 5758 30b9 639d b53b b130 193c 3f16 2c3c
00000380: 7ba5 e0bb fb6e ec3b 4aee da3c 5d43 123c
00000390: 53bf d3ba c2f5 4dbc 7e2f babb 2345 6bbc
000003a0: 65de 763c 00cb c23c 9211 cc3c 9eaf 973c
000003b0: f8cd 72ba 9f5e 12bc 45ac 523b a36c a039
000003c0: 2d9d 98bb dcc4 8a3c bfec ae3b 9b2c ad3b
000003d0: 30f5 213b 48ff 313c 2b61 eb3c 4891 e43c
000003e0: 2a4e 153c 2a8a 503c 8b83 d6bc d733 053c
000003f0: 225d 933c 777c 753a ed34 60bc e8e7 f3bc

action_model._discrete_distribution.branches.0.bias f4 [5]
0.0 0.0 0.0 0.0 0.0
00000000: 0000 0000 0000 0000 0000 0000 0000 0000
00000010: 0000 0000

action_model._discrete_distribution.branches.0.weight f4 [5, 128]
0.0033282042 -0.0017846584 -0.01453107 -0.0013074249 -0.0027640553 0.0039135297 -0.002978266 0.0077127777
0.002324082 -0.001587927 -0.0060531776 -0.0032595135 -0.0024041887 -0.0026195499 0.0010483502 0.011615106
0.007197612 -0.010018032 -0.010180972 -0.0016974241 -0.0068422216 0.001824856 0.01507999 -0.012293089
-0.015367937 0.011206961 0.004036022 -0.0020268685 0.00027409272 0.0014508362 0.0070032934 -0.0054592686
-0.010075266 -0.0145398965 -0.004930682 0.008373561 0.009018172 0.006327671 -0.0016841764 0.000815501
-0.00033642023 -0.0016139204 -0.015747232 0.009403289 0.008850281 -0.009135071 -0.011057934 -0.0033327702
-0.006197782 -0.010078061 -0.008063327 -0.0057659987 0.016739996 0.004873487 0.0029271424 -0.015235821
0.008158448 0.0012754138 -0.0080749765 -0.00804671 0.0005447416 -0.012890765 0.01435809 -0.0023648678
-0.012880637 0.0006420588 -0.0073076445 0.0151729835 -0.0014829132 -0.00086381147 0.0038960774 -0.00076797535
0.018628456 0.0029719388 0.011449806 -0.011805122 0.0131375445 0.005244064 -0.004139762 0.0075892136
0.00068726175 -0.004978284 -0.0012906631 0.016243892 -0.009883395 0.0115328245 0.0028603193 0.017062603
0.006729388 0.00450872 -0.0063466686 -0.013096811 -0.0043712403 0.0009270838 -0.007111091 0.0012859136
-0.0044705933 0.0116940625 -0.003957879 0.011780369 -0.0044418946 0.0018761894 -0.0027117021 -0.0066681462
0.0028162606 -0.026182959 0.00025126856 0.0066099404 0.008482765 0.0007635865 -0.008925779 0.0013943911
0.0035693347 -0.0025066934 -0.0048518204 0.005652801 0.0038358157 2.9336024e-05 -0.005908089 0.0041032312
-0.0077326237 0.007796496 0.008766427 -0.0027086637 0.0026825785 0.0050700735 0.017834388 0.008836149
0.014966524 0.015290247 0.008981783 0.003794526 0.009203825 -0.007059811 -0.002645362 0.00832822
0.001518408 0.009973135 -0.0010483555 0.00761892 0.009244508 0.0027413615 -0.0034927358 -0.0061481637
0.007649449 0.006737461 0.0050660623 0.009661897 -0.0069260397 -0.001432158 0.0014539142 0.0039389557
-0.013596961 -0.012102748 -0.007018052 0.014803934 -0.0062112114 -0.0022405598 0.00075749395 -0.0033843543
0.008334292 0.008906453 0.0015030735 0.0077782325 0.0023967426 0.002664997 0.018896714 -0.013981155
0.005663739 -0.006169111 0.0082347235 0.003791029 0.0045735114 0.014012749 -0.0049454737 -0.014745111
0.009620236 -0.0029192653 0.00013340537 -0.011457313 -0.0035872445 -0.0007163344 0.013339052 -0.0233015
-0.0013126674 -0.00025012103 -0.008565064 0.0023923132 -0.0074738213 0.014275446 -0.0027526615 0.0027281942
-0.0034784488 -0.00035250527 0.00179137 0.009612143 -0.013121163 -0.011700434 0.0048060506 0.015424539
0.011292796 0.007902506 -0.00015667445 0.002082503 0.014445633 0.0034139683 0.007741913 -0.0055219824
-0.013800263 -0.007834099 -0.021238545 0.01577354 0.016403122 0.008403545 0.0042214827 -0.0069977627
0.010183201 -0.019479105 0.020275636 0.014506242 0.009618037 0.0041362527 0.0095626 -0.00071209273
0.005827882 -0.005305263 0.0035668605 0.0045614787 -0.0033595364 0.0061121094 -0.0050908923 -0.0058258963
-0.0017127369 0.0063033956 -0.012535363 -0.0016498811 0.0002865021 0.0056278706 -0.0041379724 -0.009537858
-0.015139291 0.0122859 -0.009515343 -0.0042940937 -0.001867411 -0.0075824494 0.01299541 0.008215758
-0.009335415 -0.004817855 -0.0030179338 0.026038064 -0.014239037 0.0043886113 -0.0019890578 0.0025354335
00000000: 001e 5a3b 33eb e9ba ba13 6ebc e65d abba
00000010: 2725 35bb 113d 803b 032f 43bb 78bb fc3b
00000020: a04f 183b fd21 d0ba bc59 c6bb 909d 55bb
00000030: 988f 1dbb c1ac 2bbb cc68 893a 494d 3e3c
00000040: f2d9 eb3b ac22 24bc 17ce 26bc 1a7c deba
00000050: b734 e0bb 0230 ef3a 1012 773c f468 49bc
00000060: cdc9 7bbc 679d 373c 9b40 843b 36d5 04bb
00000070: 1ab4 8f39 fc29 be3a e27b e53b aae3 b2bb
00000080: ba12 25bc bf38 6ebc 8f91 a1bb 4331 093c
00000090: f4c0 133c 5a58 cf3b 95bf dcba 58c7 553a
000000a0: 8f61 b0b9 2f8a d3ba 5700 81bc 4110 1a3c
000000b0: c500 113c 44ab 15bc 562c 35bc 9b6a 5abb
000000c0: c316 cbbb 741e 25bc 0b1c 04bc b4f0 bcbb
000000d0: 5122 893c c6b1 9f3b 4dd5 3f3b aa9f 79bc
000000e0: 03ab 053c c92b a73a e84c 04bc 59d6 03bc
000000f0: fdcc 0e3a ca33 53bc 323e 6b3c e6fb 1abb
00000100: 4f09 53bc d64f 283a f774 efbb 1b98 783c
00000110: 4f5e c2ba 6871 62ba 5555 7f3b f451 49ba
00000120: b49a 983c dcc4 423b f897 3b3c 456a 41bc
00000130: db3e 573c 66d6 ab3b d7a6 87bb f0ae f83b
00000140: 5b29 343a df20 a3bb 782b a9ba e911 853c
00000150: f7ed 21bc 2cf4 3c3c 3274 3b3b dfc6 8b3c
00000160: 3382 dc3b e2bd 933b b7f7 cfbb 0294 56bc
00000170: 9f3c 8fbb 8a07 733a 2804 e9bb 1a8c a83a
00000180: 0e7e 92bb 7498 3f3c 18b1 81bb 7302 413c
00000190: 508d 91bb 78ea f53a d0b6 31bb 7780 dabb
000001a0: 0391 383b a57d d6bc b2bc 8339 3398 d83b
000001b0: 4cfb 0a3c 6c2b 483a 6e3d 12bc 00c4 b63a
000001c0: 80eb 693b 5647 24bb 05fc 9ebb 223b b93b
000001d0: 4f62 7b3b a216 f637 a598 c1bb 6674 863b
000001e0: f361 fdbb c079 ff3b 0fa1 0f3c d683 31bb
000001f0: 33ce 2f3b dc22 a63b 6c19 923c 7fc5 103c
00000200: 2736 753c f283 7a3c 5428 133c 95ad 783b
00000210: a4cb 163c fd55 e7bb cf5d 2dbb 1673 083c
00000220: 5105 c73a 5c66 233c f968 89ba 22a8 f93b
00000230: 4776 173c 6aa8 333b 62e6 64bb 8976 c9bb
00000240: 3ba8 fa3b ebc5 dc3b 3601 a63b ef4c 1e3c
00000250: d5f3 e2bb 40b7 bbba 4491 be3a 5b12 813b
00000260: cac5 5ebc 9b4a 46bc b0f7 e5bb 338c 723c
00000270: 6b87 cbbb 5bd6 12bb 8f92 463a 0bcc 5dbb
00000280: 8e8c 083c 5fec 113c c702 c53a 8be0 fe3b
00000290: ab12 1d3b 3ba7 2e3b 48cd 9a3c 3711 65bc
000002a0: e396 b93b 4126 cabb efea 063c ea72 783b
000002b0: 65dd 953b bb95 653c a40d a2bb 7a95 71bc
000002c0: 329e 1d3c 2551 3fbb bbe2 0b39 74b7 3bbc
000002d0: fa17 6bbb 63c8 3bba 0a8c 5a3c cae2 bebc
000002e0: cf0d acba ad22 83b9 7b54 0cbc 5bc8 1c3b
000002f0: f5e6 f4bb 8fe3 693c ff65 34bb 81cb 323b
00000300: b0f6 63bb 75d0 b8b9 67cc ea3a 407c 1d3c
00000310: 25fa 56bc 2db3 3fbc 137c 9d3b 35b7 7c3c
00000320: 6b05 393c 8379 013c fa48 24b9 9a7a 083b
00000330: 60ad 6c3c e2bc 5f3b e0af fd3b bff1 b4bb
00000340: 801a 62bc 985a 00bc 75fc adbc 8337 813c
00000350: d75f 863c 06af 093c 5d54 8a3b 7d4d e5bb
00000360: 71d7 263c a592 9fbc 1719 a63c 97ab 6d3c
00000370: f994 1d3c 6789 873b 74ac 1c3c bcab 3aba
00000380: d1f7 be3b c6d7 adbb fdc1 693b 7578 953b
00000390: ab2b 5cbb 1748 c83b 80d1 a6bb 29e7 bebb
000003a0: ea7d e0ba b78c ce3b 2061 4dbc d340 d8ba
000003b0: a935 9639 006a b83b d497 87bb ad44 1cbc
000003c0: ca0a 78bc cd4a 493c 3ee6 1bbc 78b5 8cbb
000003d0: eac3 f4ba 3276 f8bb b3ea 543c 639b 063c
000003e0: 92f3 18bc 19df 9dbb 87c8 45bb c74d d53c
000003f0: da4a 69bc 57ce 8f3b da5a 02bb 8429 263b

action_model._discrete_distribution.branches.1.bias f4 [16]
0.0 0.0 0.0 0.0 0.0 0.0 0.0 0.0
0.0 0.0 0.0 0.0 0.0 0.0 0.0 0.0
00000000: 0000 0000 0000 0000 0000 0000 0000 0000
00000010: 0000 0000 0000 0000 0000 0000 0000 0000
00000020: 0000 0000 0000 0000 0000 0000 0000 0000
00000030: 0000 0000 0000 0000 0000 0000 0000 0000

action_model._discrete_distribution.branches.1.weight f4 [16, 128]
0.0035843723 0.013980448 0.01173795 -0.0009061334 0.018588407 0.013682273 -0.015826283 -0.0022879306
-0.014620962 -0.002703726 0.0070766243 -0.010740681 -0.014987702 -0.0064050294 -0.0037254132 0.011037145
-0.0067889923 0.0074582556 -0.0073396596 0.01324614 -0.004328662 -0.0004903082 0.0047841812 0.0052385363
-0.00036322192 -0.0074529694 1.7091658e-06 -0.013441162 0.0012265452 -0.016854245 0.007893267 -0.009381684
-0.006440264 0.003289203 -0.0039264443 0.019466395 0.003595118 -0.010888531 0.009189071 0.0036557547
-0.016612217 0.014556636 -0.01681942 -0.00612694 0.009738202 -0.00517355 0.0035002124 -0.0057184226
0.009013199 -0.006378066 0.0037347132 -0.0002554978 -0.01336772 -0.0031306918 0.01664736 0.0042628627
0.019443853 0.0020131909 -0.006193446 -0.00023141499 0.015164929 -0.0069698873 -0.008215486 -0.012731406
0.004366189 -0.009362142 -0.012165915 0.0029990543 -0.008906081 0.004747762 -0.010948425 -0.0010063889
-0.01232766 -0.011991376 -0.00061945757 -0.020972023 0.00042996998 0.01329882 -0.0057643536 0.012216158
-0.009002768 0.0036743965 0.010693764 -0.005599106 0.009754852 1.2180004e-06 0.019389018 -0.011339205
-0.00015936323 -0.0009363414 -0.008624388 0.0069423215 -0.0035739911 -0.008045721 -0.0018659832 0.008203345
0.006542731 -0.0061325184 -0.01257844 0.0037830677 -0.011904022 -0.0008468926 0.0041493974 -0.0024319573
-0.0012637594 -0.0027396993 0.0014203463 -0.015687812 0.0015860781 0.012318207 -0.007925641 0.0147890225
-0.0068179304 -0.007603731 -0.020349815 -0.012049343 -0.0009590536 0.01386031 0.010619351 -0.0070589706
0.007110481 0.014397593 -0.014216617 -0.003973962 -0.007983758 -0.010040606 -0.0071336017 0.002885413
0.0035752559 -0.0018053431 -0.015136649 0.0035240662 -0.011428725 0.00929431 -0.015336434 0.0018790186
0.012124047 0.005063893 0.012796687 -0.007056045 0.0046387496 0.0050713536 0.010148606 -0.0038024876
0.00397798 0.0046990993 0.0025119411 -0.016565744 -0.0044902507 -0.00804774 -0.015502833 0.009156886
-0.0005259929 -0.0032535617 0.014854868 0.0033440483 0.0020101776 -0.016641222 0.005780388 0.010381039
-0.005114771 -0.010896062 0.001058434 -9.537752e-05 0.00030844353 -0.010454173 -0.010176336 0.002404781
-0.0059062107 0.0075045424 0.009729254 0.009422496 -0.0023262235 0.0052683833 -0.0176835 -0.012210903
-0.01294792 0.002478699 -0.012807081 -0.008754906 0.010217545 0.0003524066 -0.0009979442 0.008740733
0.0007099624 0.010974053 -0.0044988254 -0.007302622 0.0035190836 -0.0019358381 -0.0014021884 -0.009190662
-0.0034201355 -0.0012902686 0.010498194 0.0066500055 0.00898189 0.015485592 0.0013922595 0.0016427202
0.00020469919 -0.00046645245 -0.014944009 0.003629056 0.007152752 0.007980831 0.0011230657 -0.012509355
-0.013428397 0.013061628 -0.0048779678 -0.012515805 -0.005553806 0.015720446 -0.007914492 -0.007497231
-0.005737501 0.0036315077 0.012834917 -0.0065049054 0.010423101 0.011441102 0.0028351943 -0.007035129
-0.011461594 0.0027141361 -0.00072684593 -0.0065902444 0.00020240541 -0.015049152 -0.0020145928 0.010402844
-0.0021887023 -0.00744597 0.006905208 -0.012638703 0.0040839673 -0.010696339 -0.0032184876 -0.0011033168
0.0041130288 0.012147297 -0.0034221974 0.009541792 -0.0038879905 -0.0017494195 -0.01471366 0.00233235
-0.00234275 0.0010043702 -0.0012618884 0.0025716184 0.0046982556 0.021789348 0.0100608505 0.008261937
00000000: cae7 6a3b 400e 653c 8850 403c 9589 6dba
00000010: b746 983c 9d2b 603c 1fa6 81bc 1bf1 15bb
00000020: c28c 6fbc ff30 31bb 07e3 e73b aef9 2fbc
00000030: fa8e 75bc 48e1 d1bb 1026 74bb 24d5 343c
00000040: 3276 debb 6264 f43b 8781 f0bb 5706 593c
00000050: 73d7 8dbb 0788 00ba 9fc4 9c3b 07a8 ab3b
00000060: d26e beb9 0a38 f4bb 7d66 e535 5238 5cbc
00000070: 07c4 a03a ea11 8abc c352 013c a2b5 19bc
00000080: da08 d3bb ab8f 573b 67a9 80bb fd77 9f3c
00000090: 129c 6b3b cf65 32bc c28d 163c 6395 6f3b
000000a0: 5816 88bc f57e 6e3c e1c8 89bc 7fc4 c8bb
000000b0: fb8c 1f3c e286 a9bb d263 653b 9b61 bbbb
000000c0: 19ac 133c 18ff d0bb 17c2 743b 56f4 85b9
000000d0: 4804 5bbc 4b2c 4dbb 0b60 883c 7caf 8b3b
000000e0: b748 9f3c bdef 033b 64f2 cabb fda7 72b9
000000f0: 5376 783c a763 e4bb 3f9a 06bc 6397 50bc
00000100: 3f12 8f3b ab63 19bc 8c53 47bc c88b 443b
00000110: d0ea 11bc 1d93 9b3b 0661 33bc cfe8 83ba
00000120: f4f9 49bc 7a77 44bc 1863 22ba 85cd abbc
00000130: 986d e139 4be3 593c e7e2 bcbb 4826 483c
00000140: 5980 13bc 25ce 703b e634 2f3c b578 b7bb
00000150: d1d2 1f3c 2d7a a335 b8d5 9e3c 13c8 39bc
00000160: be1a 27b9 cf74 75ba 4e4d 0dbc 6a7c e33b
00000170: 9f39 6abb 33d2 03bc 0294 f4ba 5367 063c
00000180: 6864 d63b 4bf3 c8bb cd15 4ebc 58ed 773b
00000190: 1609 43bc 0002 5eba abf7 873b 7961 1fbb
000001a0: bba4 a5ba 878c 33bb ea2a ba3a ba83 80bc
000001b0: f3e3 cf3a 4ed2 493c 8cda 01bc a84d 723c
000001c0: f268 dfbb b828 f9bb a8b4 a6bc 9c6a 45bc
000001d0: ff68 7bba 5b16 633c c9fc 2d3c f04e e7bb
000001e0: 0aff e83b e2e3 6b3c d0ec 68bc 0238 82bb
000001f0: 4fce 02bc 5b81 24bc fdc0 e9bb 3219 3d3b
00000200: d74e 6a3b 43a1 ecba b5ff 77bc 05f4 663b
00000210: 8c3f 3bbc 2947 183c ab45 7bbc 6749 f63a
00000220: f0a3 463c 03ef a53b 32a9 513c 6536 e7bb
00000230: a700 983b 992d a63b 5746 263c 2833 79bb
00000240: b759 823b e7fa 993b 619f 243b e2b4 87bc
00000250: f422 93bb abda 03bc 98ff 7dbc c306 163c
00000260: c9e2 09ba b539 55bb d561 733c d227 5b3b
00000270: 2fbd 033b 2c53 88bc 6969 bd3b 3c15 2a3c
00000280: cf99 a7bb 6585 32bc 27bb 8a3a 6b05 c8b8
00000290: 97b6 a139 fb47 2bbc a6ba 26bc 8899 1d3b
000002a0: e388 c1bb aae8 f53b 7367 1f3c d060 1a3c
000002b0: 8e73 18bb 67a2 ac3b fddc 90bc 3d10 48bc
000002c0: 8323 54bc ab71 223b cbd4 51bc bd70 0fbc
000002d0: 7d67 273c 37c3 b839 73cd 82ba 4b35 0f3c
000002e0: c51c 3a3a 84cc 333c e26a 93bb d54a efbb
000002f0: 6da0 663b f3bb fdba a3c9 b7ba 6e94 16bc
00000300: 5a24 60bb 3b1e a9ba 9e00 2c3c 4ae8 d93b
00000310: c728 133c 48b7 7d3c 7a7c b63a 8b50 d73a
00000320: 85a4 5639 308e f4b9 b7d7 74bc 75d5 6d3b
00000330: a261 ea3b 08c2 023c d533 933a 0af4 4cbc
00000340: c702 5cbc 7000 563c 5cd7 9fbb 170f 4dbc
00000350: b4fc b5bb 2ac8 803c c9ab 01bc 55ab f5bb
00000360: a601 bcbb 97fe 6d3b 8b49 523c 1a27 d5bb
00000370: a7c5 2a3c 7673 3b3c abce 393b f086 e6bb
00000380: 69c9 3bbc a6df 313b ce89 3eba faf2 d7bb
00000390: ca3c 5439 b890 76bc 4207 04bb b170 2a3c
000003a0: 5570 0fbb 53fd f3bb 1545 e23b 9012 4fbc
000003b0: cdd2 853b b33f 2fbc 43ed 52bb 2b9d 90ba
000003c0: 96c6 863b 7505 473c f246 60bb 2d55 1c3c
000003d0: a8cd 7ebb c74c e5ba 9011 71bc 57da 183b
000003e0: d388 19bb 12a5 833a f365 a5ba 9988 283b
000003f0: d3f3 993b 937f b23c 44d6 243c 135d 073c

discrete_action_output_shape f4 [1, 2]
5.0 16.0
00000000: 0000 a040 0000 8041

network_body._body_endoder.seq_layers.0.bias f4 [128]
0.0 0.0 0.0 0.0 0.0 0.0 0.0 0.0
0.0 0.0 0.0 0.0 0.0 0.0 0.0 0.0
0.0 0.0 0.0 0.0 0.0 0.0 0.0 0.0
0.0 0.0 0.0 0.0 0.0 0.0 0.0 0.0
0.0 0.0 0.0 0.0 0.0 0.0 0.0 0.0
0.0 0.0 0.0 0.0 0.0 0.0 0.0 0.0
0.0 0.0 0.0 0.0 0.0 0.0 0.0 0.0
0.0 0.0 0.0 0.0 0.0 0.0 0.0 0.0
0.0 0.0 0.0 0.0 0.0 0.0 0.0 0.0
0.0 0.0 0.0 0.0 0.0 0.0 0.0 0.0
0.0 0.0 0.0 0.0 0.0 0.0 0.0 0.0
0.0 0.0 0.0 0.0 0.0 0.0 0.0 0.0
0.0 0.0 0.0 0.0 0.0 0.0 0.0 0.0
0.0 0.0 0.0 0.0 0.0 0.0 0.0 0.0
0.0 0.0 0.0 0.0 0.0 0.0 0.0 0.0
0.0 0.0 0.0 0.0 0.0 0.0 0.0 0.0
00000000: 0000 0000 0000 0000 0000 0000 0000 0000
00000010: 0000 0000 0000 0000 0000 0000 0000 0000
00000020: 0000 0000 0000 0000 0000 0000 0000 0000
00000030: 0000 0000 0000 0000 0000 0000 0000 0000
00000040: 0000 0000 0000 0000 0000 0000 0000 0000
00000050: 0000 0000 0000 0000 0000 0000 0000 0000
00000060: 0000 0000 0000 0000 0000 0000 0000 0000
00000070: 0000 0000 0000 0000 0000 0000 0000 0000
00000080: 0000 0000 0000 0000 0000 0000 0000 0000
00000090: 0000 0000 0000 0000 0000 0000 0000 0000
000000a0: 0000 0000 0000 0000 0000 0000 0000 0000
000000b0: 0000 0000 0000 0000 0000 0000 0000 0000
000000c0: 0000 0000 0000 0000 0000 0000 0000 0000
000000d0: 0000 0000 0000 0000 0000 0000 0000 0000
000000e0: 0000 0000 0000 0000 0000 0000 0000 0000
000000f0: 0000 0000 0000 0000 0000 0000 0000 0000
00000100: 0000 0000 0000 0000 0000 0000 0000 0000
00000110: 0000 0000 0000 0000 0000 0000 0000 0000
00000120: 0000 0000 0000 0000 0000 0000 0000 0000
00000130: 0000 0000 0000 0000 0000 0000 0000 0000
00000140: 0000 0000 0000 0000 0000 0000 0000 0000
00000150: 0000 0000 0000 0000 0000 0000 0000 0000
00000160: 0000 0000 0000 0000 0000 0000 0000 0000
00000170: 0000 0000 0000 0000 0000 0000 0000 0000
00000180: 0000 0000 0000 0000 0000 0000 0000 0000
00000190: 0000 0000 0000 0000 0000 0000 0000 0000
000001a0: 0000 0000 0000 0000 0000 0000 0000 0000
000001b0: 0000 0000 0000 0000 0000 0000 0000 0000
000001c0: 0000 0000 0000 0000 0000 0000 0000 0000
000001d0: 0000 0000 0000 0000 0000 0000 0000 0000
000001e0: 0000 0000 0000 0000 0000 0000 0000 0000
000001f0: 0000 0000 0000 0000 0000 0000 0000 0000

network_body._body_endoder.seq_layers.0.weight f4 [128, 1100]
-0.009494592 0.03368425 -0.01309684 0.04092857 -0.04807976 -0.035539925 -0.030133603 -0.017909203
0.022949709 -0.014218946 -0.028491452 0.030346481 -0.020648321 0.053882245 0.0025254334 0.0027203092
0.021588117 0.014073263 0.06098449 0.06573172 0.028555706 0.016268257 0.028484298 0.042563885
0.0067925206 -0.009097959 -0.0006750345 -0.0012780133 -0.010684203 -0.0008005419 0.012665853 -0.040499385
-0.031336453 -0.025961624 0.013792181 -0.028172685 -0.020859424 0.02672406 0.005914555 -0.006743229
0.031124908 0.0034589015 0.007517555 -0.014491027 0.026969807 -0.0042661154 -0.055774674 -0.0049656937
-0.11295725 0.051244713 -0.058085598 -0.0021073408 -0.026403232 -0.03368511 0.007920905 -0.021491464
-0.028819209 0.042360324 -0.05562608 0.03204422 0.03405123 0.028349372 -0.07252279 0.06692342
-0.050561216 0.012375903 -0.028216558 -0.040792 0.01759268 -0.012525831 0.02490576 -0.0022847028
0.05519035 -0.00043282434 0.072597705 -0.004158053 -0.03928336 0.03943445 -0.056413855 0.02282001
0.009448988 -0.016848749 0.024152417 0.0068453504 0.04209447 0.038945347 0.04622266 -0.045807224
0.0148097575 -0.03293513 0.011579075 -0.031057645 -0.024050333 0.044596158 -0.030441022 0.013013547
-0.03685373 0.0050334395 0.0012121883 -0.0110001555 0.026822966 -0.00045954788 -0.03478183 -0.01001989
-0.012284285 0.013383167 -0.005950587 0.02031953 0.02248889 0.001223029 -0.0006808496 -0.0032837645
-0.009720986 0.027268177 0.018990712 -0.015029353 -0.025121108 -0.02680838 0.028136367 -0.016794411
0.04339347 0.003185466 0.01828377 -0.03940057 0.030774094 0.016722955 0.003046177 0.005134345
-0.02066155 0.056527857 -0.019499503 -0.023453806 -0.02721941 0.019923106 0.028962735 -0.031374868
0.042459283 0.011310863 0.0020613829 -0.007785805 0.028433988 -0.0038558743 -0.055454496 -0.005552857
0.013900879 -0.03750939 0.007925432 0.028808283 0.0017676986 0.02134453 0.043587495 0.02477873
0.08060908 0.018791424 -0.017294053 0.037736587 0.03492501 -0.025072845 -0.022455288 0.029859154
-0.020528737 0.023935413 -0.012187197 -0.0067702504 0.0062356177 -0.021223998 -0.025905693 -0.04354481
0.001940691 -0.018944079 0.011481455 -0.04870965 -0.083627485 -0.007989287 -0.012822516 -0.017332433
0.0126642715 0.031934064 -0.023372779 0.013064544 0.0035010534 0.01142312 0.0238948 0.03230249
-0.045107134 0.041838776 0.010187392 -0.0071683796 0.045709405 0.0068963305 -0.0031670488 0.011209018
0.052896213 -0.0144641735 0.04542394 -0.023400957 -0.043327615 -0.02723733 0.07409378 -0.014405676
0.020936262 -0.0072882706 0.037517194 -0.022737753 -0.0084013 -0.02662639 -0.00078056107 0.0039197467
-0.002629677 -0.023143673 -0.0029113116 -0.009182827 -0.02704113 -0.06463335 0.040320944 -0.002295524
-0.032627422 0.055415563 -0.034325305 0.020916412 0.04418569 0.024941016 -0.009978781 0.048966013
-0.003128657 -0.05726993 -0.05846563 -0.05488946 -0.04078559 0.02772862 0.0025371092 -0.0148259085
0.029543076 -0.03048321 0.028324129 -0.008700508 0.07385535 0.02924946 -0.023919428 -0.015851337
0.06905087 -0.029178904 0.033416428 -0.017032135 -0.018550448 -0.0391659 0.0023974006 -0.00452547
-0.016910458 0.035216123 0.0130400285 0.029059067 -0.04149747 0.021711983 -0.00951152 0.002317729
00000000: 358f 1bbc 7ff8 093d 2194 56bc b7a4 273d
00000010: 48ef 44bd 5092 11bd bfda f6bc 52b6 92bc
00000020: 0701 bc3c 95f6 68bc e866 e9bc 2f99 f83c
00000030: ab26 a9bc a1b3 5c3d be81 253b 3747 323b
00000040: 90d9 b03c 8b93 663c dfca 793d 5a9e 863d
00000050: a8ed e93c 0245 853c e757 e93c 7857 2e3d
00000060: cb93 de3b 9b0f 15bc ccf4 30ba 0383 a7ba
00000070: cc0c 2fbc 75db 51ba 7084 4f3c afe2 25bd
00000080: a75a 00bd 79ad d4bc 9af8 613c 67ca e6bc
00000090: 62e1 aabc 6aec da3c e2ce c13b 4ef6 dcbb
000000a0: aaf9 fe3c bdae 623b d255 f63b c66b 6dbc
000000b0: c9ef dc3c c5ca 8bbb fc73 64bd 42b7 a2bb
000000c0: 2156 e7bd fae5 513d 2aeb 6dbd 501b 0abb
000000d0: 974b d8bc 66f9 09bd afc6 013c de0e b0bc
000000e0: 4316 ecbc 0582 2d3d 2cd8 63bd cd40 033d
000000f0: 4d79 0b3d f13c e83c d486 94bd 250f 893d
00000100: 4719 4fbd 4dc4 4a3c 6926 e7bc 8315 27bd
00000110: 861e 903c 2539 4dbc 2a07 cc3c f4ba 15bb
00000120: 470f 623d b3ec e2b9 1bae 943d 4740 88bb
00000130: 97e7 20bd 0586 213d 3712 67bd 08f1 ba3c
00000140: eecf 1a3c 6306 8abc 4adb c53c f64e e03b
00000150: 406b 2c3d 2885 1f3d f953 3d3d 5ba0 3bbd
00000160: a0a4 723c fde6 06bd 29b6 3d3c 9a6c febc
00000170: 3405 c5bc 76aa 363d 735f f9bc c636 553c
00000180: f0f3 16bd 8def a43b 4ae2 9e3a ff39 34bc
00000190: d6bb db3c 79ef f0b9 6477 0ebd 772a 24bc
000001a0: 0744 49bc 1245 5b3c 24fd c2bb 2575 a63c
000001b0: 9f3a b83c 0b4e a03a 0b7b 32ba 6d34 57bb
000001c0: c544 1fbc 8361 df3c 6992 9b3c ad3d 76bc
000001d0: c8ca cdbc 3f9d dbbc 3d7e e63c 6f94 89bc
000001e0: 5abd 313d 40c3 503b d8c7 953c 7e62 21bd
000001f0: f419 fc3c 94fe 883c 5fa2 473b 023e a83b
00000200: 6942 a9bc c189 673d 6cbd 9fbc 3222 c0bc
00000210: 3dfb debc c835 a33c 4243 ed3c ef82 00bd
00000220: c9e9 2d3d 3351 393c 4418 073b 1120 ffbb
00000230: 65ee e83c d6b2 7cbb 4124 63bd bef4 b5bb
00000240: 83c0 633c 72a3 19bd acd9 013c 59ff eb3c
00000250: 1fb2 e73a b9da ae3c cd88 323d c3fc ca3c
00000260: 6016 a53d 79f0 993c 42ac 8dbc ae91 1a3d
00000270: 870d 0f3d 9165 cdbc 27f4 b7bc 2f9b f43c
00000280: e22b a8bc 3314 c43c cfac 47bc fad8 ddbb
00000290: 2754 cc3b f3dd adbc 2d38 d4bc 0b5c 32bd
000002a0: c95e fe3a 9d30 9bbc b61c 3c3c c583 47bd
000002b0: e344 abbd 80e5 02bc 8815 52bc bffc 8dbc
000002c0: ce7d 4f3c 4bcd 023d 4578 bfbc ab0c 563c
000002d0: ee71 653b 0a28 3b3c 07bf c33c 9e4f 043d
000002e0: 42c2 38bd 235f 2b3d 05e9 263c bae4 eabb
000002f0: c939 3b3d 9dfa e13b 438e 4fbb 07a6 373c
00000300: b3a9 583d 24fb 6cbc 740e 3a3d 5db3 bfbc
00000310: 4c78 31bd d220 dfbc 7bbe 973d c905 6cbc
00000320: 8682 ab3c 72d2 eebb a1ab 193d 8644 babc
00000330: 9ba5 09bc 961f dabc 919e 4cba 3871 803b
00000340: a956 2cbb cd97 bdbc b4cb 3ebb 9173 16bc
00000350: 5c85 ddbc 7d5e 84bd 9327 253d 8170 16bb
00000360: 55a4 05bd 6efb 623d b198 0cbd e558 ab3c
00000370: 0efc 343d 1a51 cc3c 0b7e 23bc 9690 483d
00000380: 270a 4dbb e093 6abd a879 6fbd c5d3 60bd
00000390: ca0e 27bd 2227 e33c a145 263b 5ee8 72bc
000003a0: 5204 f23c edb7 f9bc 0108 e83c 938c 0ebc
000003b0: 7941 973d 909c ef3c adf2 c3bc aada 81bc
000003c0: 8b6a 8d3d 9908 efbc aadf 083d fa86 8bbc
000003d0: 1cf7 97bc 6c6c 20bd b51d 1d3b 654a 94bb
000003e0: cd87 8abc c83e 103d d8a5 553c 480d ee3c
000003f0: 40f9 29bd 54dd b13c 35d6 1bbc 0ae5 173b

network_body._body_endoder.seq_layers.2.bias f4 [128]
0.0 0.0 0.0 0.0 0.0 0.0 0.0 0.0
0.0 0.0 0.0 0.0 0.0 0.0 0.0 0.0
0.0 0.0 0.0 0.0 0.0 0.0 0.0 0.0
0.0 0.0 0.0 0.0 0.0 0.0 0.0 0.0
0.0 0.0 0.0 0.0 0.0 0.0 0.0 0.0
0.0 0.0 0.0 0.0 0.0 0.0 0.0 0.0
0.0 0.0 0.0 0.0 0.0 0.0 0.0 0.0
0.0 0.0 0.0 0.0 0.0 0.0 0.0 0.0
0.0 0.0 0.0 0.0 0.0 0.0 0.0 0.0
0.0 0.0 0.0 0.0 0.0 0.0 0.0 0.0
0.0 0.0 0.0 0.0 0.0 0.0 0.0 0.0
0.0 0.0 0.0 0.0 0.0 0.0 0.0 0.0
0.0 0.0 0.0 0.0 0.0 0.0 0.0 0.0
0.0 0.0 0.0 0.0 0.0 0.0 0.0 0.0
0.0 0.0 0.0 0.0 0.0 0.0 0.0 0.0
0.0 0.0 0.0 0.0 0.0 0.0 0.0 0.0
00000000: 0000 0000 0000 0000 0000 0000 0000 0000
00000010: 0000 0000 0000 0000 0000 0000 0000 0000
00000020: 0000 0000 0000 0000 0000 0000 0000 0000
00000030: 0000 0000 0000 0000 0000 0000 0000 0000
00000040: 0000 0000 0000 0000 0000 0000 0000 0000
00000050: 0000 0000 0000 0000 0000 0000 0000 0000
00000060: 0000 0000 0000 0000 0000 0000 0000 0000
00000070: 0000 0000 0000 0000 0000 0000 0000 0000
00000080: 0000 0000 0000 0000 0000 0000 0000 0000
00000090: 0000 0000 0000 0000 0000 0000 0000 0000
000000a0: 0000 0000 0000 0000 0000 0000 0000 0000
000000b0: 0000 0000 0000 0000 0000 0000 0000 0000
000000c0: 0000 0000 0000 0000 0000 0000 0000 0000
000000d0: 0000 0000 0000 0000 0000 0000 0000 0000
000000e0: 0000 0000 0000 0000 0000 0000 0000 0000
000000f0: 0000 0000 0000 0000 0000 0000 0000 0000
00000100: 0000 0000 0000 0000 0000 0000 0000 0000
00000110: 0000 0000 0000 0000 0000 0000 0000 0000
00000120: 0000 0000 0000 0000 0000 0000 0000 0000
00000130: 0000 0000 0000 0000 0000 0000 0000 0000
00000140: 0000 0000 0000 0000 0000 0000 0000 0000
00000150: 0000 0000 0000 0000 0000 0000 0000 0000
00000160: 0000 0000 0000 0000 0000 0000 0000 0000
00000170: 0000 0000 0000 0000 0000 0000 0000 0000
00000180: 0000 0000 0000 0000 0000 0000 0000 0000
00000190: 0000 0000 0000 0000 0000 0000 0000 0000
000001a0: 0000 0000 0000 0000 0000 0000 0000 0000
000001b0: 0000 0000 0000 0000 0000 0000 0000 0000
000001c0: 0000 0000 0000 0000 0000 0000 0000 0000
000001d0: 0000 0000 0000 0000 0000 0000 0000 0000
000001e0: 0000 0000 0000 0000 0000 0000 0000 0000
000001f0: 0000 0000 0000 0000 0000 0000 0000 0000

network_body._body_endoder.seq_layers.2.weight f4 [128, 128]
0.0058349096 -0.10655585 0.053145036 -0.035044886 0.028057452 -0.06634952 -0.0905775 -0.12025638
-0.11931562 -0.028014233 0.07744661 0.08909792 0.073134035 0.079450525 0.0034694492 -0.009399827
-0.0340378 0.08056198 -0.04452312 -0.09613221 0.087831035 0.07646389 -0.024420876 -0.043827686
-0.0019281146 0.08728661 0.1474571 -0.19586486 0.121773474 0.009910396 0.07827735 0.13836668
-0.016186362 -0.03424599 0.05724033 0.04648731 0.13565896 0.0090700565 -0.01681683 -0.05428941
-0.012160813 -0.0025677101 0.081301846 0.083097786 0.08757488 -0.20971055 -0.06270198 -0.021528495
0.16525026 0.14268652 0.039701335 -0.026438873 -0.008266576 0.020850107 -0.07359016 -0.06059799
-0.13212833 0.069187514 0.12169672 0.011096535 -0.083917 0.06205208 -0.14064577 0.0019422919
0.015708366 -0.16705878 -0.119538456 0.04207071 0.076618694 0.02582062 -0.049786605 0.17203715
-0.12878667 -0.00074847986 -0.22835246 -0.06465549 -0.045058675 -0.06341304 -0.1412394 0.13005282
-0.08110691 -0.12355986 -0.061160762 -0.012392946 0.13113013 0.08730575 0.024764873 0.08355332
-0.061987676 -0.10276088 -0.047097217 0.04976092 -0.0063202176 -0.019216424 0.13198628 -0.113722004
-0.016416708 -0.048425406 0.018582182 -0.03568382 0.01260088 0.09958877 -0.036617015 -0.1663087
-0.029337585 0.016177488 -0.020528466 -0.13664776 -0.067349836 -0.019223364 -0.03428807 -0.07674096
0.038795054 -0.04384061 0.12372002 0.06411643 0.085852124 0.044426523 -0.01659226 -0.15976316
0.046306767 0.11234731 -0.121195234 -0.023554819 -0.24012458 -0.07405744 0.06700252 -0.031448953
0.002384104 0.051654138 -0.014422461 -0.096606456 -0.2616746 0.025097115 -0.034947947 0.15343866
-0.21669638 -0.010462824 -0.03690273 -0.21276508 -0.19768408 0.029826416 0.06887216 0.08624548
-0.08013285 -0.018043011 -0.09019608 0.071301594 0.017823704 -0.01604825 0.08644697 0.071170345
0.06642723 -0.11593485 0.03507988 0.018980382 -0.12082255 0.114203066 0.12542684 0.06140272
0.02592924 -0.06172415 -0.0064579323 0.012049552 -0.03178556 0.017637104 0.04991776 0.07467329
0.1844311 0.049349234 -0.09452204 -0.06878505 -0.08238894 0.152505 0.12085802 -0.045729287
0.06216383 -0.25579703 -0.023843423 -0.11564057 0.016207013 0.14478573 -0.022393126 0.063059695
0.06769272 -0.05915162 0.023023184 -0.035581145 -0.01033829 0.03948601 0.023522353 -0.025500914
0.026506564 -0.11621351 0.03642639 0.03966314 0.13053098 0.007847291 0.0010080393 0.013723659
0.020750089 0.09054251 -0.0152134225 -0.062356513 0.17860645 -0.15574609 0.05152534 0.05029541
0.06567332 -0.07959877 -0.026569188 0.041375093 -0.063140325 0.0029454015 0.07602659 -0.019433072
-0.16743238 -0.16039112 0.00822183 0.012147368 -0.1253172 0.001384587 -0.018474538 -0.044648048
-0.051313035 -0.019081362 -0.004116336 0.10504309 0.06335201 0.020481622 -0.11158165 -0.02890685
-0.0953658 -0.042343207 -0.022167329 0.07836343 0.22356644 -0.11452901 -0.020593302 -0.07775608
-0.041600823 0.05391616 0.06613564 0.05701041 0.0330339 -0.0063855634 0.112369575 -0.08058242
-0.10569225 -0.024358438 -0.12415962 0.06318053 -0.07540114 -0.04602352 -0.06557665 0.049597867
00000000: c532 bf3b f439 dabd 9cae 593d 3a8b 0fbd
00000010: bed8 e53c 42e2 87bd b280 b9bd fa48 f6bd
00000020: bf5b f4bd 1b7e e5bc 549c 9e3d f878 b63d
00000030: 4cc7 953d f5b6 a23d b35f 633b bb01 1abc
00000040: 386b 0bbd aefd a43d e05d 36bd f7e0 c4bd
00000050: c2e0 b33d 1a99 9c3d 4a0e c8bc a984 33bd
00000060: cab8 fcba 52c3 b23d fefe 163e cc90 48be
00000070: 5f64 f93d 375f 223c e04f a03d ffaf 0d3e
00000080: 4399 84bc 8645 0cbd d674 6a3d 7a69 3e3d
00000090: 2fea 0a3e 939a 143c 73c3 89bc 935e 5ebd
000000a0: 263e 47bc 0747 28bb 9581 a63d 2c2f aa3d
000000b0: 755a b33d 5dbe 56be e569 80bd 875c b0bc
000000c0: 5d37 293e 6a1c 123e de9d 223d 5696 d8bc
000000d0: 8870 07bc d8cd aa3c 70b6 96bd 9935 78bd
000000e0: a64c 07be 2fb2 8d3d 213c f93d 3ece 353c
000000f0: addc abbd 522a 7e3d 7205 10be 8094 fe3a
00000100: d5ae 803c 7511 2bbe 94d0 f4bd 5652 2c3d
00000110: 43ea 9c3d c485 d33c 0aed 4bbd 822a 303e
00000120: a7e0 03be a235 44ba 3ad5 69be 196a 84bd
00000130: 728f 38bd b2de 81bd 10a1 10be 912c 053e
00000140: 611b a6bd f40c fdbd b583 7abd c80b 4bbc
00000150: fa46 063e 5bcd b23d b4df ca3c 011e ab3d
00000160: cae6 7dbd 4c74 d2bd 03e9 40bd 1bd2 4b3d
00000170: d419 cfbb c36b 9dbc 6927 073e 15e7 e8bd
00000180: 557c 86bc b859 46bd a939 983c 3229 12bd
00000190: ec73 4e3c 32f5 cb3d b9fb 15bd d44c 2abe
000001a0: 6055 f0bc a786 843c 502b a8bc 64ed 0bbe
000001b0: b6ee 89bd 517a 9dbc a671 0cbd 5d2a 9dbd
000001c0: 90e7 1e3d 3692 33bd ec60 fd3d 7a4f 833d
000001d0: 3dd3 af3d 96f8 353d 7eec 87bc f498 23be
000001e0: 2aac 3d3d 5916 e63d 3535 f8bd 09f6 c0bc
000001f0: 38e3 75be 6dab 97bd 9e38 893d 9ed0 00bd
00000200: a13e 1c3b 4a93 533d 304c 6cbc 9bd9 c5bd
00000210: 37fa 85be 7798 cd3c 9425 0fbd 061f 1d3e
00000220: a8e5 5dbe 446c 2bbc 5127 17bd 17df 59be
00000230: b26d 4abe 8756 f43c d90c 8d3d 78a1 b03d
00000240: b11c a4bd f0ce 93bc b9b8 b8bd 9206 923d
00000250: 0403 923c 9f77 83bc 1c0b b13d c2c1 913d
00000260: 000b 883d 406f edbd ecaf 0f3d bf7c 9b3c
00000270: d071 f7bd 4ce3 e93d e56f 003e 6b81 7b3d
00000280: 8f69 d43c 76d2 7cbd 109d d3bb 7c6b 453c
00000290: 9331 02bd b07b 903c 9176 4c3d 4fee 983d
000002a0: 82db 3c3e 6c22 4a3d c594 c1bd 2ddf 8cbd
000002b0: 88bb a8bd 452a 1c3e 6984 f73d a24e 3bbd
000002c0: 809f 7e3d d4f7 82be 4853 c3bc f7d4 ecbd
000002d0: 92c4 843c b642 143e ca71 b7bc 7125 813d
000002e0: 7ba2 8a3d f848 72bd 1e9b bc3c 89bd 11bd
000002f0: ee61 29bc 15bc 213d f3b1 c03c 4be7 d0bc
00000300: 4b24 d93c 5901 eebd d733 153d d175 223d
00000310: eaa9 053e ed91 003c 3020 843a 33d9 603c
00000320: 17fc a93c 5a6e b93d b841 79bc 8b69 7fbd
00000330: 9ce4 363e e77b 1fbe 3c0c 533d 8f02 4e3d
00000340: bc7f 863d ae04 a3bd a0a7 d9bc ee78 293d
00000350: b74f 81bd a307 413b d4b3 9b3d 1b32 9fbc
00000360: 6573 2bbe 923d 24be dbb4 063c c105 473c
00000370: 2753 00be 087b b53a ea57 97bc dfe0 36bd
00000380: 9e2d 52bd 8450 9cbc 54e2 86bb d520 d73d
00000390: b3be 813d 13c9 a73c ec84 e4bd 0fce ecbc
000003a0: 254f c3bd 1270 2dbd 4298 b5bc 027d a03d
000003b0: 9aee 643e 308e eabd 49b3 a8bc 943e 9fbd
000003c0: a065 2abd 31d7 5c3d 1f72 873d bf83 693d
000003d0: 8e4e 073d fd3d d1bb 0522 e63d 6508 a5bd
000003e0: 2e75 d8bd 598b c7bc 6647 febd cb64 813d
000003f0: ea6b 9abd 2983 3cbd 0d4d 86bd 2227 4b3d
