results/MoveToBet2/MoveToBet/MoveToBet-1800.onnx (onnx, 645297 bytes, 12 tensors)

action_model._continuous_distribution.log_sigma f4 [1, 2]
000000 00 00 00 00 00 00 00 00
       0.0 0.0

action_model._continuous_distribution.mu.bias f4 [2]
000000 00 00 00 00 00 00 00 00
       0.0 0.0

action_model._continuous_distribution.mu.weight f4 [2, 128]
000000 4a 45 1b bd 33 71 8f 3b cb 81 20 3a 13 98 f8 bc
       -0.037907876 0.004377508 0.0006122856 -0.030345952
000010 bd 14 b8 3c b2 52 ee bc 9f ba 9e bc b9 56 b4 3c
       0.022470826 -0.029092167 -0.019376097 0.022014009
000020 ae 94 b5 bb 6f c1 98 bb 83 cd 17 bc 77 61 c2 bc
       -0.0055414056 -0.004661731 -0.009265306 -0.023728115
000030 fa 14 c2 bb 95 56 15 bd 57 bd 32 3d db dc 92 bc
       -0.0059229108 -0.036459524 0.0436376 -0.017927578
000040 b5 df 39 3b 0d 02 14 3b 30 7d e3 bb 3d 24 c8 bc
       0.00283621 0.002258423 -0.0069424137 -0.024431342
000050 15 38 63 3c 65 f4 4d bc 3d 79 f7 3c 6f 0f 74 3c
       0.0138683515 -0.012570475 0.030209178 0.014896258
000060 4b df 30 3c 57 26 42 3b ee 13 0a bc 0b 86 92 bc
       0.010795425 0.0029624903 -0.008427603 -0.017886182
000070 f3 35 a9 3c 7f a3 00 3c 58 d8 72 bb db 16 8b bc
       0.020655608 0.0078514805 -0.003705522 -0.016978672
000080 fa df 89 bc 63 24 a0 bc 58 79 6d bc 07 e0 4e 3c
       -0.016830433 -0.0195486 -0.014494263 0.0126266545
000090 45 75 04 bd b4 ab 35 3d 05 8c 80 bc 67 81 c2 3c
       -0.0323384 0.044353202 -0.015691767 0.023743344
0000a0 c6 7d 89 3c ad ba e3 3a f7 cc 7d bb e2 6d d2 3c
       0.016783606 0.0017374359 -0.0038726905 0.025687162
0000b0 d7 97 0a 3c 8e 5e c1 bc df 7d 59 3a d8 39 40 3c
       0.008459053 -0.023604658 0.00082966493 0.011732541
0000c0 bb f8 8c 3c 3b ae 84 3a 8a f3 54 bb 44 e6 ae 3c
       0.017208448 0.0010122726 -0.0032493793 0.021350034
0000d0 33 d1 6f 3c 87 df c9 bc 34 4b 1d 3c 2f 89 0a bc
       0.014637279 -0.024642719 0.009600449 -0.008455559
0000e0 9b 67 bf bc 05 73 ac 3b dd 52 98 bc a9 9e bc 3b
       -0.023364833 0.005262735 -0.0185942 0.0057562185
0000f0 63 8d 65 3b 35 28 78 bc 21 3b b3 bc 02 50 cc bc
       0.00350269 -0.015146305 -0.02187878 -0.024940494
000100 59 d8 9f bc a4 9b 8b bc bd d5 97 3c e8 73 d0 3b
       -0.019512342 -0.017041989 0.018534536 0.0063614734
000110 4d 9a 06 bb 6b 5c 3c 3c ea 13 58 bc 13 d7 73 bc
       -0.0020538748 0.011496644 -0.013188342 -0.014882821
000120 99 de 26 bc ab ac 25 3a 23 95 48 3c 87 35 99 bc
       -0.010184907 0.000631998 0.012242588 -0.018702282
000130 f7 a4 4e 3c 81 2d 27 3d 74 93 9c 3b b0 99 90 3c
       0.012612573 0.04081488 0.00477832 0.017651409
000140 eb 9d 95 3c e0 4b 8b bc 9e 4d 86 ba 7c bb b6 bc
       0.018263778 -0.017003953 -0.001024652 -0.022306196
000150 9b e5 93 3c 45 1f cc 3b 86 39 8d 3b d7 49 37 bc
       0.01805382 0.0062293136 0.004309836 -0.011187038
000160 22 12 52 3c 0f 5b ca 3b bb d0 83 bc 47 5b b7 3c
       0.012821706 0.006175406 -0.016090741 0.022382392
000170 8b 54 95 bc 75 6f 63 bc f8 54 eb bc c7 1f 17 bc
       -0.01822879 -0.013881554 -0.02872704 -0.009223885
000180 ab 06 13 3d cb 35 ec bc 86 8e a4 bb 58 9c ed bb
       0.03589503 -0.028834244 -0.005021873 -0.0072513036
000190 78 e6 e8 bb 4f 6d 35 3b 58 4a 70 bb b3 8b 7d 3a
       -0.007107552 0.0027683561 -0.0036665406 0.0009672001
0001a0 9f 38 c4 3b c5 6c 80 3c 2a df 2e bd 53 51 95 bc
       0.005988195 0.015676865 -0.042693295 -0.018227255
0001b0 08 50 c3 bc 03 06 2a bc 21 af 44 bd 7a 9d 84 3b
       -0.023841873 -0.01037741 -0.04801858 0.004047093
0001c0 e2 94 75 3b 7a 21 59 bd 25 c6 68 3c 43 b8 c2 bc
       0.0037472774 -0.05301044 0.014207398 -0.023769503
0001d0 86 d7 b6 3c 6e d3 8b bc c8 9f 3e 3c 43 fb f0 3c
       0.022319566 -0.017068591 0.0116347745 0.029416686
0001e0 f4 3b 16 3c 6b 8b ba bb bf 85 3d bd 08 13 1e bb
       0.009169567 -0.0056928894 -0.04627013 -0.002412023
0001f0 40 74 69 bc 8a 8b 7a 39 c4 f6 9b 3c 18 de 43 3c
       -0.014248908 0.0002389384 0.019038565 0.011954807
000200 3d ac 81 bb 12 1d b0 3b a0 d6 9f ba 4d 92 d7 3c
       -0.0039573 0.005374559 -0.00121947 0.026314879
000210 ef 4c be b9 bd 58 d1 3b fc 8d 07 bc 3f e5 c3 bb
       -0.00036296944 0.0063887523 -0.008273598 -0.005978256
000220 1d 91 72 3c 05 fa 78 3c 73 d0 26 3b b7 a2 11 bd
       0.0148051055 0.015196328 0.0025453835 -0.035555568
000230 6a e2 1d 3a 50 35 2c 3b 5e 83 87 3c 08 54 eb 3b
       0.0006022813 0.0026276894 0.016542133 0.007181648
000240 d4 d9 a1 bc 23 51 c7 3c cf bf a3 bb 53 7a a0 bb
       -0.019757189 0.024330681 -0.0049972306 -0.0048973947
000250 22 f7 7e 3c e8 98 2d bb 49 b7 3c 3b 8b 75 34 3d
       0.015561851 -0.0026488844 0.002879577 0.04405741
000260 af 87 2a 3d 7d ab d6 bb eb 67 10 bc aa 54 8d bc
       0.041633304 -0.0065512047 -0.0088138385 -0.017252285
000270 05 08 8e bc aa fd 76 3b 68 fb 64 bc d6 d2 bd 3c
       -0.017337808 0.0037687817 -0.013975956 0.023171823
000280 d6 4f 10 bc f6 03 0c bc c4 35 0e 3b 99 55 a8 bc
       -0.008808097 -0.008545866 0.0021699527 -0.020548629
000290 08 75 be bc b6 9a a5 3b 6f 81 2b bc df b2 25 bb
       -0.023249164 0.0050538434 -0.010467871 -0.0025283617
0002a0 a3 a7 b9 3c 22 b4 e6 bc bf ec a6 bb 81 2c 83 3a
       0.022662943 -0.028162066 -0.0050941403 0.001000777
0002b0 99 61 4a bc 49 74 9e 3c a2 86 86 3c df 10 a0 bc
       -0.012352371 0.019342558 0.01642162 -0.019539295
0002c0 b8 55 1b bd 73 51 0d 3c fd 98 1f bd d5 1e 9f 3c
       -0.037923545 0.008625376 -0.03896426 0.019423882
0002d0 9f 0e 0b bd 39 fd 10 bc 84 c7 9e 3b a8 98 10 bc
       -0.03394949 -0.0088494355 0.0048455615 -0.008825459
0002e0 fb 73 b5 3b b2 76 e4 bc 7f c1 db 3c 12 22 e2 bb
       0.0055375076 -0.02788863 0.026825665 -0.006901034
0002f0 7e 5e bf bb b5 2b 68 b8 37 9f 42 bc 56 81 49 bc
       -0.005840122 -5.5353816e-05 -0.01187878 -0.0122989025
000300 83 86 0a 3c 29 31 09 3c 47 68 4e bb 01 ea 29 3c
       0.008454922 0.008373537 -0.003149526 0.010370732
000310 fb 02 8a 3c 43 6e 89 bb 5f 32 7d bc 37 60 c2 3c
       0.016847124 -0.0041940524 -0.015453904 0.02372752
000320 63 1e 39 3c ec cd 92 3b a9 2b b5 bc bd 64 51 3c
       0.011298749 0.004480114 -0.022115545 0.0127803655
000330 e7 06 40 bb 02 41 97 bb d4 41 c7 bc 95 d8 d7 3b
       -0.002930099 -0.004615904 -0.024323381 0.006587098
000340 75 69 5b 3b af 12 77 3a d2 ad 46 bc b7 55 a0 bc
       0.0033479605 0.00094250863 -0.012126403 -0.019572122
000350 ab c7 34 bb 10 21 76 bb 9f a5 e6 bb a1 69 89 bb
       -0.0027584832 -0.0037556328 -0.0070387865 -0.0041935
000360 a6 a8 28 3c a3 c3 b3 3a 2f 55 02 bb ed bf aa bc
       0.010294115 0.001371492 -0.00198872 -0.02084347
000370 f3 b0 88 bb de f5 1f 3c 4e 2b 0e bc 2b f1 cf 3c
       -0.0041714846 0.009763209 -0.008677317 0.025383553
000380 d8 20 c1 bb 73 54 c7 3b 75 39 4e 3c 3d 98 7e 3c
       -0.005893808 0.006083065 0.012586941 0.015539226
000390 cb f7 3c bc 67 e2 1a 3c a8 91 7b bb 3f 2e a5 bc
       -0.011533688 0.009453393 -0.0038386378 -0.020163653
0003a0 23 92 e8 bb b3 74 85 3c d2 8e 8c 3c f0 f0 eb bb
       -0.007097499 0.016290998 0.017157946 -0.007200353
0003b0 20 d1 41 3c 82 e5 54 3c 18 2c 1a 3c ff 58 75 bb
       0.011829644 0.012994172 0.009409927 -0.003743708
0003c0 9f 29 80 bc e8 8e 18 bc 38 76 b7 3b f7 f3 89 3c
       -0.015644846 -0.009311415 0.0055988096 0.016839964
0003d0 c5 b3 0c bc 18 95 66 ba f0 94 89 3c 97 75 5c 3c
       -0.008587782 -0.00087960204 0.016794652 0.01345577
0003e0 43 c3 a5 bc 37 13 9a bb d1 b8 49 3c 2e 95 44 bd
       -0.02023471 -0.0047019976 0.01231213 -0.04799383
0003f0 28 f0 f0 bc 7f 67 fb bc 77 69 d0 3b ba 31 78 b8
       -0.02941139 -0.030689 0.0063602286 -5.917412e-05

action_model._discrete_distribution.branches.0.bias f4 [5]
000000 00 00 00 00 00 00 00 00 00 00 00 00 00 00 00 00
       0.0 0.0 0.0 0.0
000010 00 00 00 00
       0.0

action_model._discrete_distribution.branches.0.weight f4 [5, 128]
000000 03 d8 01 bc 6d e5 0c bc 95 62 63 bb 95 d5 06 3b
       -0.007925036 -0.008599621 -0.003469621 0.0020574082
000010 33 f0 71 3c 84 2c 30 3a 4d 33 7c 3c 77 ce 3e bb
       0.014766741 0.00067205005 0.01539309 -0.0029114762
000020 ba 7e ce 3a ee ba 28 3b ee 40 97 3b 10 59 50 3c
       0.001575432 0.0025746184 0.0046158945 0.012716547
000030 37 d8 29 bc ce 34 a9 bb 8f 5e 05 bc a0 4e 95 3b
       -0.010366491 -0.0051637655 -0.00814022 0.004556492
000040 5b 98 83 bc 8e 7d 8c 3b 27 e8 f7 bb 48 6d 73 3a
       -0.01606386 0.004287428 -0.0075655165 0.00092859985
000050 b5 5f e8 bb fd a1 a8 3b 38 83 92 3b d3 92 8e ba
       -0.0070914873 0.0051462636 0.004471209 -0.0010877497
000060 cb fd 39 bc f8 5b fc bb a1 d4 24 bb a2 07 07 3c
       -0.011352013 -0.007701393 -0.002515115 0.008241566
000070 f0 45 06 3c 40 9b 16 39 ea f3 b2 3b 43 84 fe 3b
       0.008195385 0.0001436295 0.0054612057 0.0077672317
000080 00 3b b5 b9 2e 6c c6 3a 11 b3 29 bb 53 fa 0a 3c
       -0.0003456697 0.0015138441 -0.0025894085 0.0084825335
000090 e1 e8 27 3c cf c6 dd bc 59 7e 8f ba a0 e5 71 3c
       0.010248394 -0.027072338 -0.0010947689 0.0147642195
0000a0 ea f3 9a 3c 9a a8 3c 3a be 67 b0 bc 72 19 b8 3a
       0.018915135 0.00071967544 -0.021533843 0.0014045669
0000b0 32 cb 90 bb 9b 02 eb 3b 76 3b 0a 3c 7a ac 6d 3c
       -0.004418754 0.0071719415 0.008437028 0.014506454
0000c0 53 33 47 bc d4 50 1a bc a9 db 24 bb df 15 56 3a
       -0.012158233 -0.009418685 -0.0025155342 0.0008166711
0000d0 40 9e 97 b9 b0 8e 2c bb 12 37 9a 3b 1d ca ce 3b
       -0.0002891887 -0.0026330166 0.004706272 0.006310715
0000e0 e5 99 54 3c cb 4b 9e 3c ff f2 a9 ba 8b c0 af bb
       0.012976144 0.01932325 -0.0012966095 -0.005363529
0000f0 78 d4 27 bc 58 48 50 bc a9 ee bb bb 65 09 08 bc
       -0.010243528 -0.012712561 -0.0057352376 -0.008303021
000100 83 82 5d 39 13 8c b8 bb 1b da 12 3c eb 6f 04 b8
       0.00021124822 -0.0056319325 0.008963133 -3.1575484e-05
000110 88 7f 0e 3c aa 45 9a 3b 94 ef 08 bc e9 ca 3a 3c
       0.008697398 0.0047080116 -0.008357901 0.011400917
000120 9a 73 cf 3b bf 32 81 ba 0a 82 81 bb 0f b4 a5 bb
       0.0063309195 -0.0009857042 -0.0039522694 -0.005056865
000130 13 68 64 ba 10 70 eb 3a 14 09 34 bc b8 91 16 bc
       -0.0008713018 0.0017962474 -0.0109884925 -0.0091900155
000140 3b 7c ed 3a 8f c7 b0 3b 48 aa bc bb 60 0f 30 bc
       0.0018118689 0.005394883 -0.005757604 -0.010745853
000150 9b 5f e1 3a 33 a9 30 bc 99 f3 af 3b ed d0 5f bb
       0.001719463 -0.010782528 0.0053696153 -0.003415163
000160 47 0c bf ba a5 a8 42 bc c5 b9 6c bc f5 4d 7b b8
       -0.0014575802 -0.011881028 -0.014448588 -5.9915666e-05
000170 92 07 de bb c0 83 4f 3c 93 c8 25 3b c5 bc 30 bc
       -0.006775805 0.012665689 0.0025296554 -0.010787194
000180 7d fb af bb 8d e0 bb ba 8f 42 85 3b 09 4c 01 3a
       -0.005370556 -0.0014333889 0.0040667723 0.00049322896
000190 ee 37 95 bb ef 18 24 3b ef 4d 16 3c d2 ce 50 bc
       -0.0045537865 0.0025039276 0.009173854 -0.012744622
0001a0 0c 77 39 bc ec fc b2 bc 0a 77 fe 3b fc de 89 bb
       -0.011319887 -0.021849118 0.0077656554 -0.00420749
0001b0 df 5f 3d bc 63 96 bb 3b f3 10 dc bb d3 1c 08 3c
       -0.011558502 0.0057247146 -0.0067158877 0.0083076535
0001c0 98 64 2f 3c a3 03 f6 3b d3 d2 02 3c 6a 87 2c bb
       0.010705136 0.0075077577 0.007984835 -0.002632583
0001d0 d7 7a b5 3b 0c 51 07 3c e2 e0 6c 3c 9b 0c 5a bb
       0.0055383253 0.008259069 0.014457913 -0.0033271674
0001e0 69 8d 9c 39 d2 7b 45 bc f3 88 c3 39 78 3d fe 3b
       0.00029859997 -0.012053447 0.00037295333 0.0077587925
0001f0 b0 f1 0a b9 ae ec c4 3b 4b 12 26 3a d5 e7 d5 3b
       -0.00013250741 0.0060096597 0.00063351233 0.0065278807
000200 4b 8b fc 3b 48 19 13 3b 7f fb 37 bc 12 96 e3 bb
       0.0077070347 0.0022445489 -0.011229395 -0.00694538
000210 fb f8 ff 3b 0f 7a 80 3c 58 2a 94 bb 4f 52 e5 3a
       0.007811663 0.015683202 -0.0045216493 0.0017495843
000220 fd 3d 1e 3b aa 6f ef b7 e7 51 6f 3c e7 06 b9 3b
       0.0024145835 -2.8543018e-05 0.014606929 0.005646575
000230 13 2c 31 3c 78 b3 10 3c 36 c6 16 3b 7e f4 99 bc
       0.010813731 0.008831851 0.0023006327 -0.01879334
000240 37 ce bf bb 57 02 9c ba 63 0a 28 bc 4b ce 92 3b
       -0.00585344 -0.0011902553 -0.010256383 0.0044801584
000250 e7 0f ed ba 20 7c 64 3b 86 be 3d bc 5b 0b fe bb
       -0.0018086404 0.0034864023 -0.011581069 -0.0077528185
000260 bb 7e 9e 3a 63 78 0a bb 2d d9 d6 ba f8 28 c7 3b
       0.0012092212 -0.0021128885 -0.0016391628 0.006077882
000270 b3 55 c4 bb bf e9 94 bb ef 0c 24 3b 93 41 13 3c
       -0.0059916615 -0.0045444663 0.0025032123 0.008987802
000280 a4 55 a7 bc 28 4e 0f 3c a2 c6 ec 3b 6c ea 15 bb
       -0.020426579 0.008746661 0.0072258273 -0.0022875322
000290 7a b8 25 3b e7 94 ff 3a 03 12 df 3b 69 6c 9f 3c
       0.0025286959 0.0019499332 0.006807567 0.019460874
0002a0 82 52 29 bc 3c 8c b6 bb 33 08 12 3c d0 62 84 ba
       -0.010334613 -0.0055709165 0.008913088 -0.0010100249
0002b0 0f 22 16 bb fa e0 ba ba e3 8e 48 3a 93 14 25 3c
       -0.0022908484 -0.0014257722 0.00076506863 0.010075706
0002c0 e3 69 3c ba aa 42 7f bb 67 d3 62 3c c0 a5 54 bc
       -0.0007187409 -0.0038949647 0.013844348 -0.012978971
0002d0 42 1d 3a bc 81 01 1f 3c f9 34 3d ba 94 f6 18 3c
       -0.011359515 0.009704948 -0.00072176714 0.009336133
0002e0 63 11 4a bc 0f 1b 10 3c 9e 97 10 bc 5d 89 fe 3a
       -0.012333247 0.008795514 -0.008825211 0.00194196
0002f0 3b 2e 05 3a 59 2c 1d bb 67 10 5d bb 48 97 86 3c
       0.0005080436 -0.0023982732 -0.00337317 0.016429558
000300 7b 67 33 3c 88 4a 5c 3c 63 10 2f bc 81 8d 32 3b
       0.010949965 0.013445504 -0.010685059 0.0027244987
000310 be ee c1 3b da 23 e2 3b 6b 95 6e bc d2 ff c4 bb
       0.005918353 0.0069012465 -0.014561991 -0.0060119415
000320 63 27 03 3a e0 ce b3 3c 2d 17 7c bc fd 7c 48 3b
       0.00050031225 0.021949232 -0.015386385 0.0030592077
000330 e7 ac 67 3c a0 4e 9f bb 73 ea 01 bc 35 3e 6b 3b
       0.014140344 -0.0048616678 -0.007929432 0.0035895233
000340 be f8 43 3b e7 3a 66 ba de 6a 34 3b ee 1d 2b 39
       0.00299029 -0.0008782581 0.0027529518 0.0001631898
000350 61 10 19 ba 9f 6c 00 3c 45 7b 13 3b 6c da 00 3c
       -0.00058389275 0.007838397 0.0022503894 0.007864576
000360 b2 68 98 bb bb 43 ac bb 64 77 0a 3b 80 8c 55 bc
       -0.0046511525 -0.0052570975 0.0021128291 -0.013033986
000370 8e 47 cc bb 9f 7f 26 bc 6f 5e 23 3b 2a 0f 1f bc
       -0.006234116 -0.010162263 0.0024928113 -0.009708205
000380 d3 f5 00 3c 27 47 7a 3c cc c5 42 bb 3a 2d 38 3b
       0.007871109 0.015275753 -0.0029719947 0.002810313
000390 b2 75 13 3c ba 3e 4b 3c 82 cd 16 3c 4c 40 c6 3a
       0.009000229 0.012405092 0.00920427 0.0015125363
0003a0 42 14 7a 3c 98 1b 50 bc 53 3a 60 3c d0 b2 8e 3b
       0.015263619 -0.012701891 0.013685781 0.004354812
0003b0 93 f7 c0 3a 93 d2 3a bc af d0 10 bc 30 8b 85 3c
       0.001472222 -0.011402744 -0.008838817 0.016301721
0003c0 80 39 dc 3b e9 28 88 3b 8b ee 83 bb ed c9 a4 3b
       0.0067207217 0.0041552675 -0.0040262393 0.0050289542
0003d0 b2 e9 2b bc c6 a4 c7 bb 9b 34 08 3c 63 aa 3f 3c
       -0.010492729 -0.0060926406 0.008313323 0.011698338
0003e0 23 2a b9 bb 72 19 61 3a ec e6 1a bc ba aa c1 ba
       -0.005650775 0.00085868605 -0.00945447 -0.0014775612
0003f0 ff 73 5f 3c 25 71 59 3c 27 9b a9 bb 0c ba 2a bc
       0.0136384955 0.013271605 -0.0051759663 -0.010420334

action_model._discrete_distribution.branches.1.bias f4 [16]
000000 00 00 00 00 00 00 00 00 00 00 00 00 00 00 00 00
       0.0 0.0 0.0 0.0
000010 00 00 00 00 00 00 00 00 00 00 00 00 00 00 00 00
       0.0 0.0 0.0 0.0
000020 00 00 00 00 00 00 00 00 00 00 00 00 00 00 00 00
       0.0 0.0 0.0 0.0
000030 00 00 00 00 00 00 00 00 00 00 00 00 00 00 00 00
       0.0 0.0 0.0 0.0

action_model._discrete_distribution.branches.1.weight f4 [16, 128]
000000 88 32 ba 3c a8 71 d6 bb 6f 2d d6 3b 22 7b 74 bc
       0.022729173 -0.0065443106 0.006536178 -0.014921935
000010 6b dd c6 bb 1b 78 be 3b 5d bf 37 b8 6c 1d a6 3b
       -0.0060688755 0.0058126575 -4.380882e-05 0.0050694253
000020 cb c9 16 bb f5 21 5a 3a 5d fe fa bb 48 e2 47 3c
       -0.0023008462 0.00083211 -0.007659717 0.012199946
000030 50 d9 bf 3b e3 c0 a2 3b 29 ce 11 3c 15 db a8 3c
       0.005854763 0.0049668415 0.00889925 0.020612279
000040 ac 56 1b bc d4 f9 82 3a 92 e7 51 3c f2 87 75 bc
       -0.009481113 0.0009992667 0.012811558 -0.014986025
000050 0f 78 12 3c a5 af 71 3b 78 60 7a bb 3f db 18 bc
       0.008939757 0.0036878374 -0.0038204473 -0.009329616
000060 d1 72 19 bc a4 18 86 3c ca 26 cb bb 5d 9c 57 bc
       -0.009365753 0.016369171 -0.0061996924 -0.0131598385
000070 13 ac a2 ba 36 db 8f 3c f7 d7 d6 3b f4 ac 17 3c
       -0.0012410901 0.017560583 0.0065565067 0.009257544
000080 df 8a 25 bc 37 36 83 39 37 1e cf 3b bb c3 d5 3b
       -0.01010391 0.0002502666 0.0063207406 0.006523577
000090 37 99 25 3c 39 7a 90 ba 58 3a e2 bb 2f 9c 38 bb
       0.01010733 -0.0011022753 -0.006903928 -0.0028169265
0000a0 72 1b 0c b9 c2 0b 82 3c 93 b3 88 3c ff 87 44 bb
       -0.00013361665 0.015874747 0.01668719 -0.0029988287
0000b0 af 7d 54 3a e7 bf b9 bb e3 d7 c4 ba 5a 4a 92 bb
       0.00081058865 -0.0056686285 -0.0015017953 -0.00446443
0000c0 75 97 4d bc 58 27 b7 bb 73 35 5e 3c ed 07 68 bb
       -0.012548317 -0.005589407 0.013562548 -0.0035405115
0000d0 00 a1 e8 ba d1 18 c3 bb f3 25 98 bb 58 64 6a 3c
       -0.0017748177 -0.005953886 -0.004643196 0.01430615
0000e0 1c 8f 03 3c 12 9c b8 bc db d3 06 ba 33 a5 ae 3a
       0.008029725 -0.022535358 -0.0005143263 0.001332438
0000f0 93 b5 80 bb 77 23 39 bc 09 43 ae bb 97 e3 f2 3a
       -0.0039278953 -0.011299959 -0.00531805 0.0018530962
000100 a6 4d 0b 3c 75 b7 77 bc 26 91 06 3c d2 99 8d ba
       0.0085024 -0.015119423 0.008213317 -0.0010803288
000110 6a cd cb bb 2a 78 fc bb ca 56 85 bc 62 66 83 bb
       -0.0062195556 -0.0077047544 -0.016276736 -0.0040100077
000120 a7 ef 91 bb 51 54 26 bb 8b 3e 72 3b 6b 3f 2b 3c
       -0.0044536176 -0.0025379846 0.0036963548 0.010452132
000130 ad 66 85 bc ac 04 88 3b 8d 00 f9 3a 57 2c d4 3b
       -0.016284311 0.0041509476 0.0018997357 0.0064750123
000140 dd 19 99 bb 33 30 a1 3b 8f 4f ae bc 93 cf a4 bc
       -0.0046722726 0.004919076 -0.02127817 -0.02011851
000150 82 46 95 3b 25 55 f6 3b 58 00 9f 3b 71 97 08 3c
       0.0045555243 0.0075174742 0.004852336 0.008336888
000160 8a de 62 bc 61 d1 05 bc 88 3f 0c bc 5f 21 9e 3b
       -0.013847003 -0.008167596 -0.008560069 0.0048257555
000170 72 2d 8e bb ca f9 ff 3b 32 0a b0 3a e0 1d 4d bc
       -0.0043389136 0.0078117596 0.0013430773 -0.01251933
000180 cb 2d 35 bc 97 fe 7f 3b 52 b7 ae bb da 6e 13 bc
       -0.011058281 0.003906166 -0.005331912 -0.008998597
000190 75 a8 4e bb bd 29 4a bc 17 82 9c bb 2b 49 21 bc
       -0.0031533514 -0.012339053 -0.00477625 -0.009844105
0001a0 e6 76 c8 ba c9 c6 84 b7 a0 05 f5 3b 2d 3b fe 3b
       -0.0015294224 -1.5828193e-05 0.007477477 0.007758519
0001b0 c5 2f da bb c2 e8 dd bb d3 51 57 ba 3c 9b 01 bc
       -0.0066585266 -0.0067721317 -0.0008213792 -0.007910546
0001c0 e9 9f 31 bb 23 7a 04 3c 7e 9f 97 3b 5e 38 a4 bb
       -0.002710337 0.00808576 0.0046271672 -0.0050116023
0001d0 92 12 f3 3b 96 dc 03 3c b3 42 70 3c 5c 52 26 3c
       0.0074179852 0.008048197 0.01466434 0.010151472
0001e0 63 92 ad bb b4 27 0f bc 1c d4 bb 3b 3a 2d 8b b8
       -0.0052969917 -0.008737493 0.0057320725 -6.6364606e-05
0001f0 50 be a6 3b 0a 57 d6 bb 4c 84 bd bc dd 45 ad 3b
       0.005088605 -0.0065411376 -0.023134373 0.0052878694
000200 45 08 23 bb 55 82 9b bc 52 f2 d4 3b 3d ce 57 3c
       -0.0024876755 -0.018983046 0.0064986134 0.01317173
000210 0f 54 19 3c fa c6 03 bc 5b 20 da 3b b9 ae 84 3b
       0.00935842 -0.008043045 0.006656689 0.004049149
000220 ed 20 39 3b 6b 20 53 3c f7 f5 dd 3a 09 03 c8 bb
       0.0028248385 0.012886147 0.0016934265 -0.0061038774
000230 8d 37 50 3b ff 09 51 ba 3a 8b 96 3a 38 0c ff ba
       0.0031771392 -0.0007974207 0.0011485585 -0.0019458598
000240 0e b3 4a bb 7f 58 69 3c 2a fe 04 3c f0 28 a9 3b
       -0.0030929479 0.0142422905 0.008117238 0.005162351
000250 19 c4 92 ba 61 af 37 bb c3 8e 07 bc 81 0b 9c 3b
       -0.0011197358 -0.0028028118 -0.008273783 0.0047621136
000260 33 2a 77 bb 17 56 90 bb 0a 05 f6 3b 27 b2 b6 3b
       -0.0037714362 -0.004404794 0.007507925 0.0055754366
000270 3c 59 b8 3b 6a a5 e9 bb 86 f9 a7 bb 69 0f 24 3c
       0.005625872 -0.0071303146 -0.005126181 0.01001344
000280 cd 69 57 3c a8 ac f4 39 08 ef a7 bb 73 7e 2e b9
       0.0131477835 0.00046667946 -0.0051249303 -0.00016641039
000290 3f ca cc bb d4 54 ad ba 73 e4 f6 bc f5 6a 1c 3b
       -0.0062496956 -0.0013224133 -0.03013823 0.0023867462
0002a0 6c 3b 05 bc 7b 40 25 3c 32 fc 61 bc 5f 23 e0 3b
       -0.008131843 0.010086174 -0.013793038 0.006840154
0002b0 91 43 1f bb d8 ae 63 3c 2f 75 24 3c 79 39 34 bb
       -0.0024301747 0.0138966665 0.010037704 -0.0027500077
0002c0 8c 7b 13 3b 87 fc ab 3b 71 9b 85 3a 2a f4 7e 3c
       0.002250406 0.0052486095 0.001019342 0.015561143
0002d0 66 3d 33 3c bf dd 17 3c 97 8e 04 3c 0a 38 24 3c
       0.0109399315 0.009269177 0.008090637 0.010023126
0002e0 24 83 9c 3c 9e 6b b0 bc b6 f0 2e bc 53 63 13 3b
       0.019105501 -0.02153569 -0.010677507 0.0022489622
0002f0 22 66 0e 3c 6a 58 75 bc 6b 4a f3 3b 87 e1 c8 3b
       0.008691343 -0.014974693 0.007424643 0.0061304006
000300 6c 94 a9 3b 22 43 1a 3c 88 78 0d bc ff 25 7a bc
       0.005175164 0.00941542 -0.008634694 -0.015267848
000310 bf ac 9f 3b 67 28 00 bc 4f 9c 8c 3c bc 1a 8c 3c
       0.004872888 -0.007822133 0.017164377 0.017102592
000320 49 7b 2a 3c b7 85 c4 3b 77 77 34 3b 89 40 38 3b
       0.01040537 0.0059973854 0.0027537027 0.0028114638
000330 ca 83 51 3b 6b 2a a1 bb 1b 3d b5 3b 75 6a 76 3b
       0.0031969422 -0.0049183867 0.005530966 0.0037600074
000340 02 5e 75 bc 5f 84 72 b9 59 d2 06 bc fb 47 25 3c
       -0.0149760265 -0.0002312823 -0.008228862 0.010087962
000350 c9 b0 25 bb b4 a1 a8 bc 5f be 5e 3c e3 77 b1 3a
       -0.0025282374 -0.020584919 0.013595193 0.0013539757
000360 1b b9 41 3c 47 73 86 bb bf ed d3 bb 55 d2 6b 3b
       0.011823918 -0.0041030976 -0.0064675505 0.0035983522
000370 15 8e 03 3c fb eb 12 bc 55 94 21 3c 72 9d 81 bb
       0.00802948 -0.008967395 0.009862025 -0.0039555365
000380 a5 2e a3 ba 52 02 67 3b 8f 06 30 bc 00 89 73 3c
       -0.0012449814 0.0035249186 -0.010743751 0.014864206
000390 d3 74 20 3c 47 0d 5b 3a bb ba 43 bc 13 b9 79 3a
       0.009793478 0.00083561655 -0.0119463755 0.00095261744
0003a0 ba 58 48 ba db 3b 43 bc 73 55 fc 3b 34 9f 81 3b
       -0.0007642616 -0.011916126 0.007700616 0.003955746
0003b0 f2 96 df ba 8f 8e 45 3c cf 5f dd bb 38 f1 d1 3b
       -0.0017058535 0.012057914 -0.006755806 0.0064069293
0003c0 ca 01 8d bc 03 8e 4b 3b 37 cf 83 3c ef d1 8d 3a
       -0.017212767 0.0031059987 0.016090019 0.0010820011
0003d0 19 31 af 3c 97 92 1b ba 1f 5e 48 bc e0 ec 02 3c
       0.021385716 -0.00059346244 -0.0122294715 0.007991046
0003e0 8c a5 af bb f1 e4 17 3c 23 49 48 bc 52 6d 67 3a
       -0.005360311 0.0092708925 -0.012224468 0.00088282407
0003f0 61 48 07 bc 7d 5c 69 bb 83 46 4a bc e0 40 17 3b
       -0.008257003 -0.0035608106 -0.012345913 0.002307944

discrete_action_output_shape f4 [1, 2]
000000 00 00 a0 40 00 00 80 41
       5.0 16.0

network_body._body_endoder.seq_layers.0.bias f4 [128]
000000 00 00 00 00 00 00 00 00 00 00 00 00 00 00 00 00
       0.0 0.0 0.0 0.0
000010 00 00 00 00 00 00 00 00 00 00 00 00 00 00 00 00
       0.0 0.0 0.0 0.0
000020 00 00 00 00 00 00 00 00 00 00 00 00 00 00 00 00
       0.0 0.0 0.0 0.0
000030 00 00 00 00 00 00 00 00 00 00 00 00 00 00 00 00
       0.0 0.0 0.0 0.0
000040 00 00 00 00 00 00 00 00 00 00 00 00 00 00 00 00
       0.0 0.0 0.0 0.0
000050 00 00 00 00 00 00 00 00 00 00 00 00 00 00 00 00
       0.0 0.0 0.0 0.0
000060 00 00 00 00 00 00 00 00 00 00 00 00 00 00 00 00
       0.0 0.0 0.0 0.0
000070 00 00 00 00 00 00 00 00 00 00 00 00 00 00 00 00
       0.0 0.0 0.0 0.0
000080 00 00 00 00 00 00 00 00 00 00 00 00 00 00 00 00
       0.0 0.0 0.0 0.0
000090 00 00 00 00 00 00 00 00 00 00 00 00 00 00 00 00
       0.0 0.0 0.0 0.0
0000a0 00 00 00 00 00 00 00 00 00 00 00 00 00 00 00 00
       0.0 0.0 0.0 0.0
0000b0 00 00 00 00 00 00 00 00 00 00 00 00 00 00 00 00
       0.0 0.0 0.0 0.0
0000c0 00 00 00 00 00 00 00 00 00 00 00 00 00 00 00 00
       0.0 0.0 0.0 0.0
0000d0 00 00 00 00 00 00 00 00 00 00 00 00 00 00 00 00
       0.0 0.0 0.0 0.0
0000e0 00 00 00 00 00 00 00 00 00 00 00 00 00 00 00 00
       0.0 0.0 0.0 0.0
0000f0 00 00 00 00 00 00 00 00 00 00 00 00 00 00 00 00
       0.0 0.0 0.0 0.0
000100 00 00 00 00 00 00 00 00 00 00 00 00 00 00 00 00
       0.0 0.0 0.0 0.0
000110 00 00 00 00 00 00 00 00 00 00 00 00 00 00 00 00
       0.0 0.0 0.0 0.0
000120 00 00 00 00 00 00 00 00 00 00 00 00 00 00 00 00
       0.0 0.0 0.0 0.0
000130 00 00 00 00 00 00 00 00 00 00 00 00 00 00 00 00
       0.0 0.0 0.0 0.0
000140 00 00 00 00 00 00 00 00 00 00 00 00 00 00 00 00
       0.0 0.0 0.0 0.0
000150 00 00 00 00 00 00 00 00 00 00 00 00 00 00 00 00
       0.0 0.0 0.0 0.0
000160 00 00 00 00 00 00 00 00 00 00 00 00 00 00 00 00
       0.0 0.0 0.0 0.0
000170 00 00 00 00 00 00 00 00 00 00 00 00 00 00 00 00
       0.0 0.0 0.0 0.0
000180 00 00 00 00 00 00 00 00 00 00 00 00 00 00 00 00
       0.0 0.0 0.0 0.0
000190 00 00 00 00 00 00 00 00 00 00 00 00 00 00 00 00
       0.0 0.0 0.0 0.0
0001a0 00 00 00 00 00 00 00 00 00 00 00 00 00 00 00 00
       0.0 0.0 0.0 0.0
0001b0 00 00 00 00 00 00 00 00 00 00 00 00 00 00 00 00
       0.0 0.0 0.0 0.0
0001c0 00 00 00 00 00 00 00 00 00 00 00 00 00 00 00 00
       0.0 0.0 0.0 0.0
0001d0 00 00 00 00 00 00 00 00 00 00 00 00 00 00 00 00
       0.0 0.0 0.0 0.0
0001e0 00 00 00 00 00 00 00 00 00 00 00 00 00 00 00 00
       0.0 0.0 0.0 0.0
0001f0 00 00 00 00 00 00 00 00 00 00 00 00 00 00 00 00
       0.0 0.0 0.0 0.0

network_body._body_endoder.seq_layers.0.weight f4 [128, 1100]
000000 c4 68 ac 3c 59 fe 51 3d c8 00 7d bd 01 dd 32 3b
       0.02104605 0.051267955 -0.061768323 0.0027292373
000010 f7 c7 07 3d 9e 79 1a bd 2f fb 3b bc 99 69 0c 3d
       0.033149686 -0.03771364 -0.011473461 0.034280393
000020 88 b0 2c 3b 84 85 29 bd d8 9a 05 bc ef f4 eb 3b
       0.0026350338 -0.041387096 -0.008154593 0.007200829
000030 a0 0f 44 bd 1e 0b 27 3c 4c f7 ea 3c 8e 4e 4e 3c
       -0.047866464 0.010195522 0.028682373 0.012591971
000040 06 31 a7 3c 99 ba c9 bb 68 ed 57 bc 50 e0 2c b9
       0.020409118 -0.0061562774 -0.013179161 -0.00016486761
000050 11 28 f5 bb 1e c7 50 bc 08 5d c3 3b fa 45 f0 3c
       -0.007481583 -0.012742786 0.005962018 0.029330242
000060 3f 7f 0b bd f1 9a a7 3c 4b c0 a6 bc 32 a8 aa 3b
       -0.0340569 0.020459624 -0.020355364 0.0052080387
000070 22 82 bd 3b 91 3e a9 3b 03 dd 6f bd d4 ee ff bc
       0.0057833353 0.005164929 -0.058560383 -0.031241812
000080 80 33 12 3c d8 0a 13 bc 2c f8 48 3d af 43 d0 3c
       0.008923411 -0.008974753 0.0490648 0.025422899
000090 c8 24 23 3c ed 0d 2f 3c ba 27 91 3c c6 68 b3 3b
       0.0099575 0.0106844725 0.017719138 0.0054751365
0000a0 2c 3d 8b ba 81 62 a6 3c 70 fc 48 3c e9 9e 6b bc
       -0.0010623089 0.020310642 0.012267217 -0.014381149
0000b0 3c aa a1 3c 6c 6e 18 bd 8b f1 37 3c e5 dc 2b 3d
       0.019734494 -0.03721468 0.011227022 0.04195871
0000c0 bf 12 c1 3c e9 56 66 bc 5c 43 f3 bb 64 90 03 3d
       0.02356851 -0.014058807 -0.0074238013 0.032120124
0000d0 d3 98 a5 3b 95 f3 a9 3b a4 6f 1a bd 77 8e e7 bc
       0.0050536185 0.005186508 -0.037704125 -0.028266175
0000e0 7f 70 25 bd 46 89 42 bc 8f 84 37 bc 29 01 2f 3d
       -0.040390488 -0.011873549 -0.011201038 0.042725716
0000f0 f1 9a 86 3d 15 d5 8f 3a 97 bb ba bc 6d 9b 9e bc
       0.065725215 0.0010973538 -0.022794528 -0.019361222
000100 0f 1f 1d 3d 31 b5 e7 3b 26 8b 2b 3d 1b 33 0c 3d
       0.038359698 0.0070711602 0.04188075 0.034228425
000110 f2 87 26 bc 4d b3 cb bc a3 31 fb 3c 8a 9c 54 3b
       -0.010164248 -0.02486577 0.030663317 0.0032441937
000120 c5 b9 3a 3d 2f 34 fd 3c 94 be 3e bb 20 03 69 bd
       0.04558732 0.030908672 -0.0029105293 -0.056887746
000130 75 f4 c0 39 ef 12 67 3b 4f 13 2f 3d 4c a0 3f bc
       0.00036803228 0.0035259088 0.042743023 -0.011695933
000140 bf 7a 95 bd bb 72 09 3c 80 63 05 bd b2 9e 23 bd
       -0.072988026 0.00838917 -0.032565594 -0.039946266
000150 80 ba c3 bc 04 22 8b bc f5 4c 15 3d 1f 75 6b 3c
       -0.023892641 -0.016983993 0.036450345 0.014371186
000160 e9 c2 30 3d 49 14 89 ba 72 00 81 3c e5 ae 0d 3d
       0.04315463 -0.0010458316 0.015747283 0.03459062
000170 ae a2 cf 3d 21 1a e6 bc e9 8d cb 3d bf b3 a5 3c
       0.101384506 -0.028088631 0.099391766 0.020227311
000180 36 df bd 3b f0 7e 0b bd 97 fd d6 bc 00 2c a4 bc
       0.005794431 -0.034056604 -0.026243968 -0.020040512
000190 9c c1 59 3d 75 ca 4d 3d 70 de 36 bc 53 7b ec 3b
       0.053163156 0.050241906 -0.011161432 0.00721685
0001a0 91 94 e1 3c 7f 37 bb bc 6f 5b 28 bd 7d 90 a6 bb
       0.027536662 -0.022853611 -0.041102823 -0.0050831423
0001b0 a3 4d cd bb 60 f8 cb 3c c6 39 0d bd 8a f8 10 bd
       -0.0062653585 0.024898708 -0.034478925 -0.035393275
0001c0 8f 42 fd bc a0 77 26 3b 39 eb 1d 3c dd 1f b7 3c
       -0.030915527 0.0025400892 0.009638601 0.02235406
0001d0 a2 b1 e5 3c 74 0f 3f 3d d2 fe 25 bc ef 82 81 3c
       0.028038803 0.046645597 -0.010131555 0.015809504
0001e0 b7 a1 1e bb 06 eb f2 3b 05 52 b9 bc 4e fa 83 3c
       -0.0024205276 0.007413271 -0.022622118 0.016110566
0001f0 1f 8a 73 bc 41 90 21 3c b4 e3 75 3c 20 e0 8c 3c
       -0.014864474 0.009861053 0.015007902 0.017196715
000200 ee 21 01 bd 71 7b ed bc 03 3d ee 3c 38 a0 99 3c
       -0.0315265 -0.028989526 0.029081827 0.018753156
000210 54 d1 82 bd e8 08 ba 3c 6a ec f8 3c 1f 7c d1 ba
       -0.063875824 0.022709325 0.030386169 -0.0015982426
000220 98 7d 7c bd 31 3e 23 3b 18 93 10 3c 56 23 c7 ba
       -0.061643213 0.0024908895 0.008824132 -0.0015193026
000230 f0 17 8b bc fd 2c 30 bd 7e 4e e5 bc 48 b6 43 bd
       -0.016979188 -0.043011654 -0.02799153 -0.04778126
000240 08 42 0c 3c fd 78 0d 3d 12 34 a7 3c 2d 81 c9 bb
       0.008560665 0.03453921 0.020410571 -0.006149432
000250 ba c0 ea bc af 0d e7 bc 5a 2d a7 bc 97 fe e4 bc
       -0.028656352 -0.028204767 -0.020407367 -0.02795343
000260 25 2a 64 bc 27 6e 75 3c cf 34 8c 39 ae 42 29 bd
       -0.013926064 0.014979876 0.00026742226 -0.041323356
000270 ec 5b ac bc f7 77 47 bd 07 dd 04 bc b3 5f c3 bc
       -0.021039926 -0.04869839 -0.008109338 -0.023849344
000280 20 72 9a 3c 28 b3 a5 b9 44 af e4 3b 07 d2 84 3d
       0.018853247 -0.00031604734 0.006978901 0.06485372
000290 af 2b a7 bc 7b 80 a9 bc 65 c2 10 bd a1 2c 73 bc
       -0.020406572 -0.020691147 -0.03534164 -0.014842183
0002a0 1b 7b 29 bc e3 b3 76 bc e3 61 4f bc 4b 4f 6b bc
       -0.010344292 -0.015057537 -0.012657615 -0.014362167
0002b0 ab dc 5b bd 68 a7 18 3d 43 e5 02 3c 9e 55 d5 bb
       -0.053677242 0.037269026 0.007989231 -0.0065104505
0002c0 7a f0 c0 bd c5 21 a7 bc 0e 36 0e 3c 37 08 80 3d
       -0.09420867 -0.020401845 0.00867988 0.06251567
0002d0 38 5c 2e 3c 51 7e 08 3c 12 9a ef 3c 86 5b 03 bd
       0.010642104 0.008330897 0.029248271 -0.032069705
0002e0 59 ff 86 bd c3 58 42 3d d2 40 11 bd 69 4e 8a 3c
       -0.065916725 0.04744793 -0.035462208 0.016883092
0002f0 13 3f d8 bb eb 47 68 bc cf 3f 04 bb 98 73 5f 3c
       -0.006599316 -0.014177303 -0.0020179634 0.0136384
000300 c6 ff 63 3b 50 92 91 bc 80 15 9a 3b 2f 1d 9d 3d
       0.0034789904 -0.017769963 0.00470227 0.07671582
000310 c1 3d cd 3c 51 89 e0 bc be de 51 3d 58 ee 0a 3c
       0.02505386 -0.027409228 0.051237814 0.008479677
000320 30 2d d7 bb c5 88 af bc d3 82 fc bc ff 97 11 3c
       -0.006566666 -0.021427521 -0.0308241 0.008886336
000330 64 f8 eb bc b4 d1 06 3d cd c0 65 bd 98 65 df 3c
       -0.028804965 0.032914832 -0.056092072 0.027270123
000340 44 d5 3d bc f6 60 16 3d 06 54 46 bd 1e ae 2f bc
       -0.011586491 0.036713563 -0.048419975 -0.010722665
000350 c5 6f a0 3b 7a 1c 00 3c a6 24 56 bd ea 64 c8 ba
       0.0048961365 0.007819289 -0.052281044 -0.0015288864
000360 ff 91 2d 3d 49 73 9f bd 95 59 83 bc 1d f8 8a 3c
       0.04237556 -0.07785661 -0.016033927 0.016964013
000370 0b f3 bb 3c 43 1a c2 3c 71 20 c3 3d 4c ca ba bb
       0.02294304 0.023694163 0.09527672 -0.005700385
000380 80 47 91 3c 1e c5 87 3d 47 97 1a 3d 2c 8a b1 3b
       0.01773429 0.06629394 0.037741926 0.0054180827
000390 af fa 17 3d b0 da 2b 3c 04 12 5a bc bd db 04 bc
       0.037104305 0.010489151 -0.013309959 -0.00810903
0003a0 2f eb b4 3c 19 94 b6 3a a1 15 81 3c 22 c4 0d 3c
       0.0220848 0.0013929635 0.015757384 0.008652719
0003b0 92 00 b0 bc 85 33 76 3d 4c df 90 bc 2d c9 fc 3c
       -0.021484647 0.060107727 -0.017684601 0.030857647
0003c0 92 b6 f4 3c e5 a7 9d bc 20 a5 15 bd e4 72 e8 3c
       0.029872213 -0.019245097 -0.03653443 0.028375097
0003d0 d5 87 3a bd 63 50 c7 3b 29 d7 bd bc 93 ef 19 3c
       -0.045539696 0.006082581 -0.023173885 0.009395498
0003e0 75 02 aa bb f0 a0 c4 b9 49 0c 73 3c 3d ae 50 bc
       -0.005188281 -0.0003750394 0.014834472 -0.012736854
0003f0 05 33 0c bd 13 3b 19 3a 91 1a 0a ba 1a 64 c8 3c
       -0.034228344 0.00058452896 -0.0005268241 0.024461795

network_body._body_endoder.seq_layers.2.bias f4 [128]
000000 00 00 00 00 00 00 00 00 00 00 00 00 00 00 00 00
       0.0 0.0 0.0 0.0
000010 00 00 00 00 00 00 00 00 00 00 00 00 00 00 00 00
       0.0 0.0 0.0 0.0
000020 00 00 00 00 00 00 00 00 00 00 00 00 00 00 00 00
       0.0 0.0 0.0 0.0
000030 00 00 00 00 00 00 00 00 00 00 00 00 00 00 00 00
       0.0 0.0 0.0 0.0
000040 00 00 00 00 00 00 00 00 00 00 00 00 00 00 00 00
       0.0 0.0 0.0 0.0
000050 00 00 00 00 00 00 00 00 00 00 00 00 00 00 00 00
       0.0 0.0 0.0 0.0
000060 00 00 00 00 00 00 00 00 00 00 00 00 00 00 00 00
       0.0 0.0 0.0 0.0
000070 00 00 00 00 00 00 00 00 00 00 00 00 00 00 00 00
       0.0 0.0 0.0 0.0
000080 00 00 00 00 00 00 00 00 00 00 00 00 00 00 00 00
       0.0 0.0 0.0 0.0
000090 00 00 00 00 00 00 00 00 00 00 00 00 00 00 00 00
       0.0 0.0 0.0 0.0
0000a0 00 00 00 00 00 00 00 00 00 00 00 00 00 00 00 00
       0.0 0.0 0.0 0.0
0000b0 00 00 00 00 00 00 00 00 00 00 00 00 00 00 00 00
       0.0 0.0 0.0 0.0
0000c0 00 00 00 00 00 00 00 00 00 00 00 00 00 00 00 00
       0.0 0.0 0.0 0.0
0000d0 00 00 00 00 00 00 00 00 00 00 00 00 00 00 00 00
       0.0 0.0 0.0 0.0
0000e0 00 00 00 00 00 00 00 00 00 00 00 00 00 00 00 00
       0.0 0.0 0.0 0.0
0000f0 00 00 00 00 00 00 00 00 00 00 00 00 00 00 00 00
       0.0 0.0 0.0 0.0
000100 00 00 00 00 00 00 00 00 00 00 00 00 00 00 00 00
       0.0 0.0 0.0 0.0
000110 00 00 00 00 00 00 00 00 00 00 00 00 00 00 00 00
       0.0 0.0 0.0 0.0
000120 00 00 00 00 00 00 00 00 00 00 00 00 00 00 00 00
       0.0 0.0 0.0 0.0
000130 00 00 00 00 00 00 00 00 00 00 00 00 00 00 00 00
       0.0 0.0 0.0 0.0
000140 00 00 00 00 00 00 00 00 00 00 00 00 00 00 00 00
       0.0 0.0 0.0 0.0
000150 00 00 00 00 00 00 00 00 00 00 00 00 00 00 00 00
       0.0 0.0 0.0 0.0
000160 00 00 00 00 00 00 00 00 00 00 00 00 00 00 00 00
       0.0 0.0 0.0 0.0
000170 00 00 00 00 00 00 00 00 00 00 00 00 00 00 00 00
       0.0 0.0 0.0 0.0
000180 00 00 00 00 00 00 00 00 00 00 00 00 00 00 00 00
       0.0 0.0 0.0 0.0
000190 00 00 00 00 00 00 00 00 00 00 00 00 00 00 00 00
       0.0 0.0 0.0 0.0
0001a0 00 00 00 00 00 00 00 00 00 00 00 00 00 00 00 00
       0.0 0.0 0.0 0.0
0001b0 00 00 00 00 00 00 00 00 00 00 00 00 00 00 00 00
       0.0 0.0 0.0 0.0
0001c0 00 00 00 00 00 00 00 00 00 00 00 00 00 00 00 00
       0.0 0.0 0.0 0.0
0001d0 00 00 00 00 00 00 00 00 00 00 00 00 00 00 00 00
       0.0 0.0 0.0 0.0
0001e0 00 00 00 00 00 00 00 00 00 00 00 00 00 00 00 00
       0.0 0.0 0.0 0.0
0001f0 00 00 00 00 00 00 00 00 00 00 00 00 00 00 00 00
       0.0 0.0 0.0 0.0

network_body._body_endoder.seq_layers.2.weight f4 [128, 128]
000000 19 fa 95 3d 0a 2e b4 3c 8a 28 bf bd 55 d2 5e ba
       0.07323093 0.02199461 -0.09333904 -0.000849997
000010 45 f6 81 3b 4b 1c 89 3c cf e8 01 be 91 5b d4 3d
       0.003966125 0.016737124 -0.12686466 0.103690274
000020 32 1b 8e 3c 13 10 ed 3c 1f 2c 95 bd 34 76 9c bd
       0.017346952 0.028938329 -0.07283806 -0.07639733
000030 28 cd 72 bd fd 90 70 3d d0 b5 58 3d 93 f2 6c bd
       -0.059277683 0.05873202 0.052907765 -0.057848524
000040 4d 70 3e 3a f9 5d 07 3e b5 06 b4 3d 8d cc d3 bd
       0.0007264659 0.13219441 0.08790342 -0.10341749
000050 78 73 f7 bc cc 90 62 3d 7c 0b 13 3c 8d e2 f0 bc
       -0.030206427 0.05531387 0.008974906 -0.029404903
000060 fe c5 ee bd 9c 4a ea bc d4 d3 94 bc f6 cb f3 3c
       -0.11658858 -0.02860003 -0.018167414 0.029760342
000070 ba 49 0c 3e ef 8d 42 3c b7 dd 03 3e 7b e5 94 ba
       0.137 0.01187466 0.12877546 -0.0011359894
000080 c8 a8 a5 3d 6f c0 e2 3d a5 73 9b 3c d0 5b ae bc
       0.08088833 0.1107186 0.018976042 -0.021284014
000090 14 00 51 3d 95 4c c9 bd 8c 3d 88 bd 63 e1 d3 bd
       0.051025465 -0.0982906 -0.06652364 -0.103457235
0000a0 57 6f 96 3d 7b 46 41 3d 88 c6 1e 3d 81 3d 05 bd
       0.07345455 0.047186356 0.038763553 -0.032529358
0000b0 e3 77 37 3d c5 8d a8 3c b7 47 90 3d bd 0f 87 bd
       0.044792067 0.020575413 0.070449285 -0.06594799
0000c0 98 16 5f bc 02 cb 08 3e 64 6d 1c 3d af 89 b3 3d
       -0.013616227 0.13358691 0.03819026 0.087664954
0000d0 87 c3 ea 3d b2 36 a3 bd e5 58 8a 3c bd bb c3 3d
       0.11463075 -0.07969417 0.016888091 0.095572926
0000e0 9f 7e 0c be e8 9e e4 bd a5 8e d0 bb bf f3 e1 3d
       -0.13720177 -0.111631215 -0.006364661 0.11032819
0000f0 5d a6 e4 bd e0 87 a5 3d 7e bb fe 3c 36 20 9d 3d
       -0.11164544 0.08082557 0.031095263 0.076721594
000100 7b 4f 95 bd 70 ac 8d bd f2 5f 88 3d d0 40 fc ba
       -0.0729055 -0.069176555 0.06658925 -0.001924539
000110 6e 11 26 be 0d b0 b1 bd ad 58 a5 3d fb 6d 72 3a
       -0.16217586 -0.08676157 0.08073554 0.0009247956
000120 2d 6f f0 3c 51 98 3c 3e 84 e4 57 3d 57 e2 16 bd
       0.029349888 0.18417479 0.052708164 -0.03683695
000130 86 b0 1d bc 36 50 a3 3d 82 80 1f 3e 5f 0a cc 3b
       -0.009624606 0.079742834 0.15576366 0.0062268223
000140 c3 f3 eb bd 50 8f 29 be 61 84 8c 3b a4 0a 37 3c
       -0.11521103 -0.16558576 0.0042882417 0.0111719705
000150 7c 6f 3a 3d 15 f6 9f bd 55 0c 4c 3c 19 f0 7e 3b
       0.045516476 -0.07810608 0.012454112 0.0038900434
000160 95 69 67 bd 05 4d 2b 3d cd cc 44 bd a9 0d c2 bd
       -0.056497175 0.0418215 -0.048046876 -0.09475262
000170 43 b9 78 bd 2f e3 af 3d a7 e8 fc 3c b7 34 6c 3d
       -0.060723554 0.08588254 0.030872656 0.05766746
000180 e5 3c 71 3e 50 e3 70 3d 46 da 18 bc 52 cb 5f bb
       0.23558386 0.058810532 -0.009329384 -0.0034148288
000190 86 42 f0 3d fd 1b e9 3d 27 59 ad b9 89 e9 ac bd
       0.11731438 0.113822915 -0.00033063555 -0.08442981
0001a0 17 05 00 bd 8e ce 30 be 62 72 7d 3d 43 c9 16 3d
       -0.031254854 -0.17266294 0.061876662 0.036813032
0001b0 61 64 91 3d b2 92 e9 bd 18 d2 13 3e 40 83 44 3c
       0.07099224 -0.11404933 0.14435613 0.011994183
0001c0 c9 a5 39 3d 6f 69 48 3c 88 1a 73 3c 01 46 36 bd
       0.04532412 0.012232169 0.0148378685 -0.044500355
0001d0 2d 0e 0d be 6c 15 b0 bc 92 26 bc 3d 43 b9 f6 3d
       -0.13774939 -0.02149459 0.09187044 0.120470546
0001e0 4e 67 94 bd aa 3a 19 bd b3 d5 a0 bc 6f 6d 18 be
       -0.07246266 -0.037409462 -0.01963315 -0.14885496
0001f0 d9 a9 93 bc 91 c4 3a 3e 75 b0 17 3c 20 0a f5 3c
       -0.018025326 0.18239047 0.009258379 0.029912055
000200 60 3c ba bd f5 06 a3 bd 52 27 aa 3d 0f d0 e8 3c
       -0.09093547 -0.07960311 0.08308281 0.028419523
000210 76 78 12 3d d7 7c 9c bd d3 e8 72 3d 38 bc 10 3e
       0.03575941 -0.07640999 0.05930407 0.141343
000220 97 52 19 3e 88 53 9d bd 10 17 a1 bd fa 99 69 bd
       0.14972912 -0.07681948 -0.07865727 -0.05703161
000230 65 96 19 be 52 fe a4 bc 78 5a 43 bc 80 43 ab 3d
       -0.14998777 -0.0201408 -0.011923425 0.08362484
000240 3d ad 47 3d 57 ff 25 be 13 07 1f bd 38 c0 63 bd
       0.048749197 -0.16210686 -0.038825106 -0.055603236
000250 43 c1 65 bc 6a 3c 2a bd 40 e5 00 3e 31 56 90 3d
       -0.014023128 -0.04156152 0.12587452 0.0704769
000260 76 aa a9 3d 0a dd be 3d d6 28 72 3d 87 ba b3 3d
       0.08284466 0.093195036 0.059120975 0.08775812
000270 d8 15 4a 3d ed 87 25 be ee 62 fd 3d ce 14 3e be
       0.049337238 -0.16165133 0.12372385 -0.18562624
000280 fd 97 ff bb 10 1f 71 bd 2c fa 20 be 79 6a e7 3c
       -0.007800101 -0.058867514 -0.15720433 0.028249012
000290 1f 5d 01 3e 65 87 ee bd 14 db 41 3b 56 ae 02 be
       0.12633179 -0.11646918 0.0029580044 -0.12761816
0002a0 eb 87 13 be ca 29 be 3d 1d cf 88 bd 55 54 2f 3c
       -0.14407317 0.092853144 -0.06680129 0.010701259
0002b0 6b 7d 8c 3d 80 27 a0 3d 18 ac 19 be ef 88 04 3e
       0.06859859 0.07820034 -0.15007055 0.12942861
0002c0 b8 19 de bd d8 5b 09 3e 9e b1 5c bd d5 cd fa 3d
       -0.10844749 0.13413942 -0.053880326 0.122462906
0002d0 5a d7 91 3e f4 37 bf 3d 26 97 a0 3d a3 e5 6b 3d
       0.28484613 0.09336844 0.07841329 0.057592046
0002e0 c2 cd 65 3d 85 e1 ec 3d ee 24 bb bc e1 d7 4b 3d
       0.05610443 0.11566452 -0.022844758 0.049766425
0002f0 c3 be d2 bc cb 5b ec 3c 93 d5 89 bd e9 ec 39 bd
       -0.025725728 0.028852364 -0.06730189 -0.04539195
000300 aa 71 e5 bd aa 36 a6 bd eb 84 33 bd 28 16 d4 3c
       -0.1120332 -0.08115895 -0.043827932 0.025889471
000310 02 61 85 bd c2 9a 35 3c 37 0b 01 bc a4 78 10 3d
       -0.065126434 0.01108426 -0.007876209 0.035271302
000320 d4 15 84 bd e6 70 a1 bc b9 4c 03 3e 01 ed 15 be
       -0.06449476 -0.019707154 0.12822236 -0.14641191
000330 90 87 08 3e e1 dc 6a 3d 83 ea e2 3d ef ba 49 bc
       0.13332963 0.057339553 0.11079886 -0.012312635
000340 36 36 7d bd aa 8e 36 bd b4 95 fe ba b6 0d 88 3b
       -0.061819278 -0.04456965 -0.0019423277 0.004152025
000350 67 94 97 bb 98 d5 81 bc f4 c2 41 3d c6 cc 45 bd
       -0.0046258452 -0.01584892 0.047305062 -0.04829099
000360 5c 06 b1 3c cd df bf bc a3 7f 88 bc c4 0b 09 3e
       0.021609478 -0.023422146 -0.016662424 0.13383394
000370 b8 9a b9 3c cf c6 21 3e 49 33 25 bd ee a2 19 3e
       0.022656783 0.15798496 -0.040332112 0.15003559
000380 39 0d f2 bd 08 0b 37 3e a2 15 4b 3b cb f6 01 3d
       -0.11818928 0.17875302 0.0030988236 0.0317295
000390 18 e3 11 bd 46 11 35 3e b4 59 6e bc ed ef 05 bd
       -0.035616964 0.1768237 -0.014547754 -0.032699514
0003a0 4d 8b f7 bd 60 24 20 bc 1c 65 9c bc ba 18 fa 3c
       -0.120871164 -0.0097742975 -0.019091181 0.030529369
0003b0 c1 23 74 3e 17 0b 43 bb a9 20 b2 3c 76 c8 a8 bd
       0.23841764 -0.0029761249 0.02174409 -0.0824136
0003c0 dd e0 57 3d 6c 40 91 3d 05 52 65 3d 75 7b ca bd
       0.05270468 0.070923656 0.055986423 -0.09886829
0003d0 07 76 02 be d4 a1 f6 bd f0 9d 85 3d 16 e0 a4 bd
       -0.12740336 -0.12042585 0.06524265 -0.080505535
0003e0 f6 7d 32 bc a1 02 96 bd 56 e8 1c bd 5f 82 29 3e
       -0.010894289 -0.0732472 -0.03830751 0.16553639
0003f0 fe 49 ac bd 3c 7a 2c bd 78 2e 82 bd c4 08 c4 3d
       -0.084125504 -0.04210876 -0.063565195 0.095719844
