results/MoveToBet2/MoveToBet/MoveToBet-16272.onnx (onnx, 636216 bytes, 9 tensors)

action_model._continuous_distribution.log_sigma f4 [1, 2]
000000 76 7b be 3a b4 1e 3e 3b
       0.0014532644 0.002901

action_model._continuous_distribution.mu.bias f4 [2]
000000 eb dc c1 b9 bd af 27 ba
       -0.00036976425 -0.00063967315

action_model._continuous_distribution.mu.weight f4 [2, 128]
000000 5d 89 25 3b 20 b1 91 bb 22 64 81 3c 05 a9 8c 3c
       0.0025258877 -0.004446164 0.015794817 0.017170439
000010 5f 0a ed 3b 20 7c 97 3a ef 1a a5 bc 69 be 3d 3c
       0.0072339023 0.0011557378 -0.020154445 0.011581042
000020 3f 37 f9 3b 31 46 f4 bc cf 91 8e 3c 88 b4 86 ba
       0.007605463 -0.029818626 0.017403511 -0.0010277191
000030 90 e9 84 3c ef e2 89 3c 71 88 c3 bc 89 90 8d 3b
       0.016224653 0.016831843 -0.023868771 0.0043202084
000040 87 e9 e4 3b b7 5e 65 3c 7a 48 b3 bb ef da 3b 3c
       0.0069858464 0.013999633 -0.0054712864 0.011465772
000050 b5 25 06 bd 64 c1 9b 3c 1f 08 17 bd 07 69 fe 3b
       -0.032750804 0.019013114 -0.03687298 0.007763985
000060 f3 e3 ad 3c 0a 6f 86 3c b9 74 58 3c 4d 0c 53 3c
       0.021226859 0.01641037 0.013211423 0.012881351
000070 91 85 4b 3c bb d6 b7 bb db 61 f5 bb dc 54 84 3c
       0.012421981 -0.0056103147 -0.007488472 0.016153745
000080 b2 8c b6 bc 29 49 59 bc b8 ca 3f bc 07 f0 98 3c
       -0.022283886 -0.013262072 -0.011706047 0.018669141
000090 88 c6 fb 3c fd aa 46 3c b1 b8 0c 3c d7 f8 c0 3c
       0.030734316 0.012125728 0.008588956 0.023556156
0000a0 63 20 cc 3c ac 5d cb 3c 1e 45 06 3c 0d 01 cd 3b
       0.024917787 0.02482494 0.00819519 0.006256229
0000b0 6d 6e 05 3a 6e 2a 15 3c 94 e4 02 3c fb a3 5f 3c
       0.0005090002 0.009104354 0.007989068 0.013649936
0000c0 75 c3 97 bb 36 e2 12 3b 1f 2c a9 3c 70 d8 e1 b9
       -0.0046314546 0.0022412664 0.020650921 -0.00043076603
0000d0 ba d6 28 3c 1a 8d a6 bc 15 a3 71 bc 60 a9 b8 3b
       0.010305101 -0.020330954 -0.014748354 0.0056354254
0000e0 a6 70 9c 3b e9 a6 82 bb 03 4e 08 3b 51 94 97 bc
       0.004774171 -0.0039871824 0.0020798452 -0.01850334
0000f0 bb b6 77 bc 0c df 3c 3b 9e 2f 86 bb 66 13 df 3c
       -0.01511925 0.002881947 -0.004095032 0.02723093
000100 7b a4 1c 3c 44 d5 45 3b fa 69 88 bb 54 ba 32 3b
       0.0095607 0.003018693 -0.004163024 0.0027271705
000110 cf 06 67 3b 3f a0 6b 3c 62 92 23 bc 0d ad 9a 3a
       0.003525186 0.014381467 -0.009983631 0.0011800841
000120 51 ca 26 bc 0c 1f 9f 3c 98 a3 8f bc 92 3a b8 bc
       -0.010180072 0.019423984 -0.017534062 -0.022488866
000130 4e 8e 1b bc b2 1a 81 bc 3a 7c 6d bc 16 03 63 3c
       -0.009494377 -0.0157598 -0.01449495 0.013855716
000140 48 b9 9a bc f6 fc b7 bc 2f 85 ec b9 50 50 e1 3b
       -0.018887177 -0.022459488 -0.00045112657 0.006876029
000150 18 50 97 3c 6f 38 60 bc 44 04 18 bc b0 b3 b5 bb
       0.018470809 -0.01368533 -0.009278361 -0.005545102
000160 44 5f f7 bc cc 06 c4 bc 9e 76 64 bc cf 4d 02 3c
       -0.030196793 -0.023929022 -0.013944296 0.007953121
000170 53 40 5f 3c 1e b9 ad 3c 37 88 eb bc 24 c1 83 3c
       0.013626176 0.021206435 -0.028751476 0.016083308
000180 39 0b 4d 3c 50 91 9d bb 36 cc ad bb 12 99 b5 3a
       0.012514883 -0.0048085824 -0.005303885 0.0013854823
000190 0e f7 bd 3c 8c b3 f3 3c 19 d9 7e 3c 21 bc 4c 3c
       0.023189094 0.0297487 0.01555469 0.012496025
0001a0 3a d7 98 bc 39 cd 8d 3b ac a2 e0 3c 0f e0 2b bb
       -0.018657316 0.004327443 0.027421318 -0.0026226079
0001b0 d5 a1 da 3a 47 1f 4b b9 11 50 87 3b 21 b9 ab 3c
       0.001668031 -0.0001937124 0.0041294177 0.0209623
0001c0 a0 3b 95 bb 52 0a 67 bb f7 5a 59 bc 49 2b 9a 3c
       -0.004554227 -0.0035253954 -0.013266317 0.018819468
0001d0 16 d8 f0 3c c2 2a 3a 3d d9 f9 3a bc 7a dc 91 bb
       0.029399913 0.045450933 -0.011412107 -0.0044513317
0001e0 e6 6e 04 3c 5e dd f1 bb 2e be bf bc 5e 77 3b 3c
       0.008083081 -0.0073811254 -0.023406114 0.011442034
0001f0 7b b7 36 3d e3 8c 77 bc b7 6b 37 3d e5 c5 a2 3c
       0.044608574 -0.015109274 0.04478046 0.019869754
000200 ce 53 b0 3b 81 be 7e 3c 1e 5e fe bb e6 c2 8c 3c
       0.005381084 0.015548349 -0.0077626845 0.017182779
000210 87 92 65 bc 35 d5 08 3c c3 2d 94 3c 66 51 00 bc
       -0.014011986 0.008351614 0.018088227 -0.007831907
000220 02 77 42 bb 65 76 fd bc 85 45 95 3c 50 46 30 bc
       -0.0029672985 -0.030940244 0.018221626 -0.010758951
000230 0b 19 29 ba eb 1e 27 bc ab df b9 3c e4 9d c0 3c
       -0.000645057 -0.0102002425 0.022689661 0.023512788
000240 7b 12 95 bc 8f c3 42 3c 16 a9 71 3c 8c 91 20 bc
       -0.018197289 0.011887445 0.014749786 -0.009800326
000250 55 ce 20 3d ec 82 78 bb 77 d0 9b bc 93 47 cb ba
       0.039259274 -0.0037919832 -0.019020302 -0.0015509002
000260 1e 12 94 bc 94 71 d2 bc 4d fa 49 bc a1 b4 45 bb
       -0.018075045 -0.025688924 -0.012327743 -0.0030167478
000270 0d 61 9a 3b a9 b5 fd ba 9a a6 da 3c 13 52 11 3d
       0.0047112764 -0.0019356507 0.02669077 0.035478663
000280 83 93 d9 3c 5e b0 d4 3c 9e 59 03 bd 90 c6 0a 3d
       0.026559597 0.025963005 -0.032067887 0.03388077
000290 d0 da 4b 3c 2f 78 9d 3c 86 4c 6a bc ba c3 90 bb
       0.012442306 0.019222347 -0.014300471 -0.0044178637
0002a0 95 8c cd bb 06 d3 fe bc 2b 74 7a 3c ff 2a 36 3c
       -0.006272862 -0.031106483 0.015286486 0.0111186495
0002b0 7a e4 bd bc cd 18 a0 3c 6a eb b0 3c f5 74 95 3c
       -0.023180235 0.019543076 0.02159663 0.018244246
0002c0 0a 11 c5 3c a2 e6 9c bb 38 33 97 3c 09 f0 97 3c
       0.024055976 -0.0047882358 0.01845704 0.018547075
0002d0 e1 44 aa 3c 28 6c 03 bc f2 9e c1 bc 7f 64 c7 bb
       0.020784797 -0.008021392 -0.023635361 -0.006084978
0002e0 15 a5 5d bc a7 0b bc bb be ed 0e bc aa 82 b3 bc
       -0.013528128 -0.0057386938 -0.008723674 -0.021912891
0002f0 bf 82 14 bc 6e ca 7a bc 7d dc cf bb 78 52 37 bb
       -0.009064375 -0.015307052 -0.006343423 -0.002797274
000300 43 fc 4f bc df a2 ab 3c b2 82 10 3c 5b e2 69 bc
       -0.012694421 0.020951686 0.008820223 -0.014275159
000310 90 c2 d6 bc f0 8d 4b bc 63 80 d6 3c 37 f7 a5 bb
       -0.026215822 -0.012423977 0.026184266 -0.0050648707
000320 b4 a7 6f 3c 8e aa 49 bc b7 00 20 bc 29 78 23 3c
       0.014627386 -0.01230873 -0.009765795 0.009977379
000330 24 58 e9 bb 69 3b e5 3b 01 94 d6 3c 83 b3 98 bc
       -0.007121103 0.0069956076 0.02619362 -0.018640285
000340 dd 88 a6 3c 9b 35 04 bb 2f 20 6d bc 71 b5 91 3c
       0.020328933 -0.0020173553 -0.014473005 0.017786713
000350 8a a6 60 bb 45 88 80 ba 54 62 9a bc 6e 26 90 3c
       -0.0034278953 -0.0009806236 -0.018845715 0.01759645
000360 10 49 ea 3c 9c 32 c7 39 5e 3b d8 bc aa bb 7d bd
       0.028599292 0.00037993945 -0.026395496 -0.06194655
000370 fc fd 3c 3c df cf 01 bd 8c 21 86 bb e8 57 3d bc
       0.011535164 -0.031692382 -0.0040933546 -0.011556603
000380 48 b3 74 3c e6 68 ca 3a 5e 0f 86 3c 18 dc a9 3b
       0.014935322 0.0015442639 0.01636475 0.005183708
000390 ef 10 c6 bc be b3 a2 ba e8 dd 99 bc d5 77 ce ba
       -0.024177996 -0.0012413186 -0.018782571 -0.0015752265
0003a0 a1 0d f0 ba 9a 69 84 3c 57 a2 47 3b bb 60 7b 3b
       -0.0018314609 0.016163636 0.0030461752 0.0038357216
0003b0 25 65 c7 bb c2 7a 6b bb 99 2f f4 3c 83 28 84 3c
       -0.0060850554 -0.0035931324 0.029807853 0.016132599
0003c0 49 9e 19 3b bf 82 97 bc a2 c8 9c 3c 34 50 e5 3b
       0.0023440293 -0.018494962 0.019138638 0.0069980863
0003d0 5c 34 f9 3b af 63 99 3c ff 43 f6 bc 9e dc 25 bc
       0.0076051187 0.01872429 -0.03006172 -0.0101234
0003e0 6d 4a a9 3b 13 0e d6 bc 97 5c f4 bc 47 af 2d bc
       0.005166343 -0.026129758 -0.029829307 -0.010600871
0003f0 0d 37 d7 3c 48 49 c3 3c 54 62 ae 3c b7 77 25 bc
       0.026271367 0.023838654 0.02128712 -0.010099343

action_model._discrete_distribution.branches.0.bias f4 [5]
000000 5d 89 8e bb 8b 27 12 bb c0 df a2 3a 52 d4 47 3b
       -0.004349871 -0.0022301401 0.0012426302 0.0030491543
000010 49 d9 03 3b
       0.0020118526

action_model._discrete_distribution.branches.0.weight f4 [5, 128]
000000 a9 fa 44 bc 85 f2 da bb 86 ec 88 3b 9a 9d 9d 3c
       -0.012022653 -0.0066817426 0.0041785864 0.01924019
000010 8c ee 89 3b b2 43 9e bc 63 c5 bd bb 38 f4 53 3b
       0.004209345 -0.019319389 -0.0057913526 0.003234161
000020 75 a7 9d bc 8d 31 4b 3b e1 1b 9d 3c 6a cb dd 37
       -0.019244889 0.0031004876 0.019178333 2.6439975e-05
000030 fe 7e d0 3b 1b eb d3 ba d8 1e b7 bc 1c 6b 7d 3b
       0.006362795 -0.0016168089 -0.022353575 0.0038668578
000040 41 e6 82 3c 4a c6 a6 3a d1 90 01 3c 0c 66 ec bb
       0.015978934 0.001272389 0.007908062 -0.0072143134
000050 4a b2 65 3c fd 35 60 3b 19 ef f4 bb 21 47 95 bb
       0.014019558 0.0034211867 -0.0074747917 -0.0045555984
000060 f3 e3 31 bc 4f ea 24 bc 20 00 3d ba cd 7f 4e ba
       -0.01085757 -0.010065629 -0.00072097965 -0.000787732
000070 8c 5a cf bb 75 0d ea b9 5f cc 70 ba ee 36 26 3c
       -0.0063279327 -0.00044641984 -0.0009185727 0.010144932
000080 2d 40 f2 bb 85 55 f4 3c ed 09 3d bb 9b 84 9b bc
       -0.0073929043 0.029825935 -0.0028845028 -0.01898413
000090 d2 5e f4 3b 66 47 58 3b 69 0e 34 3b b4 41 ed bb
       0.0074575925 0.003300154 0.002747441 -0.0072404984
0000a0 e3 89 cc 3a 44 6c cc 39 20 d2 5a bc aa ef ba bb
       0.0015605058 0.00038990576 -0.013355762 -0.0057048397
0000b0 aa 37 2f 3b 7b 3a c2 39 ef 6e 6f 3c bc b8 a6 3c
       0.002673606 0.00037046135 0.014613851 0.02035176
0000c0 36 63 71 39 4c 0c 10 3c 30 e0 87 39 78 32 a8 bb
       0.0002302051 0.008791994 0.0002591624 -0.0051329695
0000d0 bb ba 2b bc ae 51 42 3c ab 43 fb 3a 96 cb f7 ba
       -0.010481532 0.011860294 0.0019169947 -0.0018905278
0000e0 61 f9 ac 3a 93 eb 23 3a 84 44 28 3c ca bb 81 bc
       0.0013196879 0.000625306 0.010270242 -0.015836615
0000f0 2f 2d 75 ba 5a 1b 5b bc 2f 1b 8b bb 82 25 be bb
       -0.0009352741 -0.01337322 -0.004245184 -0.005802811
000100 63 6e 69 3b 8b a2 a6 3c 7e 9a d3 bb 3c d2 da bb
       0.0035618774 0.020341178 -0.006457626 -0.006677894
000110 83 02 48 bc 92 91 a6 bc 85 ab 93 bb 34 e8 21 bc
       -0.01220763 -0.020333085 -0.0045065307 -0.009882022
000120 29 45 2a 3c 8c c0 38 3b c5 47 07 bb dd 57 1f bc
       0.010392466 0.0028190939 -0.0020642143 -0.009725538
000130 16 10 ab 3a 3d 6a a1 bb d1 1a 63 3c 8e aa a3 bb
       0.0013051059 -0.0049259947 0.013861374 -0.004994697
000140 09 4f f9 3b 16 e5 bb bb b6 c5 08 3c 10 25 5b bb
       0.0076082987 -0.0057340963 0.008347919 -0.003343884
000150 e8 fb 3d bc 36 f2 5a 3c 62 5d 63 ba e8 fe 4b b9
       -0.011595704 0.013363412 -0.0008673278 -0.00019454549
000160 56 15 3a 3a 80 fb 9f 3b ef 8c 2a 3b f1 2f 8c 3c
       0.0007098516 0.004882276 0.0026023944 0.017112704
000170 8f 80 d2 bb cb f0 a0 bb 23 26 41 3c e0 ee f2 3b
       -0.006424017 -0.0049115173 0.011788878 0.00741373
000180 7c 8d 87 3c 58 70 89 bc ad fd 05 3b ad e6 61 3c
       0.016546957 -0.016777202 0.0020445392 0.013787908
000190 46 5f 0a bb e3 ca 0a bb b9 1f 95 39 26 4d 32 bb
       -0.0021113916 -0.0021178059 0.0002844313 -0.0027206629
0001a0 53 4c 9b 3c 9c 4f 79 b9 29 e7 9f 3b b1 97 c9 bb
       0.018957293 -0.00023776147 0.0048798514 -0.006152116
0001b0 f9 33 72 bb eb 8a ff bb 46 8b e0 bb 5b f8 f4 3b
       -0.0036957248 -0.0077985427 -0.00685254 0.0074758953
0001c0 20 e2 a9 3a 60 22 8b 3c 39 05 2f 3c b4 42 88 bb
       0.0012961067 0.016984165 0.0106823975 -0.0041583423
0001d0 21 18 d0 3c 18 9a f4 bb ea a0 88 bc 54 d7 a9 3b
       0.02540213 -0.0074646585 -0.016678292 0.00518314
0001e0 13 48 b4 3b 2e 4f 9e bc 43 2a 82 bb b9 1e 4c 3c
       0.005501756 -0.019324865 -0.003972323 0.012458497
0001f0 12 da 9b 3c 70 88 fe ba dc 35 86 bc 52 66 ec 3b
       0.019024882 -0.0019419324 -0.016383104 0.007214346
000200 03 64 3a 3b c8 41 f8 3b 28 bb 46 3c 5a 54 73 3c
       0.002844096 0.007576201 0.012129582 0.014851654
000210 80 7e 54 bb e8 64 0c 3c 26 57 9a bc 6c 85 de 3b
       -0.0032424033 0.00856898 -0.018840384 0.0067908075
000220 6e 29 b5 3a f3 f0 2c 3c 64 d1 2c bc aa 53 8a bc
       0.0013821551 0.010555494 -0.0105479695 -0.016885597
000230 ee bd 87 bb aa 6b 1c 3c 27 1e d1 bb 34 34 8b 3b
       -0.0041425144 0.0095471535 -0.0063817683 0.0042481665
000240 9f e1 64 3c 17 ca db bb 28 e4 1f bc 25 50 5a 3b
       0.013969808 -0.0067074406 -0.0097589865 0.003331193
000250 1a 95 15 3c 16 e0 38 bb 01 c7 d9 bb d7 7c 3c 39
       0.009129787 -0.0028209738 -0.0066460376 0.00017975584
000260 0f 27 ca bb 39 5c 71 bc 45 ed 2e 3b b6 4a 39 3c
       -0.006169207 -0.01473146 0.0026691717 0.011309316
000270 f9 ad 97 bb f1 10 d1 bb ae 5b c7 3b d7 5b 2d bc
       -0.0046288935 -0.0063801934 0.006083927 -0.010580978
000280 f0 3c ed ba d7 b0 81 bc fd 72 c8 3b ff 05 99 bc
       -0.0018099826 -0.015831394 0.0061172233 -0.018679617
000290 e5 82 eb bb 5e df a9 3a 9f 59 4e bb bd 03 8b bb
       -0.0071872347 0.0012960245 -0.0031486524 -0.004242389
0002a0 2f 7e 3b bc b8 6e d5 3b 5c ae 40 ba d7 75 0c bb
       -0.011443659 0.006513443 -0.00073502003 -0.0021432543
0002b0 13 1f b0 3b 68 ff e4 bb df 4a 88 3a d6 af 88 3a
       0.005374798 -0.0069884546 0.001039829 0.001042838
0002c0 6c 85 67 bb e9 5c d4 3b 83 ae d6 3a d8 51 aa bb
       -0.0035327328 0.0064808023 0.0016378913 -0.005197745
0002d0 1f 2a 9a bb 9a 45 6c bb 8a 6b b3 3b 99 47 75 3c
       -0.0047047283 -0.0036052228 0.005475466 0.0149706835
0002e0 57 9a dd 3b 78 60 56 bc 58 c9 02 bb 20 64 2d ba
       0.0067627835 -0.013084523 -0.0019956436 -0.0006614346
0002f0 db fd c3 3b d2 ed 2b bb 09 2a fa 3b 50 40 81 bb
       0.0059811897 -0.0026234281 0.0076344055 -0.003944434
000300 90 65 10 3a ca a1 eb 39 33 dc a7 3a 03 80 1a 3c
       0.0005508298 0.00044943235 0.0012806713 0.009429934
000310 f9 c0 9a bc 19 38 f9 bb 7c 94 8e 3b 6f 90 54 3c
       -0.018890845 -0.0076055643 0.004351197 0.012973889
000320 6b 08 5a 3b e3 98 b7 bb a3 1f 6e 3c 45 91 0b bc
       0.0033269178 -0.0056029423 0.01453391 -0.008518522
000330 a8 d7 1b bc 18 47 5d 3b de 0f 75 3b 58 c3 17 3c
       -0.009511866 0.00337643 0.003739349 0.009262882
000340 22 85 5c 3b c5 98 4d 3c 88 9f e5 bb a6 25 35 bb
       0.003364869 0.01254863 -0.007007543 -0.0027640848
000350 db 85 22 bb 08 26 c6 bb ba ba 19 3c a1 8d b4 bb
       -0.0024799022 -0.006047014 0.009382898 -0.0055100475
000360 10 70 df 3b fc 15 b7 ba df b6 05 bc 63 fb 9c 3c
       0.006818779 -0.0013968344 -0.008161276 0.01916284
000370 c5 96 fe ba ce 91 a0 3c bd 37 21 bc 13 21 57 bc
       -0.0019423595 0.019600775 -0.009839949 -0.013130444
000380 0c 0d 8c 3b 2b 89 b1 bc aa fa 7c 3c ea 52 29 bc
       0.0042740162 -0.021671852 0.015440622 -0.01033471
000390 d2 f5 ce 3b 86 12 07 ba 0a a5 19 3b 7a d6 86 bb
       0.006315925 -0.00051526015 0.0023444318 -0.004114923
0003a0 04 80 82 bb 0a 42 63 bb 3b 5b 54 bc da 58 46 3c
       -0.003982546 -0.0034676814 -0.012961204 0.012106145
0003b0 f0 9b 7f 3c 32 a8 05 b9 4c c7 30 3c 49 60 f9 bc
       0.015601143 -0.00012746526 0.010789704 -0.03044142
0003c0 fa a5 3d b8 38 79 3c 3b 7d 6e cb 3b 07 73 db bb
       -4.521569e-05 0.0028758775 0.0062082396 -0.006697062
0003d0 65 48 d5 3b b7 5c 30 3c 42 59 6f bb bf 6c 45 3b
       0.0065088742 0.010764292 -0.0036521708 0.0030124632
0003e0 7a 08 03 bb 71 87 43 3b 0a 60 86 ba 94 ec 50 bb
       -0.0019994066 0.0029835368 -0.001025201 -0.0031879293
0003f0 0e 72 3c bb a8 bb 8c bc 78 4e 35 bc 64 a3 a1 bb
       -0.0028754505 -0.017179325 -0.011066072 -0.0049328078

network_body._body_endoder.seq_layers.0.bias f4 [128]
000000 e2 76 73 39 70 55 21 bb eb 73 a0 ba 08 ef 87 3a
       0.00023218573 -0.0024617575 -0.0012241577 0.001037092
000010 5f e1 c4 ba 56 c7 8b 3a 69 d7 c2 ba 40 e9 14 ba
       -0.0015020779 0.0010664265 -0.0014865223 -0.0005680509
000020 cb 44 03 bb af 87 43 39 4f ef 25 bb 3c fa 81 3a
       -0.0020030017 0.00018647195 -0.002531964 0.0009916495
000030 e2 d5 c2 b9 07 6c 8d b9 b5 9f a6 ba 76 a4 ae b9
       -0.0003716192 -0.00026974102 -0.0012712391 -0.000333104
000040 d0 f5 5a bb 31 85 36 bb 6f fb 7c b9 fb 1b 0e 39
       -0.0033410676 -0.0027850384 -0.00024126259 0.00013552599
000050 9f 11 82 ba 46 f3 c2 3a 48 bc 8a ba 70 c3 ff b8
       -0.0009923464 0.0014873527 -0.0010584677 -0.000121957506
000060 73 08 af ba 2a 46 bc ba f7 ca c8 3a b0 da 9d ba
       -0.0013353958 -0.0014364172 0.0015319277 -0.0012043323
000070 11 ac 60 bb c1 62 93 b9 9d 35 48 ba 3e 17 9c ba
       -0.0034282247 -0.00028111602 -0.00076373835 -0.0011908782
000080 33 d6 b6 ba 25 70 1c bb 2f bf 2b bb 6c ba 9f ba
       -0.0013949334 -0.0023870554 -0.0026206484 -0.0012186295
000090 23 04 e6 ba 4b 2b 16 ba 01 97 4e 3a 37 a0 fb ba
       -0.001754884 -0.0005728497 0.00078807777 -0.0019197528
0000a0 74 3d 3f bb b5 b7 db 3a 83 ce 30 ba c8 46 03 bb
       -0.0029180916 0.0016763123 -0.000674464 -0.0020031203
0000b0 bf b5 c2 38 4a 16 f0 b9 a5 dd 28 bb 47 d0 2b bb
       9.284494e-05 -0.00045792974 -0.0025766876 -0.0026216672
0000c0 bb 4c 27 ba ca b6 6a 3a 0a 29 ab ba ad 8b 82 3a
       -0.0006381978 0.00089536293 -0.0013058495 0.000995984
0000d0 a3 41 a9 3a 8e 94 19 3b 53 8c 2e b9 a0 6c b1 39
       0.0012913238 0.0023434493 -0.00016646208 0.00033841003
0000e0 b6 62 a2 ba 71 3e 70 bb 96 55 b2 3a 63 9c fd ba
       -0.0012389037 -0.0036658312 0.0013605829 -0.0019348975
0000f0 dd d9 9a 39 ef 08 92 39 1b 99 21 b9 dd 59 0a ba
       0.0002953549 0.00027853946 -0.00015411193 -0.0005277673
000100 5c d0 91 39 4e c5 df 39 75 92 9e 3a b5 7d 42 bb
       0.00027811795 0.00042680878 0.0012098091 -0.0029676978
000110 e5 a5 04 ba a7 35 67 b9 27 f1 38 b9 1c 4b 40 3b
       -0.00050601206 -0.00022049864 -0.00017637444 0.0029341644
000120 9b 92 56 ba 18 9c a1 ba 78 de 02 bb 93 6d 82 ba
       -0.0008185298 -0.0012329845 -0.0019969027 -0.0009950869
000130 f9 39 b7 39 2a 06 4a 39 b3 4c 15 b8 d2 95 03 3a
       0.00034947673 0.00019266517 -3.55958e-05 0.00050195784
000140 b7 6d 12 3a 91 08 ec ba 4c a4 b4 3a fa c9 eb b8
       0.0005585807 -0.0018007924 0.0013781874 -0.00011243294
000150 7b 6c b4 ba d4 4c 0d bb 92 e1 9f ba 2f 04 b9 ba
       -0.001376524 -0.0021560686 -0.0012197962 -0.0014115627
000160 d9 c1 74 ba 0a cb 04 bb 10 f8 97 3a 28 e7 dd b7
       -0.0009336747 -0.0020262622 0.0011594314 -2.6452894e-05
000170 9b b5 73 3a 0d df ca 39 f5 25 67 ba fe 53 c2 b9
       0.00092967757 0.00038694628 -0.0008817607 -0.00037065143
000180 6b 32 80 ba 6f ec 0e ba b8 fe 48 ba db 97 19 ba
       -0.0009780651 -0.00054521015 -0.00076673506 -0.0005859115
000190 4c 98 88 ba 48 9d 41 ba df c2 bc 39 96 13 81 ba
       -0.0010421365 -0.00073858025 0.00036003345 -0.0009847756
0001a0 30 a1 67 bb eb e3 79 3a 3b 70 67 3a b0 11 48 bb
       -0.0035343878 0.00095325586 0.00088286743 -0.003052812
0001b0 cb 96 b0 ba 40 cb 36 b9 ae 2c 0e bb 0d 22 a9 3a
       -0.0013472674 -0.00017432589 -0.0021694112 0.0012903825
0001c0 8d ce f1 b7 7d da 59 ba a5 e4 ef ba 4b 56 98 ba
       -2.8825621e-05 -0.00083104504 -0.0018302394 -0.0011622397
0001d0 3b ee e0 ba 3a 93 74 bb 66 6b d6 b9 32 45 44 ba
       -0.0017160842 -0.00373192 -0.0004089728 -0.00074871175
0001e0 05 fe f8 ba 04 44 b9 ba df be d8 3a 86 29 e6 ba
       -0.0018996602 -0.001413465 0.0016536376 -0.0017559982
0001f0 4e c7 11 3a c0 73 e8 3a 03 a6 c3 39 e3 bd cc b8
       0.000556101 0.0017734692 0.00037316987 -9.762847e-05

network_body._body_endoder.seq_layers.0.weight f4 [128, 1100]
000000 ed de c2 bc 52 d7 09 3d 63 19 6b 3c 53 31 b9 3c
       -0.02378794 0.03365261 0.014349314 0.022606527
000010 e8 ba 8d 3b 87 4f c2 bc 0c 21 0a 3d da c1 4f bc
       0.0043252595 -0.023719562 0.033722922 -0.012680495
000020 b5 d4 0a bd 43 72 8d 3c 03 6d 9d 3c af 91 c5 bc
       -0.03389426 0.017266398 0.01921702 -0.024117319
000030 32 b2 26 3c dd 36 80 3d f8 6f 16 39 8f fa 2d 3b
       0.010174321 0.06260464 0.00014346826 0.002654705
000040 44 79 59 3c 89 fb ff 3b 92 8f 3e bd 3b 27 17 bd
       0.013273541 0.0078119677 -0.046523638 -0.036902647
000050 dc dc 6f bc 16 54 82 bb 42 e9 ce bc 7c 3a 35 3c
       -0.014640059 -0.003977309 -0.02525771 0.011061307
000060 60 31 ff 3b 58 f3 72 bd 78 04 e9 bc a0 0a 2e 3d
       0.0077878684 -0.059314102 -0.028444514 0.0424906
000070 53 dd 65 3d 25 9d 2d 3d 00 d7 ad 3a 2a 8e 2d 3d
       0.056119274 0.042386193 0.0013262928 0.042371906
000080 59 21 38 3c a6 b9 96 bd d6 28 60 3d 07 4d a1 bc
       0.011238419 -0.073596284 0.054726444 -0.01969005
000090 9b ba 9f bb e0 62 22 bb 67 7e 34 bc 73 6e 5f 3d
       -0.00487454 -0.0024778172 -0.011016465 0.054548692
0000a0 dd 02 de 3a f7 65 91 bc 79 d2 20 3c 06 13 95 bc
       0.0016938109 -0.017748816 0.009815806 -0.018197548
0000b0 ac 8d 1d bd 2c 93 99 3c 0c 7a 06 3d 81 03 ce 3a
       -0.038465187 0.018746935 0.032831237 0.0015717597
0000c0 80 3a 85 3b 5e d5 79 bc 8d 77 59 bc 36 67 8a ba
       0.0040658116 -0.015248625 -0.013273132 -0.0010559324
0000d0 3a 5e b5 bc 8a 84 52 3d 04 fc 2b bb e7 3c c6 39
       -0.022139657 0.05139593 -0.0026242742 0.0003781088
0000e0 89 74 66 bd 7d 69 5f bb d6 94 94 3c 06 46 05 bd
       -0.05626348 -0.0034089976 0.018137377 -0.032537483
0000f0 28 96 76 3d bf 81 32 3d 10 cc 25 3c c3 81 ad 3c
       0.060201794 0.043580767 0.010119453 0.02118004
000100 09 aa ff 3c 5a f8 5f bd f4 21 ce 3b 61 9f 5a bc
       0.031209009 -0.054680206 0.0062906686 -0.013343663
000110 0b 68 32 bc 00 86 96 bd 0b 8b 6f 3c 9b f2 81 3b
       -0.010889064 -0.07349777 0.014620553 0.0039656884
000120 96 44 9f bc e8 de 82 3a 4b fc a1 b9 a3 e7 46 bc
       -0.019441884 0.0009984644 -0.00030896286 -0.012140187
000130 d4 0d 57 3c c7 3e d6 bc 21 d9 6d 3d 81 ee 3f 3d
       0.0131258555 -0.026152981 0.0580684 0.046858314
000140 57 ab 07 3c 0f b0 cb bc 85 43 29 3d 6d 8a 1d bc
       0.008280597 -0.024864225 0.041324157 -0.009615523
000150 a5 f0 52 3b 07 b3 c3 bc 71 9e 33 3d ba 26 08 3d
       0.0032186892 -0.023889078 0.043852273 0.033240058
000160 01 3f ec bc 7b 5e f0 3c bd 90 05 bc 42 c1 70 ba
       -0.028838636 0.029341927 -0.008152184 -0.0009184071
000170 9f 60 58 3d 3b 67 1e bc fc 93 b5 3b b3 78 50 3d
       0.05282652 -0.009668167 0.0055413228 0.050896358
000180 ad 17 4b 3b f2 65 c3 bc e4 21 31 ba 8b 27 ae bc
       0.0030989454 -0.023852322 -0.0006757064 -0.02125909
000190 bd 69 61 bb 2d f9 f9 bb 69 19 5e bd aa d9 3b bd
       -0.00343953 -0.007628581 -0.05422345 -0.045861878
0001a0 a8 c8 25 bd f7 0b b4 3c a2 09 c4 bb 50 c5 6e bd
       -0.040474564 0.021978362 -0.0059825936 -0.05829364
0001b0 a7 56 10 bd a5 ec 4f bb c7 71 00 bc a3 44 76 3c
       -0.035238888 -0.0031726744 -0.007839627 0.015031013
0001c0 29 d2 0d bd 2a b7 53 bd ee b6 30 3d 03 6f 0a 3c
       -0.034624252 -0.05168835 0.043143205 0.008449319
0001d0 ff 52 7e bd ae 6c 5e 3b cc 44 a3 ba f9 62 18 bd
       -0.06209087 0.003393929 -0.0012456416 -0.037203763
0001e0 e1 77 8d bc ba fa b9 38 0d 2b f5 bc e0 13 2c 3c
       -0.017269077 8.868189e-05 -0.029927755 0.010502785
0001f0 57 7a 9d 3c 1b 9c b9 bc 34 17 67 3a fd bb c0 3c
       0.019223375 -0.022657445 0.0008815408 0.02352714
000200 55 3a 71 bc 1f 79 dc bc 67 90 b7 3c ea c0 08 3c
       -0.01472338 -0.026913224 0.022407724 0.008346776
000210 bb 33 0c 3d 6f 37 4a bc fb c6 d7 bc db 24 a8 3b
       0.03422902 -0.012342318 -0.026339998 0.0051313466
000220 9e aa 18 3c 8c 08 15 bc 1d 9a 88 3c bb 6b 60 3c
       0.009318022 -0.009096276 0.01667505 0.01369756
000230 94 aa 69 3c 52 be 2c 3c 3e 7d 2a 3c 9a dd 6f bc
       0.01426186 0.010543423 0.010405837 -0.014640236
000240 c8 1e 85 3c 0d 0a c2 bc 9a e9 49 3d e4 0d 01 3d
       0.01625003 -0.023686433 0.049295045 0.031507388
000250 aa 36 fd bc 30 3f b6 bc 25 34 5c 3d c9 c9 46 bc
       -0.030909855 -0.022246927 0.053760666 -0.01213307
000260 5f 66 79 bc 8d 0f 06 bc 48 5a 06 3d f5 73 8a 3a
       -0.015222161 -0.0081824185 0.032800943 0.0010563122
000270 1e 2b dd bb a3 1c 97 3d e3 23 4c 3b ec 99 cd 37
       -0.0067495247 0.07378509 0.003114932 2.450958e-05
000280 42 87 96 3d a1 85 e8 bb 7a 46 1c bd 97 e3 68 3b
       0.07350017 -0.007096008 -0.03815315 0.0035536045
000290 65 53 90 bc a7 e5 b8 3c 7b 09 01 3d e1 d3 13 bd
       -0.01761789 0.022570444 0.031503182 -0.036090735
0002a0 9e 48 03 bd 9f 5c 21 3c 46 cc 7b bc 30 4f 1b 3d
       -0.032051675 0.009848743 -0.015368527 0.037917316
0002b0 70 72 c3 bb f8 80 77 3b aa 84 8d 3c 63 fc 79 bb
       -0.0059645697 0.003776608 0.017275173 -0.003814482
0002c0 e0 ec 4a 3d 3e e3 44 3c 6c a8 87 bc 40 dc 00 3c
       0.049542308 0.012017069 -0.016559802 0.007865012
0002d0 f1 d8 49 bc 95 67 bb bb b8 a6 ce 3a 44 b2 1e bc
       -0.012319789 -0.005719135 0.0015766239 -0.0096860565
0002e0 a0 a8 f3 bc 0b 6a cb 3c 3a d8 5d bc 77 d3 b3 3d
       -0.029743493 0.024830839 -0.013540322 0.08780568
0002f0 2a 1f 52 3d c4 4f 92 bc be 2e 6f 3d bd 7f 7c 3c
       0.05129925 -0.0178603 0.058394186 0.015411315
000300 ef f1 6f 3d 7f 0b c9 bc 63 b5 b1 bb 77 5c f7 3c
       0.058580335 -0.024541615 -0.0054232343 0.030195458
000310 8a 87 06 bb b5 a1 23 bc c3 82 ad 3c f3 f8 7c 3c
       -0.0020527565 -0.009987284 0.021180516 0.0154402135
000320 9f 05 6a bd 27 de ee bc 58 9d 9c bb 4a 15 5b 3c
       -0.057134267 -0.029158665 -0.004779499 0.013371775
000330 f4 9d 89 3b 8e 74 34 bc 71 d2 0e 3d 22 23 af ba
       0.0041997377 -0.011014117 0.03486866 -0.0013361911
000340 63 41 05 3d 08 55 27 3c 9d 9b ac 3b f6 3a 69 bc
       0.03253306 0.010213144 0.005267574 -0.014235249
000350 d9 82 49 3d 1d d4 2a 3d 14 7b a9 3c 6b 45 e0 3b
       0.04919705 0.041706193 0.020688571 0.0068442128
000360 3b aa b0 bb 85 64 d7 3c bd b4 7a 3b b0 01 84 3c
       -0.005391387 0.026293049 0.00382547 0.016114086
000370 35 a6 3b bd 81 92 2d bd 6c 78 6c bb 57 b4 de 3b
       -0.045812804 -0.042376045 -0.003608252 0.0067964005
000380 7c 21 03 bd 64 24 9a bc b1 cb d7 3c c0 aa be 3a
       -0.032014355 -0.01881618 0.026342245 0.0014546737
000390 e2 c8 f0 3b 99 e9 66 bd b4 32 e0 bc 69 56 0b 3d
       0.007348166 -0.05637512 -0.027367927 0.034017954
0003a0 6c c6 ca 3c 34 1f 81 3a 4d 9e 22 bd 96 0d d8 3b
       0.024752818 0.0009851218 -0.03970175 0.0065934164
0003b0 f9 a6 18 bd ef 17 8e bd 29 aa 36 bc cc dc 76 3d
       -0.037268613 -0.06938159 -0.011148968 0.060269162
0003c0 4b 85 3a bc b6 d8 68 bd 83 17 ae 3c b2 8e 9e 3b
       -0.011384319 -0.056847297 0.021251446 0.004838788
0003d0 eb 21 54 bd 55 c5 76 3b 70 d4 06 3d 48 ba 66 bd
       -0.05179016 0.003765424 0.03291744 -0.056329995
0003e0 ab 98 14 bd b2 75 e0 3b 66 8c 09 bc 06 fe 4e bd
       -0.036278408 0.006849968 -0.00839529 -0.050535224
0003f0 bf dc a4 bc 41 19 78 bd 69 3e 64 3d 65 9a fb bc
       -0.020124791 -0.06057096 0.05572358 -0.03071327

network_body._body_endoder.seq_layers.2.bias f4 [128]
000000 ac f4 cd 3a 0e 0a 01 b9 bc 83 ab ba e6 b5 f7 ba
       0.0015713177 -0.00012306144 -0.0013085525 -0.0018898814
000010 70 5d 76 3a 23 56 83 3a eb e7 16 ba ed d1 01 b9
       0.00093980785 0.0010020178 -0.00057566044 -0.00012380602
000020 f0 6d e4 39 b4 1d 49 3a 5a 1c 16 bb 6e cf 96 3a
       0.0004356946 0.00076719676 -0.0022905082 0.0011505911
000030 60 d0 f9 ba 6c 37 a8 38 30 87 b8 b9 32 cc c7 b9
       -0.0019059293 8.0211874e-05 -0.00035195937 -0.00038108375
000040 b7 53 05 3b 28 de 49 ba 4e d3 0e bb 23 b5 36 39
       0.0020344087 -0.00077006454 -0.0021793428 0.00017424351
000050 ef 49 0c bb 5b a8 2b 3a 52 e6 6b 3a 03 a5 05 39
       -0.0021406373 0.0006548219 0.0008998859 0.0001274534
000060 65 0d da 39 e0 cd ff 39 e9 e5 23 ba 3c 41 81 ba
       0.0004159018 0.0004879078 -0.0006252216 -0.000986136
000070 1f 58 cc 39 d9 b4 c2 3a 31 4d 7c bb 8e f1 53 ba
       0.00038975567 0.0014854922 -0.0038498158 -0.00080850057
000080 f4 37 39 b9 e0 87 fd ba 4e 62 d1 b9 24 cc 80 39
       -0.00017663819 -0.0019342862 -0.0003993683 0.0002456616
000090 71 3c 70 3a f5 8f c8 ba 39 17 f0 b9 5c 18 08 ba
       0.000916428 -0.0015301692 -0.0004579367 -0.0005191618
0000a0 73 1c 92 b9 70 7d 4a b9 34 01 4b 3a 25 f8 85 ba
       -0.00027868486 -0.0001931095 0.0007744015 -0.0010221048
0000b0 a0 d9 3a b9 dc 64 3d ba 31 ce f2 ba b5 b7 f4 ba
       -0.00017819414 -0.0007224807 -0.0018524585 -0.0018670472
0000c0 d1 31 99 ba 8a 20 66 3a c8 f5 58 bb 58 1e 31 ba
       -0.001168782 0.00087786524 -0.0033105481 -0.0006756536
0000d0 a8 a1 79 39 e0 85 43 39 d6 8e 86 b9 fc 4e b1 3a
       0.00023806712 0.00018646521 -0.00025664893 0.0013527567
0000e0 b1 a2 87 b9 a2 75 38 3a 38 9c 89 ba 0c 54 83 3a
       -0.0002587042 0.00070365716 -0.0010498827 0.0010019555
0000f0 0f a8 9c ba e2 a0 21 3a 50 73 9a ba f4 19 57 ba
       -0.0011951941 0.0006165636 -0.0011783633 -0.00082054664
000100 48 d7 07 39 be 60 a2 ba 57 75 c4 b8 00 f0 c4 b9
       0.00012954802 -0.001238845 -9.3678645e-05 -0.00037562847
000110 c4 09 9d 3a b9 fb d3 3a 63 1c e9 ba d1 94 06 3a
       0.001198106 0.0016173042 -0.0017784949 0.00051338697
000120 83 73 ef ba 50 27 87 39 0e b2 59 ba 1a d2 00 ba
       -0.0018268678 0.00025778497 -0.0008304425 -0.000491412
000130 7c 56 f9 39 b3 86 7d b9 19 a2 39 ba 11 bc a3 39
       0.00047557417 -0.0002417814 -0.00070813444 0.00031229903
000140 6b 99 68 ba 7d 9f d1 ba 7d 7c 7d 3b 2e fa 46 ba
       -0.0008872959 -0.0015992966 0.0038678937 -0.000759038
000150 01 c0 c1 39 5b 7c 2e 38 ca 0e 7f 39 2c 4c f6 38
       0.00036954883 4.1600648e-05 0.00024324204 0.00011744382
000160 cc 19 d0 b9 c7 43 75 3a dc 93 b2 38 78 81 0b 3b
       -0.00039692072 0.0009356108 8.5152424e-05 0.0021286886
000170 8f a4 93 ba 6e a7 91 3a 5a da 32 3b c7 a9 ae 38
       -0.0011264252 0.001111252 0.0027290792 8.32859e-05
000180 0c 59 74 ba 45 d2 12 3b 0a 33 29 bb 74 22 4c b8
       -0.00093211303 0.0022403162 -0.0025817775 -4.8669477e-05
000190 97 45 90 39 6d 2d f9 b9 ea a3 cc 39 47 b4 25 3a
       0.0002751767 -0.00047526826 0.00039032038 0.0006321114
0001a0 d3 3a d4 39 c2 04 6a bb 05 ae 0b bb 18 de b5 b9
       0.00040479618 -0.0035708402 -0.002131344 -0.00034688483
0001b0 ef 17 6e 3a 18 da 92 3b e9 e6 b8 ba cb 5e da b9
       0.0009082546 0.004481565 -0.0014106903 -0.00041650826
0001c0 22 f1 c2 3a ed 91 a9 39 13 1e 20 bb 2f e1 e3 ba
       0.0014872889 0.00032342915 -0.0024431988 -0.0017385836
0001d0 d5 c4 4f bb 08 14 de b9 ca 09 0b 39 33 d2 26 3b
       -0.0031703014 -0.00042358064 0.0001325972 0.0025454878
0001e0 11 89 34 bb 2f 9a 98 39 dc e2 c0 3a a8 89 52 ba
       -0.0027547518 0.00029106575 0.0014716047 -0.00080313766
0001f0 ce d9 0b bb b3 6b ab ba 33 a5 e9 b9 04 09 04 ba
       -0.0021339539 -0.0013078362 -0.00044564306 -0.0005036744

network_body._body_endoder.seq_layers.2.weight f4 [128, 128]
000000 b0 e1 de bc 76 fd 8d 3d a1 d7 17 bd a8 8a 0b 3e
       -0.027207226 0.069331095 -0.037070874 0.13627112
000010 a7 bd 02 3e c3 a2 5f be 49 05 0d be 60 ae 29 3e
       0.12767659 -0.21839432 -0.13771547 0.16570425
000020 9b 5b ed bd 61 cc 1b be ea c3 1e 3d 2e 46 c7 3b
       -0.11589738 -0.15214683 0.038761057 0.006081364
000030 d5 d2 11 3e eb d2 bd bd 5b c1 8f 3b fd e1 92 3d
       0.14240582 -0.09268745 0.0043870634 0.0717201
000040 d1 3b 42 3c 7b ca c7 3d 8d 63 23 3d 92 13 78 bb
       0.011855082 0.09755417 0.03988986 -0.0037853462
000050 c1 8f 33 3c 2e f7 8f 3d ee ef a6 bc 32 47 85 3d
       0.010959567 0.07029568 -0.02037808 0.0650772
000060 64 b8 93 3d 79 69 a6 bc 58 6e 91 bc da cf db bd
       0.07212904 -0.020313965 -0.017752811 -0.10733004
000070 98 55 b3 bd 9d 7c bf bc 87 73 10 3e f2 35 07 bd
       -0.0875656 -0.02337485 0.1410657 -0.03301043
000080 5a 7c fe 3d 39 c6 68 bb de 0c 3a 3d d5 a8 b0 bc
       0.12426062 -0.003551854 0.045422427 -0.02156488
000090 dd 4b 0b 3d 58 2a 1b 3c 4e df e5 3d 09 c0 0e bc
       0.034007896 0.009470545 0.112242326 -0.008712777
0000a0 8f 5d c4 bd 58 d8 31 bd a6 25 00 3d 7b 9c 97 bc
       -0.095881574 -0.043419212 0.031285904 -0.018507233
0000b0 b2 4e b2 3d d9 1a b8 3d ad 48 bb bd b8 0d d8 bc
       0.08706416 0.08989496 -0.09144721 -0.02637373
0000c0 dd 79 d6 bd 16 50 06 3e ef 04 98 3d 44 84 47 3e
       -0.10472462 0.13116488 0.07422816 0.19484049
0000d0 1b cc 38 3d 2b b1 cc 3d 98 72 a0 3d dc a3 a2 3c
       0.045116525 0.099947296 0.07834357 0.019853525
0000e0 d9 83 a1 3c c3 cb 4b bc 28 c5 5e bd 86 eb 17 be
       0.01971619 -0.012438717 -0.05438724 -0.14835939
0000f0 31 94 09 3d 5a 50 39 bd 01 df 45 3d 21 4a 86 3d
       0.033588592 -0.045242645 0.048308376 0.06557108
000100 73 57 c1 3d 85 c2 57 ba 48 c0 a8 3d f0 6e 5b be
       0.09440508 -0.0008230585 0.082398 -0.21429038
000110 8a 61 d4 bd fd 22 36 3e a4 c9 f1 3d c6 87 1b 3d
       -0.103701666 0.17786784 0.11806038 0.03797128
000120 3b d9 f1 bd 77 b7 2e 3e 65 dd 73 3d 04 0a 44 be
       -0.118090115 0.17062174 0.05953731 -0.19144446
000130 a8 d3 8c 3d 5c 5a 85 3d 54 f1 42 3c 26 3f c8 3d
       0.06876308 0.06511375 0.011898357 0.097776696
000140 e0 4f 70 bd c0 c0 24 be e7 b8 2c 3d f6 30 89 bd
       -0.058669925 -0.16089153 0.042168524 -0.06698792
000150 9f 81 82 3c 7c 02 ec bd 8a b0 27 bd c1 cc 97 3c
       0.015930949 -0.11523911 -0.040939845 0.018530251
000160 de 4c 5e 3e 18 33 6f bd 27 88 9f bb af df c0 3d
       0.2170901 -0.058398336 -0.0048685255 0.09417664
000170 b3 f8 71 bd 9c 9d 95 bc c7 58 8d 3d 27 ad 1e 3c
       -0.05907507 -0.01826363 0.069016986 0.009684837
000180 b4 79 9d 3d 6f a5 8d bc ef 49 56 bc 52 59 17 3c
       0.07689229 -0.017290799 -0.013079151 0.009237604
000190 07 8f 85 bd 41 74 ad 3c 8f 1b 9d bd a1 ad 1b bd
       -0.06521421 0.021173598 -0.07671272 -0.038007382
0001a0 45 34 28 bd 39 da 6a 3d 2a d0 9b bc b2 e4 a4 bd
       -0.041065473 0.05733702 -0.019020159 -0.08051433
0001b0 07 3d 87 bc a4 ee a4 3a 6d 25 52 3b c2 0b 61 3c
       -0.016508592 0.0012583327 0.0032065765 0.013735713
0001c0 8a 75 1c 3e d2 97 97 3d ee 9e 3e bd ac 91 09 bd
       0.15279213 0.07402004 -0.046538286 -0.03358619
0001d0 c0 37 c6 3d fc d9 66 3d c2 a3 79 bd f8 f9 b7 3d
       0.09678602 0.05636023 -0.060947187 0.08983225
0001e0 fc 0a 80 3e ee 98 86 bc a4 6c 4c be 4f 97 b2 bc
       0.2500838 -0.016430344 -0.19963318 -0.021800665
0001f0 a2 b5 7e bd 02 ab 7c bd 8b 9a 7d 3d 9e 98 04 3d
       -0.062184937 -0.061686523 0.06191496 0.03237211
000200 f2 99 2e 3c ff 49 be 3d 6f b9 67 be e7 cf 8d bd
       0.010656821 0.092914574 -0.22629331 -0.0692442
000210 d3 e1 1b bc 8a db 36 3d 42 cc 04 bd 88 ac 45 bd
       -0.00951429 0.044642963 -0.032421358 -0.04826024
000220 c4 7f 73 3d cf 5a 04 3d 4b 84 21 bd 9e a2 fd bd
       0.05944802 0.032313164 -0.039432805 -0.123845324
000230 97 79 d1 3c 02 19 36 bd f7 b2 69 3c 9b bb dd 3d
       0.025570674 -0.044457443 0.01426386 0.108267985
000240 31 42 8a 3d dd 15 46 bd 8e 82 b4 3c c2 9c b2 bc
       0.06750906 -0.048360694 0.02203491 -0.021803264
000250 c8 87 b1 bd 53 3e ac 3d 24 08 cb 3d fb 80 b5 bc
       -0.08668476 0.08410325 0.09913662 -0.02215623
000260 f6 39 6c bd 51 b8 8b bc 31 38 9e 3d 1a 7f b9 bd
       -0.057672463 -0.017055662 0.077255614 -0.09057446
000270 f9 86 18 bd 42 fa e7 3c 96 71 72 be fe b6 c9 bd
       -0.037238095 0.028317574 -0.23676142 -0.09849356
000280 34 7f 70 3c 10 97 30 bd 36 85 37 3c 6e b2 f9 bd
       0.014678765 -0.043112814 0.011201194 -0.12192236
000290 27 e3 19 3e ec 3e 57 bc 38 c6 16 bd a9 99 cc bc
       0.15028058 -0.01313756 -0.03681013 -0.024975615
0002a0 bd d5 d6 bc 72 bc c3 3d e6 18 24 be 1d fb c3 bd
       -0.026224965 0.095574275 -0.16025123 -0.095693804
0002b0 a3 4c 3c be f9 96 24 3e 02 f2 5c 3c 71 80 b8 3d
       -0.1838861 0.16073216 0.0134854335 0.09008873
0002c0 cd 57 da 3d 4d ad 40 3c 32 c9 b0 bd 25 17 a1 3d
       0.10661278 0.011760068 -0.08632125 0.078657426
0002d0 59 d1 db bd 9f 77 8a bd 06 6a bc 3d 0e d4 b7 bd
       -0.10733289 -0.06761097 0.0919991 -0.08975993
0002e0 59 9c 9e bd f3 88 b9 3d 1f 96 70 3d cc 53 d6 bd
       -0.07744665 0.09059324 0.058736917 -0.10465202
0002f0 83 cb 91 bc 95 ae 65 3b 3a 97 39 bd a4 7b ba 3d
       -0.017797237 0.0035046686 -0.045310237 0.09105614
000300 95 22 16 3c 03 4a 0d 3d 97 01 e6 bc 7b 2d 2b 3e
       0.009163518 0.03449441 -0.02807693 0.16716568
000310 3f d0 45 3d a2 da e2 3d 33 19 a5 3d 2c df 90 bd
       0.048294302 0.11076857 0.08061447 -0.07073817
000320 97 6a 46 bd d9 ec d5 3c c9 95 48 3d a2 63 11 bd
       -0.048441496 0.026113914 0.04897097 -0.035495408
000330 7b e6 55 be c1 f7 06 3e dc 47 b7 3a 34 65 c8 3d
       -0.20888703 0.13180448 0.0013983208 0.09784928
000340 39 7a a0 3b 2f 5f af bd 2d 2e f6 bd b1 fd 38 bd
       0.0048973826 -0.08563077 -0.12020526 -0.045163814
000350 8c 4f ae 3d 8e e9 03 3e 8f 26 b5 bb 94 0e 69 3d
       0.08511266 0.12882063 -0.005528278 0.05689867
000360 73 75 ce bc c8 7e f6 3c dd f1 db bd ea b9 e1 bd
       -0.025202489 0.03008975 -0.10739491 -0.110217884
000370 a3 53 3c 3c f9 08 a8 3d 79 02 b4 3d 5f 6e b8 bd
       0.01149455 0.082048364 0.08789534 -0.090054266
000380 bc b7 d1 bd 9a d5 9e 3d e1 b2 2f 3e fa 25 15 3e
       -0.10240123 0.07755585 0.1715808 0.14565268
000390 56 14 e8 bb a0 7a 2c 3d aa 60 bb bd 8c 77 e9 3b
       -0.0070825024 0.04210913 -0.091492966 0.007124847
0003a0 fd 1d 97 bd b7 cb 56 3d 26 fc 38 3d 12 8d 1a 3d
       -0.07378767 0.05244037 0.045162342 0.03773219
0003b0 e6 07 9f 3d 58 e6 b5 bc 60 90 18 be 2c f1 90 bc
       0.077651784 -0.022204563 -0.14898825 -0.017693125
0003c0 7a 1d a0 3d a2 4f fd 3c e0 6d 63 bd 7c 87 01 3d
       0.07818122 0.030921761 -0.055524707 0.03162335
0003d0 82 61 e9 3d 00 3f 2c be 61 22 45 bd 70 5c 4a 3d
       0.11395551 -0.16820908 -0.04812849 0.04940456
0003e0 4a 3d a0 bd a7 e1 f2 bd 3b b5 dc bb df 7f 37 bc
       -0.0782419 -0.11859446 -0.0067354715 -0.01119992
0003f0 77 7c f4 bd 05 91 92 bc 81 0b 95 3b bb 46 0b be
       -0.11937802 -0.017891416 0.0045484905 -0.136012
