results/MoveToBet2/MoveToBet/MoveToBet-4664.onnx (onnx, 636216 bytes, 9 tensors)

action_model._continuous_distribution.log_sigma f4 [1, 2]
000000 00 00 00 00 00 00 00 00
       0.0 0.0

action_model._continuous_distribution.mu.bias f4 [2]
000000 00 00 00 00 00 00 00 00
       0.0 0.0

action_model._continuous_distribution.mu.weight f4 [2, 128]
000000 7f 81 ac bc 25 08 86 3c b8 cf d8 bb f6 86 84 bc
       -0.021057842 0.016361305 -0.006616559 -0.016177636
000010 30 c2 7d 3c 19 07 34 3c 3c f6 a1 3c 6b d9 0f bd
       0.015488192 0.01098802 0.019770734 -0.035119455
000020 73 27 57 3c 68 a0 63 3b f7 98 ee 3b 03 ea 40 bd
       0.013131964 0.003473306 0.0072814184 -0.04709817
000030 54 f9 18 bc 4e ec 33 3d 7f 24 06 3c 4f f0 c4 bb
       -0.009336788 0.04392653 0.008187412 -0.0060100923
000040 cb ef 0f bd 9f 1e 1f bd 87 34 07 bc 3a 78 bb bb
       -0.035140794 -0.038847562 -0.00825227 -0.005721119
000050 c5 5c ca 3b d0 cb 0a bc 47 91 a1 bc a7 41 3e 3c
       0.00617561 -0.008471444 -0.019722594 0.011612332
000060 a8 b0 91 bc c1 b9 af 3c 3d 9c 08 bc 60 fe 23 3c
       -0.017784432 0.021450879 -0.008338031 0.010009378
000070 5c cf 0b 3c 2f 14 97 bc 8d e4 1b bd bf de 61 3c
       0.008533325 -0.018442241 -0.03805976 0.013786017
000080 b9 46 9e bb 82 5a be 3c 7b 77 bf bc f8 42 18 3d
       -0.004830208 0.023236517 -0.023372402 0.03717324
000090 1d d8 76 3c 30 98 52 bc bb 34 b6 3b d1 1a 95 bb
       0.015066174 -0.012853667 0.005560485 -0.004550316
0000a0 26 aa 07 3b dd ef 84 bb 57 85 5e bb fa 24 96 3a
       0.0020700782 -0.0040569142 -0.0033953988 0.0011455112
0000b0 f3 53 1d bc 0c a2 aa bc a8 b1 72 bc 38 3b e2 bc
       -0.009602535 -0.020829223 -0.014812864 -0.027616128
0000c0 3c a5 02 bc db 75 07 3c 92 6b 67 bc 3b d2 03 3c
       -0.007973965 0.008267845 -0.014124768 0.008045728
0000d0 96 a9 12 bd 22 5d fb bc e3 55 35 bc 24 41 ab 3c
       -0.03580626 -0.030684058 -0.01106784 0.020905085
0000e0 cb 82 ee bb 6b c5 c2 3b 15 a7 6b 3b af 0a 5a bc
       -0.0072787753 0.005943944 0.0035957743 -0.013308211
0000f0 1b c1 81 3c e1 a4 20 bc ef 30 72 3c 52 00 ec 3b
       0.01583915 -0.009804935 0.0147821745 0.0072021866
000100 64 1d 0f 3c 2b ee d2 bc 43 83 03 bb c8 70 5b 3b
       0.008735035 -0.025748333 -0.0020067252 0.003348397
000110 c3 65 a2 ba af 7a 3e bc 80 97 48 bc 58 58 70 3c
       -0.0012389946 -0.01162593 -0.012243152 0.0146695
000120 4d c0 6a 3c ad 05 57 ba e7 d1 eb 3a bb f9 dd bc
       0.014328075 -0.0008202445 0.0017991633 -0.02709662
000130 e1 07 98 bc 4b f9 81 bc 0d fb 01 ba 40 48 05 ba
       -0.018558444 -0.015865942 -0.0004958369 -0.00050843135
000140 bf 13 d7 3c 4b af 11 bb 2b 1a ec bb 95 5a 98 ba
       0.026254533 -0.0022229727 -0.007205268 -0.0011623675
000150 45 b9 f5 bb 3c 04 0d bc 7b f9 02 3c 78 fc 2e bc
       -0.0074988925 -0.008606967 0.007994051 -0.01068031
000160 b8 69 cd 3b d7 46 cc bb 2b 74 b5 bc 53 39 c8 3b
       0.006268706 -0.0062340307 -0.02215012 0.006110349
000170 ad c5 e6 3a 18 58 8f 3b e0 3b 47 bc bb 9b 96 3c
       0.0017606519 0.0043745153 -0.012160271 0.018384805
000180 c7 3a e3 bc f8 5b 06 bb 60 7a 43 bc cb ca 05 bc
       -0.027737988 -0.0020501595 -0.011931032 -0.008166025
000190 9f 6c 6d 3b be eb 09 bb 25 7f b6 bb ac 5c 1e 3d
       0.0036228073 -0.0021045054 -0.005569356 0.038662598
0001a0 c1 a3 08 bc 6f 4b cf 3b a7 d0 f1 3c 99 44 b5 bc
       -0.008339823 0.006326131 0.029518439 -0.022127436
0001b0 ad c0 5f bc d0 8a 9f bb c8 25 ec 3c 5d 8b 2a 3c
       -0.013656777 -0.0048688427 0.02882661 0.010409203
0001c0 b0 1b 53 bb 25 fb 92 3c f0 c7 f2 b9 89 f9 12 3c
       -0.0032212548 0.01794202 -0.00046306802 0.008970627
0001d0 58 44 03 3b 80 cb 68 bb af 7d c2 bc bf d7 15 bc
       0.002002975 -0.0035521686 -0.023741571 -0.009145676
0001e0 e1 40 27 3c 1b 5c 32 bc 42 19 9f 3c eb d7 8e bc
       0.010208339 -0.0108862175 0.019421224 -0.017436942
0001f0 0f f4 99 3a 31 99 2d bc 32 c2 fa bc f5 29 8b 3c
       0.0011745709 -0.010595606 -0.030610178 0.01698778
000200 a2 02 c1 bb 3f a7 f5 3b bf f8 c9 3b b9 7c be 3c
       -0.0058902064 0.007496744 0.006163686 0.023252832
000210 43 33 6c bc 7d c2 7f bc 55 06 b7 bb 63 a1 c4 3b
       -0.014416519 -0.015610334 -0.0055854716 0.006000684
000220 6b 44 44 3c 3e 3f 90 3a 02 29 2c bc 85 53 45 bb
       0.011979203 0.0011005176 -0.010507824 -0.0030109596
000230 43 cd be bb 95 ee 6f bb b0 f6 b5 3c 3c b6 4b bd
       -0.005822809 -0.0036610712 0.022212356 -0.04973434
000240 f7 03 ac bc 7b 6f 60 3a 9d b1 e7 bb b5 70 72 bc
       -0.020997984 0.0008561534 -0.0070707337 -0.014797379
000250 33 2c 92 bc 06 21 0b 3d 93 cd 98 bc 35 aa 99 3c
       -0.017843341 0.03396704 -0.018652713 0.018757919
000260 0a 8a 2f 3c 89 62 2c 3c 77 dc a2 3b ac a8 98 3c
       0.010714063 0.0105215395 0.004970129 0.018635117
000270 7a c3 3f 3c d9 54 bd 3c 68 7a 02 bc 02 e4 1e bc
       0.01170432 0.023111748 -0.007963754 -0.009697916
000280 ab ed 60 bc 6c 0e aa 3c 87 01 fd bc 50 60 f6 bb
       -0.013728539 0.02075883 -0.030884517 -0.0075188056
000290 f7 5f b5 3c 4a c5 81 bc ea 25 f5 bb 4e 33 bc 3c
       0.022140486 -0.015841145 -0.0074813263 0.022973683
0002a0 a6 41 c3 3c 2b 9f 84 bc 66 eb 1e 3a 1a 3c 7f 3b
       0.023835015 -0.016189178 0.0006062299 0.0038945735
0002b0 c9 e5 c4 bb 1d 2c 64 3a 3b e3 df bc 1f 20 38 bc
       -0.006008838 0.0008704083 -0.027330032 -0.011238127
0002c0 50 7f e9 39 cb 33 17 3d 29 89 05 bd 80 57 26 bb
       0.00044536078 0.036914628 -0.03260151 -0.0025381744
0002d0 8d 0d ba 3b d8 3a 78 ba 75 10 1c 3d 7e 1c 96 3b
       0.005677885 -0.00094692176 0.038101632 0.0045810333
0002e0 02 75 20 bc 31 8a a1 3b 41 23 a4 bb 68 99 29 3b
       -0.009793522 0.004929804 -0.0050090854 0.002587879
0002f0 ef f7 43 ba c7 7e 53 3b 1d 21 4c 3b 1b 43 91 3c
       -0.00074756047 0.003227161 0.0031147667 0.017732194
000300 77 55 27 3c 9b ad 5b 3c 83 73 92 3c 2f 03 a6 bc
       0.0102132475 0.01340809 0.017877346 -0.02026519
000310 2a 9e 9a bb 71 01 b6 bb 4a 87 a8 3c c5 58 aa bb
       -0.0047185617 -0.005554371 0.020572323 -0.0051985704
000320 23 1c a5 3c 77 07 7a 3c db 73 9c bc 0f 9d 66 bb
       0.020155018 0.015260569 -0.019098213 -0.003518883
000330 2d 34 e2 bb 64 ed 27 bb 5b f1 76 3c 54 1a 16 bc
       -0.0069031925 -0.0025623674 0.015072192 -0.009161551
000340 fb 51 45 bc 27 d4 8d 3c 8f 2a b4 3c d3 77 e2 3c
       -0.012043471 0.017313076 0.02199295 0.027645027
000350 80 28 15 3c 3f f9 7e bc ed 5b 72 bb 70 f8 5d bc
       0.009103894 -0.015562355 -0.0036981062 -0.013548002
000360 39 93 cc 3c 60 50 07 3d 50 65 7f 3c 09 04 16 bc
       0.024972545 0.033035636 0.01558812 -0.0091562355
000370 b5 9b e1 bb db 19 96 bc f0 46 6e 3c da 87 2e 3d
       -0.006885017 -0.018322876 0.01454328 0.042610027
000380 30 54 83 3b ca 9b 12 3d aa b5 81 bc 8f ab 4a bb
       0.0040078387 0.035793103 -0.015833694 -0.003092501
000390 ad c6 02 3d d0 db 29 3d c2 f7 7d 3c 03 b1 fa bb
       0.031927753 0.041469395 0.015500965 -0.007650496
0003a0 de f4 11 bc 53 80 54 bc 07 0c 85 bc 1f 60 3f 3c
       -0.008908479 -0.012970048 -0.016241087 0.011680632
0003b0 f3 73 55 3c 1f 25 51 3b 27 d7 8b 3b 92 6f e4 bb
       0.013028133 0.0031912995 0.0042675915 -0.006971308
0003c0 e7 2e bc bb 24 14 98 3c 82 bd e4 3c 4f 74 0d 3c
       -0.005742896 0.018564291 0.027922396 0.008633687
0003d0 e0 88 75 bc df ad 95 bc ab 91 9e 3c 7d 1a 87 ba
       -0.014986247 -0.018271385 0.01935657 -0.0010307577
0003e0 fd a9 cb bc 97 c4 0a bd 5f 73 7d 3c 4b b8 39 bd
       -0.02486133 -0.03387889 0.015469401 -0.04534177
0003f0 87 ee b7 bb e0 18 26 3d ca 11 ab bb 6f 84 12 3c
       -0.0056131515 0.040551066 -0.0052206265 0.008942707

action_model._discrete_distribution.branches.0.bias f4 [5]
000000 00 00 00 00 00 00 00 00 00 00 00 00 00 00 00 00
       0.0 0.0 0.0 0.0
000010 00 00 00 00
       0.0

action_model._discrete_distribution.branches.0.weight f4 [5, 128]
000000 d8 7e 7b 3a 87 5d 26 3c 4d b2 9b 39 33 b8 90 bb
       0.00095937913 0.010154135 0.00029696748 -0.0044164895
000010 33 f7 d8 bb 16 00 90 39 35 bd d3 ba cd 64 be bb
       -0.0066212653 0.00027465884 -0.001615441 -0.0058103562
000020 80 23 3a bb 34 16 44 3b 33 78 a6 3b e8 12 af 3b
       -0.0028402507 0.002992046 0.005080247 0.00534283
000030 c2 f4 79 3c cb 1b d9 3b 73 17 c3 bb b7 9d 39 3b
       0.015256109 0.0066256276 -0.005953723 0.0028322765
000040 f7 f9 fb bb 72 da 5c 3c e2 bf 26 3a 74 fc b1 bc
       -0.0076897102 0.013479816 0.000636099 -0.021726824
000050 c1 19 00 3c a5 e1 59 3c f9 b8 14 3c 7b 59 50 bb
       0.00781864 0.013298427 0.009077304 -0.0031791616
000060 91 d4 84 3b e2 b1 26 3b b5 9a a8 3a 98 3b 23 3c
       0.00405366 0.0025435616 0.0012863489 0.009962939
000070 ad 9e 44 bc b7 9d 5d 3c 5b 9f e5 bb aa f6 7a 39
       -0.012000722 0.013526372 -0.007007522 0.00023933747
000080 f6 ee 38 bc 50 78 7f 3b ff a0 0d bc a0 91 2a 3c
       -0.0112874415 0.0038981624 -0.0086443415 0.010410696
000090 53 05 dd ba eb 29 70 3a 68 21 67 bc 1f b9 2a 3b
       -0.0016862549 0.00091615197 -0.014107086 0.0026050282
0000a0 1b bb eb bb 01 13 96 3a eb a0 4c 3b e0 1f d4 3b
       -0.0071939356 0.0011449755 0.0031223844 0.0064735264
0000b0 7b 9b 33 bc db cc d8 3b c0 8b 1b 3c 2c 03 26 bc
       -0.010962362 0.0066162175 0.009493768 -0.010132592
0000c0 b5 91 ea ba 4e 2e 14 3c 73 19 ab 3b 5c 7e ae ba
       -0.0017896207 0.009044243 0.0052215396 -0.0013312805
0000d0 c0 b0 43 3c b7 28 c2 3a 1a 39 da 3a 40 09 1b 3c
       0.011943996 0.0014813159 0.0016649098 0.009462655
0000e0 7b 71 80 3c 75 a9 1d 3b eb 91 c4 3a 58 cf 79 3b
       0.015679112 0.0024057303 0.00149971 0.0038117971
0000f0 20 87 b1 bb ef cd 57 bc de 09 b1 bb 93 c5 56 bb
       -0.0054177195 -0.013171657 -0.0054027876 -0.0032771572
000100 38 8f da 3b c3 98 00 bc 19 65 9c 3b 28 04 ea bb
       0.006669905 -0.007848921 0.004772794 -0.0071416087
000110 58 e7 2d bc ec ca 3f bc 6a d0 41 bc eb c2 33 3b
       -0.010614239 -0.011706095 -0.011829475 0.0027429413
000120 0c 41 32 bc ca 9e a6 bb d0 f9 f6 bb db a4 84 3c
       -0.010879766 -0.005084847 -0.007537104 0.01619189
000130 1a 0e 09 bc c9 00 32 bc 17 fb 5a 3b 66 d1 ba bb
       -0.0083651785 -0.010864445 0.0033413821 -0.005701232
000140 19 b3 25 bb 70 88 be bc bb 87 07 3c e0 5a bd 3a
       -0.0025283752 -0.023258418 0.008272107 0.0014446639
000150 8f a5 96 3b 2b 98 86 bb 11 54 1b 3c 67 e0 21 bc
       0.004597373 -0.0041074953 0.009480492 -0.009880162
000160 c5 09 55 3a 09 b1 12 3c 2f d7 de bb ee e7 c8 bb
       0.0008126761 0.008953341 -0.006800554 -0.006131164
000170 8b a0 79 3c ef e7 e2 3b 2d 61 2a 3b df 05 0e bb
       0.01523603 0.0069246213 0.0025997863 -0.002167098
000180 5a a1 6f ba 38 90 aa bc 9d 4b 34 3c 86 d0 a3 39
       -0.000914117 -0.020820722 0.011004356 0.00031245145
000190 33 fc 84 bc 72 82 5a bc 17 72 5d bc 69 53 41 bb
       -0.01623354 -0.013336765 -0.013515971 -0.002949918
0001a0 c6 73 88 bc 58 19 2b 3c 08 e1 0f 3c 0d 7a 92 bb
       -0.016656768 0.010443054 0.008781679 -0.004470116
0001b0 10 b6 34 bc e7 ea ba bb b0 5b d4 3b 68 4f 65 3c
       -0.011029735 -0.005704272 0.0064806566 0.013995983
0001c0 c0 67 57 3b 15 49 22 3c 0f be 46 bc 25 0d 57 3a
       0.0032868236 0.009905119 -0.012130274 0.0008203558
0001d0 98 f7 33 bc 8f 99 4f 3c 0d b6 8c bb 8f f3 ac 3a
       -0.010984324 0.012670889 -0.004294163 0.0013195145
0001e0 3a 16 d5 3b 78 4b d7 bb c7 a5 cb 3b ce ae 14 3b
       0.0065028938 -0.006570276 0.0062148306 0.00226872
0001f0 c3 b5 f2 bb e5 0a 11 3c 5f da 93 3b 8b d8 b8 bb
       -0.0074069216 0.008852695 0.004512116 -0.0056410483
000200 68 7e ee bb 9b 55 48 3c b8 71 d2 bb 18 d5 42 bb
       -0.0072782524 0.012227441 -0.0064222477 -0.0029729065
000210 58 b9 ab 3b 1d b5 55 bb c7 01 28 bb e7 38 48 bb
       0.0052406006 -0.0032609173 -0.0025635825 -0.0030551495
000220 db 00 30 ba ca e4 ee 38 73 80 9f 38 70 ab bb bb
       -0.00067139947 0.0001139134 7.605636e-05 -0.005727224
000230 0a 85 2a bc 98 5f 42 3b d1 07 91 bb 6b 6e 15 3c
       -0.010407696 0.002965903 -0.0044259806 0.009120564
000240 0b 60 47 bc aa 30 da 3b 4c 7d 04 bc 95 3a c9 bb
       -0.0121688945 0.0066586332 -0.008086514 -0.0061410167
000250 e1 e8 ac 3b b3 4a f6 3b 1d e6 7a bc 25 37 d9 bb
       0.0052767848 0.007516229 -0.015313652 -0.006628888
000260 0d 7c da 3b 1b dd 58 bc fe a8 b3 bb 03 31 8b bb
       0.00666762 -0.013236309 -0.005482792 -0.004247786
000270 37 40 be 3b ab fe 10 3c e9 5d 1e bc d7 75 d2 bb
       0.005805995 0.00884978 -0.009665945 -0.006422739
000280 ba 3f 6f 3b 90 6e 31 bb 6e 77 c1 3b 1a 8b 6b 3b
       0.003650649 -0.0027073957 0.0059041297 0.0035941065
000290 2f 12 72 bc 7a e1 08 bc 85 38 ce bb 83 40 5a bb
       -0.014774843 -0.008354539 -0.0062933587 -0.0033302612
0002a0 f4 0c ae bb 96 5a 30 3c f2 65 93 bc af 33 c3 3a
       -0.0053116027 0.010763785 -0.017992947 0.0014892722
0002b0 6a a3 f4 3b 46 61 90 3c e9 03 27 3b 5b 31 c9 3c
       0.0074657695 0.017624509 0.0025484508 0.024559667
0002c0 34 69 86 3b d9 56 af 3a 73 f6 40 bb c9 a1 cb ba
       0.0041018967 0.0013377323 -0.002944377 -0.0015535887
0002d0 69 2d 44 bc 29 11 aa bb 5f 3e 59 3c d2 78 a9 b9
       -0.011973717 -0.005190034 0.013259499 -0.0003232421
0002e0 b0 4b 83 bb 71 63 27 bc e0 b3 08 bc 5a 4b 53 3a
       -0.0040068254 -0.01021658 -0.008343667 0.00080602395
0002f0 0b 68 e7 ba 45 41 9a 3b e7 b4 2d bb 85 f2 f7 3b
       -0.0017654909 0.0047074878 -0.0026505531 0.0075667524
000300 63 50 62 3a d7 73 13 bc f5 fa 20 bc ff 52 a6 ba
       0.00086331944 -0.008999786 -0.009825458 -0.001268953
000310 b5 2b 64 3c 3a e8 bb bb 87 bd 4e 39 ab 9e 76 bc
       0.013926436 -0.0057344707 0.00019716295 -0.015052478
000320 a7 ca e1 bb 1d b5 87 3b 93 38 4c 39 0d 0d cb 3b
       -0.006890613 0.0041414634 0.00019476032 0.006196624
000330 a0 b5 67 3c 55 91 1d bb ba ed 83 bb 40 81 f9 bb
       0.014142424 -0.0024042923 -0.004026142 -0.0076142848
000340 e5 47 de 38 90 ba 4e bc 96 8a a0 bb 1f 04 5f 3b
       0.00010599176 -0.012617722 -0.004899333 0.0034029556
000350 af 8d 03 3b d0 0b 65 3b ec 29 4c 3b af 52 8f 3b
       0.0020073464 0.0034949668 0.0031152917 0.0043738703
000360 f7 ce 3a bb 37 88 87 3b 8f 35 f4 3b 49 b6 8b bb
       -0.0028504708 0.004136111 0.0074526737 -0.0042636734
000370 8d 94 6d bc 4d a1 cb 3a b8 1a 4b 3c f3 32 4f 3c
       -0.014500749 0.0015535742 0.012396507 0.012646425
000380 06 a3 41 3b fa 2e f8 3b d7 bb 1f 3c 53 10 5b bb
       0.0029546632 0.0075739594 0.009749374 -0.0033426478
000390 6f f9 42 3c 67 38 90 3b 58 fc 9c bb 9c ef ab b8
       0.01190029 0.004401255 -0.004790824 -8.198546e-05
0003a0 ab f0 07 3c 62 74 6c 3c 03 5b 22 3b 3b c5 d9 38
       0.008297126 0.014432045 0.0024773485 0.000103841034
0003b0 c4 76 01 ba cd 57 0b 3c 5a e3 b1 bc f6 9a 1a bb
       -0.0004938657 0.00850482 -0.021714855 -0.00235909
0003c0 14 ed 11 3a b8 c4 ce ba 3d 47 b3 ba d0 e0 fa b8
       0.00055666384 -0.001577518 -0.0013677847 -0.000119628035
0003d0 ad 55 b5 bb 50 db a0 bb fa 51 b4 3a 43 43 87 3b
       -0.005533895 -0.0049089566 0.0013757341 0.0041278913
0003e0 b1 ef 88 bb 5b b3 4b 3c 13 6f 6b bb 90 53 20 bc
       -0.004178964 0.012432898 -0.003592436 -0.009785548
0003f0 9b ba 1b bc be 64 b9 bc d3 eb 84 3b 6a af 56 3c
       -0.009504939 -0.022631045 0.0040564328 0.013103345

network_body._body_endoder.seq_layers.0.bias f4 [128]
000000 00 00 00 00 00 00 00 00 00 00 00 00 00 00 00 00
       0.0 0.0 0.0 0.0
000010 00 00 00 00 00 00 00 00 00 00 00 00 00 00 00 00
       0.0 0.0 0.0 0.0
000020 00 00 00 00 00 00 00 00 00 00 00 00 00 00 00 00
       0.0 0.0 0.0 0.0
000030 00 00 00 00 00 00 00 00 00 00 00 00 00 00 00 00
       0.0 0.0 0.0 0.0
000040 00 00 00 00 00 00 00 00 00 00 00 00 00 00 00 00
       0.0 0.0 0.0 0.0
000050 00 00 00 00 00 00 00 00 00 00 00 00 00 00 00 00
       0.0 0.0 0.0 0.0
000060 00 00 00 00 00 00 00 00 00 00 00 00 00 00 00 00
       0.0 0.0 0.0 0.0
000070 00 00 00 00 00 00 00 00 00 00 00 00 00 00 00 00
       0.0 0.0 0.0 0.0
000080 00 00 00 00 00 00 00 00 00 00 00 00 00 00 00 00
       0.0 0.0 0.0 0.0
000090 00 00 00 00 00 00 00 00 00 00 00 00 00 00 00 00
       0.0 0.0 0.0 0.0
0000a0 00 00 00 00 00 00 00 00 00 00 00 00 00 00 00 00
       0.0 0.0 0.0 0.0
0000b0 00 00 00 00 00 00 00 00 00 00 00 00 00 00 00 00
       0.0 0.0 0.0 0.0
0000c0 00 00 00 00 00 00 00 00 00 00 00 00 00 00 00 00
       0.0 0.0 0.0 0.0
0000d0 00 00 00 00 00 00 00 00 00 00 00 00 00 00 00 00
       0.0 0.0 0.0 0.0
0000e0 00 00 00 00 00 00 00 00 00 00 00 00 00 00 00 00
       0.0 0.0 0.0 0.0
0000f0 00 00 00 00 00 00 00 00 00 00 00 00 00 00 00 00
       0.0 0.0 0.0 0.0
000100 00 00 00 00 00 00 00 00 00 00 00 00 00 00 00 00
       0.0 0.0 0.0 0.0
000110 00 00 00 00 00 00 00 00 00 00 00 00 00 00 00 00
       0.0 0.0 0.0 0.0
000120 00 00 00 00 00 00 00 00 00 00 00 00 00 00 00 00
       0.0 0.0 0.0 0.0
000130 00 00 00 00 00 00 00 00 00 00 00 00 00 00 00 00
       0.0 0.0 0.0 0.0
000140 00 00 00 00 00 00 00 00 00 00 00 00 00 00 00 00
       0.0 0.0 0.0 0.0
000150 00 00 00 00 00 00 00 00 00 00 00 00 00 00 00 00
       0.0 0.0 0.0 0.0
000160 00 00 00 00 00 00 00 00 00 00 00 00 00 00 00 00
       0.0 0.0 0.0 0.0
000170 00 00 00 00 00 00 00 00 00 00 00 00 00 00 00 00
       0.0 0.0 0.0 0.0
000180 00 00 00 00 00 00 00 00 00 00 00 00 00 00 00 00
       0.0 0.0 0.0 0.0
000190 00 00 00 00 00 00 00 00 00 00 00 00 00 00 00 00
       0.0 0.0 0.0 0.0
0001a0 00 00 00 00 00 00 00 00 00 00 00 00 00 00 00 00
       0.0 0.0 0.0 0.0
0001b0 00 00 00 00 00 00 00 00 00 00 00 00 00 00 00 00
       0.0 0.0 0.0 0.0
0001c0 00 00 00 00 00 00 00 00 00 00 00 00 00 00 00 00
       0.0 0.0 0.0 0.0
0001d0 00 00 00 00 00 00 00 00 00 00 00 00 00 00 00 00
       0.0 0.0 0.0 0.0
0001e0 00 00 00 00 00 00 00 00 00 00 00 00 00 00 00 00
       0.0 0.0 0.0 0.0
0001f0 00 00 00 00 00 00 00 00 00 00 00 00 00 00 00 00
       0.0 0.0 0.0 0.0

network_body._body_endoder.seq_layers.0.weight f4 [128, 1100]
000000 fc c8 22 3b 6b 16 98 3b cd 48 55 3c ba 9e 02 bd
       0.0024839034 0.0046413443 0.013017845 -0.031889655
000010 6e 7a 2a bc b2 62 9e bc 41 bb e5 3b 7f 78 fe 3b
       -0.010405166 -0.019334171 0.007010848 0.007765829
000020 16 f6 30 ba 34 04 12 3d b3 44 84 3c cd b8 46 3d
       -0.0006750537 0.03564854 0.01614604 0.048516084
000030 cc 06 55 bd 3a eb 6f bc 68 21 36 3a bf 80 7b bb
       -0.052008435 -0.014643485 0.0006947727 -0.00383763
000040 01 dc 10 3d 48 3c 6e 3c 1c 86 ee 3c ae 71 ab 3c
       0.035366062 0.014540739 0.029116683 0.02092823
000050 6a 98 c3 bb 95 4d de bc fa 5b 60 3d 12 a1 05 bd
       -0.005969097 -0.027136603 0.054775216 -0.03262431
000060 a6 f2 f3 3c ac 5d bf 3b a6 fe 25 bc a0 fb 5d 3c
       0.02977879 0.005840024 -0.010131514 0.013548762
000070 f9 58 73 3c 75 b0 ae bb 95 fb 25 bc 01 95 4d bc
       0.014852756 -0.005331094 -0.010130783 -0.012547732
000080 2a ec b2 bc 38 25 63 bd 3b 29 b4 bc 18 c5 be 3c
       -0.021841127 -0.055455416 -0.021992316 0.023287341
000090 59 9e 18 3c 5f 12 10 bd b3 3c c6 3c 9c 5f 35 bc
       0.009315097 -0.03517377 0.024198866 -0.011070158
0000a0 8f 6d 03 bc 7a e0 87 3c 78 01 12 3d ba ae d9 bc
       -0.008021726 0.016586531 0.035645932 -0.026572574
0000b0 70 77 7b bc 4e 1d 1e bd 08 d1 2c 3d b6 12 2b 3d
       -0.0153483 -0.038602166 0.042191535 0.04176589
0000c0 51 a8 b8 bc 56 c0 31 bd e3 03 fe 3c ab 1b c0 3b
       -0.022541197 -0.043396316 0.031007713 0.0058626733
0000d0 85 19 04 3d 3f 82 d5 bc 35 20 45 ba f1 68 65 bc
       0.0322509 -0.026063083 -0.0007519753 -0.014002071
0000e0 9c f0 94 ba c5 c8 93 ba 27 85 25 3d a8 6d 1a 3c
       -0.0011363211 -0.0011275044 0.040410187 0.009425558
0000f0 c1 20 f5 bc c3 c8 f4 bc fc 19 3c bd 8a 1c f0 bc
       -0.029922845 -0.029880887 -0.045923218 -0.029310483
000100 6d e1 a1 bc 8e b6 36 bd 75 07 5a 3d 1c 22 67 bd
       -0.019760812 -0.04460769 0.053229768 -0.056429014
000110 81 c4 19 bc 95 41 a9 bb 0e 60 12 3d b8 3d 94 bc
       -0.009385229 -0.0051652887 0.035736136 -0.018095836
000120 94 71 d8 3c c9 c3 ce ba b1 42 07 3d 18 36 71 bc
       0.026421346 -0.0015774901 0.033022586 -0.01472237
000130 3f dc b4 3c 35 35 93 3c 26 2b 15 bc 36 c6 b1 3c
       0.022077678 0.017969707 -0.009104526 0.02170096
000140 eb d8 12 3c de 3a 49 bd 9f f8 17 3c 18 51 4c 3b
       0.00896285 -0.049128406 0.0092755845 0.0031176265
000150 2f 32 bc bc 56 8f d1 bb 9a 78 7e 3d 39 1d cf bc
       -0.022973148 -0.006395261 0.062126733 -0.02528249
000160 1e 2e 0c bd 8c 02 91 ba 9e 54 23 bd 7a 65 2b 3d
       -0.03422367 -0.0011063381 -0.03987562 0.041844822
000170 8a 1a e3 3c af 75 42 ba 53 c6 12 3c 6a aa 1f 3d
       0.027722616 -0.0007418049 0.008958417 0.03898088
000180 8f d5 5c 3c 9d 93 0c bb 50 8b 9c bb 74 2e 21 bd
       0.013478651 -0.002145029 -0.0047773495 -0.03935094
000190 4a 84 cd 3b b5 f1 c6 3c 3d b5 fd 3c ac a2 84 bc
       0.0062718736 0.024285177 0.03097021 -0.01619085
0001a0 f9 f7 b6 bc a0 58 84 3d 96 d5 69 3d 3e 08 3a bd
       -0.02233504 0.064622164 0.057088457 -0.045418017
0001b0 fb b2 f4 bb 34 36 91 bb fc 6d e3 39 d6 fc cf bb
       -0.007467625 -0.0044315103 0.0004337876 -0.006347279
0001c0 db 5e be 3c 25 b3 6b 3c 91 e6 a6 bc 08 9e 57 bd
       0.02323859 0.014385973 -0.020373615 -0.052640945
0001d0 9e c8 45 3c fa 37 73 3c 23 60 f5 3b 82 df 41 bc
       0.012071757 0.014844889 0.007488267 -0.011833074
0001e0 96 84 13 bd 68 aa f8 bb 67 37 25 bc 86 35 05 bd
       -0.036015116 -0.0075886734 -0.01008401 -0.032521747
0001f0 73 7a 36 3c 03 74 88 3b 73 19 8f 3c 85 28 86 bc
       0.011137593 0.0041642203 0.01746819 -0.016376743
000200 50 1a de bc 4d 5e 5b 3c 55 c3 1e 3d 0d be 60 3c
       -0.027112156 0.013389182 0.038760502 0.013717187
000210 48 e5 9a bb ce 5d bb bc c7 bf ee 3c fe e7 3f bd
       -0.0047270395 -0.022871878 0.029144181 -0.046852104
000220 76 dd 5e 3c 52 33 6b 3d ce 19 26 3d d9 9e 21 3d
       0.013602605 0.05742199 0.040551953 0.03945813
000230 06 3d d2 ba 08 e4 75 bc e8 38 94 3b 45 bc 64 3d
       -0.0016039915 -0.01500798 0.0045233853 0.05584361
000240 56 46 b8 bc cf 7a 22 3c a9 fc 86 3b 6f 9c 92 3c
       -0.022494476 0.009916975 0.004119475 0.017896859
000250 53 33 54 3d b6 6e 8b 3b 36 4d d0 bc 17 31 88 bd
       0.05180676 0.004255141 -0.025427442 -0.06649988
000260 0b 12 f1 bc f9 e7 ba bc e7 6d 73 bc 3b 41 25 bc
       -0.029427549 -0.022815691 -0.014857746 -0.010086353
000270 cb a2 ab 3c 52 ac 5e bd cc 35 4b 3d 48 36 8b 3c
       0.02095165 -0.054363556 0.04961185 0.016993657
000280 b0 4e 49 3d 28 b5 12 3c b6 a6 a7 3c 60 80 02 bd
       0.049147308 0.008954324 0.020465236 -0.03186071
000290 35 db b0 3d 81 31 95 3b c0 7c 50 3d c3 f8 f6 3c
       0.086355604 0.0045530205 0.05090022 0.030147916
0002a0 27 d5 d6 3c eb c6 85 3b 65 c6 c2 bb db 02 cd bd
       0.026224686 0.0040825508 -0.0059440606 -0.1001031
0002b0 89 a9 13 bd 5d 09 d8 bb 8d 70 b0 3c 0c 46 82 3c
       -0.036050353 -0.006592913 0.021538043 0.015902542
0002c0 c1 b5 08 3d 00 c1 64 3d f8 cd e8 bc 0b e9 7e 3c
       0.03337646 0.05584812 -0.028418526 0.015558491
0002d0 34 0e 1b bd 46 6d 8d 3c 77 f1 0c bd 21 e0 71 bd
       -0.037855342 0.01726402 -0.034409966 -0.059051637
0002e0 4a 78 32 3d 5c 59 fd bb e1 7c b3 3c 50 7f 79 bd
       0.043571748 -0.0077315997 0.021910133 -0.06091243
0002f0 4d 80 51 bc d3 08 79 3c 3e 1b 68 bc a8 98 dc bc
       -0.012786937 0.015199858 -0.014166651 -0.02692826
000300 c1 f3 18 bc a0 0d 4f bd 2b 34 49 bc bd 35 3b bc
       -0.009335459 -0.050550103 -0.012280504 -0.011426386
000310 64 9a b3 ba 42 1c 21 3c ee 06 8d 3d 93 5e 92 bb
       -0.0013702628 0.009833397 0.06886087 -0.0044668405
000320 ea 66 c7 bc 17 d6 23 bc 50 10 dc 3c d7 ea 86 bc
       -0.024341065 -0.009999773 0.026863247 -0.016469402
000330 ef 9f 5c bd 69 4c 20 3d 9c f2 4f bc 36 89 16 bd
       -0.053863462 0.03913537 -0.01269212 -0.03675195
000340 db 3e 2e ba f5 d8 03 bd 63 c6 df 3c be 89 34 3d
       -0.00066469394 -0.03218933 0.027316278 0.044076674
000350 24 89 da 3c 0f bd 46 3d 43 2d 5e 3d 77 1e f1 bc
       0.026676722 0.048520144 0.054242384 -0.029433472
000360 c5 2a 4c 3b de 97 af bc 3e 5c 23 3d ff 9b b4 3b
       0.0031153422 -0.02143472 0.03988289 0.0055117602
000370 ee 67 9d 3c b1 32 4c bc a9 49 9f 3c 46 5d 95 3c
       0.019214597 -0.012463258 0.019444304 0.018232953
000380 5d f9 01 bc d5 f7 43 3d 48 38 4d bd 39 db 00 3c
       -0.007932988 0.047843773 -0.050102502 0.007864767
000390 59 eb 6c 3c 59 e9 80 3d 7b 80 8b bb 2c 3d 2d 3c
       0.014460408 0.062945075 -0.0042572594 0.010573667
0003a0 94 16 b9 bc 3f 5b 33 bd fc 27 97 3a 61 91 ed bc
       -0.022593774 -0.04378819 0.0011532302 -0.028999986
0003b0 ed f5 11 3d 61 42 fc 3c 6d 53 b4 3b 85 84 11 bd
       0.035634924 0.03079337 0.005503109 -0.03552677
0003c0 6a e2 8c 3d 5c 39 5a bc 7b 5f 54 bd a3 8b 02 3d
       0.068791226 -0.01331934 -0.05184887 0.03187145
0003d0 7c 8a 06 bd 55 fb 21 bc 28 c9 c7 3c 91 1c 60 3d
       -0.032846913 -0.009886582 0.024387911 0.054714743
0003e0 a8 3e 8b 3c 40 9a 28 bb ee fc 37 bd 0b 10 de 3b
       0.01699765 -0.0025726706 -0.044918947 0.006776815
0003f0 36 c8 50 bb f4 45 43 bc cf 0d 44 3d f2 c7 30 3c
       -0.0031857616 -0.011918534 0.04786473 0.010789858

network_body._body_endoder.seq_layers.2.bias f4 [128]
000000 00 00 00 00 00 00 00 00 00 00 00 00 00 00 00 00
       0.0 0.0 0.0 0.0
000010 00 00 00 00 00 00 00 00 00 00 00 00 00 00 00 00
       0.0 0.0 0.0 0.0
000020 00 00 00 00 00 00 00 00 00 00 00 00 00 00 00 00
       0.0 0.0 0.0 0.0
000030 00 00 00 00 00 00 00 00 00 00 00 00 00 00 00 00
       0.0 0.0 0.0 0.0
000040 00 00 00 00 00 00 00 00 00 00 00 00 00 00 00 00
       0.0 0.0 0.0 0.0
000050 00 00 00 00 00 00 00 00 00 00 00 00 00 00 00 00
       0.0 0.0 0.0 0.0
000060 00 00 00 00 00 00 00 00 00 00 00 00 00 00 00 00
       0.0 0.0 0.0 0.0
000070 00 00 00 00 00 00 00 00 00 00 00 00 00 00 00 00
       0.0 0.0 0.0 0.0
000080 00 00 00 00 00 00 00 00 00 00 00 00 00 00 00 00
       0.0 0.0 0.0 0.0
000090 00 00 00 00 00 00 00 00 00 00 00 00 00 00 00 00
       0.0 0.0 0.0 0.0
0000a0 00 00 00 00 00 00 00 00 00 00 00 00 00 00 00 00
       0.0 0.0 0.0 0.0
0000b0 00 00 00 00 00 00 00 00 00 00 00 00 00 00 00 00
       0.0 0.0 0.0 0.0
0000c0 00 00 00 00 00 00 00 00 00 00 00 00 00 00 00 00
       0.0 0.0 0.0 0.0
0000d0 00 00 00 00 00 00 00 00 00 00 00 00 00 00 00 00
       0.0 0.0 0.0 0.0
0000e0 00 00 00 00 00 00 00 00 00 00 00 00 00 00 00 00
       0.0 0.0 0.0 0.0
0000f0 00 00 00 00 00 00 00 00 00 00 00 00 00 00 00 00
       0.0 0.0 0.0 0.0
000100 00 00 00 00 00 00 00 00 00 00 00 00 00 00 00 00
       0.0 0.0 0.0 0.0
000110 00 00 00 00 00 00 00 00 00 00 00 00 00 00 00 00
       0.0 0.0 0.0 0.0
000120 00 00 00 00 00 00 00 00 00 00 00 00 00 00 00 00
       0.0 0.0 0.0 0.0
000130 00 00 00 00 00 00 00 00 00 00 00 00 00 00 00 00
       0.0 0.0 0.0 0.0
000140 00 00 00 00 00 00 00 00 00 00 00 00 00 00 00 00
       0.0 0.0 0.0 0.0
000150 00 00 00 00 00 00 00 00 00 00 00 00 00 00 00 00
       0.0 0.0 0.0 0.0
000160 00 00 00 00 00 00 00 00 00 00 00 00 00 00 00 00
       0.0 0.0 0.0 0.0
000170 00 00 00 00 00 00 00 00 00 00 00 00 00 00 00 00
       0.0 0.0 0.0 0.0
000180 00 00 00 00 00 00 00 00 00 00 00 00 00 00 00 00
       0.0 0.0 0.0 0.0
000190 00 00 00 00 00 00 00 00 00 00 00 00 00 00 00 00
       0.0 0.0 0.0 0.0
0001a0 00 00 00 00 00 00 00 00 00 00 00 00 00 00 00 00
       0.0 0.0 0.0 0.0
0001b0 00 00 00 00 00 00 00 00 00 00 00 00 00 00 00 00
       0.0 0.0 0.0 0.0
0001c0 00 00 00 00 00 00 00 00 00 00 00 00 00 00 00 00
       0.0 0.0 0.0 0.0
0001d0 00 00 00 00 00 00 00 00 00 00 00 00 00 00 00 00
       0.0 0.0 0.0 0.0
0001e0 00 00 00 00 00 00 00 00 00 00 00 00 00 00 00 00
       0.0 0.0 0.0 0.0
0001f0 00 00 00 00 00 00 00 00 00 00 00 00 00 00 00 00
       0.0 0.0 0.0 0.0

network_body._body_endoder.seq_layers.2.weight f4 [128, 128]
000000 6b b3 3f bd 68 7f 18 3d 38 dd 13 bd 22 fe b1 3c
       -0.046801966 0.03723088 -0.036099643 0.021727625
000010 f4 7b f9 bd 9a 59 49 bd af f9 0f bd e5 5e 84 3d
       -0.12181845 -0.049157716 -0.035150226 0.06463412
000020 89 f9 9c bd 48 fb f4 3d 11 f5 85 bd 1a 24 39 bd
       -0.076647826 0.119619906 -0.06540883 -0.045200445
000030 50 fb b9 bd 05 6c 27 be 15 db 5d 3d 26 7d 06 be
       -0.09081137 -0.163498 0.05416401 -0.13133678
000040 3f 14 a8 3d 51 87 e4 bb 8c 50 70 bd 10 32 11 be
       0.08206987 -0.006974139 -0.058670565 -0.14179254
000050 36 fe b5 ba c4 4f 37 3c 44 f0 a8 3c 18 32 12 3e
       -0.0013884965 0.011188451 0.02062238 0.14276922
000060 2b e0 36 3c ea 72 0c bd af 25 55 bd bc 76 42 3d
       0.011161844 -0.034289278 -0.05203789 0.047476515
000070 7c 7f e5 3d bc 90 80 bd ed bb 08 bd cc 91 ca 3d
       0.11205956 -0.06277606 -0.033382345 0.0989109
000080 39 21 cd bc 57 78 2c 3d ad d6 5a 3d 36 fc f4 3a
       -0.025040256 0.042106953 0.053427387 0.0018690887
000090 a9 56 b5 3d 8f 8b da bd 23 1c 8d 3c ae 28 2d 3d
       0.0885442 -0.1067115 0.01722533 0.042275123
0000a0 bb 3e 0a be 81 0f 81 3e a4 87 47 3e 3c 1b 9b 3d
       -0.13500492 0.2520714 0.19485337 0.07573554
0000b0 c7 b0 f3 3c 8f 19 8a 3d 75 28 16 be 4d 3c 44 3d
       0.02974738 0.06743156 -0.1466387 0.04790907
0000c0 90 57 aa 3e a0 48 84 bd 49 37 2c 3e e0 42 6f 3d
       0.3326993 -0.064591646 0.16817965 0.058413386
0000d0 d1 51 d1 3c aa 53 15 be 7b 52 18 3d 00 dc e6 3d
       0.025551708 -0.14582697 0.037188035 0.112724304
0000e0 ea 56 79 bd 1e 71 42 3d 2a 3b c4 bb de e1 cd bd
       -0.060873903 0.04747116 -0.005988498 -0.10052846
0000f0 86 5a 1b 3e e9 f4 93 bd 3e d0 cd 3d a2 76 8b bd
       0.1517125 -0.07224447 0.10049485 -0.06809737
000100 d8 4b c1 bc 37 0d 78 bd 61 5a 39 bb 6b 8c c2 bd
       -0.023595735 -0.060559478 -0.002828263 -0.09499439
000110 38 b4 f1 bd 62 60 a6 3c 7e 88 3f 3d b4 fe 83 3c
       -0.11801952 0.02030963 0.04676103 0.016112663
000120 65 72 00 bc cb a8 f6 bc 86 4d ce ba 24 0b d8 bb
       -0.007839774 -0.030109784 -0.0015739657 -0.006593125
000130 2e 00 22 be 78 c4 e7 bd f2 aa e8 bd 6c 03 9a 3d
       -0.15820381 -0.1131677 -0.1136073 0.07520184
000140 c6 6c aa bd 1e 7f 18 3e 12 f3 15 be cb e0 f5 bc
       -0.08321528 0.14892241 -0.14643505 -0.030014416
000150 1e b0 0d be 64 f0 15 be 93 ef 11 3e c0 bc 95 bd
       -0.13836715 -0.14642483 0.14251547 -0.07311392
000160 9f cc 62 bc 76 21 48 be 20 58 c3 3b 44 e5 da 3d
       -0.013842731 -0.19544014 0.005961433 0.1068826
000170 76 fd 86 3d bb 01 98 3d 82 98 ea bd 51 ac 27 3e
       0.065913126 0.07422205 -0.1145487 0.16374327
000180 59 74 81 3d 4d a9 8f bc 0d 97 88 b9 58 7e 5f 3c
       0.0632102 -0.017536784 -0.00026052483 0.013640963
000190 a0 49 bf 3d 10 22 e5 bc bf 5e a7 3d 07 cc f3 bd
       0.09340215 -0.027970344 0.08172368 -0.119041495
0001a0 5e eb e3 3d 61 29 fe bd b5 b3 8b 3d 5f ed c4 bd
       0.11128877 -0.12410236 0.06821386 -0.096155874
0001b0 f4 85 17 be ab 4b 0d 3e 1e 4e 47 bd ce 4d b0 3b
       -0.14797193 0.13798396 -0.048658483 0.005380369
0001c0 be bd 2e 3d ac 32 a0 3c 57 b6 8b 3d a1 5d 40 3c
       0.04266142 0.019555412 0.06821888 0.011741073
0001d0 2d 69 ae bd 71 7d fa 3c ce ed 28 3e c3 dc 29 3d
       -0.085161544 0.030577393 0.16496965 0.0414703
0001e0 85 87 1c bc 1e 0b 30 3c 59 66 b7 3d 51 f7 03 be
       -0.009553795 0.010744838 0.08955068 -0.12887312
0001f0 22 67 ad 3d 51 2d f8 bc 67 f2 e7 3d f7 3b e1 3d
       0.08466937 -0.030295046 0.113255315 0.109977655
000200 8a 1a f9 3c c9 2f 37 bd d4 a1 3c bd fc c4 60 3d
       0.030408163 -0.044723306 -0.04605277 0.05487536
000210 7d 77 6a bb 4a f5 71 3d 4c dd 79 3d f2 e1 ce bd
       -0.0035776787 0.059071817 0.06100206 -0.101016894
000220 a6 8e 2b bc b7 32 0e bd bb 0d 3f 3e ac 20 57 bc
       -0.010471022 -0.034716334 0.18657582 -0.013130348
000230 44 97 cb bb 41 42 6a 3d de 33 17 3e 99 ba ca 3c
       -0.0062131006 0.05719209 0.1476588 0.02474718
000240 a3 7d 44 3b fa 31 72 3d 74 97 f4 bd 7f 4c 95 3d
       0.0029982112 0.059129693 -0.1194295 0.07289981
000250 18 46 d3 3d 60 f3 16 3d 81 9d 41 bd cb 71 c3 bd
       0.10316104 0.036853194 -0.047269348 -0.09543189
000260 4d db 34 bd ed e4 63 3c 3a fe 37 be 08 6d cb 3d
       -0.044154454 0.013909561 -0.17968073 0.099329054
000270 b7 4f 99 3c ca 6d ae 3b 9f 1c ef bd e1 86 21 3e
       0.018714769 0.0053231465 -0.11675381 0.15774108
000280 fd b9 3d 3d bb d6 a0 bd a9 ec 84 3d f8 f9 d5 3c
       0.04631995 -0.078534566 0.06490452 0.026120171
000290 9b b9 1b 3d 74 d0 1c 3d 55 58 4a bd 52 5d 57 bd
       0.038018804 0.038284734 -0.049400646 -0.05257923
0002a0 3c bc 96 3d f6 4f fa bd 33 1c 1f 3e 4b a0 7c 3c
       0.073601216 -0.122222826 0.15538101 0.015419076
0002b0 ed 75 19 bd 5e a1 2f 3d b6 68 2c be 8d 17 bd 3d
       -0.03746598 0.0428785 -0.16836819 0.092330076
0002c0 95 9a 6d bd 0f 07 4b bd 76 f0 ce 3d 48 34 31 bd
       -0.05800875 -0.04956728 0.10104458 -0.04326275
0002d0 71 28 68 bc d4 d9 3f 3c 0f 05 dd bd 51 07 39 3e
       -0.014169798 0.011709649 -0.107919805 0.18069197
0002e0 e6 29 ce bb 95 8f 8a bd 56 d1 90 3c 0d 0b 8e 3c
       -0.006291616 -0.06765667 0.017677944 0.017339254
0002f0 54 89 0e 3e 9f d1 7c 3e c6 ed ab 3d 64 04 71 3d
       0.13919574 0.24689339 0.08394961 0.058842078
000300 11 d2 9c bd 59 49 8e 3c 03 b6 f2 3c c3 f7 9b 3c
       -0.076572545 0.01736896 0.029627806 0.01903904
000310 32 e2 08 3d 1a bf ca 3d bb ed 80 bd aa 03 78 3c
       0.03341884 0.09899731 -0.062953435 0.015137592
000320 49 b3 02 3d d8 d5 03 3e ff 40 08 be 75 29 0b be
       0.03190926 0.12874544 -0.13306044 -0.13590033
000330 fd 25 0a bd a8 6b 04 be d2 31 cf bd 38 01 0c 3e
       -0.033727635 -0.12931693 -0.10116924 0.1367234
000340 4e 0e 6a bd 17 38 06 3c 4b bd 80 bd b2 5e ee bd
       -0.05714255 0.008192084 -0.06286105 -0.116391554
000350 e0 6a 11 3e c1 67 ec 3d 96 88 4a bd 2f 4f 33 3d
       0.14200926 0.11543227 -0.049446665 0.043776687
000360 79 db f3 3d 74 09 1c 3d 7a d8 08 3e 10 3c 09 3d
       0.119070955 0.038094953 0.1336383 0.033504546
000370 0d 62 f9 3d c0 bf 46 bd 31 5a 7a be 89 1c c5 3d
       0.12176905 -0.04852271 -0.24448468 0.09624583
000380 83 12 c6 3d c9 68 dc bd 92 96 22 3e 4b a4 4f bd
       0.096714996 -0.10762174 0.1587775 -0.05069379
000390 50 78 9a 3d 52 0c cf 3d c9 86 cc 3d 06 1c 03 be
       0.07542479 0.10109772 0.09986646 -0.12803659
0003a0 a3 83 f1 3c d0 b1 82 bd b9 86 b1 bd d9 b0 32 3e
       0.029481715 -0.06381571 -0.086682744 0.17450275
0003b0 ce a9 d0 3d 4b 56 1b be 2b 76 88 bd 93 b3 b9 ba
       0.10188638 -0.15169637 -0.06663164 -0.0014167897
0003c0 29 54 43 be 95 ff 05 3e 66 11 8c bd 93 44 8f bd
       -0.19075073 0.13085778 -0.06839256 -0.06995501
0003d0 fc 22 9a 3d 94 39 f3 3c bc 19 c0 3d 28 96 83 3d
       0.07526204 0.029690541 0.093799084 0.064251244
0003e0 9c f5 a4 bd 82 b7 3d bd 28 bf 29 3d f9 31 5c 3d
       -0.08054659 -0.046317585 0.041442066 0.053758595
0003f0 91 0e f1 3d 2f 5b 39 3d 0c 06 2c be 25 b1 46 bd
       0.117703564 0.045252975 -0.16799182 -0.048508782
