results/MoveToBet2/MoveToBet/MoveToBet-10437.onnx (onnx, 645297 bytes, 12 tensors)

action_model._continuous_distribution.log_sigma f4 [1, 2]
0	0xbb5ef0f2	-0.0034018126
1	0xbbc27aee	-0.0059350645

action_model._continuous_distribution.mu.bias f4 [2]
0	0x3ac1ee7e	0.0014795808
1	0xba67882e	-0.0008832243

action_model._continuous_distribution.mu.weight f4 [2, 128]
0	0xbbadbbc0	-0.0053019226
1	0x3be9d174	0.0071355645
2	0xbc805b8d	-0.015668655
3	0x3c290909	0.010317096
4	0xba6613d0	-0.0008776756
5	0x3b888f73	0.004167491
6	0x3bec43cf	0.007210232
7	0xbc5b3aa5	-0.013380681
8	0x3c32778b	0.010892759
9	0x3cc193ed	0.023630107
10	0x3c51eaae	0.0128123
11	0x3a977b1b	0.0011557074
12	0xbc111e04	-0.008857254
13	0x3c83bb53	0.016080534
14	0x3a33d5c5	0.0006860162
15	0x3ca6b894	0.020351686
16	0xbb054941	-0.0020337852
17	0x3cdba847	0.02681364
18	0x3c41d98b	0.011831651
19	0x3cb89faa	0.022537071
20	0x3b857462	0.004072712
21	0xba30e9ed	-0.0006748725
22	0xbc260d53	-0.010135013
23	0xbcdd4362	-0.02700967
24	0xbc37fd62	-0.011229845
25	0x3c86d55b	0.016459158
26	0xbd33b433	-0.043873023
27	0xbc488036	-0.012237599
28	0xbbf5413d	-0.0074845836
29	0x3b7f529b	0.0038959149
30	0x3bedc776	0.0072564436
31	0xbd01ac49	-0.031658445
32	0x3c668034	0.014068652
33	0x3ca28966	0.019840907
34	0x3c8112ea	0.01575609
35	0xbc673e6e	-0.0141140055
36	0x3bec5ec4	0.0072134454
37	0xbcb9c332	-0.022676084
38	0x3cca7fb1	0.024719091
39	0x3c1d1b3b	0.009589012
40	0x3c1619c2	0.009161415
41	0xbc7b1f98	-0.015327357
42	0x3cdcaadb	0.026936939
43	0xbc0cf02e	-0.008602185
44	0x3c784767	0.015153742
45	0x3ce569c6	0.028004538
46	0x3cb8f3e0	0.022577226
47	0xbd53d5d0	-0.05171758
48	0xbc6eba39	-0.014570766
49	0x3c81fabd	0.015866632
50	0x3a31bc55	0.0006780078
51	0x3b1f0ffc	0.0024271002
52	0xbcd8247d	-0.026384586
53	0xbc04d23a	-0.008106763
54	0x3ca08cd4	0.019598402
55	0x3d0fe58c	0.035131022
56	0x3cb54a8a	0.02213027
57	0xbb63a975	-0.0034738455
58	0xbbaec1f7	-0.005333181
59	0x3ccc6bbc	0.024953716
60	0x3c253946	0.010084456
61	0x3c263dc4	0.010146562
62	0xbc026c0e	-0.007960333
63	0x3c69262e	0.014230294
64	0x3d0381d5	0.03210624
65	0xbcdb6592	-0.026781831
66	0xbcc71579	-0.024302231
67	0xbcfd83ee	-0.030946698
68	0xbc1ab297	-0.009441993
69	0x3c816e58	0.015799686
70	0xbbeb17b9	-0.007174459
71	0xbc191e00	-0.009345531
72	0xbc744352	-0.014908629
73	0xba66bd4a	-0.000880201
74	0x37d40d10	2.5278452e-05
75	0xbbfb6772	-0.0076722438
76	0x3bee2c30	0.007268451
77	0x3b1f2cda	0.0024288208
78	0xbc034da6	-0.008014118
79	0x3b287898	0.0025706645
80	0x3c8b5039	0.017006027
81	0xbc12dc3f	-0.008963644
82	0x3ad4f664	0.0016247747
83	0x3cee1f45	0.029067645
84	0x3c27df5c	0.010246124
85	0xbc14f691	-0.009091989
86	0x3c0cf3b3	0.008603024
87	0xbc3e77d2	-0.011625247
88	0xbcc977b5	-0.024593214
89	0xbada3e1b	-0.0016650589
90	0xbb8424b1	-0.0040326943
91	0xbcd7966d	-0.026316846
92	0x3bee4460	0.0072713345
93	0x3c48ec33	0.0122633455
94	0x3ce10d52	0.027472172
95	0xba926626	-0.0011169359
96	0xbc89dcc8	-0.01682891
97	0xbc7d7443	-0.0154696135
98	0x3cf7f6c4	0.030269034
99	0x3b5984bc	0.0033190688
100	0xbd32eb04	-0.04368116
101	0xbc07fac7	-0.008299536
102	0x3b86d82d	0.0041151256
103	0xbcf4ca41	-0.029881598
104	0xbd29be0b	-0.041441005
105	0x3cbf91ff	0.023385046
106	0xbce5dd02	-0.028059486
107	0xbcfd31ea	-0.03090759
108	0xbc6d73cd	-0.014492941
109	0x3c5fb173	0.013653147
110	0xbb81187c	-0.0039396863
111	0xbcedeba4	-0.029043026
112	0xbb909ac5	-0.004412981
113	0x3abe4608	0.001451672
114	0x3c8cfc06	0.017210018
115	0x3caad6ba	0.020854343
116	0xbbcfb4e9	-0.006338705
117	0x3c93b816	0.018032115
118	0xbd3db692	-0.04631669
119	0x3be0eeac	0.0068643894
120	0x3cb57bf8	0.02215384
121	0x3b985bb3	0.0046496033
122	0x3c98ebe2	0.018667165
123	0x3c925126	0.01786096
124	0x3c2b1efc	0.010444399
125	0x3c9b7f9c	0.018981747
126	0x3c369d8e	0.011145962
127	0x3c2a5184	0.010395411
128	0x3d0979af	0.033563312
129	0x3c34da1f	0.011038332
130	0x3c544abb	0.01295727
131	0xbbfc7a00	-0.007704973
132	0xbcb07b05	-0.021543035
133	0x3afcd7ac	0.001929035
134	0x3cd7e4ba	0.026354183
135	0x3aa7d79a	0.0012805343
136	0x3c876108	0.01652576
137	0x3caa495d	0.020786935
138	0xba84b1ff	-0.0010123848
139	0xbb8143ed	-0.003944865
140	0x3c0ba489	0.008523115
141	0x3b67da00	0.003537774
142	0xbc9428d3	-0.018085873
143	0x3c42230d	0.011849177
144	0x3cc7e2b5	0.024400095
145	0xbcbb4f37	-0.022864921
146	0xbcf5a4fb	-0.029985895
147	0xbc5a4224	-0.013321433
148	0xbbcc81ed	-0.0062410743
149	0x3ccc00d4	0.024902739
150	0xbbe9c108	-0.007133607
151	0x3c2fcc05	0.010729794
152	0x3c9c94bb	0.019113889
153	0xbce33a9a	-0.027737904
154	0xbc2bcb1e	-0.010485439
155	0xbd164e31	-0.036695663
156	0xbc009cb3	-0.00784986
157	0x3a71fc34	0.00092310016
158	0xba1c8b60	-0.0005971696
159	0xbc1638a9	-0.009168782
160	0xbd03175e	-0.032004707
161	0x3b6a5550	0.0035756417
162	0xbc84b92a	-0.016201574
163	0x3c8175dd	0.015803272
164	0x3b3ada90	0.002851162
165	0xbb4b9605	-0.003106476
166	0x3c9a6875	0.018848637
167	0xbd1d6ca7	-0.038433697
168	0x39f9e003	0.00047659883
169	0x3a04c51a	0.0005064771
170	0xbce12f94	-0.027488507
171	0xb99d954b	-0.00030056605
172	0xbcd23571	-0.025660248
173	0xbc98bafa	-0.018643845
174	0xba2a4493	-0.00064952037
175	0x3ba09549	0.0049006087
176	0xbc2385d4	-0.009980638
177	0xbc7e1f80	-0.01551044
178	0xbcb196d2	-0.021678362
179	0x3c212bce	0.009837104
180	0x3bbdab9f	0.005788281
181	0x3cd6d273	0.026223397
182	0x3c572576	0.01313149
183	0xbbe78ecd	-0.0070665837
184	0xbcb67609	-0.02227308
185	0x3c0e7100	0.0086939335
186	0xbcda470b	-0.026645204
187	0x3c16f360	0.009213299
188	0xbb20533c	-0.0024463674
189	0xbc3c43c6	-0.011490768
190	0x3c191309	0.009342917
191	0xbb889535	-0.0041681775
192	0x3b8b5ce4	0.004253017
193	0xbc6fb153	-0.01462968
194	0x3cbc144b	0.022958895
195	0xbc28e336	-0.010308078
196	0xbb4b6cf3	-0.003104028
197	0x3be040c1	0.0068436568
198	0xba3f1381	-0.0007288978
199	0x3c9bf39e	0.019037064
200	0xbb1eb930	-0.0024219267
201	0xbc49bdb8	-0.012313299
202	0x3c51806d	0.012786967
203	0x3be70d7f	0.0070511694
204	0xbb59b1b8	-0.00332175
205	0xbc9cdc7c	-0.019148104
206	0x3bf7f90f	0.007567532
207	0x3c96084d	0.018314505
208	0xbc8c2d11	-0.017111333
209	0x3d90fdac	0.07079634
210	0xbc321580	-0.010869384
211	0xbc9386fb	-0.0180087
212	0x3c815293	0.015786445
213	0xbb7fd585	-0.003903718
214	0x3c4e71a4	0.012600336
215	0x3c89326e	0.01674768
216	0x3d128b35	0.03577729
217	0x3cc0d3e7	0.023538543
218	0x3ce68642	0.028140191
219	0x3c37f649	0.011228153
220	0x3b84cf58	0.0040530376
221	0x3ca23d07	0.01980449
222	0xbca93877	-0.020656807
223	0x3cdd3d2e	0.027006712
224	0x3ca02128	0.01954706
225	0x3bf4b8ed	0.007468334
226	0x3b42b64a	0.0029710704
227	0xba9e9536	-0.0012098912
228	0xbcb8bcd1	-0.022550972
229	0x3ca45e52	0.020064507
230	0x3bab5a27	0.005229253
231	0x3b195fe3	0.00234031
232	0xbafd9440	-0.001934655
233	0x3ca0a605	0.019610414
234	0x394d4eb2	0.0001957964
235	0x3bc2a950	0.005940594
236	0x3c49a5f9	0.012307637
237	0x396cf2b3	0.00022597126
238	0xbaad53b6	-0.00132238
239	0xbc055ee9	-0.008140304
240	0x3c31b1d0	0.010845616
241	0x3c495be7	0.012289978
242	0xbcbcf028	-0.023063734
243	0xbc0d96ea	-0.008641938
244	0x3ad33b8c	0.0016115769
245	0x3cf4e64c	0.02989497
246	0xbcb066c3	-0.021533376
247	0xbc01b2d9	-0.007916176
248	0xbc73457c	-0.014848109
249	0xbb661eba	-0.003511353
250	0x3b486aa6	0.0030581146
251	0xbc456c1e	-0.012049703
252	0x3b96ad0b	0.004598265
253	0x3bbe6bdc	0.0058111977
254	0xbc3a6202	-0.011375906
255	0x3c2c779f	0.010526567

action_model._discrete_distribution.branches.0.bias f4 [5]
0	0x3a0fc5c8	0.0005484489
1	0xbb7e9f31	-0.003885221
2	0xbb7655ad	-0.0037587688
3	0x3b635b0e	0.0034691724
4	0x3b24a592	0.0025123102

action_model._discrete_distribution.branches.0.weight f4 [5, 128]
0	0x3c520823	0.012819323
1	0xbbb8c22a	-0.0056383805
2	0xb9220e89	-0.00015454939
3	0x3a5f7628	0.00085243816
4	0xbb86667c	-0.0041015726
5	0xbb26b135	-0.0025435213
6	0xbb9e4b5f	-0.0048307623
7	0xbc2dbd46	-0.010604208
8	0x39e266c6	0.0004318265
9	0x3c3f164a	0.011663029
10	0xbbb3510b	-0.0054723076
11	0xbbb665b0	-0.0055663213
12	0xbbccd451	-0.006250896
13	0xbc2e159a	-0.010625267
14	0x3ac979cc	0.0015371381
15	0xbb9ef29e	-0.0048506996
16	0xbbc5f328	-0.0060409494
17	0xbacf405f	-0.0015812031
18	0x3b4726b0	0.003038805
19	0xbc5414ed	-0.012944442
20	0xbac5521a	-0.0015054375
21	0xbb83f013	-0.004026422
22	0xbc94a1d6	-0.018143576
23	0xbc674e56	-0.014117798
24	0x3ce666ef	0.028125254
25	0x3c53bd60	0.0129235685
26	0xbc1c6fa9	-0.009548106
27	0x3bfcd2ea	0.0077155726
28	0x3c4d0e00	0.012515545
29	0xbc5cfb87	-0.013487703
30	0x3b5c829f	0.0033647192
31	0x3c16d363	0.009205672
32	0x3b35dffa	0.0027751909
33	0xbbc49064	-0.005998658
34	0x3b7edff7	0.0038890818
35	0x3abbc900	0.001432687
36	0x3a80fd2d	0.0009841077
37	0x39373d10	0.00017474988
38	0xbc81db0b	-0.015851518
39	0xbbb7c158	-0.005607765
40	0x3b864b28	0.004098315
41	0x3cb249d1	0.021763714
42	0x3bab7d03	0.0052334084
43	0x3b3ea0ca	0.0029087537
44	0xbc193fa6	-0.009353554
45	0xbc033abe	-0.008009611
46	0xbafec0e3	-0.0019436147
47	0xbba33d8b	-0.0049817017
48	0x3ba85798	0.005137395
49	0xbc548d56	-0.01297315
50	0xbc363316	-0.011120578
51	0xba1f404f	-0.00060749514
52	0x3bbde2e2	0.005794869
53	0xbc76ccf2	-0.015063511
54	0xbca888ac	-0.020572983
55	0xbac44fd8	-0.0014977409
56	0xbc7e2887	-0.015512592
57	0xbbb05f27	-0.005382437
58	0x3b60f3bc	0.0034324965
59	0xbc1f7a56	-0.009733757
60	0xbb8662d9	-0.004101139
61	0xbc7fbd08	-0.015609033
62	0xbb273b59	-0.0025517552
63	0xbb10a930	-0.00220735
64	0xbbf0fb62	-0.007354186
65	0x3a501ab4	0.00079385494
66	0xbc53e116	-0.012932083
67	0xbb4774e2	-0.0030434658
68	0xbbb2788a	-0.0054464983
69	0xbc15fafe	-0.0091540795
70	0x3ac03b9e	0.0014666205
71	0x3ba48b19	0.0050214645
72	0xbb080fa3	-0.0020761273
73	0xba9feff2	-0.0012202247
74	0xbb8018af	-0.0039091925
75	0xbb83de7b	-0.0040243245
76	0xbc30e6e6	-0.010797238
77	0xbbce7ebb	-0.0063017285
78	0x3c35d826	0.011098897
79	0xbb75838e	-0.0037462446
80	0xb9cdbfde	-0.000392436
81	0xbbc3d5b6	-0.005976404
82	0xbc9359cf	-0.01798716
83	0xbcae29fb	-0.021260252
84	0x3b44952a	0.0029996135
85	0x3b128135	0.0022354845
86	0x3c25db1b	0.01012304
87	0x3c3e4c54	0.011614878
88	0x3c2483fa	0.010041231
89	0x3bc8e80e	0.0061311787
90	0xbbe2dcb8	-0.0069232844
91	0xbc86ec7c	-0.016470186
92	0xbca4446e	-0.020052161
93	0x3bd9db50	0.0066484585
94	0x3ba77222	0.0051100412
95	0xbab96ea7	-0.0014147357
96	0x3b7ec535	0.0038874869
97	0x3bd30ee3	0.0064409836
98	0x3ab3aa25	0.0013707323
99	0x3c6143cd	0.013749075
100	0x3c00c53d	0.007859525
101	0x3bdebad2	0.006797173
102	0x3c01628d	0.0078970315
103	0x3bbcfd7b	0.005767522
104	0x39bbb603	0.0003580303
105	0xbc1a4816	-0.009416601
106	0xbb316e1e	-0.0027073692
107	0x3b81d3f0	0.0039620325
108	0x3c6fa2cc	0.014626216
109	0x3b8ad18c	0.0042364057
110	0xbc36fb61	-0.011168332
111	0x3c0190c5	0.007908051
112	0x3bd6ca0c	0.0065548476
113	0xbc798eda	-0.015231812
114	0xbc45ee6c	-0.01208077
115	0x3be4ffe0	0.0069885105
116	0x3c03cb5b	0.008044089
117	0xbb8dd76a	-0.004328658
118	0xbbb47e96	-0.0055082543
119	0xbc23c266	-0.009995079
120	0xbb30fdaf	-0.0027006676
121	0x3c0b6091	0.00850691
122	0x3b96854c	0.004593527
123	0xb89715a3	-7.204271e-05
124	0x3ba7f5e5	0.0051257485
125	0x3c11094d	0.008852315
126	0x3a2f6fa8	0.00066923583
127	0x39adb197	0.00033129446
128	0xbc1f66e4	-0.009729121
129	0xbbd2184f	-0.006411589
130	0x3b9ec78d	0.0048455657
131	0xbba700e7	-0.005096543
132	0xbc20f9d3	-0.009825188
133	0xbbbaf5a4	-0.005705552
134	0xbc254153	-0.010086375
135	0xbbfb5c04	-0.007670881
136	0x3ae2514a	0.0017266658
137	0x3ca7e93d	0.020496959
138	0xbba2f13f	-0.0049726064
139	0x3c1ebe37	0.009688905
140	0x3b250666	0.0025180816
141	0xbbd8e681	-0.006619275
142	0x3bf1e674	0.0073822085
143	0x3b9ad25c	0.004724784
144	0x3b55937c	0.0032589128
145	0xbb4e93b3	-0.003152114
146	0xbb339280	-0.0027400553
147	0x3c4a1adf	0.012335508
148	0xbbd7979b	-0.006579352
149	0xbb4da0e6	-0.003137642
150	0x3b7d43c4	0.0038645128
151	0x3c39bfe0	0.0113372505
152	0x3a843d3b	0.0010089049
153	0xbbaf65cb	-0.005352711
154	0xbb39a788	-0.0028328616
155	0xbc029da7	-0.007972158
156	0x3bdcb4df	0.0067354287
157	0xbc2df75e	-0.010618059
158	0xba8ccdf6	-0.0010742533
159	0x39b366a6	0.0003421802
160	0x3c27a589	0.010232338
161	0xbbcec7c0	-0.006310433
162	0xba535b53	-0.00080626196
163	0xbc340b89	-0.010989078
164	0x3a0d3eb0	0.00053880643
165	0x3bf666af	0.007519565
166	0xba360663	-0.0006943701
167	0xbb06f083	-0.0020590133
168	0xbb959897	-0.0045653093
169	0xbc46ed97	-0.012141607
170	0x3a79aae6	0.0009524062
171	0xb936b442	-0.00017424024
172	0xbad4ae94	-0.0016226345
173	0x3a69bb99	0.0008916199
174	0x3c40b55b	0.0117619885
175	0xbbb78747	-0.005600843
176	0x3b6846d8	0.0035442617
177	0x3c94a93a	0.0181471
178	0x39a152ad	0.0003076991
179	0xbc0ecdb4	-0.008716036
180	0xbc6887d8	-0.014192544
181	0xbbfd7c35	-0.007735754
182	0xbc8dffdb	-0.017333915
183	0x3ad32d76	0.0016111571
184	0x3b148706	0.0022663488
185	0x3c2cabc2	0.010538997
186	0x3c192e29	0.009349384
187	0xbb9fa156	-0.0048715277
188	0x3be54dcd	0.0069978
189	0xb92013fa	-0.00015266231
190	0xbc3c1cc0	-0.011481464
191	0xbcc24c03	-0.023717886
192	0x3a39ce63	0.0007087944
193	0x3bbe201f	0.005802169
194	0xbc8cf51e	-0.017206725
195	0x3c00c396	0.007859131
196	0xbc3431b4	-0.010998178
197	0x3bd15981	0.0063888435
198	0x3bf9495b	0.0076076216
199	0xbc8e0408	-0.017335907
200	0x3b8318ed	0.004000774
201	0xbc4f7f4f	-0.01266463
202	0x3c4c8e5c	0.012485113
203	0x3a943b77	0.0011309226
204	0xbb82fba9	-0.0039972854
205	0xb96fbbaf	-0.00022862734
206	0xba08048a	-0.00051886647
207	0x3b8caced	0.0042930753
208	0xbb249005	-0.0025110256
209	0xbacfff7a	-0.0015868985
210	0x3c320ad3	0.0108668385
211	0xbc8bc7ce	-0.017063048
212	0xbc07b055	-0.008281787
213	0x3ba16080	0.004924834
214	0x3c1d2a0e	0.009592546
215	0x3ccb3b7f	0.024808643
216	0x3c3a78e8	0.011381365
217	0xbc237d13	-0.0099785505
218	0xbb45cc02	-0.0030181413
219	0x3b9b4425	0.004738348
220	0x3c209c5b	0.009802903
221	0xbbae6704	-0.005322339
222	0x3b3655d3	0.0027822151
223	0xbbb18f6d	-0.005418709
224	0x3b5e1aad	0.0033890412
225	0x39a31780	0.00031107292
226	0x3c0db988	0.008650191
227	0xbc1112fb	-0.008854623
228	0xb962d3a5	-0.00021631883
229	0x3bead4c6	0.007166478
230	0x3aaa3b63	0.0012987669
231	0x3c596b6b	0.013270239
232	0xbba6db84	-0.0050920863
233	0x3a1029a3	0.00054993684
234	0xbbba590e	-0.0056868857
235	0x3c2acc26	0.010424649
236	0xb8651cf7	-5.462483e-05
237	0x3c149898	0.009069584
238	0x3c3e7fa8	0.011627115
239	0xbc198f31	-0.009372518
240	0x3b8ad479	0.0042367545
241	0x3ad1f7a9	0.0016019243
242	0xbc4a82cb	-0.012360285
243	0xbbf993cb	-0.0076164952
244	0x3b7b8d6e	0.003838386
245	0xbbb853e9	-0.0056252372
246	0xbbbbad60	-0.005727455
247	0x3b047068	0.00202086
248	0x3c4b9ce0	0.012427539
249	0x3c205e00	0.009788036
250	0xbbb0d811	-0.005396851
251	0xbc8523c2	-0.016252402
252	0xbbd83b88	-0.0065988936
253	0x3badc9bd	0.00530359
254	0xba5b8db8	-0.0008375305
255	0x399dc255	0.00030090162

action_model._discrete_distribution.branches.1.bias f4 [16]
0	0x3b77083c	0.0037694117
1	0x3b04cf12	0.0020265025
2	0xbb5cebee	-0.003370996
3	0xbb5d59fa	-0.0033775554
4	0x3b073cc5	0.0020635587
5	0xba72ffd1	-0.0009269687
6	0x3b3fa9f1	0.002924558
7	0xbb6a783d	-0.0035777234
8	0xba3df842	-0.0007246771
9	0x3b0b2559	0.0021231978
10	0xbb2c6b95	-0.002630924
11	0x3b750735	0.003738833
12	0x3ae9bf19	0.0017833441
13	0xb6c65d62	-5.911731e-06
14	0xbb4ca4ae	-0.0031226086
15	0x3a19c17a	0.0005865317

action_model._discrete_distribution.branches.1.weight f4 [16, 128]
0	0xbbde481d	-0.006783499
1	0xbb274d51	-0.0025528262
2	0xbbea8817	-0.0071573365
3	0x3c02e8dc	0.007990088
4	0xbca8a971	-0.020588608
5	0xbbca2f26	-0.0061701713
6	0x3bfbcc5a	0.0076842727
7	0xbc22e29f	-0.009941726
8	0xbbc3c429	-0.005974312
9	0xbb537ca1	-0.003227033
10	0xbaeadfde	-0.0017919501
11	0xbbb4a32d	-0.005512616
12	0x3be8130c	0.0070823487
13	0x3c2922f4	0.010323275
14	0x3c813fe6	0.01577754
15	0xbb441b67	-0.002992356
16	0x39f3ed41	0.0004652534
17	0xbb87904e	-0.0041370755
18	0xbc112979	-0.0088599855
19	0xbb78858b	-0.0037921395
20	0xbc1fbef2	-0.009750115
21	0xba194dc3	-0.0005848074
22	0x3c5cf509	0.013486155
23	0xbbdf0aee	-0.006806723
24	0x3c544f4b	0.012958358
25	0x3c7169d6	0.014734706
26	0xbc69a723	-0.01426104
27	0x3c048494	0.00808825
28	0x3a88e844	0.0010445197
29	0xba239090	-0.0006239498
30	0xbc7d4151	-0.015457467
31	0x3c27fc9c	0.010253098
32	0xbb792dba	-0.003802164
33	0xbb8171e5	-0.003950345
34	0x3b970624	0.0046088863
35	0xbae61c93	-0.0017556123
36	0xbbc32d60	-0.005956337
37	0x3c3ffd6e	0.011718137
38	0xbbd07d9e	-0.006362631
39	0xbb48e74f	-0.0030655449
40	0x3b1d7ea3	0.002403178
41	0xbbb1dc2a	-0.005427857
42	0x3ae07418	0.0017124442
43	0x3c16d040	0.009204924
44	0x3c5311cb	0.01288266
45	0xbc55e060	-0.013053983
46	0x39c458da	0.00037450233
47	0xb99f074a	-0.00030332274
48	0xba8d38fb	-0.0010774428
49	0x3a6d0aaf	0.00090424245
50	0x3c661cf3	0.014044988
51	0xbcd3c029	-0.025848465
52	0xbc01a815	-0.007913609
53	0xbba439a9	-0.0050117564
54	0xbbce7c43	-0.0063014342
55	0xbb618a8c	-0.0034414856
56	0xbba2d50d	-0.0049692453
57	0x3b8c46b3	0.004280889
58	0x3c89bb9e	0.016813096
59	0x3b8d0db2	0.004304611
60	0xbbc3467f	-0.0059593315
61	0x3c04b6d9	0.008100235
62	0xbc19a752	-0.009378271
63	0x3bb93799	0.0056523797
64	0x3c4aed56	0.012385687
65	0xb8da1cc7	-0.0001040041
66	0xbc0531a5	-0.008129512
67	0xba5948b5	-0.0008288727
68	0x3a084de4	0.0005199595
69	0x3bdad33e	0.006678014
70	0xbacfcfe6	-0.0015854805
71	0x3b03fae6	0.002013856
72	0xbb7ea2a3	-0.0038854263
73	0x3b6ad78b	0.003583404
74	0x3cc0c671	0.023532124
75	0xbca75002	-0.020423893
76	0x3c6352bb	0.013874705
77	0xb98ce794	-0.0002687542
78	0x3c09bbfb	0.008406634
79	0x3c6982db	0.01425239
80	0xbb8dc002	-0.0043258676
81	0xbb3a8da2	-0.0028465767
82	0x3bfcf9a0	0.0077201873
83	0xbc5fd331	-0.013661192
84	0x3ac139de	0.0014741977
85	0xba899557	-0.0010496777
86	0x3b976950	0.0046207085
87	0x3c185b11	0.009299056
88	0x3b51bdbb	0.0032003957
89	0xba8388c3	-0.0010035265
90	0xbc47c388	-0.012192614
91	0xbaa538d1	-0.0012605434
92	0x3c20648b	0.009789596
93	0x3b80690b	0.003918772
94	0xbc18728d	-0.009304655
95	0x3c6a35a6	0.014295017
96	0xbbbd556d	-0.005778006
97	0x3ba71854	0.0050993357
98	0xbbe2a246	-0.006916317
99	0x3c2e999e	0.010656742
100	0x3b572fed	0.0032834962
101	0x3ae0adc2	0.0017141628
102	0xbb9132c4	-0.0044311006
103	0xbb35a206	-0.0027714982
104	0xbbf6a451	-0.0075269123
105	0xba52763c	-0.00080284826
106	0xbaf956d3	-0.0019023068
107	0xbc159729	-0.009130278
108	0xbabe1bbd	-0.0014504116
109	0x3b7b1bb9	0.0038316085
110	0xbc687a85	-0.014189367
111	0xb9bffcf5	-0.00036618827
112	0xb7c15abd	-2.3049646e-05
113	0x3a77a7ca	0.0009447305
114	0x3b456a36	0.003012312
115	0x3c7c3295	0.015392919
116	0xbbbbbd5e	-0.0057293614
117	0x3b9ecd46	0.004846248
118	0x3c1e2073	0.009651291
119	0xba80bee7	-0.0009822518
120	0xbc511b77	-0.012762896
121	0x3c58867a	0.013215655
122	0xbc07c898	-0.008287571
123	0xbc484a66	-0.012224769
124	0x3ba0fae9	0.0049127233
125	0x3b249aab	0.0025116603
126	0x3b27add3	0.0025585785
127	0x3be9e143	0.007137449
128	0xbbbce64e	-0.005764759
129	0x3c03f85b	0.008054818
130	0x3c260c9b	0.010134841
131	0x3b104d08	0.002201857
132	0xbc85ca90	-0.01633194
133	0x3ab8c83e	0.0014097763
134	0x3bd07ec1	0.0063627665
135	0x3c165bd4	0.009177167
136	0xbbdc0eea	-0.006715645
137	0x3b3f9d09	0.0029237887
138	0xbb870fb4	-0.004121745
139	0x3c87be69	0.016570287
140	0xbbb762f7	-0.0055965143
141	0x3c43a9d0	0.011942342
142	0x3bdceb22	0.006741897
143	0xbbc432df	-0.0059875096
144	0x3ab0bdf2	0.0013484342
145	0x3acd0818	0.0015642671
146	0xbbff5ddf	-0.0077931727
147	0x3b9ff834	0.004881883
148	0xbc1a5546	-0.009419745
149	0xbbaf5d8c	-0.005351728
150	0x3c6bb845	0.014387195
151	0xbb70d5a0	-0.0036748424
152	0xbbf1f3a1	-0.007383779
153	0x3b8c640d	0.004284388
154	0xb8f641e0	-0.00011742464
155	0xbae279ef	-0.0017278771
156	0xbc53e13a	-0.012932116
157	0x3aa4958b	0.0012556774
158	0x3bbbcf18	0.0057314746
159	0x3caa75b9	0.020808088
160	0x3b9b3159	0.0047361073
161	0xbb1533f1	-0.0022766555
162	0x3c66c7ec	0.014085751
163	0xbb0a9f97	-0.0021152252
164	0x3a02f1d1	0.000499514
165	0xbbc5a5a9	-0.006031711
166	0xb9ea4166	-0.00044680684
167	0xbc8a0e3d	-0.016852492
168	0x39c62e36	0.00037799933
169	0xbba76e2b	-0.0051095686
170	0x3c86aa72	0.016438697
171	0xb99f4156	-0.00030375522
172	0x3be56c94	0.007001469
173	0x3c0b745c	0.008511629
174	0x3be7ce18	0.007074129
175	0xbbe8cde6	-0.007104623
176	0xbbbab69f	-0.0056980397
177	0xbc1d6183	-0.009605768
178	0x3c4537ea	0.012037257
179	0xbb62bf0a	-0.0034598731
180	0x3a979377	0.0011564334
181	0x3c3a73c4	0.01138014
182	0x3b8eaab2	0.0043538446
183	0x3bcc9f34	0.0062445644
184	0xbb501a66	-0.0031754016
185	0xbc7c6ff9	-0.015407556
186	0x3b708107	0.0036698
187	0xb96fc190	-0.00022864924
188	0xbc6a5181	-0.014301659
189	0xbb7efee8	-0.003890926
190	0x3b2b3b44	0.0026127854
191	0xbc4500ea	-0.012024144
192	0xbb41faae	-0.002959888
193	0xbbbf0a32	-0.005830073
194	0x3a5ac226	0.00083449704
195	0xbc45414d	-0.012039495
196	0xbc8a5283	-0.016885048
197	0x3af2108e	0.0018468068
198	0xbb9268ad	-0.0044680447
199	0xbc4736aa	-0.012159029
200	0x3b05629f	0.0020352972
201	0x3b8a5ce9	0.0042225015
202	0xbaf2fb14	-0.0018537962
203	0x3b970459	0.0046086726
204	0xbbefea81	-0.007321656
205	0x3b5af34a	0.0033409172
206	0x3b03abb9	0.0020091368
207	0xbc89d5c3	-0.016825562
208	0xbaa62887	-0.0012676873
209	0x3c38dd52	0.011283236
210	0x3cbb98e4	0.022900052
211	0xb91c330f	-0.0001489634
212	0x3c9fcbdd	0.01950639
213	0xbc320197	-0.010864637
214	0x3bf5b00c	0.007497793
215	0x3c57b822	0.013166459
216	0xbab82744	-0.0014049788
217	0x3afa3d99	0.0019091844
218	0x3bf66ff9	0.0075206724
219	0xbbcc699b	-0.006238175
220	0x3a622db7	0.0008628028
221	0x3b98db74	0.0046648327
222	0xbc024be7	-0.007952667
223	0xbc943e34	-0.018096067
224	0x3a78f598	0.00094970455
225	0xbbbbf363	-0.005735801
226	0xbc278dea	-0.010226706
227	0xbb8b659f	-0.0042540575
228	0xbc55ed6c	-0.013057094
229	0xbb95aae0	-0.004567489
230	0xbc59566c	-0.0132652335
231	0x3baa4142	0.0051957676
232	0xbb5a9e21	-0.0033358412
233	0x3bfc2d6e	0.0076958453
234	0xb9bb0b2b	-0.0003567574
235	0xbc80f309	-0.015740888
236	0x3b57fcd9	0.0032957105
237	0x3bc8c7f1	0.0061273505
238	0xbbc78054	-0.006088296
239	0xbbe77454	-0.007063428
240	0x3a3831a9	0.0007026443
241	0xbbb8a881	-0.0056353216
242	0x3bbd7e40	0.0057828724
243	0x3bb9361c	0.0056522023
244	0x39523df2	0.00020050237
245	0xbbf61155	-0.0075093904
246	0x3b12a810	0.0022378005
247	0x3af36d01	0.0018571914
248	0x3bb7ac5c	0.0056052636
249	0xbc2e214f	-0.010628059
250	0x3befa03a	0.0073128017
251	0x3c9678fb	0.018368235
252	0xbbc2f210	-0.0059492663
253	0x3b9a5420	0.0047097355
254	0xbc4b3176	-0.012401929
255	0x3c3b4c6b	0.011431794

discrete_action_output_shape f4 [1, 2]
0	0x40a00000	5.0
1	0x41800000	16.0

network_body._body_endoder.seq_layers.0.bias f4 [128]
0	0x3abe058b	0.0014497502
1	0xb790f1ff	-1.7278826e-05
2	0xbb18cb95	-0.0023314704
3	0xbb36e41c	-0.002790696
4	0x3a96e767	0.0011513055
5	0x3b8267ae	0.0039796447
6	0x3aeb8e8d	0.0017971561
7	0x3b2635b7	0.0025361606
8	0xbb0257e6	-0.0019888817
9	0xbb051992	-0.002030943
10	0xbb607a37	-0.0034252533
11	0xbb588643	-0.003303901
12	0x3b2354ed	0.0024922446
13	0xbacd951e	-0.0015684699
14	0xbae41338	-0.0017400747
15	0x3b600806	0.003418447
16	0xba859c62	-0.00101937
17	0xbb443d22	-0.0029943665
18	0xbae4fb85	-0.0017469978
19	0x3b3cdcd4	0.0028818147
20	0xba755c92	-0.00093598024
21	0x3960b532	0.00021429805
22	0xbb69e184	-0.0035687396
23	0x39db9a80	0.00041886047
24	0xb9af203a	-0.00033402612
25	0x3a144c1c	0.0005657093
26	0x3b0106c3	0.0019687868
27	0xbac190ca	-0.0014767882
28	0xbace4d8b	-0.0015739662
29	0xb9d2d33f	-0.00040211712
30	0xb99528e3	-0.00028449958
31	0xbab50413	-0.0013810418
32	0xbac93650	-0.0015351269
33	0xbb6fc597	-0.0036586279
34	0x3a9317e4	0.001122233
35	0x3983dd12	0.00025150977
36	0x3ab22db9	0.0013593949
37	0xb9a2dd7c	-0.00031064067
38	0xbad63db1	-0.001634529
39	0xba575992	-0.0008214946
40	0xba9ca542	-0.0011951106
41	0xbb45b1ea	-0.003016586
42	0x3acaae44	0.0015463312
43	0x3a77fc42	0.00094598916
44	0xbaca777c	-0.0015446986
45	0x3b000567	0.001953447
46	0xb9af81aa	-0.00033475208
47	0xbb6abe22	-0.0035818894
48	0xbb26512e	-0.0025377977
49	0x3b711cb0	0.003679078
50	0xbb1cf987	-0.002395244
51	0x3abc380f	0.0014359968
52	0x3a8545b6	0.001016787
53	0x3b43fab4	0.002990407
54	0xbab4855f	-0.0013772658
55	0x37f308d5	2.897197e-05
56	0x3a8da870	0.0010807645
57	0xbac704f2	-0.0015183969
58	0x3aacbaa0	0.0013178177
59	0x3b1f1e89	0.0024279675
60	0xba483bf7	-0.000763833
61	0xbac12b3e	-0.0014737619
62	0x3b0172b7	0.0019752213
63	0x3b44e483	0.003004343
64	0x3a9a76cf	0.0011784675
65	0x3aba3a71	0.0014208091
66	0xbab08669	-0.0013467792
67	0x3b2ef53a	0.002669646
68	0xbb112fa2	-0.0022153636
69	0xbb4af4a2	-0.0030968566
70	0x396d8e64	0.00022655126
71	0x3b1d89da	0.0024038465
72	0xbad7a1b6	-0.0016451392
73	0x3ab6f017	0.001395705
74	0xb8a1850c	-7.70186e-05
75	0xbb1a8bd1	-0.0023581872
76	0x3a3c644e	0.00071865774
77	0xbb815a7d	-0.0039475546
78	0x3b2e1bec	0.0026566936
79	0xbad88629	-0.0016519475
80	0xbad7d871	-0.0016467703
81	0x3a9d653a	0.0012008317
82	0x3b26c119	0.0025444685
83	0x3a3ca1dd	0.00071957504
84	0x396bc088	0.0002248307
85	0x3a4cc341	0.00078110775
86	0x39c7e273	0.00038124956
87	0xbb015439	-0.0019734039
88	0xba9d5c34	-0.0012005628
89	0x37c9a83a	2.4039404e-05
90	0x39ccfa51	0.00039096412
91	0xbb8b2fc9	-0.00424764
92	0xb88f65da	-6.837743e-05
93	0x391a07c1	0.00014689473
94	0xb983e62e	-0.00025157764
95	0x3a545d77	0.00081010856
96	0x3a86c45c	0.0010281908
97	0xbb286df1	-0.0025700296
98	0x3a657a3b	0.00087538705
99	0x3a8ddfd5	0.0010824153
100	0xbb8e216a	-0.0043374794
101	0xbae52aed	-0.0017484106
102	0x3b6f658c	0.0036529033
103	0x3b37acdf	0.0028026623
104	0x3ab79fa9	0.0014009374
105	0xba1b0ae6	-0.0005914405
106	0xbae07442	-0.0017124491
107	0x39624e48	0.00021582202
108	0x3a95be54	0.001142452
109	0xb860a667	-5.3560736e-05
110	0xb77d71d6	-1.510648e-05
111	0xbb10bb00	-0.0022084117
112	0xba7208bf	-0.00092328707
113	0x3adc33b3	0.0016800076
114	0x3a33b93a	0.0006855909
115	0x3abfb547	0.0014626168
116	0xb8efd802	-0.00011436643
117	0x39d4aef2	0.00040566135
118	0xbabd519c	-0.0014443877
119	0x3aa32fb1	0.0012450126
120	0x3a6ca103	0.0009026678
121	0xbb1c8398	-0.0023882147
122	0xba3c0594	-0.0007172462
123	0xb9836849	-0.00025063966
124	0xba72b7c9	-0.00092589535
125	0xbac46742	-0.0014984387
126	0x38d0c8d2	9.9556186e-05
127	0x3b62694a	0.003454762

network_body._body_endoder.seq_layers.0.weight f4 [128, 1100]
0	0x3d0325a1	0.032018308
1	0xbc5fc0ca	-0.013656804
2	0xbd0d6085	-0.034515876
3	0xbcb6785f	-0.022274194
4	0xba8632ac	-0.001023849
5	0x3c588ecc	0.013217639
6	0xbca6e2f5	-0.020371893
7	0x3bb251e9	0.0054418934
8	0xbcc8499c	-0.024449162
9	0xbceb4b43	-0.028722411
10	0x3c473c9f	0.012160449
11	0xbcfc524d	-0.030800963
12	0x3ce8e8e1	0.028431358
13	0x3c849cd3	0.01618806
14	0xbd0b4c05	-0.034008045
15	0x3bb436be	0.00549969
16	0x3c3a18f0	0.011358485
17	0xbd09522d	-0.033525635
18	0xbdabfe7d	-0.08398149
19	0xbc9cec00	-0.019155502
20	0xbd09378e	-0.033500247
21	0x3d58de39	0.052946303
22	0x3d820e09	0.06350333
23	0xbcb935d5	-0.022608677
24	0xbd0f9253	-0.035051655
25	0xbca49986	-0.020092737
26	0x3d47440c	0.04864888
27	0xba26219d	-0.0006337406
28	0x3ba57103	0.0050488724
29	0xbcfd903f	-0.030952571
30	0x3d9f926f	0.07791602
31	0x3c4e1b1f	0.012579708
32	0xbce3289b	-0.027729323
33	0x3d6c89e1	0.05774868
34	0xbb6dbb64	-0.0036275024
35	0x3ccf770e	0.025325324
36	0x3c000bfc	0.007815357
37	0x3c499808	0.0123043135
38	0xbc21c5d1	-0.009873823
39	0x3d659603	0.056051265
40	0xba0ac7d8	-0.0005294061
41	0x3ce343b7	0.02774225
42	0x3b86ddf6	0.0041158153
43	0x3c9c8958	0.01910846
44	0x3c8a9c95	0.016920367
45	0xbd2c4b9e	-0.0420643
46	0xbaf68b09	-0.0018809746
47	0x3bfee24e	0.0077784425
48	0xbc7dcc9c	-0.015490677
49	0x3d0fae7c	0.03507851
50	0xbd05f680	-0.032705784
51	0xbd10e025	-0.03537001
52	0x3d009816	0.03139504
53	0xbc58c999	-0.013231658
54	0x3aee6d5c	0.0018190551
55	0x3c7755d4	0.015096147
56	0x3d09abb5	0.03361102
57	0xbbe04404	-0.0068440456
58	0x3c4a88dc	0.012361731
59	0xbcbc7902	-0.02300692
60	0x3c149637	0.009069017
61	0x3c88bbc8	0.016691104
62	0x3d09ecd4	0.033673123
63	0xbce085c5	-0.027407536
64	0xbcd1e420	-0.025621474
65	0xbca625ce	-0.020281699
66	0xbd05dc93	-0.03268106
67	0xbc88cfa5	-0.016700575
68	0x3beac0a4	0.007164078
69	0xbd29b8da	-0.041436054
70	0xbd36d4d7	-0.044636574
71	0xbb0f4f44	-0.0021867314
72	0x3d464f0d	0.048415232
73	0x3d5b3829	0.053520355
74	0x3c1016c7	0.008794493
75	0xbcf9d918	-0.030499026
76	0x3ae61889	0.001755492
77	0xbc8e5fa8	-0.017379597
78	0x3bfcb2a0	0.0077117234
79	0xbc3d5e3c	-0.011558112
80	0xbcadaf8f	-0.021201877
81	0xbc87a83f	-0.016559718
82	0xbdbae67c	-0.09125993
83	0x3c82b4ff	0.015955446
84	0xbd343c21	-0.044002656
85	0x3caf4287	0.021394027
86	0x3d3f1aed	0.046656538
87	0x3ced6d67	0.028982831
88	0x3aa32184	0.0012445902
89	0xbc9d98b1	-0.019237848
90	0xbc9f546e	-0.019449439
91	0x3cbd81d5	0.023133198
92	0xbd6524c8	-0.05594328
93	0xbbb3b314	-0.0054839943
94	0xbd29a3e4	-0.041416064
95	0x3d2966e6	0.041357897
96	0x3cd963ca	0.026536841
97	0xbdb56065	-0.088562764
98	0xbd2a828f	-0.041628417
99	0xbbfdef35	-0.007749463
100	0x3b93d0a3	0.0045109554
101	0x3c8b0da7	0.016974283
102	0xbb2df6be	-0.0026544775
103	0x3d1ad00b	0.03779606
104	0xbc53db52	-0.012930708
105	0x3bed6d75	0.0072457143
106	0xbca1a28e	-0.019730832
107	0xbc530420	-0.012879401
108	0xbc8e08cf	-0.017338185
109	0x3ca281cf	0.019837288
110	0xbc47e155	-0.012199719
111	0x3b3632cc	0.0027801273
112	0xbc970b3f	-0.01843798
113	0xbc6dbf72	-0.014510976
114	0x3cb0440c	0.021516822
115	0xbcb7d494	-0.022440232
116	0xbd173ef0	-0.036925256
117	0xbca39445	-0.019968161
118	0xbca1d19c	-0.01975327
119	0x3bd25e6f	0.006419949
120	0x3d74a296	0.059725367
121	0xbc2b3baa	-0.010451237
122	0xbb3660e6	-0.0027828752
123	0xbd310398	-0.043216318
124	0x3d0040ed	0.031311918
125	0x3d1c9f91	0.038238112
126	0xbc1265e1	-0.008935423
127	0xbcf895c2	-0.030344848
128	0xbc8a094e	-0.01685014
129	0xbd1652f9	-0.036700223
130	0x3cae7138	0.021294221
131	0xbc27dbd0	-0.0102452785
132	0xbd6277b4	-0.05528994
133	0xbc90947b	-0.017648926
134	0xbc8e7b43	-0.01739276
135	0x3c82478e	0.01590326
136	0xbc9dfbea	-0.019285161
137	0x3bab1b53	0.005221763
138	0xbb50f32b	-0.003188322
139	0x3cdc3e9c	0.026885323
140	0x3c3d0c8e	0.011538638
141	0xba6d22af	-0.0009046001
142	0xbce24c53	-0.027624285
143	0x3cbc86b1	0.023013445
144	0x3c290efd	0.010318515
145	0xbd29bb7f	-0.041438576
146	0xbd010260	-0.031496406
147	0xbd651a7f	-0.05593347
148	0xbcac7e32	-0.021056268
149	0xbbdedb8e	-0.0068010753
150	0xbce6e636	-0.028185945
151	0x3b9d7fd6	0.004806499
152	0xbcf8fa33	-0.030392742
153	0xbd461ce5	-0.0483674
154	0xbce309c1	-0.027714612
155	0xbd0eae1b	-0.03483401
156	0x3d3925bf	0.045202013
157	0x3b5a91bc	0.0033351025
158	0x3cbf71b2	0.023369644
159	0xbbda26e2	-0.006657467
160	0x3c30ecdf	0.010798662
161	0xbc609262	-0.013706775
162	0x3cfa420c	0.030549072
163	0x3cf6a759	0.030109094
164	0xbd1be487	-0.038059738
165	0x3ce396cd	0.027781868
166	0xbd611102	-0.05494786
167	0x3c41ce93	0.011829036
168	0xbcfbf667	-0.030757142
169	0x3caf6392	0.021409784
170	0xbd71eb32	-0.05906219
171	0xbc9fc0cd	-0.019501114
172	0x3932e995	0.00017062419
173	0xbbfb1be7	-0.0076632383
174	0x3c930aed	0.017949546
175	0xbd7762c7	-0.060396936
176	0xba7cd55f	-0.0009644832
177	0xbc8162ea	-0.015794236
178	0x3d882f1f	0.06649613
179	0x3b08acd0	0.0020854957
180	0x3cdb9bb4	0.026807643
181	0xbb482cef	-0.003054436
182	0xbc7879f4	-0.015165795
183	0xbc175d13	-0.009238499
184	0x3ced6ee7	0.028983546
185	0xbbdad57d	-0.006678282
186	0x3c9fcf57	0.019508047
187	0xbc73ae9d	-0.014873174
188	0x3c831bf0	0.016004533
189	0xbc7d20c3	-0.0154497055
190	0x3c0154e2	0.007893773
191	0xbc830fa6	-0.015998673
192	0x3c80c3fb	0.01571845
193	0x3bf44b1d	0.0074552433
194	0xbd55e6d4	-0.052222088
195	0x3b9c2da2	0.004766182
196	0xbc971f11	-0.01844743
197	0x3c3381be	0.010956226
198	0xbd2ea173	-0.04263444
199	0xbc71265f	-0.014718621
200	0x3d054faf	0.032546695
201	0x3d41ecc4	0.047344938
202	0xbd0a7e6f	-0.033811983
203	0xbb0cdb7c	-0.0021493128
204	0xbd5d7367	-0.054065134
205	0x3d3bb03f	0.04582238
206	0xbc42ddcf	-0.011893704
207	0x3c208bc8	0.009798951
208	0xbc54184f	-0.012945249
209	0x3c9f332f	0.019433586
210	0x3d0944fb	0.03351305
211	0xbbd76c98	-0.0065742247
212	0xbc88ee1e	-0.016715106
213	0xbd28d872	-0.041222043
214	0xbc98d77f	-0.018657444
215	0x3d987322	0.07443835
216	0xbb924044	-0.0044632275
217	0xbd8ca9f1	-0.06868351
218	0xbc18e3b4	-0.009331632
219	0x3b47808e	0.0030441615
220	0x3c843a69	0.016141133
221	0x3cb8a012	0.022537265
222	0xbc1a52aa	-0.009419123
223	0x3d862ca9	0.06551487
224	0x3b8b4968	0.004250694
225	0x3d8d2950	0.06892645
226	0x3cb409ec	0.021977387
227	0xbc913d7f	-0.017729519
228	0x3c067c97	0.0082084155
229	0x3c214a4b	0.009844373
230	0x3c038424	0.00802711
231	0xbc96a33b	-0.018388381
232	0xbd0a3285	-0.033739585
233	0x3c9ac1be	0.018891212
234	0xbcdb77e1	-0.026790561
235	0x3d3430c9	0.043991838
236	0xbcddf9ee	-0.027096715
237	0x3c98f6fc	0.018672459
238	0xbbad1bc0	-0.005282849
239	0xbc038b18	-0.008028768
240	0x3b0a788d	0.0021128983
241	0x3d4bd897	0.049767103
242	0xbda132f5	-0.078710474
243	0xb92cc543	-0.00016476684
244	0xbcff3fff	-0.031158445
245	0xbd12ef9e	-0.035873048
246	0xbc04d1f9	-0.008106702
247	0x3cc38562	0.023867313
248	0xbac2a159	-0.0014849111
249	0xbd541624	-0.051778927
250	0x3cd3dff0	0.025863618
251	0x3d3286a3	0.04358543
252	0x3cbf2d7c	0.023337118
253	0x3d136281	0.035982613
254	0xbd66764a	-0.056265153
255	0x3d3dbff6	0.046325646

network_body._body_endoder.seq_layers.2.bias f4 [128]
0	0x3ad12601	0.0015956761
1	0x3b3f7dd5	0.002921929
2	0xbb1e0867	-0.0024113895
3	0x3ad7873e	0.0016443504
4	0x3b15e400	0.0022871494
5	0x3962d469	0.00021632169
6	0xb95f7e38	-0.00021313957
7	0xba4e9fd8	-0.0007882095
8	0xbab016b8	-0.0013434505
9	0x3ad25a20	0.0016048588
10	0x3b0fcd84	0.0021942565
11	0xbb620379	-0.0034486933
12	0xbb0f4dc8	-0.002186643
13	0x3a9b9547	0.001187005
14	0x3aa36d64	0.0012468514
15	0xb940c48b	-0.00018383765
16	0xbaaf0cf8	-0.0013355305
17	0x3a41f848	0.00073993625
18	0x3ab6d2b0	0.0013948288
19	0xb98b2e57	-0.00026546672
20	0xba8d2cd3	-0.0010770805
21	0xb88e6a1a	-6.7908506e-05
22	0xba875945	-0.0010326287
23	0xbaf60e8d	-0.0018772647
24	0x3aeaedd9	0.0017923667
25	0x3b317671	0.0027078653
26	0xbac93838	-0.0015351838
27	0xbb139911	-0.0022521655
28	0xb8a17611	-7.69907e-05
29	0x3b00007b	0.0019531536
30	0xb9d67715	-0.00040905984
31	0xba4d68fd	-0.0007835774
32	0xb9ee9201	-0.0004550368
33	0xba1ea395	-0.00060515973
34	0x3a799ae4	0.00095216767
35	0x39ad44ed	0.00033048485
36	0xba89e906	-0.0010521717
37	0xbafb98c2	-0.0019195306
38	0x3a079a96	0.00051728764
39	0xbacc7df2	-0.00156015
40	0x3b4cd3a9	0.003125409
41	0x3a580f4d	0.0008242026
42	0x3a85ecb1	0.0010217634
43	0xba0d153c	-0.00053818873
44	0x3b25a9b2	0.0025278148
45	0x3a380d6d	0.00070210436
46	0xb9e72014	-0.00044083653
47	0xbaa464bd	-0.0012542229
48	0xbb0d49f8	-0.0021558981
49	0x3ac9067d	0.0015337017
50	0xb9730a55	-0.00023178135
51	0x3b1cd02c	0.002392779
52	0xbae9845b	-0.0017815934
53	0xbb0d3ac1	-0.0021549913
54	0x3b26cb85	0.0025450897
55	0x3ad592dc	0.0016294378
56	0x39f92b45	0.0004752522
57	0xbb8a1ea2	-0.0042150775
58	0x3b070f6f	0.0020608564
59	0x3adc7523	0.0016819577
60	0x3b53f99c	0.0032344824
61	0x3af411ec	0.0018621064
62	0xbad5c91e	-0.0016310548
63	0x3b12d46b	0.0022404443
64	0x3aacecac	0.0013193092
65	0xbb0f56e3	-0.0021871857
66	0xba8a2ebf	-0.0010542496
67	0x37f784a8	2.9506467e-05
68	0x3a567a0d	0.0008181639
69	0xb9ca56c7	-0.00038593097
70	0xba3e6b84	-0.0007263946
71	0xbb012039	-0.0019703044
72	0xbb314459	-0.0027048795
73	0x3a5d49e3	0.0008441491
74	0xbaedd026	-0.0018143698
75	0xbb30c499	-0.002697265
76	0x3a39a7c7	0.0007082191
77	0x3aba20a8	0.0014200406
78	0xbb1717cf	-0.0023054963
79	0xbb2085e6	-0.0024493872
80	0x3a9d0564	0.0011979756
81	0xba0b2695	-0.00053081784
82	0x3b0faf51	0.0021924565
83	0x3a606029	0.0008559251
84	0x3af2503f	0.001848705
85	0xba443eaa	-0.00074861443
86	0xba9ee7ac	-0.0012123487
87	0xbb4db11a	-0.0031386078
88	0xbaf60143	-0.0018768687
89	0xb9847c11	-0.0002526944
90	0xbab2a39e	-0.0013629084
91	0xba605850	-0.00085580815
92	0x3b483154	0.003054698
93	0xb96e86e1	-0.00022747695
94	0x3a84638c	0.0010100468
95	0xbae5022a	-0.0017471958
96	0xba988af3	-0.001163809
97	0xbb427957	-0.0029674375
98	0x3a8ea49e	0.00108828
99	0x3ba81bb8	0.0051302575
100	0xba4887dd	-0.000764964
101	0xbb41fe71	-0.0029601122
102	0x3b559b26	0.0032593696
103	0xbb0dca4c	-0.002163547
104	0xbb03d925	-0.0020118442
105	0x3ad9027b	0.0016556525
106	0xba4bfee1	-0.00077818154
107	0xbb4b90fc	-0.003106176
108	0xbb4378df	-0.0029826683
109	0xb92e8936	-0.00016645048
110	0xbb6ef1f8	-0.0036460143
111	0xbadff339	-0.0017086036
112	0xbaeeec53	-0.0018228389
113	0xbadb1130	-0.0016713496
114	0x3a3a1925	0.0007099084
115	0x3ab8918b	0.0014081461
116	0xba650373	-0.0008736171
117	0x3ae01109	0.0017094921
118	0xbb2523f0	-0.0025198422
119	0xba221d2f	-0.0006184158
120	0x3a6022c1	0.00085501006
121	0x3ba3f5ad	0.005003652
122	0xba8120a4	-0.0009851647
123	0x3b359d94	0.0027712332
124	0xbac779a8	-0.0015218752
125	0x3a1b60ce	0.0005927206
126	0x3b6d3fff	0.0036201475
127	0xba351de3	-0.00069090555

network_body._body_endoder.seq_layers.2.weight f4 [128, 128]
0	0xbbd32be2	-0.00644444
1	0x3d95bafd	0.07311056
2	0xbd4942ea	-0.04913608
3	0x3df53537	0.119730406
4	0xbdc26aed	-0.09493051
5	0x3da6ed42	0.08150722
6	0xbd1938d9	-0.03740773
7	0xbd757ae8	-0.059931666
8	0x3e242fbf	0.16033839
9	0xbd82db90	-0.063895345
10	0x3e4aede0	0.19817305
11	0x3d894544	0.067026645
12	0xbe5e0866	-0.21682891
13	0x3c11c3ff	0.008896827
14	0x3de0227c	0.109440774
15	0x3d80a144	0.06280759
16	0x3cfb127b	0.03064846
17	0x3ddb9928	0.107225716
18	0x3c91bdd9	0.017790722
19	0x3e13de45	0.14440258
20	0xbd9dfb5c	-0.077139586
21	0xbc5f146f	-0.013615712
22	0xbcce50dc	-0.025185041
23	0xbd9504c3	-0.07276299
24	0xbdbda654	-0.0926024
25	0xbd89b76e	-0.067244396
26	0xbdd95046	-0.10611014
27	0x3b14fa8f	0.0022732352
28	0xbd1aaebd	-0.0377643
29	0x3ca2a93c	0.019856088
30	0x3d8c360a	0.06846245
31	0x3c889be2	0.016675893
32	0x3c94eb81	0.018178703
33	0x3ca631ff	0.020287512
34	0xbc713cb5	-0.014723946
35	0xbda0dafc	-0.07854268
36	0xbbda16a4	-0.006655531
37	0xbe1b3575	-0.15157111
38	0xba590c77	-0.00082797505
39	0xbac87fa1	-0.0015296825
40	0x3d9c770f	0.07639896
41	0xbdfe959f	-0.12430882
42	0x3ce90e1d	0.028449113
43	0x3e6842da	0.22681752
44	0xbcf3fd4f	-0.029783873
45	0xbdb6d3cf	-0.08927118
46	0x3d631369	0.055438433
47	0x3dff3e4f	0.12463056
48	0x3d19591e	0.037438504
49	0xbc09aea8	-0.008403458
50	0xbc9a92f3	-0.018868899
51	0x3c93c43d	0.01803791
52	0x3d7093c2	0.058734663
53	0xbe040788	-0.12893498
54	0x3c1a2b34	0.0094097145
55	0xbe3688bc	-0.17825598
56	0x3db0a427	0.086250596
57	0xbc08011d	-0.008301047
58	0x3e53c100	0.20679092
59	0x3d4173a6	0.04722943
60	0x3e0922d6	0.13392195
61	0x3d9a486d	0.07533345
62	0x3dc439c3	0.0958133
63	0xbd26bd5a	-0.040707923
64	0x3e1051e0	0.14093733
65	0xbd7b647a	-0.06137512
66	0xbd9225dc	-0.07136127
67	0xbda7c6f1	-0.08192242
68	0x3ddfa8ac	0.109208435
69	0x3d8ea1d8	0.06964463
70	0xbe1615ce	-0.14656755
71	0x3d7d7649	0.061880384
72	0x3cfae733	0.030627823
73	0x3be7d6c3	0.007075162
74	0xbd8bb8ab	-0.06822332
75	0xbd4ce687	-0.050024536
76	0x3c8bba55	0.017056623
77	0xbd7fb7c6	-0.06243112
78	0xbd5baef6	-0.053633653
79	0xbde0e39a	-0.109809116
80	0xbe02470c	-0.12722415
81	0x3df34612	0.11878599
82	0x3e3fdab8	0.18735778
83	0x3da392c6	0.07986979
84	0xbd26ad70	-0.040692747
85	0x3d586cf9	0.0528383
86	0xbe0e70dd	-0.13910241
87	0x3d12aa51	0.035806958
88	0xbd6c2803	-0.057655346
89	0x3d96ac17	0.07357042
90	0x3a921f89	0.0011148314
91	0xbe01c8f8	-0.1267432
92	0x3e83a35b	0.25710568
93	0x3c19c994	0.009386439
94	0xbcadff0b	-0.021239778
95	0x3b898bdf	0.004197582
96	0x3dcc6827	0.09980803
97	0xbd4c2e74	-0.04984899
98	0xbd53465d	-0.051580776
99	0x3c878e25	0.016547272
100	0xbdda83d2	-0.10669674
101	0x3c8d5ad9	0.017255234
102	0xbd9451a6	-0.07242136
103	0x3dcdd094	0.10049549
104	0x3d33ad1d	0.043866266
105	0x3e101b6c	0.1407296
106	0x3c17441e	0.009232549
107	0x3dc4a1b9	0.09601159
108	0x3da568c9	0.08076627
109	0xbc3908e2	-0.011293622
110	0xbd9e9703	-0.07743647
111	0x3d10d14a	0.035355844
112	0x3d27e00e	0.04098516
113	0x3d8384f0	0.0642184
114	0x3caaa5f5	0.020831088
115	0xbdcd89e0	-0.10036063
116	0xbe4ed57a	-0.20198622
117	0xbdf84c48	-0.121239245
118	0x3c3dfab2	0.011595415
119	0x3d84e70f	0.064893834
120	0x3bf66024	0.007518785
121	0x3d032532	0.032017894
122	0x3dac3b77	0.084097795
123	0x3c8aa7ff	0.01692581
124	0x3a43014b	0.00074388523
125	0x3e6c5b67	0.23081742
126	0xbe4af994	-0.19821769
127	0xbd994937	-0.07484668
128	0x3e0e8025	0.13916071
129	0xbe0f0fee	-0.1397092
130	0xbc888a5b	-0.016667536
131	0xbd57c580	-0.052678585
132	0x3d8ab97f	0.06773662
133	0x3c1f3a21	0.009718449
134	0x3db9dbba	0.09075113
135	0xbd8bf9f7	-0.068347864
136	0x3dd0f5c5	0.10203127
137	0xbde8e356	-0.11371486
138	0xbdf08958	-0.11744946
139	0xbca7076b	-0.02038928
140	0x3defe040	0.11712694
141	0xbe0d3cb6	-0.1379269
142	0xbdee4246	-0.116337344
143	0x3e2b1cdc	0.16710228
144	0x3d12fdbf	0.035886522
145	0xbda69167	-0.08133202
146	0xbcbf471d	-0.02334934
147	0x3e0b7517	0.13618885
148	0xbe17343d	-0.14766021
149	0x3d47923a	0.048723437
150	0xba7fb5b4	-0.0009754554
151	0xbe0cf1c6	-0.13764104
152	0xbc98cc10	-0.018651992
153	0x3d40a57d	0.047032822
154	0x3e06df3b	0.13171093
155	0xbc746c14	-0.014918346
156	0xbcb61f5a	-0.022231746
157	0xbd503085	-0.05082752
158	0x3e1868f8	0.14883792
159	0xbd8398df	-0.06425642
160	0x3e441f65	0.19152601
161	0xbd1e115d	-0.038590778
162	0xbceb5472	-0.02872679
163	0x3ddad5a7	0.10685282
164	0x3d541a29	0.05178276
165	0x3e0e4d5a	0.13896695
166	0x3bb064e5	0.0053831213
167	0x3c2a7064	0.010402773
168	0xbdb1afb4	-0.08676091
169	0x3df801b8	0.12109703
170	0xbc8a5ccc	-0.016889952
171	0xbd7aa30d	-0.061190654
172	0xbd0c225b	-0.03421245
173	0xbde3f70e	-0.11131106
174	0xbcf736fa	-0.030177582
175	0x3c516277	0.0127798235
176	0xbd595779	-0.053061936
177	0xbd15cdc3	-0.036573183
178	0xbb43addc	-0.0029858267
179	0xbe15336a	-0.14570394
180	0x3d5b8662	0.053594954
181	0x3da86545	0.08222441
182	0x3e017147	0.12640868
183	0x3e29ab3c	0.16569227
184	0x3d435bac	0.047694847
185	0x3d51ede4	0.05125226
186	0xbdc8248a	-0.09772594
187	0x3bbd2209	0.0057718796
188	0xbd13c19a	-0.036073305
189	0xbd4d9000	-0.050186157
190	0x3c7fc7c7	0.0156115955
191	0x3dd5a3cf	0.10431635
192	0xbdd71663	-0.10502317
193	0xbc92ae4f	-0.017905382
194	0xbd4b589e	-0.04964506
195	0xbd41363a	-0.047170855
196	0xbe010520	-0.12599611
197	0x3c346623	0.011010679
198	0xbdcdf831	-0.100571044
199	0xbcde8fae	-0.027168121
200	0xbe1a0b11	-0.15043284
201	0x3d28aa24	0.041177884
202	0xbd58558b	-0.052815955
203	0xbd96f7da	-0.07371493
204	0xbd03e01a	-0.03219614
205	0xbd97014c	-0.07373294
206	0x3d155073	0.036453675
207	0xbcb75eff	-0.022384165
208	0x3e4a87b2	0.19778326
209	0xbd40348b	-0.04692511
210	0x3d93b8ba	0.07212968
211	0xbd8ba210	-0.0681802
212	0x3df768c2	0.12080528
213	0xbdcf2a26	-0.10115461
214	0x3db56f38	0.08859104
215	0xbda59b94	-0.08086315
216	0xbd8c5fd5	-0.06854216
217	0xbd9c2730	-0.07624662
218	0x3d716711	0.058936182
219	0xbd45d46f	-0.048298296
220	0xbcc49a1f	-0.023999272
221	0xbd1ee99e	-0.038797013
222	0x3da1b277	0.078953676
223	0x3e1bf426	0.15229854
224	0xbd503abe	-0.05083727
225	0xbdd5695d	-0.10420487
226	0x3c599d26	0.013282096
227	0x3dfcf247	0.12350898
228	0xbbc82bd9	-0.0061087427
229	0xb721650e	-9.619876e-06
230	0xbe1ccd5d	-0.15312715
231	0xbcb27705	-0.021785269
232	0x3deb5f53	0.11492791
233	0x3de7ece0	0.11324477
234	0xbc985b3e	-0.018598195
235	0xbd66161e	-0.056173436
236	0x3cd856a8	0.026408508
237	0xbd9c63ac	-0.076361984
238	0xbd23820c	-0.039918944
239	0xbbfc536b	-0.007700374
240	0x3e3a2656	0.18178686
241	0x3dc74105	0.09729198
242	0xbd68bf21	-0.0568229
243	0xbd1347f4	-0.03595729
244	0xbdab8ad2	-0.08376087
245	0x3d710af1	0.058848325
246	0x3d6283df	0.055301543
247	0x3d6f4916	0.05841931
248	0x3cf5fe07	0.030028356
249	0xbd0fad6f	-0.03507751
250	0x3e468c6d	0.19389506
251	0x3e1898f5	0.14902098
252	0xbd8ddf4d	-0.06927357
253	0x3c917d3b	0.01775991
254	0xbcf69bc0	-0.030103564
255	0x3db52812	0.088455334
