results/playPoker2.0/MoveToBet/MoveToBet-1920.onnx (onnx, 647443 bytes, 15 tensors)

action_model._discrete_distribution.branches.0.bias f4 [2]
00000000: 0000 0000 0000 0000
0.0 0.0

action_model._discrete_distribution.branches.0.weight f4 [2, 128]
00000000: 23ee 9bba 8da1 f3bb 0517 673c 724e 9c3c
00000010: e37a 613b 6ea3 103c e037 f33b 6642 b93b
00000020: 30b0 f33b ba35 cf3b 2c80 113c 08b7 08bc
00000030: 2f96 2d3a 76df 89ba 1359 19bb e05e 0bbb
00000040: 4d82 f43a 2bd9 253c cbf2 1f3c c041 f939
00000050: b677 2d3b 45c5 fa3b 4556 5bbc 0f92 88bb
00000060: 0cb1 353a 8b60 8fbc 53fc 2c3c 7b97 a1bb
00000070: 2b36 123c 5fbb 1b3c b48c 4cbc dba7 823b
00000080: 12cd 79bb 9747 053c b97a 20bc b109 c23b
00000090: ed6c e83b 8087 70bb aba3 57b8 c9ae 35bb
000000a0: 3aa2 7b3a e993 9bbb 2ad9 b93b 40a6 08bb
000000b0: 7eb0 93bc 5e4c 33b7 61e0 233c 9c53 91bb
000000c0: 638d b53a 9cd7 303b 64f3 bab9 1cd6 96bc
000000d0: 6b59 373c fd19 52bb 4761 3abc 83a7 85ba
000000e0: 680d 643c 9fc2 99bb 5e61 11bc 37e1 82bc
000000f0: f035 af39 036e 87bb 5601 333b 729d 4c3b
00000100: dfd4 733c b470 29bc 0599 6fbc 2787 46bc
00000110: 1d52 64bc ee5c 473c f921 a53c afb2 66bb
00000120: 4ec5 00bc 73b2 9f3c 3e4c 823a 164f 2f3c
00000130: 6247 54ba 8dbc 933c 133c a1bb 53b0 823c
00000140: 0b51 07bc ea6b e63b 282a a53b 7f60 b2bb
00000150: 9d23 f635 a64f 803c 2ed3 0f3c 2834 3a3b
00000160: dd35 f4bb 45ba 083c 7b26 2c3c f7c7 8e3b
00000170: f453 43bc 5a58 073b 56bd 16bc 78c9 0dbc
00000180: 650d b0bb a24a 09bc 10d8 a4bc 2f6e 9dba
00000190: d003 913b c3ec 92ba 5645 a63b ab82 26bc
000001a0: b585 123a a38c ebbb f7ed 6b3c c94b 863b
000001b0: 2ede 143c 047c 84bb 6021 f53a b8cb 4ebb
000001c0: bab7 b43a d3c0 d63b fc8b b4bc 6194 c73b
000001d0: 5dfa ce3b 8f77 e53b 7cb2 c9bb 24c3 0a3b
000001e0: f840 64bb b8b2 1d3b 8d28 1c3c 6f9a f4bb
000001f0: 11f9 203b a76d e53b 3fe1 b7bb 10d1 2e3a
00000200: 519a 18bb bf0e 5b3b 4d8b d3bb 7c4a 45bc
00000210: 15d1 73bb 4c65 49bc 745c 8a3b 214d 8b3b
00000220: 2329 6ebb edd2 07bb aef9 043c f620 37bb
00000230: e29f 213b 05ba bcb9 d3ae 413b 033e 333a
00000240: 02ce 5c3c b2fc 7abb 9d64 bf3b e51e 13bc
00000250: df4b ed3b a9ee 4bbb 40b4 4fbb e64a 01bc
00000260: 5924 8bbb dba0 923b 3709 1d3c 8f29 15ba
00000270: e588 41bb 5bdb a1bb 238b bd3b 3765 733a
00000280: 3610 363a 680c dd3b 83b4 b5bb 9dc2 1b3c
00000290: ef8c 80bb 7736 093c 6757 93bb 774e 3f3c
000002a0: b158 b639 1b72 233c 6068 743c 5fa9 b23b
000002b0: 4fa7 36bc c87e f43b 9ddb 9d3a 9538 2fbc
000002c0: 18dc b03b 32c3 cfbc bf83 513c 40d0 92ba
000002d0: 9ba5 9cba e821 fbbb fd2f cc3b a23c 683c
000002e0: 9d16 5f3c e7a0 29bb 48c0 81bc b387 4a3b
000002f0: 3aaa a3bb e574 543b f9bb 2d3b bf98 d53a
00000300: ff3e 19b9 d522 bd3c 0a99 193c 8d12 093b
00000310: 79ed 943b e082 56bc 2cfd c2bb 9b0f 843a
00000320: 5f5e 963b 1598 ecbb 575c 8e3b 78dc 36bb
00000330: 7199 a8bb 5d1c 67ba 277d b33a 5fa9 583b
00000340: 80a1 1e3c b31a 113c f816 82bc fa27 aebb
00000350: b85e 5b3b 1a34 0d3c 04ef 183b 73e1 5c3a
00000360: 9b94 0bbc 9f68 7cbc db98 bb3b 828f 37bb
00000370: c7c7 56bc 812b 2bbb 58f3 d2ba eba4 34bc
00000380: 82c8 f5bb 5892 583b 21ed 833c 8731 023c
00000390: 26a6 2abb 2ba6 bfbb 13a6 04bc 983c a43c
000003a0: d777 35bb 85d2 9bb9 406a 4a3c b4f8 a93b
000003b0: 4ac1 f9bb 9255 44bc bc80 a4bb 2982 b2bb
000003c0: 1df8 51bb 9b32 8c3b 37bf 653b ce0e c239
000003d0: 9b01 10bc 06d2 203c a2b9 f23b 0b24 2f3c
000003e0: 18a0 ecbb 2369 33bb 5eec b83b cfae 32bb
000003f0: 85d4 fabb fc4b 3cbb 4553 d43b 78aa 323b
-0.0011896532 -0.00743503 0.014104609 0.019080374 0.0034405522 0.008828027 0.0074224323 0.0056536673
0.0074367747 0.0063235434 0.008880656 -0.008344419 0.00066218054 -0.0010518867 -0.002339904 -0.0021266267
0.0018654555 0.010122578 0.009762476 0.00047541969 0.0026469058 0.007652911 -0.0133872675 -0.004167802
0.0006930984 -0.01750209 0.010558206 -0.004931388 0.008924047 0.009505122 -0.012484718 0.003987295
-0.0038116616 0.008134744 -0.009794884 0.0059215655 0.007093063 -0.0036701858 -5.1412422e-05 -0.0027722588
0.0009599064 -0.004747857 0.00567164 -0.0020851046 -0.018028494 -1.0687012e-05 0.010002227 -0.004435016
0.0013851341 0.0026983982 -0.00035658025 -0.018412642 0.0111907525 -0.0032058947 -0.011375732 -0.0010197017
0.013919212 -0.00469239 -0.008873312 -0.015976531 0.00033418788 -0.0041329875 0.0027314029 0.0031221774
0.014882295 -0.010341812 -0.014623885 -0.012117184 -0.013935593 0.012168152 0.020157801 -0.0035201719
-0.007859541 0.01949427 0.0009940935 0.010700008 -0.0008097795 0.018034244 -0.0049204915 0.015953219
-0.008259068 0.0070319073 0.005040426 -0.005443632 1.8338793e-06 0.01566298 0.0087783765 0.0028412435
-0.00745271 0.008345191 0.010507221 0.0043573338 -0.011921871 0.0020652027 -0.009200415 -0.008653991
-0.0053726905 -0.00837961 -0.020122558 -0.0012010987 0.0044255033 -0.0011209477 0.0050741835 -0.01016299
0.0005589382 -0.007188396 0.014399997 0.0040983898 0.009086175 -0.004043104 0.0018701963 -0.0031554531
0.0013787665 0.006553748 -0.022039406 0.006090686 0.0063164667 0.007002778 -0.00615531 0.0021173442
-0.0034828763 0.0024062824 0.009531152 -0.007464699 0.0024562518 0.007001597 -0.005611568 0.0006668726
-0.002328534 0.0033425537 -0.006455815 -0.012041684 -0.003720348 -0.012292217 0.004222447 0.004251138
-0.0036340437 -0.0020725087 0.008116169 -0.002794323 0.0024661948 -0.0003599675 0.0029553666 0.00068375486
0.01347685 -0.003829759 0.0058408515 -0.008979534 0.0072417106 -0.0031117594 -0.003169313 -0.007891392
-0.0042462763 0.004474742 0.0095847165 -0.00056900916 -0.0029531058 -0.0049394793 0.0057844087 0.00092847965
0.00069451646 0.0067458637 -0.0055452003 0.009506849 -0.0039230506 0.008374802 -0.004496503 0.011676422
0.00034779825 0.009975935 0.014917463 0.0054523195 -0.011148288 0.0074614026 0.0012043599 -0.010694643
0.005397331 -0.025361631 0.012787758 -0.0011200979 -0.001195121 -0.007663954 0.0062313066 0.014174612
0.013616231 -0.0025883259 -0.015838757 0.0030903637 -0.004994658 0.0032418307 0.0026509746 0.0016296132
-0.00014614685 0.023087898 0.009374866 0.0020915598 0.0045449105 -0.0130927265 -0.0059505906 0.0010075452
0.0045888866 -0.007220278 0.004344504 -0.0027902406 -0.0051452448 -0.0008816177 0.0013693915 0.0033059937
0.009682059 0.008856463 -0.015880093 -0.005314824 0.0033473205 0.008618379 0.0023335824 0.00084259285
-0.008519317 -0.015405803 0.005725009 -0.0028009121 -0.013109154 -0.002611846 -0.0016094251 -0.011025648
-0.007500709 0.0033046212 0.016104283 0.007946379 -0.0026038974 -0.005848666 -0.008096236 0.020048425
-0.0027689838 -0.00029720753 0.012354434 0.0051871184 -0.007621919 -0.011983292 -0.005020229 -0.005447645
-0.0032038756 0.0042784936 0.00350566 0.00037013594 -0.008789445 0.0098156985 0.007407383 0.010689746
-0.007221233 -0.0027375899 0.0056434115 -0.0027264839 -0.007654729 -0.0028731814 0.006479653 0.0027262252

action_model._discrete_distribution.branches.1.bias f4 [6]
00000000: 0000 0000 0000 0000 0000 0000 0000 0000
00000010: 0000 0000 0000 0000
0.0 0.0 0.0 0.0 0.0 0.0

action_model._discrete_distribution.branches.1.weight f4 [6, 128]
00000000: 3285 bcbc e60e 12bc e25c 4abb 0b8e f6bb
00000010: f17b 203b e066 e83b d0a5 2dbb faa9 68bc
00000020: 37d3 943a c533 a3bb bc13 c43b b3f9 b03b
00000030: e5ed 8f3b 3a23 7d3c 405f f6bb 66e7 06bb
00000040: 8e8c 3cbb 329a 29bc aa77 723b 4252 4cbc
00000050: 87d5 c23a 1338 063c 58f9 833c 282c 2e3c
00000060: effc 11bb 6786 8abb cfb5 1dbc 1f37 033c
00000070: 1b07 b03b 2b14 fe3b b156 1fbb 4397 3ebc
00000080: fab7 20ba 2061 ce3b 8a95 a23b a0d4 11bc
00000090: 06eb b13c faee 4ebc b323 14bc e219 b33b
000000a0: b86a 973b ee55 90bc 7818 d03b 1ba4 7bbb
000000b0: 065d 2cbc e457 31bc 33f0 b43b 0558 32bb
000000c0: 5dce 573c f5bf 013c 4d73 7cbc 7833 f2bb
000000d0: 72ab 5bb9 bb4c c3bc 585e f43b 570a adbb
000000e0: 470b bc3c 6f3c b43b 8faa 8ebb 490e 483c
000000f0: 6d76 faba 010f 313b c694 073c ff33 a6bb
00000100: ed22 a33c c596 dcbb dd30 cf3b 52a9 373c
00000110: bf34 34bc aa11 e23b 0b22 453c 0193 103b
00000120: 5dc3 503a af5e 463c 5dae 4c3b ac09 b8bb
00000130: 6298 dfba 6b6b 19bc db27 463c f254 efba
00000140: 23cd 4ebc fb53 b6bb f73f c73b e3b0 13bc
00000150: 707a 603b c76a 003c bc20 a33a 03d0 f83b
00000160: 12f2 20bb d822 9a3c 6043 4a3c 90dd 24ba
00000170: 9fdc 013c e840 fd3b e28c 813b 82b1 a53a
00000180: 739b 8bbc d7bf 273b 2394 303b 0f33 47bb
00000190: 1b8b 0fbc 4b7b 51bb 9afc bfbb e760 053c
000001a0: d2c9 5a3b e796 26bc 0871 2e3c f678 2bbb
000001b0: 7f2a d53b 6b38 33bc d56b cebb b32d b5ba
000001c0: 96b7 003c 4743 533a 6b59 0abc 6ae7 ab3b
000001d0: 7297 50bc 4d84 a0ba 14ca b53b cb25 1f3c
000001e0: a5cb 75bc b4fe 213c 5826 12bb a21a e7ba
000001f0: fc5c 433b 48aa 233c 93da eabb 5725 6a3b
00000200: f236 4fbc 82a1 463c c31e 0c3c db02 863b
00000210: ddb3 8d3c 34f9 b53b c37e aebb 2b40 3f3c
00000220: ff60 93b8 83a5 99bb e743 773b 9b23 b53b
00000230: db2b 1b3c c350 99ba 09ad 8f3c eb08 edbb
00000240: 7bbe 8b3b 27ac 7cbc b4be b7bb b7c8 67bc
00000250: f291 483c 061c 383c 5149 84bb 27b8 ae3b
00000260: 7760 da3b 42ab 7aba 33bc 4bbb 331a 703c
00000270: 832b 33bc e29a 00bc 40b4 25bc 7252 24bc
00000280: 2def 703b 62df 373c 1310 5db9 0bce dcba
00000290: f4e1 43bc 3581 4d3c 8a32 6bbc 35b3 b2bb
000002a0: 01ac 393c 8ddb 3d3c cec7 14bb 5af4 453c
000002b0: 38db 783b d342 4a3c 935d e4bb 7a6b 4dbb
000002c0: ea6e a6bb 3f4b 0a39 632b bb38 9f69 a6bb
000002d0: 77ec 19bb 5856 1e3c 3bfa 36bc d605 323c
000002e0: 0356 93bc b550 36bc 62af 703c 6027 7e3c
000002f0: f90b 20bc 63e2 56b9 5feb 583c 0543 453a
00000300: 2b04 f0bb 5670 8bbb 9a58 fd3b 4cab 133c
00000310: ac5f 96ba 082c 61bb db7b 10bc 2ab2 b53a
00000320: c5e7 e53a 441f a83c 927c f4bb 4a10 bc3c
00000330: a61d 1abc cb78 d5ba 1403 8ebc 3145 13bc
00000340: f0bd f7bb cba1 0fbc 7bc3 223a 9f7c 8139
00000350: 48c9 4c3c 04c5 40bb fad2 14bc b0d7 3b3c
00000360: 77e9 5ebc e7ec 173b 2a65 9b3a 6961 07bb
00000370: a3ba 1c3b e2b5 36bb 52d4 683b 52ba 04ba
00000380: a8c2 78bc 1c40 1d3c 60ce 393c c5e5 a53c
00000390: 7b63 d63b 657b 8fbc 333f 9bbb a7b6 35bc
000003a0: f374 c3ba 02b7 9b3a 4332 663c d843 f53a
000003b0: 99ee 483b 5f98 0abc fb9f ee3a e6a3 09ba
000003c0: 49f4 a8ba 457d f6ba b408 923b a778 7bbc
000003d0: 6e6c 92bb 1c27 81bb d7a7 a3bb 78e9 553c
000003e0: 9303 823a 8e1c c03a df76 c5bb 0331 dbbb
000003f0: f639 413c dd52 7fbb a954 95bc f3e9 afb8
-0.023012731 -0.008914685 -0.0030878116 -0.007524257 0.0024487937 0.007092342 -0.0026496537 -0.014200682
0.0011354451 -0.0049805366 0.005983798 0.00540086 0.004392373 0.015450293 -0.007518679 -0.0020584702
-0.00287703 -0.010351704 0.0036997595 -0.012470784 0.0014864661 0.00819208 0.016110107 0.010630645
-0.0022276004 -0.004227448 -0.009625866 0.008008747 0.005371941 0.007753869 -0.0024313147 -0.011632743
-0.000613093 0.0062981993 0.004961674 -0.008900791 0.021718513 -0.012630219 -0.0090417145 0.005465732
0.004620876 -0.0176191 0.006350573 -0.0038397375 -0.010520225 -0.010824177 0.005521798 -0.0027213108
0.013171759 0.007919301 -0.015408349 -0.0073913895 -0.00020949336 -0.023840299 0.0074575357 -0.0052807736
0.022954596 0.0055003683 -0.0043538283 0.012210437 -0.001910878 0.0027017 0.008275216 -0.0050721164
0.019914115 -0.0067318403 0.0063229636 0.011209803 -0.010998904 0.0068990784 0.012032042 0.0022060277
0.0007963682 0.012107535 0.0031231858 -0.0056163874 -0.0017058963 -0.009363989 0.012094463 -0.0018259569
-0.012622151 -0.0055642105 0.0060806233 -0.009014341 0.0034252666 0.007837958 0.0012445669 0.0075931563
-0.0024558348 0.018815443 0.012345165 -0.0006289119 0.007926135 0.0077286847 0.003953562 0.0012641402
-0.017041897 0.0025596523 0.0026943765 -0.0030395424 -0.008761193 -0.0031964357 -0.00585897 0.008140779
0.0033384454 -0.010167814 0.010647066 -0.0026164628 0.00650531 -0.010938744 -0.0062994757 -0.0013822824
0.00785627 0.00080590363 -0.0084441705 0.0052460926 -0.01273142 -0.001224646 0.005547771 0.0097136
-0.015002166 0.009887386 -0.0022300687 -0.0017631839 0.0029810062 0.009989329 -0.0071671694 0.0035727823
-0.012647377 0.012123467 0.008552256 0.004089696 0.01729768 0.005553389 -0.00532517 0.011673014
-7.027573e-05 -0.00468892 0.0037729682 0.005527926 0.009470905 -0.0011697043 0.017538564 -0.007233729
0.0042646504 -0.015421904 -0.0056074504 -0.014146975 0.012241827 0.01123715 -0.0040370603 0.0053320113
0.0066643315 -0.00095622626 -0.0031087517 0.014654684 -0.010935667 -0.007849427 -0.010113776 -0.010029422
0.0036763654 0.011222692 -0.0002108219 -0.0016846074 -0.011955727 0.012543012 -0.014355311 -0.005453492
0.011332513 0.0115879895 -0.00227021 0.012082184 0.0037972461 0.012345034 -0.0069691627 -0.0031344579
-0.00507914 0.00013188737 8.924936e-05 -0.005078509 -0.0023486891 0.009664141 -0.011168058 0.010865649
-0.01798535 -0.0111276405 0.014690252 0.015512317 -0.0097684795 -0.00020492966 0.013239711 0.00075249403
-0.0073247156 -0.004255335 0.0077315094 0.009013008 -0.0011472604 -0.003435852 -0.008818592 0.0013862301
0.0017540386 0.020522721 -0.007461139 0.022956986 -0.009406483 -0.001628661 -0.017335452 -0.0089886645
-0.007560484 -0.008766602 0.00062089384 0.00024697647 0.012499161 -0.0029414305 -0.009083504 0.011464998
-0.013605467 0.0023181976 0.0011855711 -0.0020657426 0.0023914955 -0.0027879407 0.0035526943 -0.0005063164
-0.015183128 0.009597804 0.011340708 0.020251164 0.0065426207 -0.017514894 -0.0047377585 -0.011090911
-0.0014912173 0.0011880102 0.014050069 0.0018712236 0.0030659793 -0.00845918 0.0018205637 -0.0005250558
-0.0012890185 -0.0018805644 0.004456604 -0.01534859 -0.004468492 -0.00394143 -0.0049943733 0.013056152
0.0009919278 0.0014656947 -0.0060261334 -0.0066891923 0.011793604 -0.0038959302 -0.018228846 -8.388227e-05

action_model._discrete_distribution.branches.2.bias f4 [10]
00000000: 0000 0000 0000 0000 0000 0000 0000 0000
00000010: 0000 0000 0000 0000 0000 0000 0000 0000
00000020: 0000 0000 0000 0000
0.0 0.0 0.0 0.0 0.0 0.0 0.0 0.0
0.0 0.0

action_model._discrete_distribution.branches.2.weight f4 [10, 128]
00000000: 5956 a43b 5d25 32bc 6d42 85bc a95b af3a
00000010: 43ad deba 18c5 efbb 2875 bdb9 e524 57bb
00000020: f259 7dbc 05dc 5a3c e146 bc3b d5ae 46bb
00000030: f9fb c1bb fda4 f83b 3572 0c3c 7d81 403c
00000040: e25e 7bbc 6ceb 9f3b e8ba eb3b 5e51 34bc
00000050: 751f 3bbb 160d 893c e50b 823c a09f ca3b
00000060: d3e0 c33a 6e8c 473c d301 6f3b 9d83 653b
00000070: 92e8 ddba bbdd 763c 6563 24bc 1fb9 693c
00000080: 5a3b 6fba fa31 1f3c af4c 963b fa45 73bb
00000090: b731 5c3c 3320 9a3b b018 55bc a76c b4ba
000000a0: ec38 c5ba 4203 d2bb 47ab b6bb 341a 483c
000000b0: 9039 723b b87d 953b 5ace eebb 4efe 43bc
000000c0: f518 62bb bc0d ac3b 1d1f 243a 42ef eb3b
000000d0: 17f9 43bc 5531 d4ba 9f81 903c cde8 15bc
000000e0: fb20 303b 0389 333b 9a86 6abc 080c 3ebc
000000f0: f3ba 6d3a 9125 b93b 8035 8dbc bad7 fcba
00000100: 771a f2bb 2563 52bb 3b94 603b 779b f63a
00000110: 920b e1bb 1be3 d3bb 10df 75bc c348 b33b
00000120: 1b33 e239 4752 94bb ab74 c83b cb7c 5ebc
00000130: 2b3a 20bb e58a cbbb 909c abbb 847e 33bb
00000140: 8b1f fcbb cb70 393b 7867 a13b 579c 4b3c
00000150: 71cc 113c d96f 343c f643 943a 67e7 643c
00000160: 7c2e 9dba 188a 943b c5e3 e53b 9fae 9fbc
00000170: eff5 cb3b ffa5 b03b 4ea1 a73b 978a 513c
00000180: 2013 05bc bba6 77bb 003e 6e3b 3aa4 093b
00000190: 42bc 37bb d771 c6bb bfa3 7dbc 279d 6e3b
000001a0: 4899 173c a836 763b 960f 043b 7f72 a73c
000001b0: b012 a8bc 537f 54bb 17cf 69bb e677 86bb
000001c0: 560a 8b3c 5d5f b0ba 7f84 8d3a 3d33 8e3b
000001d0: 3085 2ebc 53e3 61bc 5743 37bc 323a 21bc
000001e0: 11be 9bbb 0c93 c43b 555c e0bb ba68 4e3c
000001f0: 9dd3 36bc 07a1 1e3c 9e6c 0b3c efcd ce3a
00000200: f8f1 fd3b ef61 c5bb d387 8abb ff53 563c
00000210: 734a 5439 bf8f e33a a008 a13b 1fe2 38bc
00000220: d3e1 78bb 0409 113c 97eb 9abb 8dc7 953b
00000230: 17dd 0b3b 8f61 333c 203a 7b3a 4fcb ed3c
00000240: 3a8a 7dbc e71c 423c ca6a 8e3a e5ba 82bb
00000250: ee3e 003c 0fa0 183c 8330 433b b2e8 b1bb
00000260: 7449 0e3a 632b b73b 0fa0 79bb 2d25 fc3b
00000270: 618a 0c3c c7ef 7dba a738 863b fd29 913b
00000280: 485f 2a3a 44f6 3d3c f9b9 84bc b583 30bc
00000290: f849 903c 426e 6b3c a416 023c 4baa 983b
000002a0: 1adf f8bb c310 573b 1a47 873b 48f3 6ebb
000002b0: 9bc3 c13a 9aa7 a8bb 8381 793b 2862 afbb
000002c0: 7fb8 c9ba 23ce 55bb eaa0 44bb 03b4 06bc
000002d0: 572a 3a3b 4660 25bc 4bc4 23bc 4b30 163c
000002e0: 5545 d2bc 133b e2bb 1a3c 8eba 30f3 7abc
000002f0: 7b84 04bc dffc 283c a796 063c effb bfbb
00000300: fbe5 ef3b 7ff2 fa3b e39a f4bb f0a5 e539
00000310: bb28 0e3c 9786 20bc 82e8 7e3b c996 25bc
00000320: f779 823a 25dc d7bb 8d05 5abc 640e 39ba
00000330: 10a4 933c 2a7d ee38 25c4 a3bb cf60 eaba
00000340: e76a fb3a 7f7e eebb 33b5 283c c596 943b
00000350: 8141 ba3b 65cd 803b 6f54 ad39 9f18 b7bb
00000360: ef32 483c 642a 06bb 7396 f63b 521f 7f3b
00000370: b2f2 14bc 33ea 16bc 9720 f63a 21f0 a23c
00000380: 3176 073b eb95 0fbc 12db f33a e32b bc3a
00000390: a02b 6e3c 73ad 5a3b 9e8a 12bc 6977 383c
000003a0: abcc 1d3c 4f74 29bc b116 8c3c 8637 063c
000003b0: 75f1 b73b 4a7a 22b9 3a51 773b bca2 203c
000003c0: 93a4 2bbc a7c4 5f3c a15b 903a 7d99 e73b
000003d0: 5318 27bc f767 0abb 139c 7fba 8a2e d63b
000003e0: da8b 72bc 1999 153c 7fd5 19bb 3c88 22bc
000003f0: 118b baba bc8c 463c eb60 e73b 3b8d 3e3c
0.0050151763 -0.010873166 -0.016267026 0.0013378757 -0.0016988892 -0.0073171966 -0.00036136177 -0.0032828387
-0.015463339 0.013358121 0.005745754 -0.003031661 -0.00591993 0.0075880275 0.008572151 0.011749622
-0.015342446 0.0048803594 0.007193912 -0.011005728 -0.0028552685 0.016729873 0.015874812 0.0061835796
0.0014944322 0.012179477 0.0036469593 0.0035021075 -0.0016930273 0.015067513 -0.010033463 0.014265328
-0.00091259705 0.009716505 0.004586778 -0.0037120567 0.013439587 0.0047035455 -0.013006374 -0.0013765291
-0.0015046871 -0.00640908 -0.005574617 0.012213279 0.003696058 0.004562106 -0.0072877826 -0.011962486
-0.0034499739 0.0052506607 0.000626074 0.0072001526 -0.011961243 -0.0016189018 0.017639933 -0.009149742
0.0026875127 0.0027394898 -0.014314318 -0.011599548 0.000906869 0.00565023 -0.017237425 -0.0019290366
-0.0073884088 -0.0032102552 0.003426804 0.0018814643 -0.0068678344 -0.006466282 -0.0150067955 0.0054713204
0.00043144156 -0.00452641 0.0061174235 -0.013579558 -0.0024448733 -0.006211626 -0.0052371696 -0.0027388642
-0.00769419 0.002829599 0.0049256645 0.012427411 0.00889884 0.011012995 0.0011311758 0.013971186
-0.0011992003 0.0045330636 0.0070156776 -0.019492446 0.006224386 0.005390882 0.0051156646 0.01278939
-0.008122236 -0.0037788588 0.0036352873 0.0021002428 -0.0028035794 -0.0060560512 -0.015480935 0.0036409588
0.009252854 0.0037569199 0.0020150892 0.020440338 -0.020516723 -0.0032424524 -0.0035676414 -0.0041036485
0.016972702 -0.0013456155 0.0010796933 0.004339604 -0.010651872 -0.0137871085 -0.011185489 -0.009840535
-0.0047528823 0.0059989747 -0.0068469443 0.012598211 -0.011158851 0.009681947 0.008509783 0.0015777926
0.007749792 -0.0060236375 -0.0042276173 0.01308155 0.0002024563 0.0017361565 0.0049143583 -0.01128438
-0.0037976399 0.008852247 -0.0047277915 0.0045709074 0.0021341497 0.010948553 0.00095835514 0.02902761
-0.01547485 0.011847711 0.0010865566 -0.0039895647 0.007827504 0.009315505 0.0029783554 -0.005429351
0.00054278155 0.005589889 -0.0038089787 0.0076948614 0.008577914 -0.00096869137 0.004096109 0.004430054
0.00064991834 0.011594359 -0.01620196 -0.010773589 0.017613396 0.014369549 0.007939968 0.0046589724
-0.007594955 0.0032816387 0.004128349 -0.0036460925 0.0014783026 -0.005146933 0.003807158 -0.0053522773
-0.0015390067 -0.0032624088 -0.0030003139 -0.008221629 0.0028406584 -0.010093754 -0.00999553 0.009166787
-0.025667826 -0.006904015 -0.0010851652 -0.0153167695 -0.008088226 0.010314195 0.008214629 -0.0058588902
0.007321117 0.0076583023 -0.007464753 0.00043801917 0.008676703 -0.009797714 0.003889591 -0.010106751
0.0009954561 -0.0065875226 -0.0133069875 -0.00070593343 0.018022567 0.00011372038 -0.0049977475 -0.0017881634
0.001918164 -0.007278263 0.0102971075 0.0045345747 0.005684078 0.003930735 0.0003306004 -0.005587652
0.012219175 -0.0020472044 0.007525259 0.003892858 -0.009091066 -0.009211111 0.0018778023 0.019889893
0.0020669813 -0.008763771 0.0018604717 0.0014356341 0.014536768 0.0033367544 -0.008944182 0.011258938
0.009631316 -0.010342672 0.017100664 0.008191949 0.0056135007 -0.0001549508 0.0037737624 0.009804424
-0.010476249 0.013657725 0.0011013636 0.007067858 -0.01019867 -0.0021119097 -0.0009750735 0.0065363096
-0.014803851 0.00913074 -0.00234732 -0.009920176 -0.0014232119 0.012118515 0.007061114 0.011630352

discrete_action_output_shape f4 [1, 3]
00000000: 0000 0040 0000 c040 0000 2041
2.0 6.0 10.0

network_body._body_endoder.seq_layers.0.bias f4 [128]
00000000: 0000 0000 0000 0000 0000 0000 0000 0000
00000010: 0000 0000 0000 0000 0000 0000 0000 0000
00000020: 0000 0000 0000 0000 0000 0000 0000 0000
00000030: 0000 0000 0000 0000 0000 0000 0000 0000
00000040: 0000 0000 0000 0000 0000 0000 0000 0000
00000050: 0000 0000 0000 0000 0000 0000 0000 0000
00000060: 0000 0000 0000 0000 0000 0000 0000 0000
00000070: 0000 0000 0000 0000 0000 0000 0000 0000
00000080: 0000 0000 0000 0000 0000 0000 0000 0000
00000090: 0000 0000 0000 0000 0000 0000 0000 0000
000000a0: 0000 0000 0000 0000 0000 0000 0000 0000
000000b0: 0000 0000 0000 0000 0000 0000 0000 0000
000000c0: 0000 0000 0000 0000 0000 0000 0000 0000
000000d0: 0000 0000 0000 0000 0000 0000 0000 0000
000000e0: 0000 0000 0000 0000 0000 0000 0000 0000
000000f0: 0000 0000 0000 0000 0000 0000 0000 0000
00000100: 0000 0000 0000 0000 0000 0000 0000 0000
00000110: 0000 0000 0000 0000 0000 0000 0000 0000
00000120: 0000 0000 0000 0000 0000 0000 0000 0000
00000130: 0000 0000 0000 0000 0000 0000 0000 0000
00000140: 0000 0000 0000 0000 0000 0000 0000 0000
00000150: 0000 0000 0000 0000 0000 0000 0000 0000
00000160: 0000 0000 0000 0000 0000 0000 0000 0000
00000170: 0000 0000 0000 0000 0000 0000 0000 0000
00000180: 0000 0000 0000 0000 0000 0000 0000 0000
00000190: 0000 0000 0000 0000 0000 0000 0000 0000
000001a0: 0000 0000 0000 0000 0000 0000 0000 0000
000001b0: 0000 0000 0000 0000 0000 0000 0000 0000
000001c0: 0000 0000 0000 0000 0000 0000 0000 0000
000001d0: 0000 0000 0000 0000 0000 0000 0000 0000
000001e0: 0000 0000 0000 0000 0000 0000 0000 0000
000001f0: 0000 0000 0000 0000 0000 0000 0000 0000
0.0 0.0 0.0 0.0 0.0 0.0 0.0 0.0
0.0 0.0 0.0 0.0 0.0 0.0 0.0 0.0
0.0 0.0 0.0 0.0 0.0 0.0 0.0 0.0
0.0 0.0 0.0 0.0 0.0 0.0 0.0 0.0
0.0 0.0 0.0 0.0 0.0 0.0 0.0 0.0
0.0 0.0 0.0 0.0 0.0 0.0 0.0 0.0
0.0 0.0 0.0 0.0 0.0 0.0 0.0 0.0
0.0 0.0 0.0 0.0 0.0 0.0 0.0 0.0
0.0 0.0 0.0 0.0 0.0 0.0 0.0 0.0
0.0 0.0 0.0 0.0 0.0 0.0 0.0 0.0
0.0 0.0 0.0 0.0 0.0 0.0 0.0 0.0
0.0 0.0 0.0 0.0 0.0 0.0 0.0 0.0
0.0 0.0 0.0 0.0 0.0 0.0 0.0 0.0
0.0 0.0 0.0 0.0 0.0 0.0 0.0 0.0
0.0 0.0 0.0 0.0 0.0 0.0 0.0 0.0
0.0 0.0 0.0 0.0 0.0 0.0 0.0 0.0

network_body._body_endoder.seq_layers.0.weight f4 [128, 850]
00000000: d4cb 86bd c77b 2d3c 89a5 79bb 0c5e 6dbd
00000010: f29e ccbc b27b 653b a5a7 103d d25c e73b
00000020: b581 f1bc 0185 393c 65c8 973c 6615 a93b
00000030: 03c8 4c3b 1ab9 65bc be1c 573c e141 95bc
00000040: 00c0 ecbc ae0b fc3c 7e6c f43b 18a1 7fbd
00000050: 6d5f 0aba 9d53 183c dfd7 1b3d 1457 3a3c
00000060: b5b9 763d 10a6 0dbc d807 853c 2c4a b7bc
00000070: dfb2 d6bc 849a 96bc 1929 32bd c685 a3bb
00000080: 967a 563d aa3a bb3c b5ee 5e3d 1547 64bd
00000090: f97e b53c 30c5 88bd 27b0 c4bc 7fdc 2bbc
000000a0: a1fd 36bd 0e82 73bc 3b37 81bc d3cb 48bc
000000b0: b9bd 8b3c 9c82 43bc 083f 403d 583a a3bc
000000c0: 5988 04bc 9497 c03c dd6a 743d fc26 543b
000000d0: ab6b 2c3c df3b 56bc eefe 773b 9961 143d
000000e0: 2d05 55bc b214 4f3d 4fb4 80bd 61a9 be3c
000000f0: 4b2e 223d 67d5 183b 35e9 85bd fa8b ec3c
00000100: 5472 4ebd fd46 dc3c f18d 373d 0101 ddbc
00000110: 8342 71bb 7fe1 73bd fb85 ae3c fddf 8d3d
00000120: acce 153d 881d b33c cdc2 2ebc 5a19 01bd
00000130: 091f 733d fa04 6a3d 71fa 5cbd fead f9bc
00000140: 294e 30bd a427 87bb 8bed 073d 1fa4 46bd
00000150: 6246 0abc 2bd8 bf3c 176f 093c 8432 093d
00000160: 6a90 813c 7f29 133d 76cb 67bd 51f6 cd3c
00000170: 0539 1abd 328b 3d3b 43e1 5a3a 24fb 0fbd
00000180: 6a87 4dbc 9722 a9bb 6688 e93b e203 273d
00000190: 233e 663d 49f2 5c3c 6fb0 e8bb e402 70bd
000001a0: ff78 073d d3ba 503c 1470 643d 8ddf 1a3c
000001b0: d3e8 1dbc 8e9c 75bb 7da0 53bc 2310 3c3c
000001c0: e87f c13a 752b 4a3d cecb 7fbc ce7f d5b9
000001d0: 4b98 013d cbe3 933c 69d6 343d 822a b43c
000001e0: 68d3 693c 1da8 74bd cdbc 1abd 804f 023d
000001f0: 8928 233d 1f5f cfba 6d12 28bb 871e 38bd
00000200: 85bc 2b3c c52b 04bb aa52 be3a 627b 6f3d
00000210: 7367 7bbb c99f d6bc 39b3 813d 3261 143d
00000220: 4b74 41bd bc5a 233d 992e cd3a 41cb 423a
00000230: 939c 08bd 0fae df3c 8ef9 aeba d24d 25bd
00000240: 0d7c b5bc 64b8 36bc 8c32 9c3c d7b2 36bd
00000250: 7ebd 51bd f1c4 613d ce41 84bd ffd6 1b3d
00000260: 2f31 7a3d 0085 fdbc 42d8 423c bdf6 2dbd
00000270: 2726 7a3c e8d8 56bc fd57 c43b 2644 d7bb
00000280: 07bc fcbc 530b 613c af84 ce3c e257 4abd
00000290: cb1c 4dbd 9543 83bb a8f7 253c f5ea 3fbc
000002a0: 2cc0 bb3c c4fb bdbd 7ed8 383c 9b7b d93c
000002b0: 349c 833c 26cf 56bc a376 61bd 8b0c 52bd
000002c0: 2168 0bbd 01b3 0cbd a927 e3bc 2df4 deba
000002d0: e1ee d0bc 5f99 5b3c 9e70 7dbc 43ef 1ebd
000002e0: 60b9 87bc 48a9 29bb 0649 173c c4fb 733b
000002f0: d133 f2b8 28b7 98bc 1669 5d3b f727 77bd
00000300: 4d66 313d 625c 9cbd 10d8 00bd c447 533d
00000310: 5ec0 84bd c84d 7abd 8460 a33a 7134 bbbc
00000320: 57e9 17bc fce7 eaba 342e d93c 809a 94bd
00000330: a76c 67bc 98f8 32bc d8ec 7abc 177c b0bd
00000340: 0e55 a8bd 88d5 3bbd 3c38 d2bc 48d5 013d
00000350: b607 c1bc 5896 223c 4f73 87bc 6b58 8ebd
00000360: 0474 213d 9b70 9abd 8425 fdbc 353f d4bc
00000370: 3d16 52bd 458d e3bc 21ad 2cbc 99e6 59bc
00000380: c113 273d da55 d7bc 8971 5e3d 771b 533d
00000390: afa7 473c eee3 08bd d1b5 ad3d 26cf 2bbc
000003a0: 38f6 263d 4a3d 823c 86f4 febb 766b 6a3c
000003b0: dffe ad3b 835d b13b 6b77 9e3d 40d3 953c
000003c0: 8be5 8ebc db5c d13c 59e7 2ebb 094f 5cbc
000003d0: f438 bdbd 4da4 c0bb e79c 983d 0bdb c1bc
000003e0: a491 48bd d6fa 0e3d 60a7 403c e6d5 1ebc
000003f0: c02f 5f3c 0715 153d 12fd 05bd f8d4 053d
-0.06581846 0.010588593 -0.0038093051 -0.05795102 -0.024978135 0.0035016355 0.03531613 0.0070606256
-0.029480794 0.0113232145 0.018528173 0.0051600216 0.0031247146 -0.014021182 0.013129411 -0.01821989
-0.028900146 0.030767288 0.0074592223 -0.06240949 -0.0005278502 0.009297279 0.038047668 0.0113733
0.060235698 -0.008645549 0.016239092 -0.022374235 -0.02620834 -0.018384226 -0.043496225 -0.0049903123
0.052363 0.022855122 0.054426868 -0.05573185 0.022155272 -0.066782355 -0.024009777 -0.010489582
-0.044675473 -0.01486255 -0.015773406 -0.012255627 0.01705824 -0.011932995 0.04693511 -0.019925281
-0.008089148 0.023509778 0.059672225 0.003237187 0.010523717 -0.013075798 0.003784116 0.03622589
-0.013001722 0.050556846 -0.06284391 0.023274126 0.03959493 0.0023320557 -0.06538621 0.02887534
-0.050402 0.026889319 0.0448131 -0.026978018 -0.0036813326 -0.05954122 0.021304121 0.06927488
0.03657405 0.021864668 -0.010666561 -0.031518318 0.05935577 0.057133652 -0.053949777 -0.030478474
-0.04304329 -0.0041245986 0.033185523 -0.04849636 -0.008439632 0.023418507 0.008388302 0.03349544
0.015815932 0.035928246 -0.05659052 0.025141867 -0.037652034 0.0028922078 0.00083496067 -0.035151616
-0.012544492 -0.005161594 0.0071268557 0.040775187 0.056211602 0.0134855 -0.0071011106 -0.058596507
0.033074375 0.012739855 0.05577095 0.009452713 -0.009638029 -0.0037477347 -0.012916681 0.011478457
0.001476285 0.04935785 -0.015612556 -0.00040721748 0.03163938 0.018052956 0.04414979 0.021992926
0.014271595 -0.059730638 -0.03777771 0.0318141 0.03983358 -0.0015821195 -0.0025645748 -0.04495099
0.010481958 -0.002016769 0.0014520485 0.058467276 -0.003836122 -0.026199238 0.06333012 0.036225505
-0.047230046 0.039881453 0.0015654146 0.00074308 -0.033352446 0.027304677 -0.001334952 -0.04035742
-0.022153879 -0.011152361 0.019067071 -0.04460415 -0.051206104 0.05511946 -0.06457864 0.038046833
0.06108206 -0.030947208 0.01189238 -0.042471636 0.015267885 -0.013113238 0.0059919343 -0.006569403
-0.030851377 0.01373561 0.025209753 -0.049400218 -0.050076287 -0.004005859 0.010129847 -0.011713733
0.022918783 -0.09276536 0.0112820845 0.026548197 0.016065694 -0.0131109115 -0.05504478 -0.051281493
-0.034034852 -0.0343504 -0.027728872 -0.0017010026 -0.025504531 0.013403266 -0.015468745 -0.038802397
-0.016567886 -0.0025888253 0.009233719 0.0037228921 -0.00011549111 -0.018642023 0.003378456 -0.060340848
0.043310452 -0.07634808 -0.031456053 0.051582113 -0.06482004 -0.061109334 0.0012464677 -0.022852154
-0.009271941 -0.001792192 0.02651129 -0.07256031 -0.014125026 -0.010923527 -0.015315257 -0.08617418
-0.08219348 -0.045857936 -0.02566158 0.03169754 -0.023563247 0.00992354 -0.016534476 -0.06950458
0.03941728 -0.07541009 -0.030901678 -0.025909046 -0.05129074 -0.027777323 -0.010539324 -0.013299608
0.040790323 -0.026286054 0.054307494 0.051539864 0.012185975 -0.033420496 0.08481944 -0.0104864
0.040762156 0.015898366 -0.0077806143 0.014307847 0.005309924 0.005412759 0.07737621 0.018289208
-0.017443439 0.025556972 -0.0026688187 -0.013446578 -0.092393786 -0.005878961 0.07451802 -0.023664018
-0.04896702 0.034907185 0.011758655 -0.009694552 0.013622224 0.036397006 -0.03271205 0.032673806

network_body._body_endoder.seq_layers.2.bias f4 [128]
00000000: 0000 0000 0000 0000 0000 0000 0000 0000
00000010: 0000 0000 0000 0000 0000 0000 0000 0000
00000020: 0000 0000 0000 0000 0000 0000 0000 0000
00000030: 0000 0000 0000 0000 0000 0000 0000 0000
00000040: 0000 0000 0000 0000 0000 0000 0000 0000
00000050: 0000 0000 0000 0000 0000 0000 0000 0000
00000060: 0000 0000 0000 0000 0000 0000 0000 0000
00000070: 0000 0000 0000 0000 0000 0000 0000 0000
00000080: 0000 0000 0000 0000 0000 0000 0000 0000
00000090: 0000 0000 0000 0000 0000 0000 0000 0000
000000a0: 0000 0000 0000 0000 0000 0000 0000 0000
000000b0: 0000 0000 0000 0000 0000 0000 0000 0000
000000c0: 0000 0000 0000 0000 0000 0000 0000 0000
000000d0: 0000 0000 0000 0000 0000 0000 0000 0000
000000e0: 0000 0000 0000 0000 0000 0000 0000 0000
000000f0: 0000 0000 0000 0000 0000 0000 0000 0000
00000100: 0000 0000 0000 0000 0000 0000 0000 0000
00000110: 0000 0000 0000 0000 0000 0000 0000 0000
00000120: 0000 0000 0000 0000 0000 0000 0000 0000
00000130: 0000 0000 0000 0000 0000 0000 0000 0000
00000140: 0000 0000 0000 0000 0000 0000 0000 0000
00000150: 0000 0000 0000 0000 0000 0000 0000 0000
00000160: 0000 0000 0000 0000 0000 0000 0000 0000
00000170: 0000 0000 0000 0000 0000 0000 0000 0000
00000180: 0000 0000 0000 0000 0000 0000 0000 0000
00000190: 0000 0000 0000 0000 0000 0000 0000 0000
000001a0: 0000 0000 0000 0000 0000 0000 0000 0000
000001b0: 0000 0000 0000 0000 0000 0000 0000 0000
000001c0: 0000 0000 0000 0000 0000 0000 0000 0000
000001d0: 0000 0000 0000 0000 0000 0000 0000 0000
000001e0: 0000 0000 0000 0000 0000 0000 0000 0000
000001f0: 0000 0000 0000 0000 0000 0000 0000 0000
0.0 0.0 0.0 0.0 0.0 0.0 0.0 0.0
0.0 0.0 0.0 0.0 0.0 0.0 0.0 0.0
0.0 0.0 0.0 0.0 0.0 0.0 0.0 0.0
0.0 0.0 0.0 0.0 0.0 0.0 0.0 0.0
0.0 0.0 0.0 0.0 0.0 0.0 0.0 0.0
0.0 0.0 0.0 0.0 0.0 0.0 0.0 0.0
0.0 0.0 0.0 0.0 0.0 0.0 0.0 0.0
0.0 0.0 0.0 0.0 0.0 0.0 0.0 0.0
0.0 0.0 0.0 0.0 0.0 0.0 0.0 0.0
0.0 0.0 0.0 0.0 0.0 0.0 0.0 0.0
0.0 0.0 0.0 0.0 0.0 0.0 0.0 0.0
0.0 0.0 0.0 0.0 0.0 0.0 0.0 0.0
0.0 0.0 0.0 0.0 0.0 0.0 0.0 0.0
0.0 0.0 0.0 0.0 0.0 0.0 0.0 0.0
0.0 0.0 0.0 0.0 0.0 0.0 0.0 0.0
0.0 0.0 0.0 0.0 0.0 0.0 0.0 0.0

network_body._body_endoder.seq_layers.2.weight f4 [128, 128]
00000000: da41 b33c cb80 e23c 61dd 4abd 1902 8e3d
00000010: bbc4 8bbc fa7a 2c3e 2536 333d f01c 19bd
00000020: 62c4 0e3e 4687 953d 4d5c 203d a601 873d
00000030: 5987 a5bd 9817 593d 300b f73d 3a7c 29bd
00000040: 1874 50bd f2ee 2dbd 15a6 623a c943 54bd
00000050: f911 e5bd 859f 33bd 6fcd 0fbc 3603 86bd
00000060: e073 813c 9456 b83d a84b 93bd 44c4 a53d
00000070: 5096 813c b602 d63d a0a8 ba3e f15e f33a
00000080: e147 93bd 50f8 c3bd 0bdb 95bd c1a7 963c
00000090: a19e 4a3d 5451 243e 39aa 0d3e a307 073d
000000a0: 676d 6c3d 67a4 d13d 3f1c 113e f239 91bd
000000b0: 87d6 20bc 5ebe 0bbe e873 d13d 65cb 11be
000000c0: c2de 05bd 72ce de3c 3e9c 71bd aef7 063d
000000d0: 6cf1 b1bc 8fec 0dbe 941c 4cbc d197 d8bd
000000e0: 4f90 4abc 8638 233d 9def 8e3b 2a86 a33d
000000f0: f155 133e 3d1e f2bd e141 0c3e 247b 5bbd
00000100: 3fb6 013d 50e1 78bb b161 e73d ed6b 55bd
00000110: 7769 0d3e 54b0 93bd 7f4f 523e fb5c 213d
00000120: 7868 30bd 0458 66bd e38e 983d 9c2a e4bb
00000130: abce 9a3d 51b7 9bbc 31fb bdba 4431 4d3d
00000140: 641f d73d 51e8 9bbc 328a e5bd 8e99 18bc
00000150: 01c0 1c3d 710d 543c 4939 5bbd 0aea 823d
00000160: 1af9 e83d a572 c53d 8ec5 3abd 89f0 90bc
00000170: 2f95 b4bd e19d 73bd fdff 49bc c94c 00bd
00000180: 4950 bc3d 2238 68be a8c7 fd3d ae17 6dbc
00000190: 1f5c aa3c ca6c f23d 00a0 cb3c cad2 5a3d
000001a0: ffb0 b7bc 2c87 423d f702 05bc c0a9 303d
000001b0: 3eae fcbd 5b4c b23c a5ff f13d 296a 803d
000001c0: e7e4 a43c 7532 b3bd 999f debd 0365 f9bd
000001d0: 3604 ce3c 6c3e bcbd 2be8 afbc dc40 13bd
000001e0: 9600 13bd 693e 9e3d 5487 8a3d 1bd7 bbbd
000001f0: 1852 9d3d 0990 f53d 8c79 a43d 30e9 973d
00000200: f26d 553d a868 423d c2d5 983d 8106 823d
00000210: 5e8f 97bd 510e be3d 6207 d3bc c6ba 00be
00000220: 1de9 0abe 1c8d 813d ebf3 b7bd 1ac5 b73d
00000230: 9867 bf3d 5381 273e f3d1 b0bd 075e 983d
00000240: 1e60 17bc 76fc 823d b70d 543d 937d 7d3d
00000250: 3349 9bbd 3ecd 373d 1e07 513d 5fc7 9fbd
00000260: 61a0 ebbd 554a c03b 1695 6dbc 4d6d 6d3e
00000270: ad4f 063d 17b3 ebbd 653f 22bd 0794 af3d
00000280: 44ca 023c 9ff1 0dbd 8f78 bcbd 88af bb3b
00000290: 9e57 9c3d 8a91 d23d 4fa3 6fbd ca55 9ebb
000002a0: 8084 d0bd 2fc2 3a3d e78f 263c 17bc ca3c
000002b0: e17e 6abd 0cd0 b4bd 9a6c dc3d e7c5 3ebd
000002c0: 7456 b7bd 2a9b cb3c 18f9 09be c326 02be
000002d0: c64a bc3d ad6b d23a 56aa b5bc 889a c83b
000002e0: 006d f8bd 75d1 17bb 4766 b13d 7d11 dcbd
000002f0: 0b3e 73bb 06c4 a03d 0195 91bc e219 07be
00000300: 0e2f 873c aa0e a83d 4a59 493d 08f5 f93d
00000310: 0cb7 993d 56ed 123c 133e 5abe feaf d23b
00000320: fc2a 3e3d 9261 493c 188c 04be eed1 d03d
00000330: 1b3e 03bc 6612 543c beb2 293d 544d 1c3d
00000340: 6adc cebd 2321 80bd e909 213e ca63 a8bc
00000350: 5a00 6b3e c37e 133d 5eee 0cbe 4b5a 6f3c
00000360: 4ead 403d 8dcb 21bc 8339 dcb8 22fe b9bc
00000370: 88cf 0abc a495 043e 89a2 15be fd3d 8d3d
00000380: 3a38 78bc bee6 49bc 53dc 0fbe 640c 483e
00000390: 69fc 5cbc 576c 13be a98a c93c a979 71bc
000003a0: 9fbc 143e fc05 823c 7d01 12bd 728d 01bb
000003b0: 3df5 89bc 2d3b 94bd e491 46bc 3aae 193e
000003c0: 6fc3 373e a27b de3d de16 173d e492 07bd
000003d0: 6dd8 8e3d 9edd 31bd 4cd3 aabd 5602 1cbd
000003e0: fb93 7ebd a3db c53b 1349 dcbc 242b 4f3d
000003f0: ec24 143e 1332 81bd 9ff0 8f3c 2c00 8abc
0.021881986 0.027649304 -0.04952753 0.06933994 -0.017061582 0.16843787 0.043752808 -0.037381113
0.13942102 0.07301192 0.039150525 0.06592111 -0.08082456 0.053001016 0.12062681 -0.041378237
-0.050891966 -0.042464204 0.0008645964 -0.051822457 -0.11185069 -0.0438533 -0.0087770065 -0.06543581
0.015802324 0.090008885 -0.07192165 0.08094075 0.015818745 0.10449736 0.36456776 0.0018567723
-0.07191444 -0.09568846 -0.0731717 0.018390538 0.049467687 0.16046649 0.13834466 0.032966267
0.05772152 0.102364354 0.14170931 -0.0709113 -0.009816772 -0.13646838 0.102271855 -0.14237745
-0.03268314 0.02719805 -0.058986895 0.03295105 -0.021721564 -0.13859771 -0.012457985 -0.10575832
-0.012363507 0.039848827 0.00436206 0.07984574 0.14388253 -0.11822174 0.13697006 -0.053584233
0.031667944 -0.0037976094 0.1129793 -0.05210488 0.13809763 -0.07211366 0.20538138 0.039395314
-0.04306838 -0.056236282 0.074491285 -0.0069630872 0.0755895 -0.01900831 -0.0014494417 0.05009581
0.10504034 -0.019031676 -0.11207999 -0.009313954 0.038269047 0.012942658 -0.05352143 0.06392296
0.11375637 0.09641007 -0.04559856 -0.017692821 -0.08817517 -0.059476737 -0.012329099 -0.031323228
0.09195001 -0.22677663 0.12391597 -0.014470978 0.02079588 0.11837156 0.024856567 0.05342368
-0.022423266 0.04749219 -0.008118383 0.043130636 -0.123379216 0.021764925 0.118163384 0.062702484
0.02012868 -0.08749858 -0.108702846 -0.121774696 0.025148492 -0.091915935 -0.021473011 -0.035950527
-0.03588923 0.077267475 0.06764093 -0.091718875 0.07681674 0.11990363 0.08030996 0.07417524
0.052106805 0.04746309 0.07462646 0.06348897 -0.07400392 0.092800744 -0.025760356 -0.12571248
-0.13565488 0.063257426 -0.089820705 0.08973141 0.09345931 0.16357927 -0.08633795 0.07439809
-0.009239225 0.06395809 0.051770892 0.061887335 -0.07582321 0.04487347 0.051032178 -0.07801699
-0.11505199 0.005868236 -0.014500877 0.23186226 0.03279083 -0.11508768 -0.03961124 0.08573156
0.007982794 -0.034654256 -0.09202682 0.005727712 0.07633899 0.102816656 -0.058505353 -0.004832004
-0.10181522 0.045595344 0.010166145 0.024747891 -0.057249907 -0.08828744 0.107629016 -0.046575453
-0.089520365 0.024854261 -0.13473928 -0.12710099 0.091939494 0.0016053818 -0.022175949 0.006121937
-0.12130165 -0.0023165618 0.08662086 -0.10745523 -0.0037115838 0.078498885 -0.017771246 -0.13193467
0.01650193 0.08205922 0.04915742 0.12204939 0.075056165 0.008967718 -0.21312742 0.0064296713
0.04642771 0.012291329 -0.12944067 0.10196291 -0.008010413 0.01294384 0.041430227 0.038159683
-0.101006344 -0.0625632 0.15726437 -0.020555396 0.22949353 0.03600956 -0.13762805 0.01460893
0.047040276 -0.00987519 -0.0001050113 -0.022704188 -0.008472331 0.12947708 -0.14612783 0.06896589
-0.015150124 -0.01232308 -0.14048891 0.19535977 -0.013487914 -0.14396797 0.024602251 -0.014738479
0.14525078 0.015871994 -0.03564595 -0.0019768146 -0.016840572 -0.072378494 -0.012119744 0.15007868
0.17945646 0.10863425 0.036887042 -0.03309907 0.06974874 -0.04342424 -0.08341083 -0.038088165
-0.062152844 0.0060381456 -0.026890313 0.05057825 0.1446721 -0.06308379 0.017570792 -0.016845785

network_body._body_endoder.seq_layers.4.bias f4 [128]
00000000: 0000 0000 0000 0000 0000 0000 0000 0000
00000010: 0000 0000 0000 0000 0000 0000 0000 0000
00000020: 0000 0000 0000 0000 0000 0000 0000 0000
00000030: 0000 0000 0000 0000 0000 0000 0000 0000
00000040: 0000 0000 0000 0000 0000 0000 0000 0000
00000050: 0000 0000 0000 0000 0000 0000 0000 0000
00000060: 0000 0000 0000 0000 0000 0000 0000 0000
00000070: 0000 0000 0000 0000 0000 0000 0000 0000
00000080: 0000 0000 0000 0000 0000 0000 0000 0000
00000090: 0000 0000 0000 0000 0000 0000 0000 0000
000000a0: 0000 0000 0000 0000 0000 0000 0000 0000
000000b0: 0000 0000 0000 0000 0000 0000 0000 0000
000000c0: 0000 0000 0000 0000 0000 0000 0000 0000
000000d0: 0000 0000 0000 0000 0000 0000 0000 0000
000000e0: 0000 0000 0000 0000 0000 0000 0000 0000
000000f0: 0000 0000 0000 0000 0000 0000 0000 0000
00000100: 0000 0000 0000 0000 0000 0000 0000 0000
00000110: 0000 0000 0000 0000 0000 0000 0000 0000
00000120: 0000 0000 0000 0000 0000 0000 0000 0000
00000130: 0000 0000 0000 0000 0000 0000 0000 0000
00000140: 0000 0000 0000 0000 0000 0000 0000 0000
00000150: 0000 0000 0000 0000 0000 0000 0000 0000
00000160: 0000 0000 0000 0000 0000 0000 0000 0000
00000170: 0000 0000 0000 0000 0000 0000 0000 0000
00000180: 0000 0000 0000 0000 0000 0000 0000 0000
00000190: 0000 0000 0000 0000 0000 0000 0000 0000
000001a0: 0000 0000 0000 0000 0000 0000 0000 0000
000001b0: 0000 0000 0000 0000 0000 0000 0000 0000
000001c0: 0000 0000 0000 0000 0000 0000 0000 0000
000001d0: 0000 0000 0000 0000 0000 0000 0000 0000
000001e0: 0000 0000 0000 0000 0000 0000 0000 0000
000001f0: 0000 0000 0000 0000 0000 0000 0000 0000
0.0 0.0 0.0 0.0 0.0 0.0 0.0 0.0
0.0 0.0 0.0 0.0 0.0 0.0 0.0 0.0
0.0 0.0 0.0 0.0 0.0 0.0 0.0 0.0
0.0 0.0 0.0 0.0 0.0 0.0 0.0 0.0
0.0 0.0 0.0 0.0 0.0 0.0 0.0 0.0
0.0 0.0 0.0 0.0 0.0 0.0 0.0 0.0
0.0 0.0 0.0 0.0 0.0 0.0 0.0 0.0
0.0 0.0 0.0 0.0 0.0 0.0 0.0 0.0
0.0 0.0 0.0 0.0 0.0 0.0 0.0 0.0
0.0 0.0 0.0 0.0 0.0 0.0 0.0 0.0
0.0 0.0 0.0 0.0 0.0 0.0 0.0 0.0
0.0 0.0 0.0 0.0 0.0 0.0 0.0 0.0
0.0 0.0 0.0 0.0 0.0 0.0 0.0 0.0
0.0 0.0 0.0 0.0 0.0 0.0 0.0 0.0
0.0 0.0 0.0 0.0 0.0 0.0 0.0 0.0
0.0 0.0 0.0 0.0 0.0 0.0 0.0 0.0

network_body._body_endoder.seq_layers.4.weight f4 [128, 128]
00000000: ae11 77be 03b1 2f3e a971 96bc 50fd 1e3d
00000010: 116c b53d b7fc 0e3d 6238 adbd 03a6 ae3d
00000020: 31a8 ecbc e613 34be c4bf bbbd bf16 bb3a
00000030: 9efd dc3b a2cd 1c3d b1f9 273c 1d8c ff3a
00000040: eaf4 dfbd db30 27be 165d cebd 29c2 17bc
00000050: 2186 0c3e bbdb 563d a2d4 d8bd fe91 cd3d
00000060: 8547 bebd 1716 98bd c00a e33d e469 3f3e
00000070: 1c60 953d 154c 223d 877c edbd 5cc1 f6bb
00000080: c458 89bd f7bf 3f3d dcfa 303e 7d87 313d
00000090: 0e29 7dbd 2b4b ccbd 200d 99bc be9d 4c3d
000000a0: b3f6 f6bd 1230 ad3d 28d1 cbbc a04c 6c3d
000000b0: da99 df3c 7fee 8bbd 5220 f33d b243 4f3e
000000c0: ffc6 493d f5c8 733d e2bd 3cbe 278e 86bd
000000d0: 3703 09be 5562 fa3d 0f36 033c 80d6 a9bd
000000e0: ce56 01bd 1e03 f53d fd8a 893c 4e73 88bd
000000f0: 982b 67bd 9d1d 40bd 654b 7fbd 6321 33be
00000100: 5d3d e4bc 3617 1f3d 057c 1e3d 7b2b dfbd
00000110: b642 0fbe 03a8 593d 93a2 b7bd 5d24 fb3c
00000120: 9d4e c13d f378 8e3c 0e3c b53c 5345 c7bd
00000130: d786 c43d 7469 2cbe 1ebd 343e c53c 2d3e
00000140: b277 02bd 2491 af3d 0f76 443c a32e 8d3d
00000150: b0f0 883e 192c 6b3c a2e8 f33b 4c83 39be
00000160: 6db9 263d c583 e13c 1b01 b53d a594 41be
00000170: 76c3 0cbe 2574 1abd 8493 14be 7648 023e
00000180: f93b adbd ee28 7cbd 42e2 c7bc 831b 3c3d
00000190: 2976 033e 85a4 ccbd 5b46 2bbd 4446 003c
000001a0: b07c 83bc e6eb 95bd 3a4f 46be 8020 a23b
000001b0: ada4 30be d722 9b3c 5d2c b3bd 5be4 83bc
000001c0: 1c8e 433d 8bbf ab39 9b9e 95bd c6a5 973b
000001d0: 172b b53c 815d 9fbd 07b7 14be 68e2 f03d
000001e0: 1490 a1bd 6669 233d d7c0 a1bc 48ab 19bd
000001f0: 7ff8 8bbc 6a0f b1bd 4d17 873d 6f93 113e
00000200: 2ee5 51bc 09a7 98bd c174 953d 8ea1 7dbb
00000210: 9880 08bd 2696 c0bd a840 b4bd 31ca e9bd
00000220: cea5 a63c 8aeb b6bd 9341 20bc d39a 3dbd
00000230: 989a 12be f283 2bbc da43 bd3d 51e0 b33d
00000240: 3d97 193e adbf 0ebe 78ef 9d3d 9951 efbd
00000250: 25e7 f2bc 69c5 35bd ad22 233d 7c3c 073d
00000260: 07c0 703d 1ba2 823d 1036 923e efb9 093c
00000270: 5fac d6bd 1c43 15be 16d3 1d3d 0a89 6a3e
00000280: 08e7 e2bd 5694 2abd adce 643d 2909 f1bc
00000290: 225a 86bd 740e df3d 64c4 bcbc 47ef b8bc
000002a0: 00ce 493d a697 abbd 9654 ad3b 5eb7 973d
000002b0: d84d fabd bcdb 043e b0e1 1fbe 3f4a 173e
000002c0: b7c2 8d3c ced5 ae3c 0cc6 a33d f96a 92bd
000002d0: 6c8d 04bb 34ad d13d 6e22 43bd 9af1 c4bd
000002e0: 4f03 dbbd b584 313c 7ee9 1fbd 2734 8b3d
000002f0: 5e9e 813e 2a7c e5bd 8e5c e1bc ae5f b73c
00000300: f790 e53d b46e 10bd abe6 29be 03c1 dc3a
00000310: b23b 9c3d 4660 113e 56f3 1ebd cded a73d
00000320: 84b0 fdbd 8270 b93d 38f7 89bd 1a09 a83d
00000330: 4655 363d fa9e 903d d931 873d c8cf c5ba
00000340: c41a c03d 1f8b 55bd 7cb7 493c f2ae ff3d
00000350: 3d1c 54bd e96a 17be f3f1 e93d 11cc 48bd
00000360: 5a29 7ebd 235c 6abd d44d a43c 1daf ed3c
00000370: f8c5 003d 09c6 f9bd d6ba 123d cf05 223c
00000380: 895f c73d 7b2c e33c 81fd 14be a81d a4bd
00000390: 4fcb 15bd ec6e 323d e568 dbbd bb30 3dbd
000003a0: 66a2 d13c af52 66bd 67ba bb3d 81bf 14bc
000003b0: 8f40 303d fdae dfbd 18a4 f53d 4d35 22be
000003c0: 16b8 00be d0c9 a13d c43b 823c ec1b e13d
000003d0: 9da1 c8bb 0adb 893c 4302 21bd 729c fabc
000003e0: 5341 ce3c 335d 363d 93f4 2a3d d75b 47bd
000003f0: e293 25bc 7037 21bd bff3 c13d 6d66 393d
-0.24127838 0.17157368 -0.018364744 0.038815796 0.08858503 0.034908976 -0.0845802 0.08527758
-0.028888794 -0.17585716 -0.09167436 0.0014273747 0.0067441007 0.038282044 0.010252402 0.0019496713
-0.109353855 -0.1632723 -0.100763485 -0.0092626 0.13723041 0.052455645 -0.105874315 0.100376114
-0.09290985 -0.07426088 0.11086035 0.18692738 0.07293722 0.03962334 -0.11596017 -0.0075303745
-0.06706384 0.04681393 0.17283195 0.043342102 -0.06180673 -0.09975275 -0.018683016 0.049955122
-0.12058773 0.08456434 -0.024880007 0.057690263 0.027295042 -0.06832599 0.11871399 0.20240667
0.049262043 0.05951782 -0.1843181 -0.06570082 -0.13380133 0.122257866 0.008008494 -0.08292866
-0.031576924 0.11963485 0.016789908 -0.066626176 -0.05643806 -0.04690324 -0.06232776 -0.17493205
-0.027861292 0.038840495 0.038692493 -0.10896965 -0.13990292 0.053138744 -0.089665554 0.030656988
0.094388224 0.017391657 0.022123363 -0.097300194 0.09596031 -0.16837102 0.17650267 0.16917713
-0.03185243 0.08572605 0.011991038 0.06893661 0.2674613 0.014353775 0.0074435035 -0.18116492
0.04070418 0.027528653 0.088381015 -0.1890436 -0.13746437 -0.03770842 -0.14509398 0.12722954
-0.084587045 -0.06156247 -0.02439988 0.045924675 0.12838043 -0.09992317 -0.041815143 0.007829253
-0.016050667 -0.07320385 -0.1936616 0.004947722 -0.17250319 0.018937511 -0.08748696 -0.0161001
0.047742948 0.00032758372 -0.07305642 0.004627916 0.022115273 -0.07781506 -0.14522944 0.117619336
-0.07888809 0.039895438 -0.019745274 -0.037516862 -0.017086266 -0.08645518 0.06596241 0.14216398
-0.012810988 -0.074537344 0.0729766 -0.003870103 -0.03332576 -0.094036385 -0.08801395 -0.11415518
0.020342734 -0.08931644 -0.009781259 -0.04629023 -0.14316785 -0.01046847 0.09241457 0.08783019
0.14999099 -0.13940306 0.07711691 -0.116854854 -0.029651234 -0.044377718 0.03982799 0.033016667
0.05877688 0.063785754 0.2855687 0.008406146 -0.10482096 -0.14576381 0.038531385 0.22903839
-0.11079222 -0.04164537 0.055861164 -0.029423313 -0.0656016 0.108914286 -0.023042865 -0.022575034
0.049268723 -0.08378534 0.0052896244 0.074080214 -0.12221879 0.12974447 -0.15613437 0.14774416
0.017304761 0.021342184 0.07996759 -0.0714931 -0.0020225896 0.10238114 -0.047640257 -0.09616394
-0.106939904 0.0108348625 -0.039041035 0.06797057 0.25316137 -0.11205323 -0.027509954 0.02238449
0.112092905 -0.035261825 -0.16591899 0.001684219 0.076285735 0.14196882 -0.038806282 0.08199654
-0.12387183 0.09054662 -0.06736606 0.08204861 0.044514917 0.070615724 0.066013046 -0.0015091831
0.09380105 -0.05213463 0.0123118125 0.1248454 -0.051784743 -0.14786877 0.11423101 -0.049022738
-0.062051155 -0.057216775 0.020056643 0.029014165 0.031438798 -0.12195975 0.035822712 0.00988908
0.09735019 0.02773117 -0.14549829 -0.08013469 -0.036570843 0.043562815 -0.107133664 -0.04618905
0.025590133 -0.056231197 0.09166413 -0.009078861 0.043030318 -0.10922048 0.11994189 -0.15840645
-0.12570223 0.07899821 0.01589764 0.10991654 -0.0061227814 0.016828079 -0.039308798 -0.030592177
0.025177633 0.044522475 0.04173715 -0.04867157 -0.010106059 -0.03935951 0.09470319 0.045263696

network_body._body_endoder.seq_layers.6.bias f4 [128]
00000000: 0000 0000 0000 0000 0000 0000 0000 0000
00000010: 0000 0000 0000 0000 0000 0000 0000 0000
00000020: 0000 0000 0000 0000 0000 0000 0000 0000
00000030: 0000 0000 0000 0000 0000 0000 0000 0000
00000040: 0000 0000 0000 0000 0000 0000 0000 0000
00000050: 0000 0000 0000 0000 0000 0000 0000 0000
00000060: 0000 0000 0000 0000 0000 0000 0000 0000
00000070: 0000 0000 0000 0000 0000 0000 0000 0000
00000080: 0000 0000 0000 0000 0000 0000 0000 0000
00000090: 0000 0000 0000 0000 0000 0000 0000 0000
000000a0: 0000 0000 0000 0000 0000 0000 0000 0000
000000b0: 0000 0000 0000 0000 0000 0000 0000 0000
000000c0: 0000 0000 0000 0000 0000 0000 0000 0000
000000d0: 0000 0000 0000 0000 0000 0000 0000 0000
000000e0: 0000 0000 0000 0000 0000 0000 0000 0000
000000f0: 0000 0000 0000 0000 0000 0000 0000 0000
00000100: 0000 0000 0000 0000 0000 0000 0000 0000
00000110: 0000 0000 0000 0000 0000 0000 0000 0000
00000120: 0000 0000 0000 0000 0000 0000 0000 0000
00000130: 0000 0000 0000 0000 0000 0000 0000 0000
00000140: 0000 0000 0000 0000 0000 0000 0000 0000
00000150: 0000 0000 0000 0000 0000 0000 0000 0000
00000160: 0000 0000 0000 0000 0000 0000 0000 0000
00000170: 0000 0000 0000 0000 0000 0000 0000 0000
00000180: 0000 0000 0000 0000 0000 0000 0000 0000
00000190: 0000 0000 0000 0000 0000 0000 0000 0000
000001a0: 0000 0000 0000 0000 0000 0000 0000 0000
000001b0: 0000 0000 0000 0000 0000 0000 0000 0000
000001c0: 0000 0000 0000 0000 0000 0000 0000 0000
000001d0: 0000 0000 0000 0000 0000 0000 0000 0000
000001e0: 0000 0000 0000 0000 0000 0000 0000 0000
000001f0: 0000 0000 0000 0000 0000 0000 0000 0000
0.0 0.0 0.0 0.0 0.0 0.0 0.0 0.0
0.0 0.0 0.0 0.0 0.0 0.0 0.0 0.0
0.0 0.0 0.0 0.0 0.0 0.0 0.0 0.0
0.0 0.0 0.0 0.0 0.0 0.0 0.0 0.0
0.0 0.0 0.0 0.0 0.0 0.0 0.0 0.0
0.0 0.0 0.0 0.0 0.0 0.0 0.0 0.0
0.0 0.0 0.0 0.0 0.0 0.0 0.0 0.0
0.0 0.0 0.0 0.0 0.0 0.0 0.0 0.0
0.0 0.0 0.0 0.0 0.0 0.0 0.0 0.0
0.0 0.0 0.0 0.0 0.0 0.0 0.0 0.0
0.0 0.0 0.0 0.0 0.0 0.0 0.0 0.0
0.0 0.0 0.0 0.0 0.0 0.0 0.0 0.0
0.0 0.0 0.0 0.0 0.0 0.0 0.0 0.0
0.0 0.0 0.0 0.0 0.0 0.0 0.0 0.0
0.0 0.0 0.0 0.0 0.0 0.0 0.0 0.0
0.0 0.0 0.0 0.0 0.0 0.0 0.0 0.0
