results/playPoker2.0/MoveToBet/MoveToBet-2752.onnx (onnx, 775443 bytes, 15 tensors)

action_model._discrete_distribution.branches.0.bias f4 [2]
00000000: 0000 0000 0000 0000
0.0 0.0

action_model._discrete_distribution.branches.0.weight f4 [2, 128]
00000000: cb25 7dbc b8f2 ed38 90e5 743c fb09 383c
00000010: 87a9 913c 17f3 84b7 8f30 713b 0748 29bb
00000020: 631b 473c b072 f9bb ff02 31bc 3a2d c4bb
00000030: fad9 cab9 394b 96bc 1bda f43b 0f1a 5ebc
00000040: 27d1 e43b 2cae 27bb d89a 6bbc 2db4 14bc
00000050: d277 783c 02cf cc3b 9552 60bc cd32 cc3b
00000060: 3a4e 1c3b 16a9 223c e883 353c 4eb0 29bb
00000070: 3718 683c 7047 05bc f31f 463c b915 9d3a
00000080: 53ef 37bb cfa7 053b 003a 503b 3d7a f6bb
00000090: 8870 58bc 8afa 703a 7bfc 01bc 6c0c 8dbb
000000a0: e383 143c 342e 413c dfbe 02bc 1445 a5bb
000000b0: 8327 3aba d465 90bb f643 b83b 5c2d 95bb
000000c0: c747 623c ac62 2bbb 1ae2 c639 0d1f 1c3c
000000d0: 07ee 84bb 0fe5 0bbc 22e1 5bbb effd 6bbc
000000e0: 3841 183c ebb0 163c 1495 b13a eebb 8b3b
000000f0: 7f6c 3dbc cb67 293b 7c46 223c 0986 a0bb
00000100: 27a2 c53b fd59 7b3b a2fa 603c 4a24 673c
00000110: ab66 3cbb 4b99 22bc d11b 063c 3196 b93a
00000120: c79d 063c 7f32 8f39 ec99 4b3a a55f 1bbc
00000130: 584c c13b b7bf 8ebc ad1e b4b9 8f22 d1bb
00000140: ed56 21bb da1f 1abc a62e 49ba 39a3 453c
00000150: 11ee 2dbc b05a 663c 1be9 633c 30fc 8f3b
00000160: b548 733c f6cb 443c e74a 6c3b 2f55 3dbb
00000170: 1a26 f7bb fb49 82bc 9e41 b5bc 00e9 94bb
00000180: 9a7a 193b dec4 a7bb 4873 caba 272f fd3b
00000190: ef25 8139 229b 8ebb 3b73 4bbc 85d3 283c
000001a0: 7b1d 2a3c ba52 453c 97f4 d5bb 439f 333c
000001b0: cdc9 f3bb f3f4 72ba 327b 213c d348 1fba
000001c0: a096 7f3b 92b0 a3bb b742 9e3b 6b6a 9abb
000001d0: 65e6 82bb 9c72 243a 52d7 bb3a e24d c6bb
000001e0: 1795 553b 315f c23b 47d0 31bb dd3e 613b
000001f0: 7f23 c8bb 2447 1c3c 55aa 423c 2302 73bc
00000200: e0cd 503c dc74 333b bf27 26bb e3d4 283a
00000210: 930d f4ba 0f3e 223c a84a dabb 6b88 62b9
00000220: 33c5 663c db5b 7e3c 176e 9b3b 4a9d 0f3b
00000230: 4b21 113c 639e b5bb 096e 0d3b c263 60bc
00000240: d124 283c 087b d3bb 48f9 f3ba d774 dcb8
00000250: 285f b63b 57ad 063c 5869 643c 9567 703b
00000260: 86e2 0dbc 4bf8 38bc 3729 a9bb 9acb 10bc
00000270: 80c4 4f3c b3f3 913c 3fb2 85bb acb1 4cbb
00000280: cdd6 473b 65bf bc3b 5ce1 8a3b 1fdc 81bc
00000290: cfca bd3b 6a68 0bbb a0e9 bf3a c34d bb3b
000002a0: cc50 053c 48dd 273c 031a a53a 7549 e53b
000002b0: 8536 a339 d78c 16bc 33d4 07bc b62b 83ba
000002c0: b871 6f3b 0f27 373b 900d 5e3c eaf6 3a3c
000002d0: 3daa e03b 0f5e 81bc 738f 5bbc 75bf 583b
000002e0: 752d f33b a811 2abc ab7d 213c 776e 37ba
000002f0: c877 043c 8012 ae3b 5781 56bc 42af d7bb
00000300: ab2e 013b 0866 4d3b e37e 6fbc 3b65 fd3b
00000310: 2f4e 79ba 01ec b63b 1423 843b 8563 633c
00000320: 79fa 12bc 8eb4 11ba eb4a 32bc 5aac a1bb
00000330: 090f 24bc d7c5 3d3b 9be5 1e3c ccdb 823c
00000340: 0e50 4a3b affa 39bc 144d 213b 12c8 a3bc
00000350: 1268 df39 ec05 043c 3b18 073b 7f4e 843b
00000360: 004f 003c 1676 0bbb 2a39 1cbc 00b2 67bc
00000370: 412f 2fbc e52b 6dbb cbd5 f6ba 20b2 6ebc
00000380: 8479 3b3b fc3c 95bb 4f64 09bb 5a58 cc3c
00000390: a397 a7bb 7a08 d23b 68f0 90bb 1844 67bb
000003a0: 27c2 11bb 15ca 4dbc 1716 8f3c 3679 4c3a
000003b0: d813 93bb baf0 4fbc 82b7 413c dfdc 88bb
000003c0: 3f8f 94bb 6344 b3bb da39 ed3b fc26 0bbc
000003d0: 3224 743b 9fe0 12bc 80a4 71bb 923d acbb
000003e0: 0d79 d2bb bd5b 77ba df9c 6eba 3e68 133c
000003f0: b184 b33c 8fb4 f63b d9a1 b53a 7eab 1bbc
-0.015450905 0.000113462505 0.01494731 0.011232848 0.017781032 -1.5848824e-05 0.0036802625 -0.0025830285
0.012152526 -0.007612549 -0.010803937 -0.0059868367 -0.00038690848 -0.018346416 0.0074722893 -0.013556018
0.0069829407 -0.0025585992 -0.014380179 -0.00907616 0.015165286 0.006250263 -0.013691564 0.006231642
0.0023850338 0.009928009 0.011078812 -0.002589244 0.0141659295 -0.008134708 0.012092578 0.0011984623
-0.0028066232 0.0020394211 0.0031772852 -0.007521896 -0.013210423 0.00091926067 -0.007933731 -0.0043044593
0.009064647 0.011790801 -0.0079800775 -0.005043635 -0.00071012246 -0.00440667 0.005623336 -0.0045525264
0.013811058 -0.0026151342 0.00037933962 0.009528887 -0.0040566954 -0.008538499 -0.0033550938 -0.014403804
0.009292893 0.009197454 0.0013548457 0.0042643463 -0.011561512 0.002584922 0.0099045 -0.0048987907
0.006031293 0.0038353198 0.0137316305 0.014107773 -0.0028747718 -0.009924243 0.008185343 0.001415914
0.008216328 0.00027312708 0.00077667716 -0.009483253 0.0058989935 -0.017425401 -0.0003435513 -0.0063822935
-0.0024618462 -0.009407008 -0.00076744927 0.012062841 -0.0106158415 0.0140597075 0.013910557 0.0043940768
0.014848878 0.012011519 0.0036055387 -0.0028889885 -0.007542384 -0.015904417 -0.022126015 -0.0045443773
0.0023419023 -0.005119904 -0.0015445733 0.0077265683 0.0002463306 -0.0043519894 -0.01241761 0.010304336
0.010383005 0.012043649 -0.0065294015 0.010963264 -0.007439828 -0.00092680677 0.009856032 -0.00060762203
0.0038999692 -0.004995414 0.0048297304 -0.004712393 -0.0039947503 0.00062731816 0.0014331138 -0.006051765
0.0032590085 0.005931758 -0.00271322 0.0034369745 -0.006107747 0.009538446 0.011881431 -0.014832052
0.012744397 0.0027382886 -0.002535328 0.0006440414 -0.0018619768 0.009902491 -0.0066617317 -0.00021603859
0.014085102 0.01552483 0.0047433483 0.002191382 0.008858035 -0.005542563 0.0021580479 -0.013695659
0.010262684 -0.0064538755 -0.001861372 -0.000105121806 0.0055655427 0.008220038 0.0139411315 0.0036682833
-0.008659964 -0.011289666 -0.005162384 -0.008837605 0.012681127 0.0178164 -0.0040800865 -0.003123383
0.0030493021 0.0057601207 0.0042382907 -0.015852032 0.005791999 -0.0021271952 0.0014641769 0.005716057
0.008136939 0.010245629 0.0012596253 0.006997282 0.00031130403 -0.009188852 -0.008290338 -0.0010007534
0.0036536288 0.0027946865 0.013553038 0.011411408 0.0068562315 -0.015791921 -0.0134009 0.0033073102
0.0074211904 -0.010380186 0.009856622 -0.00069973565 0.008085199 0.005312264 -0.01309236 -0.0065821717
0.0019711654 0.0031341333 -0.0146176545 0.007733015 -0.00095102465 0.005582333 0.004032502 0.013878708
-0.00897085 -0.0005558216 -0.01088212 -0.004933876 -0.01001335 0.0028957033 0.009698297 0.015973948
0.003087047 -0.0113512715 0.0024612593 -0.019992862 0.00042611413 0.0080580525 0.0020613808 0.004037678
0.007831335 -0.0021280102 -0.009535113 -0.01414156 -0.010692419 -0.0036189493 -0.0018832026 -0.0145688355
0.0028606365 -0.004554389 -0.002096433 0.024944473 -0.005114512 0.006409702 -0.00442319 -0.003528839
-0.0022240968 -0.012560387 0.017466588 0.0007800044 -0.0044884495 -0.012691671 0.011823537 -0.0041767205
-0.004533678 -0.005470799 0.0072395625 -0.008493181 0.003725302 -0.008964687 -0.0036871731 -0.005256363
-0.006423122 -0.00094359723 -0.0009102355 0.008997021 0.021913858 0.0075288485 0.0013857438 -0.009501336

action_model._discrete_distribution.branches.1.bias f4 [6]
00000000: 0000 0000 0000 0000 0000 0000 0000 0000
00000010: 0000 0000 0000 0000
0.0 0.0 0.0 0.0 0.0 0.0

action_model._discrete_distribution.branches.1.weight f4 [6, 128]
00000000: abdb bc3c 8f51 84ba 4797 eabb dca0 3fbb
00000010: 929e 13bb ca75 9e3c 8a81 fdbb 7001 e0ba
00000020: 68cf d93b a455 3a3c c337 67bb edd7 433b
00000030: 6aba 443c 3a2f d73b 35fa 333a 507a a43b
00000040: e0ea 663c ae20 133c 0f51 0ebb 70d2 5e3c
00000050: 48f3 f3bb 1bed 323b aade 70ba 82c8 193a
00000060: 7db2 d1bc d751 d93b a78e 243c df8f 8f3c
00000070: 2339 56bc 667a 8aba 2f52 98bc f390 8aba
00000080: 576c 83bc ee8a 163c 1305 cd3b 5f72 17b7
00000090: 873e 59bc 6be7 68bb 9670 aebb da75 53bb
000000a0: 60b9 353b 55e6 8d3c 8e3e c8ba 03d6 7f3b
000000b0: a56d d9bb 7d47 873c f194 31bc 5105 c039
000000c0: cbf3 4b3c 5120 3a3b d8f7 ad3b 26f5 c1ba
000000d0: 83f9 3d3c cabd c93b 6f3c 08bc f353 8cbc
000000e0: 5827 efbb 7e7d 343b 65b3 f33b fba7 0dba
000000f0: d258 7c3b 3764 fc3b 9b06 a4ba 30ae a539
00000100: 822b e33b 1f3a 95bb 94f9 aa3a aba0 56bc
00000110: 0896 d0bb 9986 073c a2aa 683c 4b80 66bb
00000120: a247 5bbc 29b4 063c dc5d be3b cc00 22bb
00000130: 6c10 09ba 6b4e dc3b 4314 b5bb 2d6a e3bb
00000140: 831d 67bc d726 26bb 97de b6ba 3d88 613b
00000150: 3a36 9dbc a973 2cbc c715 9bbc 21e9 14bc
00000160: c3bd 87ba d03e b43b db2e 243c 77a0 53bb
00000170: 5786 583c f46d b1b9 9721 6c3c 8717 4abc
00000180: 8802 d43b 0ea9 363c 4d9c 4fbc 4225 d93b
00000190: d9b1 aa3b 3079 03bc 6e6d b1bb 8816 f13b
000001a0: 5354 b5ba 7ef1 c2bb 0900 013c cbe0 54bc
000001b0: 5e46 09bc 116d 15bc 3546 8b3b 3b67 91ba
000001c0: ff58 9b3a e475 0a3c 1b5b 95bc 5121 103c
000001d0: 6032 6e3b 70fa dfbb 3b78 01bc d285 f638
000001e0: cb31 9abb 573e 41bc d548 8c3a 53d9 803b
000001f0: b4bb bdbb a95d 88bc 97de 533c 7804 19ba
00000200: f9c8 ac3a 3545 cabb fabc 8c3c 63e9 983b
00000210: 3acf fd3a cd75 2e3c cf7c 92bc 103e 473c
00000220: a544 afba f526 ceba 1838 5abc fb12 65b9
00000230: ac25 c23a f3a3 51bb a884 283c f883 9ebc
00000240: a4a5 88bb 70ec 7dba d209 e2bb 1e00 03bc
00000250: 7088 ffbb 5ef4 b03b 5a5c fd3b 1b2e 353c
00000260: 129d bb3b 4536 a83b 17f6 01bc 373a cabb
00000270: 4275 f23b 3594 70bb ab7b 92bb 12ff 51bc
00000280: 05db ccbb 1f12 7f3c 3eec 03bc bfc4 51bb
00000290: 5f62 4bbc 4122 933a f4e3 1b3c 2ff7 7ebb
000002a0: 9b80 3dba f317 a93c 8b4d c13b fe17 0cbc
000002b0: f3f2 6b3b 50c3 fc3b 7524 e63b 4fb7 f6b9
000002c0: 80df e3bb b777 303c 38bd 70bb abd4 c3bb
000002d0: a743 24ba 221c 19bc 7ddc 103b 67be f93b
000002e0: 3ceb 2bbb de30 16bc 2b75 ca3b 2b86 a03a
000002f0: 5d9a 59bb 2d5f 303c 496c 403c 4bbc f63b
00000300: f040 45bc 3065 4f3b d8b5 3bbc d309 c33a
00000310: 8083 86bc 77b5 50bc a267 dd3a 4645 8a3a
00000320: 532e 0d3c e51d be3b f0ec b1b9 ffb8 2bbb
00000330: 4d12 26bc 1b73 733c ff2b 603a b069 f8bb
00000340: 8a30 943b 659e 55bb 4fab 59bc bc36 06bc
00000350: b794 05bc 084b fb3b 863c 10ba bda1 d93a
00000360: c8b6 df3b 6487 143c 1fe7 73bc 2523 f13b
00000370: bfa9 6d3c e371 20bc 1b7e 843b a368 83bc
00000380: cf5a 1bbc 85dd 3abc 59e8 ca3b 70ef ef3b
00000390: 9888 3a3b 98d6 4d3c d41d a43b eef4 9abb
000003a0: ff9b a3bb 004f 3fbc 6093 083c 6cbc 2f3a
000003b0: 7f45 9d3c 068b 3e3b b9b1 953b 8f66 3b3c
000003c0: 75e6 debb 13eb 2b3c 023a 693b 244f 81ba
000003d0: af32 123c 6855 caba 1c49 17bc ba39 eb3b
000003e0: 6df6 b73a 639e 76bc 89db b0ba e88a 843b
000003f0: 4889 94bb 78e3 b33a 378c c6bb 6bde 733b
0.023053965 -0.0010095107 -0.007159147 -0.0029240167 -0.0022524935 0.019343276 -0.0077363895 -0.0017090272
0.006647039 0.011372957 -0.003528104 0.002988334 0.012007335 0.006566909 0.0006865592 0.0050194636
0.0140940845 0.008979959 -0.0021715795 0.013599977 -0.007444773 0.002730197 -0.0009188453 0.0005866365
-0.025597805 0.0066320705 0.010043777 0.017524658 -0.013075146 -0.0010565042 -0.018593876 -0.0010571763
-0.016042871 0.009188397 0.0062567084 -9.0269305e-06 -0.013259537 -0.0035538326 -0.00532348 -0.003226629
0.00277289 0.017321745 -0.0015277432 0.0039037473 -0.006635385 0.01651358 -0.010838733 0.00036625055
0.0124482615 0.002840061 0.0053090863 -0.0014797791 0.011595133 0.006156658 -0.00831519 -0.017129874
-0.0072983913 0.002754062 0.007437157 -0.0005403754 0.003850509 0.007702376 -0.0012514176 0.00031601032
0.006932677 -0.0045540477 0.0013044351 -0.01309983 -0.0063655414 0.008271837 0.014200838 -0.0035171683
-0.013383778 0.0082216645 0.0058095288 -0.0024719713 -0.00052285823 0.0067232153 -0.005526097 -0.0069401474
-0.014106157 -0.002535274 -0.0013951835 0.003441348 -0.019190896 -0.010525622 -0.018931283 -0.009088785
-0.0010356236 0.005500652 0.010020937 -0.003229169 0.013215623 -0.00033841992 0.014412305 -0.012334711
0.0064700283 0.011148704 -0.012671542 0.006626756 0.0052091894 -0.008024499 -0.0054146564 0.0073574223
-0.0013834335 -0.0059491983 0.007873544 -0.012993048 -0.008378593 -0.009120242 0.0042503127 -0.0011093387
0.0011852084 0.008450959 -0.018231919 0.008797006 0.0036345944 -0.0068352744 -0.0079022 0.0001175512
-0.004705643 -0.011794648 0.0010702858 0.003932157 -0.005790198 -0.016646223 0.0129314875 -0.0005837153
0.0013182453 -0.006172801 0.017179955 0.0046664937 0.0019364126 0.010648203 -0.017881779 0.012160793
-0.0013371898 -0.0015728163 -0.013319038 -0.00021846213 0.0014812252 -0.003198859 0.010285534 -0.019350037
-0.0041701365 -0.0009686416 -0.0068981433 -0.007995633 -0.007798247 0.0054002246 0.0077319564 0.011058356
0.0057255113 0.0051334226 -0.007932208 -0.0061714905 0.007399232 -0.0036709432 -0.004470309 -0.012817161
-0.006251695 0.015568285 -0.00805193 -0.003200814 -0.01241359 0.0011225418 0.0095147975 -0.0038904657
-0.00072289415 0.020641303 0.0058991364 -0.008550642 0.0036002963 0.0077137128 0.007023389 -0.00047057352
-0.0069541335 0.01077073 -0.0036733877 -0.0059762797 -0.00062661845 -0.009345086 0.0022104078 0.0076215747
-0.002623274 -0.009166924 0.0061785183 0.0012247016 -0.003320358 0.010764879 0.011744567 0.0075297705
-0.012039408 0.0031646006 -0.011456929 0.0014880247 -0.016420126 -0.012738577 0.0016891847 0.001054921
0.008617002 0.0058019035 -0.00033936603 -0.0026202796 -0.010136199 0.014858986 0.0008551478 -0.0075809583
0.004522388 -0.0032595631 -0.013285472 -0.008191761 -0.008153132 0.0076688565 -0.0005502183 0.0016603988
0.006827209 0.009065483 -0.0148866465 0.007358926 0.014505803 -0.009792778 0.0040433533 -0.016041106
-0.0094821 -0.011405353 0.006192249 0.0073222443 0.0028462764 0.01256337 0.0050084386 -0.004728905
-0.0049929614 -0.01167655 0.008335918 0.0006703797 0.019198177 0.0029074564 0.0045683053 0.011438026
-0.006802375 0.010493058 0.0035587554 -0.0009865505 0.008923217 -0.001543683 -0.009233739 0.0071785124
0.0014035233 -0.015052411 -0.0013493161 0.004044879 -0.0045329668 0.0013724407 -0.0060591954 0.003721143

action_model._discrete_distribution.branches.2.bias f4 [10]
00000000: 0000 0000 0000 0000 0000 0000 0000 0000
00000010: 0000 0000 0000 0000 0000 0000 0000 0000
00000020: 0000 0000 0000 0000
0.0 0.0 0.0 0.0 0.0 0.0 0.0 0.0
0.0 0.0

action_model._discrete_distribution.branches.2.weight f4 [10, 128]
00000000: 4993 093c 7e54 39bc 8380 0dbc 1fdc ee3b
00000010: adfc 58bb cded e03b 01be 853a 0509 b1ba
00000020: d000 78bb f623 cc3c 142c 2b3a f786 933b
00000030: 8548 3e3c 1fd9 39bc ea4e 6abc 04b2 c9bb
00000040: c383 f93a 978a d1bb b193 043a 0ab9 b23b
00000050: d37d d2bb 57d2 84bb 4e8d aeb8 5afb b6bc
00000060: f67d 0eba fbd2 38bb 02ac a63b a0b4 e3bc
00000070: 718e b8bb a77f 103c d83e 4abb 2fd3 4a3c
00000080: 4860 ba3a 886f e33b c8c5 1639 c1d4 8a3c
00000090: e74c 2a3b bb3d 063c 936a 573b 97be ebbb
000000a0: 2731 393c 18cb 723c 758a 673b 0d9c 0b3b
000000b0: e029 03bc 138a 353c 18f2 5f3c 579c b63a
000000c0: 17ab 213c 4c17 223b dbfe 81bc 5b01 153c
000000d0: b7ae f4bb 570e a5ba 6a14 14bc 0144 18bc
000000e0: b7e0 5139 9e11 0e3b 9afb ddbb 0fab 8a3b
000000f0: 0f3e 793c 7207 8f3b 2823 d2bb 5aec 15bc
00000100: e0c9 f6bb 8a7c febb d7e8 4fbc 720f 53bc
00000110: 03f4 d33a edf6 de39 caaa 22bb 7a6d 583c
00000120: b038 913b 18e8 723c d846 0eb9 3a30 3dba
00000130: 0772 993a 7b11 2d3c df36 8abb dfcd 673b
00000140: 88e9 4a3b e364 e5bb 13ea 8ebc 2f3c 2d3c
00000150: b31b 803b 9047 613b b26d 1aba 2f91 883c
00000160: 1e86 3bbc 573c 71bb e77b 4c3b 4556 f0bb
00000170: 0c9d 81ba 5b3a 833b 5f4d 3fbb a1a6 12bb
00000180: b257 ab3a 1754 cfbb 5392 10bc ab51 433b
00000190: 97b2 41bc bd6b 8abb d367 10bc 3f94 5ebc
000001a0: 0f23 fbbb c2f6 6ebb 0da7 30ba e79a 503c
000001b0: 88f8 703b 342b 1d3b 5782 1b3c e3a8 d73b
000001c0: 30ca 1139 9070 293a 1bbb 9f3b 4590 a93b
000001d0: 119f 0c3c 15fd c13a e375 643a 6fc9 263b
000001e0: 7bd1 98bc f320 99bb 176b a93b 3a3f d6bb
000001f0: 9b1c f33a cb8e 6a3c 90ac 6ebc 8fbf fc3b
00000200: 7939 03bb 60f2 6cbc a131 c0bb 0b09 31bb
00000210: bc8b 053c d54b 183c 5546 dd3b b703 9e3c
00000220: 239c 3fbc bff6 c23b fe55 00bc 1bc7 1f3c
00000230: 8bd1 dbbb 7863 c53c a68a 0ebc 9911 8f3b
00000240: 6220 25bc 5352 493c c543 9a3b 4ee6 ad3a
00000250: 68c9 33bb 7b8b 4cbb 9a73 173b 1a60 453c
00000260: 69de 263c 9033 5f3b f792 453a a163 033c
00000270: a3c2 27bc bda1 9ebb 7764 aebb 24e5 46bc
00000280: 1ce5 9c3b 4769 21bc 83f9 50bc 38b2 e0bb
00000290: fcc0 413c 5c2f 12bc ae83 87b9 b95e 19bb
000002a0: d78d be3b baeb 173c 77f9 f3bb 45bb ebbb
000002b0: 5a07 45bc 0238 4b3b 8f0f 1b3c c909 9f3a
000002c0: d3f5 f2bb 7437 033b 672a 88bc b88f 67b9
000002d0: cf9d 963c 139e ca3b 92e8 4fbb 1444 2d3c
000002e0: f568 cbbb 7b95 42bc 78e8 7338 1e3a 9b3c
000002f0: 2fc2 3c39 b0a5 7a3b 927a b8bb e37e 60ba
00000300: 8d5c 593c 9bad 6eba 1364 36bb b362 563c
00000310: af10 023c 4b5d 233c b29f 9d3b 33dc aaba
00000320: 84d3 47bb eb0b f83b 52ca 18bb f3ff a83b
00000330: 1b89 243b 70ad 69bb 0abc 143c 0cc5 c0ba
00000340: 9f18 6a3c 1f7c 5b3b 820a aabc a0dc 653b
00000350: d826 ef3b 3c9a 193c baca 1dbc 72ff 0ebc
00000360: a9ae b13b 0f57 5f3b 150a 143b 3088 d2bb
00000370: f7f8 f8bb 0a54 2b3c 97d4 84bb ea94 ce3b
00000380: 3d35 f138 7571 9abb b0bf 65bc 7705 abbb
00000390: b7de e93b 02a6 0abc d55c 52bc c695 1b3b
000003a0: 1f8d 22bc 4557 793c a839 efbb 1679 383b
000003b0: cede 9cba 007f ec3b fa19 d43b a20d fb3b
000003c0: 2d2b be3b 055d febb 8728 463b 770d 83ba
000003d0: 088e a1bc 78a6 533c d3b5 e23b 03a1 0b3b
000003e0: 3030 a7ba 1818 85ba 9a69 57bb e0e1 79bc
000003f0: 37e7 7abc 3545 4f3b aac7 3bbc 239a 9dbb
0.008396932 -0.011311648 -0.008636597 0.007289424 -0.003310959 0.0068642856 0.001020372 -0.0013506716
-0.003784228 0.024919491 0.00065297005 0.004502173 0.01161397 -0.01134327 -0.014301041 -0.0061552543
0.001903646 -0.006394695 0.0005057408 0.0054541873 -0.006423691 -0.004053395 -8.3232866e-05 -0.02233665
-0.000543564 -0.0028201926 0.005086423 -0.02779609 -0.0056322147 0.008819497 -0.0030860212 0.012379452
0.0014219368 0.006940786 0.00014378794 0.016947152 0.0025985779 0.008193429 0.003286992 -0.007194351
0.011303223 0.014818929 0.003533033 0.002130273 -0.008005589 0.011080283 0.0136685595 0.0013932091
0.009867451 0.0024733124 -0.015868595 0.009094561 -0.0074671167 -0.0012592775 -0.00903807 -0.009293557
0.00020015506 0.002167798 -0.006774378 0.0042318176 0.01521255 0.004364901 -0.0064128824 -0.009150589
-0.0075313896 -0.007766311 -0.012689791 -0.0128821 0.0016170744 0.00042527114 -0.0024821036 0.013209695
0.0044318065 0.014825843 -0.00013568567 -0.0007216964 0.0011706956 0.01056325 -0.004217967 0.0035370511
0.003096195 -0.007000552 -0.0174456 0.010573431 0.003909552 0.003437493 -0.00058909797 0.016670791
-0.01144555 -0.0036809647 0.0031201781 -0.007334503 -0.0009888723 0.0040047592 -0.0029190404 -0.002237715
0.00130724 -0.006327163 -0.008823949 0.0029803317 -0.011822364 -0.004224269 -0.008813816 -0.013585149
-0.0076640914 -0.0036462997 -0.00067387597 0.012732244 0.003676923 0.002398205 0.009491525 0.006581412
0.00013903598 0.00064636115 0.0048745996 0.005174669 0.008582846 0.0014800156 0.0008715076 0.0025449654
-0.018654576 -0.0046731173 0.005170237 -0.006538299 0.0018547954 0.014316271 -0.014567509 0.0077132653
-0.002002327 -0.014462084 -0.005865291 -0.0027013447 0.008150991 0.0092954235 0.006752769 0.01928888
-0.011694941 0.0059498246 -0.007833002 0.00975206 -0.006708329 0.024095282 -0.008700049 0.0043661115
-0.010078521 0.012287694 0.004707786 0.0013267489 -0.002743328 -0.0031211067 0.0023109675 0.012046838
0.010184863 0.0034057833 0.0007536853 0.008019359 -0.010239276 -0.004841058 -0.005322035 -0.012139592
0.004788054 -0.00985176 -0.012754801 -0.006857183 0.011825796 -0.008922424 -0.00025847316 -0.0023402406
0.0058152485 0.00927251 -0.00744551 -0.007193955 -0.0120256785 0.0031008725 0.009464159 0.0012133654
-0.0074145584 0.0020022066 -0.016621782 -0.00022083416 0.018385796 0.0061833947 -0.0031724316 0.010575313
-0.00620758 -0.011876459 5.8152218e-05 0.01894861 0.00018001416 0.003824573 -0.005629846 -0.00085638295
0.013266695 -0.0009104849 -0.0027830645 0.013085055 0.007938548 0.009970973 0.004810297 -0.0013035595
-0.0030491063 0.00756978 -0.0023313952 0.0051574646 0.0025106135 -0.0035656355 0.009078035 -0.0014707162
0.014288097 0.003349073 -0.020756964 0.003507413 0.0072983317 0.009375151 -0.009630853 -0.008727895
0.0054224324 0.003407899 0.0022589017 -0.006424926 -0.0075980383 0.010457048 -0.004053663 0.006304373
0.00011501692 -0.004713232 -0.014022753 -0.0052191573 0.0071371454 -0.008462431 -0.012839516 0.0023740395
-0.009921341 0.015218561 -0.0073005743 0.0028148345 -0.0011968256 0.007217288 0.006472823 0.0076615373
0.005803487 -0.0077625536 0.0030236559 -0.000999852 -0.019721046 0.012918107 0.006918648 0.0021305687
-0.001275545 -0.0010154275 -0.003286934 -0.015251607 -0.015313915 0.0031626944 -0.011461178 -0.0048096343

discrete_action_output_shape f4 [1, 3]
00000000: 0000 0040 0000 c040 0000 2041
2.0 6.0 10.0

network_body._body_endoder.seq_layers.0.bias f4 [128]
00000000: 0000 0000 0000 0000 0000 0000 0000 0000
00000010: 0000 0000 0000 0000 0000 0000 0000 0000
00000020: 0000 0000 0000 0000 0000 0000 0000 0000
00000030: 0000 0000 0000 0000 0000 0000 0000 0000
00000040: 0000 0000 0000 0000 0000 0000 0000 0000
00000050: 0000 0000 0000 0000 0000 0000 0000 0000
00000060: 0000 0000 0000 0000 0000 0000 0000 0000
00000070: 0000 0000 0000 0000 0000 0000 0000 0000
00000080: 0000 0000 0000 0000 0000 0000 0000 0000
00000090: 0000 0000 0000 0000 0000 0000 0000 0000
000000a0: 0000 0000 0000 0000 0000 0000 0000 0000
000000b0: 0000 0000 0000 0000 0000 0000 0000 0000
000000c0: 0000 0000 0000 0000 0000 0000 0000 0000
000000d0: 0000 0000 0000 0000 0000 0000 0000 0000
000000e0: 0000 0000 0000 0000 0000 0000 0000 0000
000000f0: 0000 0000 0000 0000 0000 0000 0000 0000
00000100: 0000 0000 0000 0000 0000 0000 0000 0000
00000110: 0000 0000 0000 0000 0000 0000 0000 0000
00000120: 0000 0000 0000 0000 0000 0000 0000 0000
00000130: 0000 0000 0000 0000 0000 0000 0000 0000
00000140: 0000 0000 0000 0000 0000 0000 0000 0000
00000150: 0000 0000 0000 0000 0000 0000 0000 0000
00000160: 0000 0000 0000 0000 0000 0000 0000 0000
00000170: 0000 0000 0000 0000 0000 0000 0000 0000
00000180: 0000 0000 0000 0000 0000 0000 0000 0000
00000190: 0000 0000 0000 0000 0000 0000 0000 0000
000001a0: 0000 0000 0000 0000 0000 0000 0000 0000
000001b0: 0000 0000 0000 0000 0000 0000 0000 0000
000001c0: 0000 0000 0000 0000 0000 0000 0000 0000
000001d0: 0000 0000 0000 0000 0000 0000 0000 0000
000001e0: 0000 0000 0000 0000 0000 0000 0000 0000
000001f0: 0000 0000 0000 0000 0000 0000 0000 0000
0.0 0.0 0.0 0.0 0.0 0.0 0.0 0.0
0.0 0.0 0.0 0.0 0.0 0.0 0.0 0.0
0.0 0.0 0.0 0.0 0.0 0.0 0.0 0.0
0.0 0.0 0.0 0.0 0.0 0.0 0.0 0.0
0.0 0.0 0.0 0.0 0.0 0.0 0.0 0.0
0.0 0.0 0.0 0.0 0.0 0.0 0.0 0.0
0.0 0.0 0.0 0.0 0.0 0.0 0.0 0.0
0.0 0.0 0.0 0.0 0.0 0.0 0.0 0.0
0.0 0.0 0.0 0.0 0.0 0.0 0.0 0.0
0.0 0.0 0.0 0.0 0.0 0.0 0.0 0.0
0.0 0.0 0.0 0.0 0.0 0.0 0.0 0.0
0.0 0.0 0.0 0.0 0.0 0.0 0.0 0.0
0.0 0.0 0.0 0.0 0.0 0.0 0.0 0.0
0.0 0.0 0.0 0.0 0.0 0.0 0.0 0.0
0.0 0.0 0.0 0.0 0.0 0.0 0.0 0.0
0.0 0.0 0.0 0.0 0.0 0.0 0.0 0.0

network_body._body_endoder.seq_layers.0.weight f4 [128, 1100]
00000000: 4cad 91bb 78c4 5ebc 9ad8 f5bb de3b c1bc
00000010: 0cf1 fe3c cab3 503c a71e 233d f671 bebc
00000020: 6a21 c5bb 37ca 013d 970a 1a3d 4596 20bd
00000030: f1f4 ac3d de6b fcbc b657 75bc 3a2b 623d
00000040: e5c6 973c a171 86bc e31a 9c3c d59d 993b
00000050: 4ccf afba bdf9 9fbb 2363 13bd 5366 b5bd
00000060: 5a46 95bc 9e13 66bc 8857 e53b 7869 e73a
00000070: bc4d bdbc 00cf 883c 364e ddbc 0ec8 e43b
00000080: c3de 7abc 7d47 353c 0921 9d3c 6b5e 8e3c
00000090: c759 50bd 7121 a4bc d332 aebc 22c5 9cbb
000000a0: a321 0fbd 2944 56bd 5d6d 263c 6fa4 efbb
000000b0: 98bb 283d 0a18 37bd b873 55bc b314 8cbd
000000c0: fb6b f7bc 7f2f 9abc ce9d ff3b fc4c ba3c
000000d0: ac54 15bd 109e 4dbd 8c66 773d 1879 583d
000000e0: f0aa cebb 9e4f 923d 0e68 7a38 180f d13c
000000f0: 8376 d53c dcd7 71bc 190f 07bc 0e7c ec3c
00000100: f841 363d b221 a13c 5dfb 243d 8fd7 73bc
00000110: 9cbb 3abd 823e 85bc e428 fdbc bf90 1dbc
00000120: 6956 5b3c 3228 1b3d 014b 5c3c af99 bfbc
00000130: b8a6 78bb fc4b ca3c 1109 223d 4f09 c03b
00000140: fc80 03bc 7263 063b 6d64 aebb 3638 63bd
00000150: 17f5 b7b9 6b80 793d 45bc bbbd 933d a4bc
00000160: e608 81bc 5f94 14bd 6632 db3b 8261 09bd
00000170: 2fdb 673c e08d 30bd c1f4 90bc 3b69 23bd
00000180: 0f8f 06bc 3597 163c e469 08bd 2be5 eb3c
00000190: 3710 833c f4d4 c0bb 6256 02bd 23f0 be3c
000001a0: 87aa 823a 7ed4 d53c a6c4 e6bc 25ab 243b
000001b0: f0de 28bc c080 41bd f0f2 c2bc c23e 283c
000001c0: 0b46 02bd aad1 ecbc a9e5 4dbc 2566 1c3d
000001d0: 894b 603c dbf8 4b3c a609 0e3d 4747 5c3d
000001e0: 45fa 47bb 81f3 97bb 859d 303c 2105 0dbc
000001f0: 9929 daba c5d5 f33b 64a8 96bc a027 adbc
00000200: 0c14 e63a e133 59bc ee27 993c ed28 7fbc
00000210: 85eb 903c a902 5cbc 834c e8bc 947c 9e3c
00000220: b213 4eb8 c4cc efbc 7dd6 f03c 103b 37bd
00000230: 5dcc b9bc fd65 2cbd 73f6 76ba e489 88bb
00000240: 7d3c fe3b f272 10bc 06e2 0cbd 59c5 9abb
00000250: 297c e9bc ee25 e0bc e0f9 193d 1fd4 0cbc
00000260: d9f8 8ebc 753f 1c3d 677d 29bd 0a54 4cbd
00000270: d05e b93b 4d0a ac3c 239f 3bbd 6f7f 1e3c
00000280: b667 2dbc 0795 87bc 8d9f 2c3c 7523 123d
00000290: 1dad b4bc ec4a a73c bedc 30bd ad36 baba
000002a0: 5ae8 833b b7e1 b83b b92b b7bc 1398 033c
000002b0: 6514 423c 36a0 0f3d 3838 90bc ac18 52bc
000002c0: f0e9 e23b 32df 17bd 414c 9fbc 0236 2c3b
000002d0: f537 533c f192 e5bc 3b2e 3f3d e3ee c4bc
000002e0: 0ecc 513d c754 f73a ad7f bc3a 961f 56bd
000002f0: ff23 82bd 9395 00bb ad27 7a3d 9494 b03c
00000300: 434f d1bb 0d1c 0dbd 7b74 4dbd 384c 463c
00000310: 96a9 9a3c 965c 06bd c8e0 44bc fb43 933c
00000320: b027 a33d bca8 873b a8d2 24bc 506c e7bc
00000330: ef43 d4bc 0a3e 193d f6a9 8bbd feef 11bd
00000340: 0677 0b3d 49da 01bd c6b4 5cba 32a6 ff3c
00000350: fc37 debc b4f3 31bd 6fbd c0bb c564 29bd
00000360: 9de1 b5bb 043b 26bd cd09 87bc 875c 063d
00000370: c594 36bd 3df3 453d e00d ecbc fd61 e0bb
00000380: 50e6 2bbd 2f04 0ebd 236c 96bb c1e8 b9bc
00000390: deca b0bc 3250 e73c 48e6 d63c 9216 ad3c
000003a0: 3328 d5bc b3e9 d63c 1b9f 98bc 9f32 87bb
000003b0: a1da 233b 0d64 a93b 924d bc3c 6dd6 febc
000003c0: 0ebf 4d3c 8ac4 013c 27fc 66bc 19d8 7039
000003d0: 9037 483c d0eb 6abb f3d5 8b3d 0d8b 52bc
000003e0: 6068 8a3c 03d8 093d 68bf 13b9 9ba6 5f3d
000003f0: 4818 b33b ebd6 dc3c 79cf 263d bf4e d1bc
-0.0044457074 -0.0135966465 -0.0075026276 -0.023588117 0.0311208 0.012738178 0.039824154 -0.0232477
-0.006015946 0.031686988 0.037607756 -0.03920581 0.08445156 -0.030813154 -0.014974525 0.055217005
0.018527457 -0.016411604 0.01905579 0.0046880045 -0.001341322 -0.004882066 -0.035983216 -0.088574074
-0.018222023 -0.014042763 0.00699896 0.0017655334 -0.023108356 0.016700268 -0.027014833 0.006981856
-0.0153119 0.011064407 0.019180791 0.017379006 -0.05086687 -0.020035477 -0.02126447 -0.0047842423
-0.034944188 -0.052311096 0.01015791 -0.007313303 0.04119453 -0.04470066 -0.013028078 -0.068398856
-0.030202856 -0.018821476 0.007800794 0.022741787 -0.036457703 -0.05019957 0.06040053 0.05284986
-0.0063069984 0.07144092 5.9701553e-05 0.025519893 0.026057487 -0.014760938 -0.008243346 0.028867748
0.044496506 0.019669387 0.04027878 -0.014882936 -0.045589074 -0.016265158 -0.030903287 -0.00961703
0.013387301 0.03788013 0.013445617 -0.023388712 -0.003794117 0.024694435 0.039559428 0.0058604847
-0.008026358 0.0020506051 -0.0053220303 -0.05547353 -0.00035087086 0.060913485 -0.09166769 -0.020048892
-0.015751313 -0.03627431 0.0066893576 -0.033540256 0.014151379 -0.043104053 -0.017694833 -0.039895277
-0.008212819 0.009191324 -0.03330411 0.0287958 0.015998943 -0.005884761 -0.031820662 0.023307865
0.0009969034 0.0261023 -0.028169941 0.0025126424 -0.010307059 -0.047241926 -0.023797482 0.010268869
-0.03180508 -0.02890857 -0.012566962 0.03818335 0.013689884 0.0124494685 0.03467717 0.053778913
-0.0030514162 -0.004637182 0.010779743 -0.00860718 -0.0016644477 0.007441255 -0.018390842 -0.021137059
0.0017553582 -0.013256998 0.018695798 -0.015573722 0.01769043 -0.013428369 -0.028356796 0.019346513
-4.913257e-05 -0.029272445 0.029399151 -0.04473406 -0.022680456 -0.04208945 -0.0009420879 -0.0041668285
0.0077586756 -0.008816468 -0.03439524 -0.0047232327 -0.028501587 -0.027361836 0.037591815 -0.0085954955
-0.017452644 0.038146455 -0.04137936 -0.049884833 0.0056570545 0.021001006 -0.04580606 0.009673937
-0.010583809 -0.016550554 0.010536087 0.035678346 -0.022055203 0.020421468 -0.043179266 -0.0014206968
0.004025501 0.0056421417 -0.022359716 0.008031863 0.011845683 0.0350649 -0.017604932 -0.012823265
0.00692486 -0.03707809 -0.01944554 0.0026277308 0.012891759 -0.028024169 0.04667495 -0.024039691
0.051219992 0.001886987 0.0014381312 -0.052276216 -0.06354522 -0.0019620403 0.061072994 0.021555223
-0.0063876226 -0.03445058 -0.050159913 0.012103133 0.018879693 -0.03280314 -0.012016483 0.017976752
0.07966554 0.0041399878 -0.01005999 -0.02824989 -0.0259113 0.03741268 -0.06819527 -0.035629265
0.034049056 -0.031702314 -0.00084192713 0.031207178 -0.027126305 -0.043445304 -0.0058819572 -0.041355867
-0.005550577 -0.040583625 -0.016484166 0.032803085 -0.04457547 0.048327673 -0.02881521 -0.0068476186
-0.04196769 -0.03467196 -0.0045905276 -0.022693994 -0.02158111 0.028236482 0.026232854 0.021128926
-0.026020145 0.026234483 -0.018630555 -0.0041259076 0.002500214 0.0051693977 0.022986207 -0.031108106
0.012557758 0.007920394 -0.014098204 0.00022968686 0.012220278 -0.0035846122 0.06827917 -0.012850535
0.016895473 0.03365327 -0.00014090317 0.054602247 0.005465541 0.02695795 0.040725205 -0.025550244

network_body._body_endoder.seq_layers.2.bias f4 [128]
00000000: 0000 0000 0000 0000 0000 0000 0000 0000
00000010: 0000 0000 0000 0000 0000 0000 0000 0000
00000020: 0000 0000 0000 0000 0000 0000 0000 0000
00000030: 0000 0000 0000 0000 0000 0000 0000 0000
00000040: 0000 0000 0000 0000 0000 0000 0000 0000
00000050: 0000 0000 0000 0000 0000 0000 0000 0000
00000060: 0000 0000 0000 0000 0000 0000 0000 0000
00000070: 0000 0000 0000 0000 0000 0000 0000 0000
00000080: 0000 0000 0000 0000 0000 0000 0000 0000
00000090: 0000 0000 0000 0000 0000 0000 0000 0000
000000a0: 0000 0000 0000 0000 0000 0000 0000 0000
000000b0: 0000 0000 0000 0000 0000 0000 0000 0000
000000c0: 0000 0000 0000 0000 0000 0000 0000 0000
000000d0: 0000 0000 0000 0000 0000 0000 0000 0000
000000e0: 0000 0000 0000 0000 0000 0000 0000 0000
000000f0: 0000 0000 0000 0000 0000 0000 0000 0000
00000100: 0000 0000 0000 0000 0000 0000 0000 0000
00000110: 0000 0000 0000 0000 0000 0000 0000 0000
00000120: 0000 0000 0000 0000 0000 0000 0000 0000
00000130: 0000 0000 0000 0000 0000 0000 0000 0000
00000140: 0000 0000 0000 0000 0000 0000 0000 0000
00000150: 0000 0000 0000 0000 0000 0000 0000 0000
00000160: 0000 0000 0000 0000 0000 0000 0000 0000
00000170: 0000 0000 0000 0000 0000 0000 0000 0000
00000180: 0000 0000 0000 0000 0000 0000 0000 0000
00000190: 0000 0000 0000 0000 0000 0000 0000 0000
000001a0: 0000 0000 0000 0000 0000 0000 0000 0000
000001b0: 0000 0000 0000 0000 0000 0000 0000 0000
000001c0: 0000 0000 0000 0000 0000 0000 0000 0000
000001d0: 0000 0000 0000 0000 0000 0000 0000 0000
000001e0: 0000 0000 0000 0000 0000 0000 0000 0000
000001f0: 0000 0000 0000 0000 0000 0000 0000 0000
0.0 0.0 0.0 0.0 0.0 0.0 0.0 0.0
0.0 0.0 0.0 0.0 0.0 0.0 0.0 0.0
0.0 0.0 0.0 0.0 0.0 0.0 0.0 0.0
0.0 0.0 0.0 0.0 0.0 0.0 0.0 0.0
0.0 0.0 0.0 0.0 0.0 0.0 0.0 0.0
0.0 0.0 0.0 0.0 0.0 0.0 0.0 0.0
0.0 0.0 0.0 0.0 0.0 0.0 0.0 0.0
0.0 0.0 0.0 0.0 0.0 0.0 0.0 0.0
0.0 0.0 0.0 0.0 0.0 0.0 0.0 0.0
0.0 0.0 0.0 0.0 0.0 0.0 0.0 0.0
0.0 0.0 0.0 0.0 0.0 0.0 0.0 0.0
0.0 0.0 0.0 0.0 0.0 0.0 0.0 0.0
0.0 0.0 0.0 0.0 0.0 0.0 0.0 0.0
0.0 0.0 0.0 0.0 0.0 0.0 0.0 0.0
0.0 0.0 0.0 0.0 0.0 0.0 0.0 0.0
0.0 0.0 0.0 0.0 0.0 0.0 0.0 0.0

network_body._body_endoder.seq_layers.2.weight f4 [128, 128]
00000000: b214 e7bd fce8 d93c 640d a9bd 03ba 4abd
00000010: 8c06 afbc 6ba6 63bd c455 bfbc b943 2c3d
00000020: 37c5 443d 344b 363e e557 46bd 4023 c83d
00000030: cf4b 22bd 95ec 05bc fa32 acbd 30fe 76bc
00000040: b382 923d 39b9 0b3d 86d9 cfbd 61ee 8cbc
00000050: 7207 063e 69cc 5fbc d916 5c3d a7a3 033e
00000060: 9b90 b23d 7a9b d6bd 0ae7 15be 50da 83bd
00000070: 2a49 5e3d cf7b 59bd f787 433c 0a93 133e
00000080: f06b c1bd a33f 65bc 6038 25bd 4f5b 5b3c
00000090: a6be ef3c a83e 173e cb51 023d b19b 89bc
000000a0: 0bff 553c 81c8 f5bd 117b 323e 8348 823d
000000b0: 94cc d9bd 2afb 03be 1124 21be 21af 283e
000000c0: 4d6b 40bd 2b32 6e3d a322 0ebc 9399 14bd
000000d0: eaf1 34bd 9d31 9bbd 4bd7 d1bd f06b 2e3e
000000e0: d07d 8cbd 6f7b e1ba 5f46 da3d 423f 5ebc
000000f0: 611c f93d dcc1 3bbd 351c 0d3d 1199 293d
00000100: c23f 343c d3df ef3d bfb3 c2bd 8d24 57bd
00000110: faf4 923c b054 de3d 2b8e 503e 0578 263d
00000120: 4962 143d fbeb 373d 6c56 e43d fade bc3c
00000130: 76cb 0cbd 8d84 90bd d6a1 bdbd 76ed 353e
00000140: f4a1 b23d 316c d93d a245 a0bd 2e30 10bd
00000150: 5d21 3bbd 0d37 993d 5eb9 e73d 628d 603d
00000160: 4d08 00bc 5f21 a5bc 1f13 d4bb bffe 14be
00000170: 6756 ac3d 51d7 993d 3b3b 14be 5840 bcbd
00000180: 7729 30bd 5c62 b93b 1eb0 c83c 321e 37be
00000190: 7f28 febc 3ec4 c73c b44f 623e 72bb afbd
000001a0: efe1 2f3e bfa2 073e 2067 40bd b449 973d
000001b0: 3f4b 593e 17fb 093e edd2 3d3c 6a13 433c
000001c0: b133 05be 566a 273d bc45 103d bf4c 013e
000001d0: bb81 10be 1da1 d63d 9d11 42be c6ab fb3c
000001e0: 4195 15be c5f6 06bd 508c 05bd be7f 38be
000001f0: b57f 66be 319a 1fbd 01e7 bebd d186 ff3c
00000200: b0a3 16bc 43a8 35bd 4c0c 9e3d c836 593d
00000210: 0ce1 18be 1d99 d9bd f1e6 5d3e 88f7 35bd
00000220: 9ba8 71be 4520 54bd d17c de3b 2fa4 1dbe
00000230: 7683 12be 0d6e 3f3b fe41 ccbc 2412 e93d
00000240: be88 23ba 0cd8 f03d 9050 08be eb5e 12be
00000250: d5d5 d8bc f332 123d 1a2e bc3d 1104 9ebd
00000260: 55b3 ed3c 06ca e73d 567d ebbc 0e12 bfba
00000270: 3025 c3bd 4bcd 52bd 24ee 203d 11e6 843d
00000280: 7b36 773d 0fd0 8dbd f6b4 24be ceec 67bd
00000290: 037b eeba b0aa 973d 49ba 0f3e 4965 3dbd
000002a0: 893f 27bd b76e 2bba bcb3 18be 1507 2b3d
000002b0: 9e02 763d df2a 15bc ae97 16bc 71e1 a83d
000002c0: 49a2 dd3d b9d4 9abd ebfc e13d bc1a 9a3c
000002d0: a32e 3f3c b628 163d f2d0 b5bd 5b4b 6cbd
000002e0: 9a97 9b3d fb09 373e 8d14 943d 9832 953d
000002f0: cc3c 2ebd 36ec d9bd 7c03 f03c d78c 58bd
00000300: 9dcc 30bd 758e 9fbd 1afa 21bd 0f8c 423e
00000310: d463 a93d 1789 87bc 3cd5 50bc 8d85 9abd
00000320: 6ce0 aa3d a517 bb3c 75a4 82bd 40d4 1e3d
00000330: 0647 41bd 1c73 913d 2f19 2cbd c55d 32bd
00000340: 5392 943d febe b0bc 6d44 033d c729 1cbe
00000350: 6f63 ce3d 3188 86bc 9cc3 94bb 92a9 813c
00000360: 5a29 cf3c 3a81 99be 330b 0a3d 8edf 21bd
00000370: 778f aa3d ce01 eebd 2210 01be 7ae0 0bbe
00000380: de12 a03e 6d45 5abb 5466 2c3c e50b f33d
00000390: 2f4f c13d 7819 07bd 6284 ecbd b00d ef3d
000003a0: 078f e7bd 7d4c c7bd f0ed d6bd 4fe8 f53c
000003b0: 6b83 2abc 3ed4 ba3c 451d f5bc ecd5 843c
000003c0: a86b 0abd d445 f23d 4d0b c1bd 778a cc3d
000003d0: 1e1b 6ebd bd71 ccbd 55de 7abd dd1f 0cbe
000003e0: baab 423d 2d22 af3b 75f3 13bd 2fa2 1c3e
000003f0: b5e9 583d ec80 e73d 92d1 133e 9e6f a9bd
-0.11283244 0.026600353 -0.08254507 -0.0494938 -0.021365426 -0.05557863 -0.023356326 0.042056773
0.04803964 0.17802125 -0.048423667 0.097723484 -0.039623078 -0.008174081 -0.084081605 -0.015075251
0.07153835 0.03411219 -0.10148911 -0.017203512 0.13088778 -0.013659575 0.053732727 0.12855397
0.087189876 -0.104788736 -0.14638916 -0.06438124 0.054268993 -0.05309659 0.011934272 0.1441156
-0.094444156 -0.013992223 -0.040336967 0.013388469 0.029265713 0.14769995 0.031816285 -0.016797872
0.013061295 -0.12001134 0.17429759 0.06361487 -0.10634723 -0.1288878 -0.15736414 0.16473056
-0.04697733 0.058153313 -0.00867525 -0.036279272 -0.04417602 -0.07577822 -0.10246142 0.17033362
-0.06859934 -0.0017202924 0.106579535 -0.0135648865 0.12163616 -0.045839176 0.03445073 0.04140574
0.011001529 0.11712613 -0.0950694 -0.052525092 0.01793908 0.108559966 0.20366733 0.040641803
0.036226545 0.044902783 0.11149296 0.023055542 -0.034373723 -0.07056532 -0.092593834 0.17766365
0.08722296 0.10616339 -0.078257814 -0.035202198 -0.045686115 0.07481203 0.11314653 0.054822333
-0.007814479 -0.020157514 -0.006472006 -0.14550303 0.084149174 0.075117715 -0.1447572 -0.0919196
-0.043008294 0.0056574773 0.024498042 -0.17882612 -0.03102517 0.024385568 0.22100717 -0.08580674
0.1717603 0.13245676 -0.046973348 0.07387105 0.2122011 0.1347469 0.011585933 0.011906484
-0.13008 0.040872894 0.035222754 0.12626933 -0.14111988 0.10479949 -0.18952031 0.030721556
-0.14607717 -0.03295018 -0.032604516 -0.1801748 -0.22509654 -0.038965408 -0.09321404 0.031192215
-0.0091943 -0.04434992 0.07717189 0.05303076 -0.14929599 -0.10624907 0.21670128 -0.044425517
-0.23599474 -0.051788587 0.0067897816 -0.15394662 -0.14307961 0.0029209882 -0.024933811 0.11380413
-0.0006238333 0.11759958 -0.13311982 -0.14294021 -0.02646915 0.03569312 0.09188481 -0.07715619
0.029016176 0.1131783 -0.028746288 -0.0014577524 -0.09528577 -0.051465314 0.03928961 0.06489194
0.06035469 -0.0692445 -0.16084656 -0.05662232 -0.0018194619 0.07405603 0.14035906 -0.04623917
-0.040832076 -0.000653963 -0.14912313 0.0417548 0.06006109 -0.00910446 -0.009191437 0.082461245
0.10821969 -0.07560105 0.110345684 0.018811576 0.011668834 0.03665992 -0.08877744 -0.057689052
0.07597275 0.17874901 0.07230482 0.072850406 -0.04253845 -0.10640757 0.029298536 -0.05286869
-0.043163884 -0.077908434 -0.039545156 0.1899874 0.08270994 -0.016544862 -0.012746152 -0.07545004
0.08343586 0.022838423 -0.06379024 0.038776636 -0.047186874 0.071020335 -0.042016204 -0.043546457
0.07254472 -0.021575447 0.032047678 -0.15250312 0.10077559 -0.016422363 -0.00453992 0.015827928
0.025288273 -0.29981405 0.033702087 -0.03951984 0.08328145 -0.11621438 -0.1260381 -0.1365985
0.31264395 -0.003330554 0.010522444 0.11867503 0.09438931 -0.032983273 -0.115486875 0.116725326
-0.11306577 -0.09731386 -0.10494602 0.030018 -0.010407309 0.022806283 -0.029921183 0.016215287
-0.033794075 0.11829725 -0.094259836 0.099873476 -0.05813133 -0.09982631 -0.06124719 -0.1368403
0.047527052 0.0053446502 -0.03612085 0.15296243 0.052957255 0.11303887 0.14435413 -0.082732424

network_body._body_endoder.seq_layers.4.bias f4 [128]
00000000: 0000 0000 0000 0000 0000 0000 0000 0000
00000010: 0000 0000 0000 0000 0000 0000 0000 0000
00000020: 0000 0000 0000 0000 0000 0000 0000 0000
00000030: 0000 0000 0000 0000 0000 0000 0000 0000
00000040: 0000 0000 0000 0000 0000 0000 0000 0000
00000050: 0000 0000 0000 0000 0000 0000 0000 0000
00000060: 0000 0000 0000 0000 0000 0000 0000 0000
00000070: 0000 0000 0000 0000 0000 0000 0000 0000
00000080: 0000 0000 0000 0000 0000 0000 0000 0000
00000090: 0000 0000 0000 0000 0000 0000 0000 0000
000000a0: 0000 0000 0000 0000 0000 0000 0000 0000
000000b0: 0000 0000 0000 0000 0000 0000 0000 0000
000000c0: 0000 0000 0000 0000 0000 0000 0000 0000
000000d0: 0000 0000 0000 0000 0000 0000 0000 0000
000000e0: 0000 0000 0000 0000 0000 0000 0000 0000
000000f0: 0000 0000 0000 0000 0000 0000 0000 0000
00000100: 0000 0000 0000 0000 0000 0000 0000 0000
00000110: 0000 0000 0000 0000 0000 0000 0000 0000
00000120: 0000 0000 0000 0000 0000 0000 0000 0000
00000130: 0000 0000 0000 0000 0000 0000 0000 0000
00000140: 0000 0000 0000 0000 0000 0000 0000 0000
00000150: 0000 0000 0000 0000 0000 0000 0000 0000
00000160: 0000 0000 0000 0000 0000 0000 0000 0000
00000170: 0000 0000 0000 0000 0000 0000 0000 0000
00000180: 0000 0000 0000 0000 0000 0000 0000 0000
00000190: 0000 0000 0000 0000 0000 0000 0000 0000
000001a0: 0000 0000 0000 0000 0000 0000 0000 0000
000001b0: 0000 0000 0000 0000 0000 0000 0000 0000
000001c0: 0000 0000 0000 0000 0000 0000 0000 0000
000001d0: 0000 0000 0000 0000 0000 0000 0000 0000
000001e0: 0000 0000 0000 0000 0000 0000 0000 0000
000001f0: 0000 0000 0000 0000 0000 0000 0000 0000
0.0 0.0 0.0 0.0 0.0 0.0 0.0 0.0
0.0 0.0 0.0 0.0 0.0 0.0 0.0 0.0
0.0 0.0 0.0 0.0 0.0 0.0 0.0 0.0
0.0 0.0 0.0 0.0 0.0 0.0 0.0 0.0
0.0 0.0 0.0 0.0 0.0 0.0 0.0 0.0
0.0 0.0 0.0 0.0 0.0 0.0 0.0 0.0
0.0 0.0 0.0 0.0 0.0 0.0 0.0 0.0
0.0 0.0 0.0 0.0 0.0 0.0 0.0 0.0
0.0 0.0 0.0 0.0 0.0 0.0 0.0 0.0
0.0 0.0 0.0 0.0 0.0 0.0 0.0 0.0
0.0 0.0 0.0 0.0 0.0 0.0 0.0 0.0
0.0 0.0 0.0 0.0 0.0 0.0 0.0 0.0
0.0 0.0 0.0 0.0 0.0 0.0 0.0 0.0
0.0 0.0 0.0 0.0 0.0 0.0 0.0 0.0
0.0 0.0 0.0 0.0 0.0 0.0 0.0 0.0
0.0 0.0 0.0 0.0 0.0 0.0 0.0 0.0

network_body._body_endoder.seq_layers.4.weight f4 [128, 128]
00000000: c58d 2c3e 22f9 4e3d 0a38 4dbd 8859 af3c
00000010: 660c a4bd 8765 313e e7f9 e8bd 700d 1d3d
00000020: ca92 143d 204e 02be 9b1a 933d 624d a9bd
00000030: c932 7b3a 394d 433d 9701 9dbc dc51 12bd
00000040: 0468 25bd 6ce0 a7bd 5165 39bd 397f ecbd
00000050: 3970 143e d8dd be3c f74b 72bd 3ff1 bc3d
00000060: 7275 8f3d fb3c 34bd 887d a3bd 5a56 7abc
00000070: 1cf6 423e d8cf ec3c 0fa4 293d 5a45 2dbb
00000080: 5ca3 10bd eb9f acbd 875e a13d ea4c de3b
00000090: b5fc 4e3d b891 2cbe cfc2 21bd 5301 b03c
000000a0: c315 373d c870 543c 6bed 4fbc 1faf 1bbd
000000b0: 0377 30bd 036e 8ebc 282e b3bd cf84 453b
000000c0: e422 e03c 6b2a e43d fd12 a6bc 04fa 69bd
000000d0: 3b2c ed3d 45dd df3d 3941 6cbd 289c 103d
000000e0: 8ec4 54be bf38 f8bd e6cc b3bd 17e8 f23d
000000f0: 6eb1 32bc dfb3 0cbd 0cde 313d d14e 53bd
00000100: 110a cd3c 73fe 55bd dded 4d3e ee9f 92bd
00000110: 9085 0ebc 0c4c 18be 3808 c63c 6a49 6d3d
00000120: f813 cb3d cc09 5439 c4dd 9b3d 8fe1 c43d
00000130: b106 82bd cd7f d33c 2d12 2abe 9e24 a6ba
00000140: 6954 423d ed15 c7bd e468 cfbc 009a f23d
00000150: 6cb6 06bc ddac 2a3e 7887 313d 276f b3bd
00000160: a9b6 bcbd a56f eebc 933e 51bc c125 97bd
00000170: 89b4 fbbd f389 d7bc d553 553d a89d 5bbd
00000180: e54a ea3c d83d 0e3e ed02 eb3d eedb 9c3c
00000190: 0ac8 16bb 9e16 b53d b4bd 3c3e c720 e4bd
000001a0: ab41 093d 2d85 0cbe b69b 453d 455d 1fbe
000001b0: 8a46 87bd fb5b d53d 6805 0abe 0ed5 4cbd
000001c0: d735 9a3b 8658 77bb 2e5e c1bc 9ae9 3fbe
000001d0: e259 dabd c52b 21be b1c0 5fbd 2114 05bd
000001e0: c617 2b3d b427 a0bd e282 053c 6381 213d
000001f0: c9a3 98bd 9889 4fbd 176e 8f3d 285b 3cbd
00000200: 6a5b 4b3c ad26 3ebe 35dd dfbd 32f3 b33d
00000210: e5a4 49bd 45d6 f6bc d479 973c 6c05 143d
00000220: 058e 8bbd 0ebf 8abe 0e81 9fbd 50de f3bd
00000230: dad3 d4bc c0d4 2c3d a422 fd3b 2092 443d
00000240: d806 b6bd b206 da3c 45a9 0c3e eed4 ae3c
00000250: 483c bf3d a397 1d3d 97d5 a73c 50e2 4cbc
00000260: 452a e83d d2e9 22be 43e2 143c 0a95 b5bd
00000270: 2f5e e73d e43f 303d a0ca 06be b9ab 73bd
00000280: 18e3 a4bd e133 64be d89f 9a3d 5eeb bdbd
00000290: 693d a8bb fa99 9abd 7021 4d3d 2c84 dcbc
000002a0: db25 2bbe 8206 d13d 2c46 b3bd ff3b a2bd
000002b0: de8c cabd 52bb 323d bee5 873d c3d2 91bc
000002c0: 19e3 8b3d 4ea6 10be 082b af3c 73c3 1e3d
000002d0: 0d91 39bd 85e5 3a3d 0085 c93c 0a50 813d
000002e0: bbd8 903d 2e42 13bc b2f8 7fbd 743e 0cbd
000002f0: a993 b83d 2a94 a0bd a269 683c 3e91 20be
00000300: df14 76bc ff3a 8d3c f67e d5bd a9a4 0abe
00000310: 5b58 cbbc 7983 d0bd 7f25 f9bb 827b 37be
00000320: cdea 64bd c370 013e 0f70 043d f3ae 403d
00000330: 4ca9 d1bd 8c56 c9bc 570e 1bbe 20ab db3d
00000340: 0537 14be f86e 56bc a581 96ba 211e 193b
00000350: 4499 003e 5513 303d 2aeb 3dbd 6447 083e
00000360: fd2c 6c3c 5bd4 e4bd b8ae 67bb 67e7 383c
00000370: de0f 793d 54ed b53d 0367 51bd 0a39 a9bd
00000380: 75f2 2e3d 68a8 99bd 0c4d 0a3b 4f2b 8d3c
00000390: 07b9 a1bd 71f6 d4bc a0c4 353d 52e9 283d
000003a0: 27ce 353e b99f f03d e1cf 5b3d 7c5c d5bd
000003b0: 529a 453d c612 bbbd 023d c53d b026 9ebd
000003c0: a415 133e a64f 90bd ffb8 5abd 6031 303e
000003d0: 7c6e 003d b4ca 4fbd 4d95 f7bc dd5d a23c
000003e0: 56b7 e2bd f3c6 4abd ee67 b9bd 92db a9bd
000003f0: cc31 8dbd 1ee1 66bd 8b21 97bc 97d0 0b3e
0.16850956 0.05053056 -0.05010227 0.021404997 -0.08010177 0.17323886 -0.1137579 0.038342893
0.0362728 -0.12725115 0.07182809 -0.08266713 0.0009582458 0.047681067 -0.019165797 -0.0357226
-0.0403824 -0.08197102 -0.04526264 -0.11547703 0.14495935 0.023299143 -0.059154477 0.092257015
0.07004823 -0.044003468 -0.079829276 -0.015279377 0.19039196 0.028907701 0.041416224 -0.0026439042
-0.03531204 -0.084289394 0.07879358 0.006784071 0.05053397 -0.16852462 -0.039492425 0.021485006
0.044698488 0.012966342 -0.012690882 -0.038008805 -0.04308225 -0.017386442 -0.08749038 0.0030138975
0.027360387 0.11140903 -0.020272726 -0.0571232 0.11580702 0.10930876 -0.05767939 0.035305172
-0.20778105 -0.121201985 -0.08779316 0.11860674 -0.01090656 -0.034351226 0.04342465 -0.051588837
0.025029214 -0.052244615 0.20110269 -0.071594104 -0.008698836 -0.1487276 0.02417384 0.05793134
0.09915918 0.00020221545 0.07610658 0.096133344 -0.063489325 0.025817776 -0.16608496 -0.0012675708
0.04744378 -0.09720979 -0.02531857 0.118457794 -0.008222204 0.16667505 0.043342084 -0.08761435
-0.09214527 -0.02910597 -0.0127712665 -0.07380248 -0.12290294 -0.026310897 0.0520819 -0.05361715
0.028600166 0.13890779 0.114751674 0.01914784 -0.0023007416 0.088422045 0.18431741 -0.11139064
0.03350989 -0.13722678 0.0482442 -0.15562923 -0.06605251 0.104179345 -0.13478625 -0.050007872
0.0047061252 -0.0037741973 -0.023604479 -0.18741456 -0.10661675 -0.15739353 -0.054627124 -0.0324899
0.04177072 -0.07820073 0.008148881 0.039430033 -0.074531145 -0.05066833 0.0700342 -0.04598537
0.0124119315 -0.18569441 -0.10930864 0.0878662 -0.04922952 -0.030131469 0.01849071 0.036137983
-0.068141975 -0.27098888 -0.07788287 -0.11907637 -0.025979925 0.04219508 0.0077250767 0.04799092
-0.08888024 0.02661452 0.13736446 0.021341767 0.093376696 0.03847469 0.02048759 -0.012505129
0.11336187 -0.15909508 0.009087148 -0.088663176 0.11297261 0.04302968 -0.13163233 -0.05948994
-0.08051127 -0.22285415 0.07550019 -0.09273408 -0.005134274 -0.075489 0.050080717 -0.026918493
-0.1671366 0.102063194 -0.087536186 -0.079215996 -0.098901495 0.043635674 0.06635617 -0.017800694
0.06830425 -0.1412594 0.021382824 0.038760614 -0.045304347 0.045629043 0.024599552 0.06314094
0.07072588 -0.008987946 -0.062493034 -0.034239247 0.09012539 -0.0784076 0.014185341 -0.15680405
-0.0150196245 0.017240046 -0.104246065 -0.13539375 -0.024822405 -0.101813264 -0.007603347 -0.17918208
-0.055887986 0.12640671 0.03233343 0.047041845 -0.10237369 -0.024577402 -0.15142189 0.10725999
-0.14474113 -0.01308798 -0.0011482729 0.0023363905 0.12558466 0.042987186 -0.046366848 0.13308483
0.014415023 -0.11173316 -0.0035351943 0.011285639 0.060806148 0.08883157 -0.05112363 -0.082628325
0.042711694 -0.07502824 0.0021103052 0.017232565 -0.07896619 -0.025996419 0.04437697 0.041238137
0.17754422 0.11749215 0.053665046 -0.104180306 0.048242874 -0.0913444 0.09630777 -0.07722223
0.14363724 -0.07046442 -0.053399082 0.17206335 0.031355366 -0.050730422 -0.03022256 0.019820148
-0.11070125 -0.04950614 -0.09053026 -0.08293833 -0.068942636 -0.056367032 -0.018448612 0.1365379

network_body._body_endoder.seq_layers.6.bias f4 [128]
00000000: 0000 0000 0000 0000 0000 0000 0000 0000
00000010: 0000 0000 0000 0000 0000 0000 0000 0000
00000020: 0000 0000 0000 0000 0000 0000 0000 0000
00000030: 0000 0000 0000 0000 0000 0000 0000 0000
00000040: 0000 0000 0000 0000 0000 0000 0000 0000
00000050: 0000 0000 0000 0000 0000 0000 0000 0000
00000060: 0000 0000 0000 0000 0000 0000 0000 0000
00000070: 0000 0000 0000 0000 0000 0000 0000 0000
00000080: 0000 0000 0000 0000 0000 0000 0000 0000
00000090: 0000 0000 0000 0000 0000 0000 0000 0000
000000a0: 0000 0000 0000 0000 0000 0000 0000 0000
000000b0: 0000 0000 0000 0000 0000 0000 0000 0000
000000c0: 0000 0000 0000 0000 0000 0000 0000 0000
000000d0: 0000 0000 0000 0000 0000 0000 0000 0000
000000e0: 0000 0000 0000 0000 0000 0000 0000 0000
000000f0: 0000 0000 0000 0000 0000 0000 0000 0000
00000100: 0000 0000 0000 0000 0000 0000 0000 0000
00000110: 0000 0000 0000 0000 0000 0000 0000 0000
00000120: 0000 0000 0000 0000 0000 0000 0000 0000
00000130: 0000 0000 0000 0000 0000 0000 0000 0000
00000140: 0000 0000 0000 0000 0000 0000 0000 0000
00000150: 0000 0000 0000 0000 0000 0000 0000 0000
00000160: 0000 0000 0000 0000 0000 0000 0000 0000
00000170: 0000 0000 0000 0000 0000 0000 0000 0000
00000180: 0000 0000 0000 0000 0000 0000 0000 0000
00000190: 0000 0000 0000 0000 0000 0000 0000 0000
000001a0: 0000 0000 0000 0000 0000 0000 0000 0000
000001b0: 0000 0000 0000 0000 0000 0000 0000 0000
000001c0: 0000 0000 0000 0000 0000 0000 0000 0000
000001d0: 0000 0000 0000 0000 0000 0000 0000 0000
000001e0: 0000 0000 0000 0000 0000 0000 0000 0000
000001f0: 0000 0000 0000 0000 0000 0000 0000 0000
0.0 0.0 0.0 0.0 0.0 0.0 0.0 0.0
0.0 0.0 0.0 0.0 0.0 0.0 0.0 0.0
0.0 0.0 0.0 0.0 0.0 0.0 0.0 0.0
0.0 0.0 0.0 0.0 0.0 0.0 0.0 0.0
0.0 0.0 0.0 0.0 0.0 0.0 0.0 0.0
0.0 0.0 0.0 0.0 0.0 0.0 0.0 0.0
0.0 0.0 0.0 0.0 0.0 0.0 0.0 0.0
0.0 0.0 0.0 0.0 0.0 0.0 0.0 0.0
0.0 0.0 0.0 0.0 0.0 0.0 0.0 0.0
0.0 0.0 0.0 0.0 0.0 0.0 0.0 0.0
0.0 0.0 0.0 0.0 0.0 0.0 0.0 0.0
0.0 0.0 0.0 0.0 0.0 0.0 0.0 0.0
0.0 0.0 0.0 0.0 0.0 0.0 0.0 0.0
0.0 0.0 0.0 0.0 0.0 0.0 0.0 0.0
0.0 0.0 0.0 0.0 0.0 0.0 0.0 0.0
0.0 0.0 0.0 0.0 0.0 0.0 0.0 0.0
