results/playPoker2.0/MoveToBet/MoveToBet-576.onnx (onnx, 929043 bytes, 15 tensors)

action_model._discrete_distribution.branches.0.bias f4 [2]
0	0x00000000	0.0
1	0x00000000	0.0

action_model._discrete_distribution.branches.0.weight f4 [2, 128]
0	0xbb4652ee	-0.0030261832
1	0xbc89bd07	-0.016813768
2	0x3a84b89e	0.0010125821
3	0x3ba43877	0.005011614
4	0x3b53c405	0.0032312882
5	0xbc3be2f4	-0.011467684
6	0xbc415748	-0.011800595
7	0x3c9b8ac6	0.01898707
8	0x3c46783c	0.012113627
9	0xbc0914e9	-0.008366802
10	0x3bf29597	0.0074030864
11	0xbb90e25e	-0.0044215163
12	0x3bad543e	0.0052895835
13	0x3c71d62a	0.014760533
14	0xbc402bf7	-0.011729232
15	0x3a4a2583	0.0007711278
16	0xbc16d643	-0.009206357
17	0xbb2cf5b8	-0.0026391577
18	0x3bffa4a8	0.007801611
19	0xbc236612	-0.009973066
20	0xbb2f69c5	-0.0026765924
21	0xbc4277c3	-0.011869374
22	0xbb49705a	-0.0030737133
23	0xbc174731	-0.009233282
24	0xbac474c4	-0.0014988412
25	0x3c0ca57a	0.008584375
26	0xbaf7b527	-0.0018898592
27	0x3b97a7bf	0.004628151
28	0xbb1b976a	-0.0023741373
29	0x3d00eed3	0.03147776
30	0xbb0b2203	-0.002122999
31	0x3c324ddf	0.010882824
32	0x3b8d8fe2	0.0043201307
33	0x3add3de5	0.0016879408
34	0x3c20e2d5	0.009819706
35	0xbbfb13da	-0.0076622786
36	0x3bc1bab6	0.0059121503
37	0x3c83a033	0.0160676
38	0xbb91c414	-0.004448423
39	0xbc9c87b1	-0.019107671
40	0xbc030736	-0.007997325
41	0xbc2b9694	-0.010472912
42	0xbc32ffbb	-0.010925229
43	0xbbaee2e2	-0.005337105
44	0x3b09a111	0.0021000544
45	0xbc1257d8	-0.008932076
46	0x3bca9873	0.006182724
47	0x3b827bc9	0.0039820415
48	0x3b1891e2	0.0023280312
49	0x3bae5a3b	0.005320815
50	0xba274a3e	-0.00063816074
51	0xbaf746e7	-0.0018865735
52	0x3802c15b	3.117449e-05
53	0x3bdc6b1f	0.006726637
54	0xbade7dda	-0.0016974763
55	0xbac38c5d	-0.0014919151
56	0x3c73352a	0.014844218
57	0xbc876949	-0.016529696
58	0xbb849624	-0.0040462185
59	0xbb7572c7	-0.0037452446
60	0xbb20c005	-0.0024528515
61	0x3b863d9a	0.004096699
62	0x3bc6f293	0.0060713976
63	0x3c37d6ee	0.011220677
64	0x3b8e7f7b	0.004348693
65	0xbbb41fb5	-0.005496944
66	0xba3ee7be	-0.0007282457
67	0x39fa9f65	0.00047802474
68	0x3b9ab027	0.004720706
69	0xbc11bc7b	-0.008895035
70	0xbc2261ad	-0.009910983
71	0xbc48a8ba	-0.012247259
72	0x3c261f25	0.010139261
73	0x3ba1c89a	0.0049372436
74	0x3aa10b4e	0.0012286694
75	0xbc107c63	-0.008818719
76	0xbae6faa0	-0.00176223
77	0xbb50e295	-0.0031873335
78	0x3bdc3b4f	0.0067209373
79	0xbc354b9b	-0.011065389
80	0x3922fe3c	0.00015544234
81	0x3c222f58	0.009898983
82	0xbc837c9f	-0.016050635
83	0x3c53ee0b	0.012935172
84	0xbbc31664	-0.005953597
85	0xbc30def3	-0.010795343
86	0x3bfa0e57	0.007631104
87	0xbbcc7109	-0.006239061
88	0xbbe1b352	-0.0068878317
89	0xba1f7ef4	-0.0006084286
90	0x3c0e77e3	0.008695575
91	0x3bb156ed	0.0054119737
92	0x3ac85e36	0.0015286866
93	0x3c08e861	0.008356185
94	0xbc764180	-0.015030265
95	0xbb964842	-0.0045862505
96	0x3c44ef15	0.012019892
97	0x3c48ab36	0.012247851
98	0x3a42c2a7	0.0007429518
99	0xbc78b695	-0.01518025
100	0xbc401fe4	-0.011726353
101	0xbb9f220a	-0.0048563527
102	0xbc85145b	-0.016245058
103	0x3c54e400	0.012993813
104	0xbb93ae43	-0.0045068576
105	0xbcd9e1da	-0.026596952
106	0x3ba067cf	0.0048951874
107	0x3ad8fdcb	0.0016555128
108	0x3c1ddbee	0.009634955
109	0xbbb4bca5	-0.0055156522
110	0x3b649fb7	0.0034885237
111	0x3b3e1504	0.0029004226
112	0xba7ee8e5	-0.0009724035
113	0xbb87ca4b	-0.0041439882
114	0xbb86fc40	-0.004119426
115	0x3c0adbdb	0.008475269
116	0xba4fe977	-0.00079312123
117	0xbac26337	-0.0014830594
118	0xbc236f2c	-0.009975236
119	0xbc0a1f44	-0.008430306
120	0x3a12cfee	0.0005600442
121	0xbba004be	-0.004883378
122	0x3c2dc654	0.010606367
123	0x3bf3264a	0.007420336
124	0xbb2e5d4d	-0.0026605905
125	0x3c5e3987	0.01356352
126	0xbb2724a3	-0.0025504015
127	0xbb3ecd1f	-0.002911396
128	0xbb923f29	-0.0044630957
129	0xbc63da23	-0.013906988
130	0x3bd670a0	0.0065441877
131	0x3cd1368a	0.025538702
132	0x3b5a3b42	0.003329948
133	0x3b20fe36	0.0024565584
134	0x3ba2ae3c	0.004964618
135	0xbb1b194b	-0.0023666199
136	0xbb82fa8b	-0.003997152
137	0x3b4be514	0.0031111883
138	0x3b996923	0.0046817227
139	0xb9e299ba	-0.00043220614
140	0xbbf1fc62	-0.0073848227
141	0x3c84a998	0.01619415
142	0xbad5674f	-0.0016281399
143	0xbad95b7b	-0.001658305
144	0xbc2db972	-0.010603296
145	0x3b296527	0.0025847645
146	0x3bbdb82b	0.005789777
147	0xbc26ad78	-0.010173194
148	0x3c0e3ea4	0.008681927
149	0x3c95b27b	0.018273583
150	0x3c0e137c	0.008671638
151	0x3b80c915	0.003930221
152	0x3b00eff7	0.001967428
153	0x3c06ed68	0.008235313
154	0x3b805e68	0.003917504
155	0xba47fc07	-0.00076288026
156	0xbbcd3b6f	-0.0062631886
157	0x3be6ad22	0.007039682
158	0x3bb4179c	0.0054959785
159	0xbc82a692	-0.015948568
160	0x3c91c389	0.017793434
161	0x3b3dcfff	0.0028963087
162	0x3b5acf2d	0.0033387647
163	0x3b75b3df	0.0037491245
164	0x3c21371b	0.009839798
165	0xbc02fa9a	-0.007994318
166	0x38c15620	9.218999e-05
167	0x3c0d8403	0.008637431
168	0xbc10a0be	-0.008827386
169	0x3b004bdd	0.0019576468
170	0x3b2b69b8	0.0026155543
171	0xbc9ca305	-0.019120703
172	0x3c55dabd	0.01305264
173	0xbbeac947	-0.0071651074
174	0x3c210954	0.009828884
175	0xbcb339a7	-0.021878077
176	0xbbc0b76f	-0.005881242
177	0xbb710538	-0.0036776792
178	0x3c0a638f	0.008446588
179	0x3bcaf92e	0.0061942553
180	0x3bd945c3	0.0066306307
181	0x3c49a32d	0.012306971
182	0x3c02f907	0.007993943
183	0x3b89106c	0.004182866
184	0x3b9bbaf7	0.0047525126
185	0x3a9875d7	0.0011631799
186	0xb9e155f8	-0.00042979396
187	0x3c2791b4	0.010227609
188	0xbbc2136f	-0.005922727
189	0xbbd73a4a	-0.006568228
190	0x3a2424ab	0.00062615675
191	0xb993131c	-0.00028052262
192	0x3b6cb7c5	0.0036120277
193	0x39f85d90	0.00047371956
194	0x3aaa2f47	0.001298406
195	0x3aac0125	0.00131229
196	0xbbd6cb53	-0.006555
197	0xba9031fb	-0.0011001223
198	0xbb9b199f	-0.004733279
199	0x3b57de00	0.0032938719
200	0x3aaaf294	0.0013042265
201	0x3b959a17	0.004565488
202	0xbbdecc10	-0.0067992285
203	0xbce7924d	-0.028268004
204	0xbc478274	-0.012177099
205	0xbbd02a95	-0.0063527324
206	0x3bda5427	0.006662864
207	0x3c0c1ef8	0.008552305
208	0x3b6f9468	0.0036556963
209	0xbb4acf6a	-0.0030946382
210	0xbb320545	-0.0027163785
211	0xbbfbe23f	-0.0076868827
212	0xbc4ee3f2	-0.012627589
213	0x3c27a928	0.010233201
214	0xbc41b545	-0.011823003
215	0xbb047262	-0.002020978
216	0x3be9d333	0.0071357726
217	0x3c1da9c7	0.009622998
218	0xbc53a870	-0.012918577
219	0xbba43850	-0.005011596
220	0x3b16f308	0.0023033042
221	0x3b5fdcfb	0.0034158814
222	0xb8ddb73b	-0.000105722305
223	0x3c00b81f	0.007856398
224	0xba80c719	-0.0009824961
225	0x3bd84873	0.0066004335
226	0x3b337d3f	0.0027387885
227	0xbb971f27	-0.004611868
228	0x3b819207	0.0039541754
229	0xbc7dd9aa	-0.01549379
230	0x3c86498d	0.016392494
231	0xbb671242	-0.0035258685
232	0x3c1af18f	0.009457006
233	0x3b11d116	0.002224987
234	0xbaa4da23	-0.0012577217
235	0x3bedd890	0.0072584823
236	0xbcbf95d0	-0.023386866
237	0xbb346c6a	-0.002753044
238	0x3bff226b	0.0077860854
239	0x3b94a55b	0.0045363135
240	0x3b6ee328	0.0036451314
241	0x3bf5ff0a	0.0075072097
242	0xbb8e2372	-0.0043377215
243	0x3c24f8b5	0.010069062
244	0xbbc44851	-0.005990066
245	0xbc67be03	-0.014144423
246	0x3c348448	0.011017866
247	0x3b2bb541	0.0026200565
248	0xbbc0ac7c	-0.0058799367
249	0x3b66d22a	0.0035220482
250	0xbb68ccb5	-0.0035522406
251	0xbc8b1483	-0.016977554
252	0x39f78e60	0.0004721759
253	0x3c17a255	0.009255012
254	0xbc83b48b	-0.0160773
255	0x3b84347b	0.0040345765

action_model._discrete_distribution.branches.1.bias f4 [6]
0	0x00000000	0.0
1	0x00000000	0.0
2	0x00000000	0.0
3	0x00000000	0.0
4	0x00000000	0.0
5	0x00000000	0.0

action_model._discrete_distribution.branches.1.weight f4 [6, 128]
0	0x3b78583b	0.0037894386
1	0x3b8093b1	0.003923856
2	0x3c16f24f	0.009213044
3	0xbc2b5639	-0.010457569
4	0x3b80d95d	0.0039321617
5	0x3b427a1c	0.0029674834
6	0x3b88772c	0.004164597
7	0x3b35a729	0.0027718043
8	0xbb3fa84f	-0.0029244607
9	0xbbb8adf4	-0.005635971
10	0x3c012e81	0.007884623
11	0x3c5c1e0f	0.013434901
12	0x3c23b16b	0.00999103
13	0xbb8ac5a9	-0.0042349887
14	0x3b34be73	0.0027579337
15	0xbbf9ee55	-0.0076272883
16	0xbbb87642	-0.005629332
17	0x3afcbdf8	0.0019282689
18	0xbc07b307	-0.00828243
19	0xbb1fa664	-0.002436065
20	0xbc033b6b	-0.008009772
21	0x3be50780	0.0069894195
22	0x3bf02d1b	0.0073295957
23	0x3bbd3ea1	0.005775288
24	0xbb6d2aa0	-0.0036188737
25	0xbb88eb17	-0.0041784155
26	0xbba32152	-0.0049783373
27	0x39914bd4	0.00027713052
28	0x3bdee10b	0.0068017296
29	0x3aed9fc7	0.0018129282
30	0x3baca9fd	0.0052692876
31	0xbc69877f	-0.014253496
32	0xbb2b5699	-0.0026144146
33	0x3abd235f	0.0014430097
34	0x3c975eae	0.018477764
35	0x3c10b477	0.008832089
36	0x3c3e237d	0.011605141
37	0x3c3f38b2	0.011671232
38	0x3ac1f92b	0.0014798989
39	0xba0e854b	-0.00054367323
40	0x3a6eb28a	0.0009105584
41	0x3afa047a	0.001907482
42	0x3c1e13fc	0.009648319
43	0xbc0d2c67	-0.008616543
44	0xbabbce64	-0.0014328477
45	0xbc0231f7	-0.007946483
46	0xbb8a9b19	-0.004229915
47	0x3c98004b	0.018554827
48	0xbc859328	-0.016305521
49	0x3b2ad8f9	0.0026069267
50	0xbbbb1e62	-0.005710409
51	0x3a9d2760	0.0011989884
52	0x3ba0ef5f	0.0049113478
53	0xb9c7bdc7	-0.00038097633
54	0xbc8c99f3	-0.017163252
55	0xbc0c942b	-0.008580248
56	0xbbb7342d	-0.0055909366
57	0xbbaea180	-0.005329311
58	0xb9b48fa9	-0.0003443931
59	0xbbacddc3	-0.0052754595
60	0xbb136ee7	-0.0022496523
61	0xbb233008	-0.0024900455
62	0x393b318b	0.00017852166
63	0x3bdc9b23	0.006732361
64	0x3bb8f063	0.0056438907
65	0x3b981efe	0.0046423664
66	0x3b8cd97f	0.0042983885
67	0xba806fc3	-0.0009798933
68	0x3b8c915b	0.0042897887
69	0xbc4d55cf	-0.012532665
70	0x3c5285f2	0.012849318
71	0xba417003	-0.0007379057
72	0x3b45ee3f	0.003020182
73	0xbc4f6817	-0.012659094
74	0x3aec46ba	0.0018026449
75	0xb9f8c8a7	-0.00047451744
76	0x3b1a455c	0.0023539877
77	0x3c64e493	0.013970512
78	0xbc807577	-0.015681012
79	0xbc42f874	-0.011900056
80	0x3bfea1cf	0.007770754
81	0x3c19129f	0.0093428185
82	0x3c284701	0.010270835
83	0xbc9b5045	-0.018959174
84	0x3a48bc63	0.00076574663
85	0xbc37a60b	-0.011209021
86	0x3bd5fc78	0.0065303408
87	0x3a4ba8a8	0.0007768967
88	0x3c51dc27	0.012808836
89	0xba072655	-0.0005155553
90	0xbb17049a	-0.0023043514
91	0x3b327c5f	0.0027234775
92	0xbbec3f83	-0.0072097196
93	0x3a9aa1e7	0.0011797518
94	0x3c6f8603	0.014619353
95	0xbacd1e70	-0.001564933
96	0x3afbe323	0.0019217472
97	0x3ab927d1	0.0014126246
98	0xbc2bfb77	-0.010496966
99	0xbb947d33	-0.0045315265
100	0xbbbfc58f	-0.0058524082
101	0x3b0997c3	0.0020994998
102	0x3bf9d322	0.007624046
103	0xbc7ede4d	-0.01555593
104	0xbb25be89	-0.002529057
105	0x3a0a6155	0.0005278786
106	0xbbd97e20	-0.0066373497
107	0x3b7093b5	0.0036709134
108	0x3b5ace2d	0.003338705
109	0xbc106beb	-0.008814792
110	0x3c6c89aa	0.014437119
111	0x3b042cad	0.002016823
112	0x3b83e786	0.0040254025
113	0xbc25a506	-0.010110145
114	0x3abbd494	0.0014330321
115	0xbc126dcf	-0.008937313
116	0x3c289e47	0.0102916425
117	0xbbfd7f28	-0.0077361055
118	0xbc921aa6	-0.017834973
119	0xbc30f5a0	-0.010800749
120	0x38e4a283	0.000109021574
121	0xbc9d4013	-0.019195592
122	0xbbfe0f57	-0.0077532935
123	0xbbd62820	-0.006535545
124	0xbb9edf2c	-0.0048483815
125	0xb701d373	-7.738231e-06
126	0x3a6f0562	0.00091179286
127	0xba0cf773	-0.0005377449
128	0xbc3640d4	-0.011123855
129	0x3c32fdbb	0.010924752
130	0x3bcbb120	0.0062161833
131	0x3c500d18	0.012698434
132	0x37cc3340	2.434256e-05
133	0x3b8413a6	0.0040306626
134	0x3ade7723	0.0016972761
135	0x3b5f49ed	0.0034071163
136	0x3a891d74	0.0010461048
137	0x39a2fda2	0.0003108802
138	0xbbec91d2	-0.0072195316
139	0xbba24efb	-0.004953263
140	0x3b87528b	0.004129713
141	0x3c2bfb9a	0.010496998
142	0x3bf92c40	0.007604152
143	0x3c236f5d	0.009975282
144	0xbc6c423d	-0.014420089
145	0xbb5407d0	-0.003235329
146	0x3b10d4c1	0.0022099467
147	0xbc68f8fa	-0.014219517
148	0xbb51ac83	-0.0031993694
149	0xba1dd5bc	-0.00060209236
150	0xbaaab089	-0.0013022582
151	0xbac852ee	-0.0015283504
152	0x3b105dfe	0.002202868
153	0x3c2b7911	0.010465876
154	0x3b88068c	0.004151171
155	0x3ba86fab	0.005140265
156	0x3b9406bc	0.0045174044
157	0xbbca3a6b	-0.0061715147
158	0x3c107b0b	0.008818398
159	0x3b1fc80e	0.0024380716
160	0x3b25d2a3	0.0025302551
161	0xbc995c65	-0.018720815
162	0xbb3d19a9	-0.0028854406
163	0x3c3f5f9f	0.011680513
164	0x3b45d40b	0.0030186202
165	0xbae5aa4d	-0.0017522067
166	0x3b3b2cbf	0.0028560606
167	0x3a6958a7	0.0008901455
168	0xbb88a2d9	-0.0041698036
169	0xbc36fe31	-0.011169002
170	0xbbfb8d6f	-0.0076767723
171	0xbba63dde	-0.005073293
172	0xbb1e2428	-0.0024130438
173	0x3ba0c36f	0.00490611
174	0xbbd9fa35	-0.0066521415
175	0xbc132e63	-0.008983227
176	0xb920e5db	-0.00015344417
177	0xbb41d3aa	-0.0029575625
178	0x3b35c263	0.0027734272
179	0xbc013088	-0.007885106
180	0x3af94dc2	0.0019020366
181	0xbbc9e0a8	-0.0061608143
182	0x3c4bea17	0.012445948
183	0xbb9a0572	-0.004700356
184	0x3a01f99b	0.00049581536
185	0x3bc1aeb4	0.005910719
186	0xbc838192	-0.016052995
187	0xbbb8563a	-0.0056255134
188	0x3c875564	0.01652021
189	0x39f0c92a	0.00045926246
190	0x3b4093e1	0.0029385018
191	0xbaeaaa47	-0.001790353
192	0x3b007065	0.0019598242
193	0xbafd84e7	-0.0019341976
194	0xbb0b3c20	-0.0021245554
195	0xbc1f59db	-0.009726013
196	0xbc045bc7	-0.008078522
197	0x3b7a3eaa	0.0038184323
198	0x3b3bcdbb	0.002865656
199	0xbc4f926f	-0.01266919
200	0x3c170395	0.009217163
201	0x3a8cb2a6	0.0010734394
202	0xbc5709f5	-0.013124933
203	0xba6527f0	-0.0008741608
204	0x3a64053d	0.00086982903
205	0xbc4023a1	-0.011727245
206	0xbc059066	-0.008152103
207	0x38bf54e9	9.1234055e-05
208	0xbb6c7220	-0.0036078766
209	0xbaf18383	-0.0018426034
210	0xbb6541c0	-0.0034981817
211	0xbc18c49b	-0.009324218
212	0xbbf94190	-0.0076066926
213	0xbbd5dd48	-0.006526623
214	0x3c0fa09b	0.008766319
215	0x3c2ad700	0.010427237
216	0xbb686b4f	-0.0035464352
217	0xbb290477	-0.0025790015
218	0x3b50896d	0.0031820193
219	0xbc32fcff	-0.010924577
220	0xbbe5ed7a	-0.007016835
221	0xbaa652f0	-0.0012689512
222	0x3c2e5ee4	0.010642741
223	0xbb48faf6	-0.0030667163
224	0x3bb6bfea	0.005577077
225	0xbb2ec6b2	-0.0026668725
226	0x3c661dbb	0.014045174
227	0xbc3d3c37	-0.011550001
228	0xbbbe79ed	-0.0058128745
229	0x3bd17f85	0.0063933753
230	0x3c1e6ab7	0.0096689975
231	0x3a69d2c7	0.0008919653
232	0xbb9a5a9d	-0.004710509
233	0xbb90bdff	-0.0044171805
234	0x3b039b29	0.0020081496
235	0xbc7d12fd	-0.015446422
236	0xbbbb93ea	-0.00572442
237	0xba3b0046	-0.00071335246
238	0x3ad12e75	0.001595928
239	0x3a66d27f	0.000880517
240	0x3bde5b77	0.006785806
241	0x3bb6bd89	0.0055767936
242	0x3b8344dc	0.0040060114
243	0xbb42555c	-0.002965293
244	0xb9840cbd	-0.00025186493
245	0xbb1ef501	-0.002425492
246	0x3be95363	0.007120536
247	0x3b365244	0.002782003
248	0x3abc795a	0.0014379427
249	0xbc396a36	-0.011316827
250	0xbbf273f7	-0.007399078
251	0xbc230cb2	-0.009951757
252	0x3ab0152e	0.0013434046
253	0xbbca49cb	-0.0061733476
254	0x3bb1700e	0.0054149693
255	0x3ad012cf	0.0015874746

action_model._discrete_distribution.branches.2.bias f4 [10]
0	0x00000000	0.0
1	0x00000000	0.0
2	0x00000000	0.0
3	0x00000000	0.0
4	0x00000000	0.0
5	0x00000000	0.0
6	0x00000000	0.0
7	0x00000000	0.0
8	0x00000000	0.0
9	0x00000000	0.0

action_model._discrete_distribution.branches.2.weight f4 [10, 128]
0	0x3c9438f7	0.01809357
1	0xbc9924a3	-0.018694228
2	0x3b71ab4b	0.003687578
3	0xbc49f5eb	-0.012326698
4	0x3c0fe0f5	0.008781661
5	0xbc388242	-0.011261525
6	0x3967d4fb	0.00022109218
7	0xbbf16360	-0.0073665828
8	0x3af8115b	0.0018926071
9	0xbc64e837	-0.01397138
10	0xbb0f90a6	-0.0021906286
11	0xbba02b76	-0.0048879934
12	0xbc70aabd	-0.014689145
13	0x3b369f2e	0.0027865875
14	0x3cb68a33	0.022282695
15	0x3b8e63d4	0.0043453965
16	0x3cccb43c	0.024988286
17	0xbbfb34f8	-0.0076662265
18	0x3a8668b5	0.0010254594
19	0xba859d3a	-0.0010193952
20	0x3bf5ea7d	0.00750476
21	0x3b2dedab	0.0026539366
22	0x3c4bfe7e	0.012450812
23	0x3c290a8d	0.010317457
24	0xbc00c24b	-0.007858823
25	0xbc28a8e0	-0.010294169
26	0xba3d5da5	-0.0007223732
27	0x3b398317	0.0028306895
28	0xbbd674d3	-0.0065446883
29	0xbab9c06f	-0.001417173
30	0x3bef8ab8	0.0073102377
31	0x3ba7d50e	0.0051218336
32	0x3b50eedd	0.0031880655
33	0x3c5f6cf2	0.013636814
34	0x3adc1b45	0.0016792795
35	0xbbb9d77b	-0.005671439
36	0x3bd4f587	0.0064989957
37	0xbc869667	-0.01642914
38	0x3c9d5e59	0.019210028
39	0xbc649023	-0.0139503805
40	0x3c4733b3	0.012158322
41	0x3c2e64ff	0.0106441965
42	0x3b71738a	0.0036842548
43	0xbc74ff2f	-0.014953419
44	0xbc92b103	-0.017906671
45	0xbc8165b1	-0.01579556
46	0xbb85c762	-0.004082606
47	0xbbabd67f	-0.005244076
48	0x3b2230db	0.0024748358
49	0x3ba0c5ff	0.0049064155
50	0xbc95f2c3	-0.018304234
51	0xb9b0e0e8	-0.00033736904
52	0xbbf9990b	-0.007617121
53	0x3c39b788	0.011335261
54	0xbb757adf	-0.003745727
55	0x3c283494	0.010266442
56	0xba2fe907	-0.0006710444
57	0xbc49a48e	-0.012307299
58	0xbb48e69b	-0.003065503
59	0xbc30228c	-0.010750424
60	0xbba92374	-0.005161697
61	0x3abc7492	0.0014378002
62	0xbb116e35	-0.0022190933
63	0xbb917ecd	-0.0044401647
64	0x3c6fb3e2	0.01463029
65	0xbc8350df	-0.016029773
66	0xb858e6d5	-5.1713392e-05
67	0x3ba1ae79	0.004934129
68	0x3bdcb18a	0.0067350315
69	0xbc65871a	-0.0140092615
70	0xbb9abac4	-0.004721971
71	0x3b0b6157	0.0021267736
72	0x3b967591	0.0045916517
73	0x3c4e751d	0.012601164
74	0x3c759227	0.014988459
75	0x3c34418b	0.011001955
76	0xbb73bd45	-0.003719167
77	0xbbc9152f	-0.0061365585
78	0xbc0667f7	-0.008203498
79	0x3b60cea3	0.0034302853
80	0x3b3ed30f	0.00291175
81	0x3bf81033	0.0075702905
82	0xbc858547	-0.016298903
83	0xbc28a612	-0.0102935005
84	0x3a4a00f6	0.00077058317
85	0xbbbca6d2	-0.005757191
86	0xbc637db7	-0.013884953
87	0x3b0637bb	0.0020479995
88	0xbbcc9ba7	-0.006244141
89	0x3aa2ced3	0.0012421258
90	0x3a99275f	0.0011684707
91	0x3c544a82	0.012957217
92	0x3bc030af	0.0058651785
93	0x3c0354f3	0.008015859
94	0xbbbb763d	-0.005720882
95	0xbc8a27a3	-0.016864603
96	0xbc2c7b73	-0.010527479
97	0x3c8eabcc	0.017415904
98	0xbd09de47	-0.033659246
99	0x3b9a7cfc	0.0047146063
100	0xbb841739	-0.0040310887
101	0x3c0353a2	0.008015545
102	0x3ab5d8d4	0.0013873824
103	0x3ba6488e	0.005074567
104	0xbc0742b6	-0.008255651
105	0xbba753e9	-0.0051064384
106	0xbc1fb64c	-0.009748053
107	0xbb04d9d3	-0.0020271435
108	0x3b18a8b4	0.0023293914
109	0x3b75b068	0.003748918
110	0x3c3ed15b	0.011646594
111	0x39da623d	0.00041653393
112	0x3a857e5b	0.0010184752
113	0x3c6eeafd	0.014582393
114	0x3b828606	0.003983262
115	0xbb8ef2c2	-0.004362435
116	0xbc55029d	-0.013001111
117	0xbb8c9cdc	-0.00429116
118	0xbc19e957	-0.009394011
119	0x3982405b	0.0002484348
120	0xbba7653f	-0.005108505
121	0x3c82dd5a	0.01597469
122	0xbba73597	-0.005102824
123	0xbba3db82	-0.0050005326
124	0xbadfbd68	-0.0017069997
125	0xbadeedaf	-0.0017008091
126	0xba812dc7	-0.0009855562
127	0xbbb465b7	-0.0055052894
128	0xbcbd07ad	-0.02307495
129	0x3c2dc4a5	0.010605966
130	0x385ac053	5.2154366e-05
131	0xbc01a050	-0.007911757
132	0xbc62734f	-0.013821437
133	0xbc561f9a	-0.013069058
134	0xbc27dbef	-0.010245307
135	0x3c0f478c	0.008745085
136	0x3a2a339a	0.00064926746
137	0xbb9e8a5f	-0.0048382725
138	0x3abd4143	0.0014439005
139	0x3bf3c1a8	0.007438857
140	0xbbd26032	-0.006420159
141	0xb951da6d	-0.00020013163
142	0xbaa3ae23	-0.001248781
143	0xbc2d874b	-0.010591338
144	0x3b2bf0bd	0.002623602
145	0x3bd9f33a	0.0066513093
146	0xbca1d7f5	-0.019756297
147	0x3bdb67f2	0.006695741
148	0xbc0a24f3	-0.008431661
149	0xb9c6e82c	-0.00037938484
150	0xbc285e28	-0.010276355
151	0xbb914de7	-0.0044343355
152	0x3c3737d5	0.011182745
153	0x3b254dc5	0.0025223356
154	0xba0bbe9a	-0.0005330831
155	0xba44ca93	-0.00075069926
156	0x3b4b2b2c	0.0031001074
157	0xb9e0732d	-0.00042810422
158	0x3bd94c2b	0.0066313944
159	0xbaa28440	-0.0012399033
160	0x3c0f5c1e	0.00874999
161	0xba06869f	-0.00051317544
162	0xbc060786	-0.008180505
163	0x3b1e9b43	0.002420143
164	0x3c0cd6c6	0.008596128
165	0x3be0aed7	0.00685678
166	0x3b6239a0	0.003451921
167	0xbb199e9f	-0.0023440493
168	0xb8f3034b	-0.00011587756
169	0x3a5db283	0.0008457081
170	0x3bab8129	0.005233903
171	0xbc8f3846	-0.017482888
172	0xbc53ceeb	-0.012927751
173	0x3c5ce1e2	0.013481589
174	0xbc5669c3	-0.013086739
175	0x3c11f12c	0.0089075975
176	0xbaad03bb	-0.0013199964
177	0xbaabbf1e	-0.0013103222
178	0x392f8a6f	0.00016740871
179	0x3b6b68ba	0.0035920576
180	0xbb886e84	-0.004163565
181	0x3bccf9d0	0.006255366
182	0x3c153a9e	0.009108214
183	0xbcb23338	-0.021752939
184	0xbb17a3c5	-0.0023138386
185	0x3bff2505	0.0077863955
186	0x3c1e70a9	0.009670415
187	0x3c2cf3f0	0.010556206
188	0x3c370857	0.011171422
189	0x3b73d2e8	0.0037204567
190	0xbc182fa8	-0.009288706
191	0x3c0aa95f	0.008463233
192	0xbb87f87b	-0.004149494
193	0xbc77e88a	-0.015131125
194	0xbb980282	-0.004638971
195	0xbb15437f	-0.0022775827
196	0x39c0ef8b	0.00036799567
197	0xbc026c35	-0.007960369
198	0x3c3ea324	0.011635575
199	0xbc2a4c2b	-0.010394136
200	0xbbe53103	-0.006994368
201	0xbc1c344a	-0.009533951
202	0x3bcc6e0b	0.006238704
203	0xbb9a0b43	-0.0047010495
204	0x3c0c6d27	0.008570946
205	0xbb7f28c8	-0.003893422
206	0x3ba2fbff	0.004973888
207	0xba8bd425	-0.0010668082
208	0xbb880999	-0.0041515348
209	0x3bc6077c	0.0060433727
210	0x3c645e8a	0.0139385555
211	0xbc35b77b	-0.011091108
212	0xbb310967	-0.002701366
213	0x3acd72ef	0.0015674512
214	0xbc4abaff	-0.012373685
215	0xbc1975ca	-0.009366462
216	0x3c2bea6b	0.010492901
217	0x394daec5	0.0001961543
218	0xbbe7606d	-0.0070610554
219	0x3bff29ff	0.0077869887
220	0xbb4a88cf	-0.0030904298
221	0x3c4a35ae	0.0123419
222	0x3c55b008	0.013042457
223	0xbb296e19	-0.0025852977
224	0x3c1b8540	0.0094922185
225	0xbc7bf6c8	-0.015378661
226	0x3c0cc8ac	0.008592766
227	0x3ca91801	0.020641329
228	0xbc7212e0	-0.014775008
229	0xbb581f9b	-0.0032977823
230	0x3986af71	0.00025689186
231	0x3c7811d5	0.01514097
232	0xbb83a2d5	-0.004017214
233	0xbbff5f03	-0.0077933087
234	0xba339389	-0.00068502926
235	0x3b9115d0	0.004427649
236	0x3a290d3f	0.0006448812
237	0x3c1d6187	0.009605772
238	0xbbdcb143	-0.0067349984
239	0x3a8fe3a1	0.0010977873
240	0x3cae9841	0.021312835
241	0x3bffa952	0.007802167
242	0xbc1e3598	-0.009656332
243	0x3962ed4a	0.00021641437
244	0x3bf200df	0.0073853577
245	0xbb3a37ce	-0.002841461
246	0x3c43ea5c	0.011957731
247	0x3bf3074f	0.0074166427
248	0x3c9c4163	0.019074148
249	0xbb8b3b42	-0.0042490074
250	0x3cd3dfb7	0.025863511
251	0xba20547e	-0.0006116106
252	0xba3f7242	-0.00073030975
253	0x3c4553bb	0.012043889
254	0xbb4ae854	-0.0030961232
255	0x3c4a7e18	0.012359165

discrete_action_output_shape f4 [1, 3]
0	0x40000000	2.0
1	0x40c00000	6.0
2	0x41200000	10.0

network_body._body_endoder.seq_layers.0.bias f4 [128]
0	0x00000000	0.0
1	0x00000000	0.0
2	0x00000000	0.0
3	0x00000000	0.0
4	0x00000000	0.0
5	0x00000000	0.0
6	0x00000000	0.0
7	0x00000000	0.0
8	0x00000000	0.0
9	0x00000000	0.0
10	0x00000000	0.0
11	0x00000000	0.0
12	0x00000000	0.0
13	0x00000000	0.0
14	0x00000000	0.0
15	0x00000000	0.0
16	0x00000000	0.0
17	0x00000000	0.0
18	0x00000000	0.0
19	0x00000000	0.0
20	0x00000000	0.0
21	0x00000000	0.0
22	0x00000000	0.0
23	0x00000000	0.0
24	0x00000000	0.0
25	0x00000000	0.0
26	0x00000000	0.0
27	0x00000000	0.0
28	0x00000000	0.0
29	0x00000000	0.0
30	0x00000000	0.0
31	0x00000000	0.0
32	0x00000000	0.0
33	0x00000000	0.0
34	0x00000000	0.0
35	0x00000000	0.0
36	0x00000000	0.0
37	0x00000000	0.0
38	0x00000000	0.0
39	0x00000000	0.0
40	0x00000000	0.0
41	0x00000000	0.0
42	0x00000000	0.0
43	0x00000000	0.0
44	0x00000000	0.0
45	0x00000000	0.0
46	0x00000000	0.0
47	0x00000000	0.0
48	0x00000000	0.0
49	0x00000000	0.0
50	0x00000000	0.0
51	0x00000000	0.0
52	0x00000000	0.0
53	0x00000000	0.0
54	0x00000000	0.0
55	0x00000000	0.0
56	0x00000000	0.0
57	0x00000000	0.0
58	0x00000000	0.0
59	0x00000000	0.0
60	0x00000000	0.0
61	0x00000000	0.0
62	0x00000000	0.0
63	0x00000000	0.0
64	0x00000000	0.0
65	0x00000000	0.0
66	0x00000000	0.0
67	0x00000000	0.0
68	0x00000000	0.0
69	0x00000000	0.0
70	0x00000000	0.0
71	0x00000000	0.0
72	0x00000000	0.0
73	0x00000000	0.0
74	0x00000000	0.0
75	0x00000000	0.0
76	0x00000000	0.0
77	0x00000000	0.0
78	0x00000000	0.0
79	0x00000000	0.0
80	0x00000000	0.0
81	0x00000000	0.0
82	0x00000000	0.0
83	0x00000000	0.0
84	0x00000000	0.0
85	0x00000000	0.0
86	0x00000000	0.0
87	0x00000000	0.0
88	0x00000000	0.0
89	0x00000000	0.0
90	0x00000000	0.0
91	0x00000000	0.0
92	0x00000000	0.0
93	0x00000000	0.0
94	0x00000000	0.0
95	0x00000000	0.0
96	0x00000000	0.0
97	0x00000000	0.0
98	0x00000000	0.0
99	0x00000000	0.0
100	0x00000000	0.0
101	0x00000000	0.0
102	0x00000000	0.0
103	0x00000000	0.0
104	0x00000000	0.0
105	0x00000000	0.0
106	0x00000000	0.0
107	0x00000000	0.0
108	0x00000000	0.0
109	0x00000000	0.0
110	0x00000000	0.0
111	0x00000000	0.0
112	0x00000000	0.0
113	0x00000000	0.0
114	0x00000000	0.0
115	0x00000000	0.0
116	0x00000000	0.0
117	0x00000000	0.0
118	0x00000000	0.0
119	0x00000000	0.0
120	0x00000000	0.0
121	0x00000000	0.0
122	0x00000000	0.0
123	0x00000000	0.0
124	0x00000000	0.0
125	0x00000000	0.0
126	0x00000000	0.0
127	0x00000000	0.0

network_body._body_endoder.seq_layers.0.weight f4 [128, 1400]
0	0xbb77a310	-0.0037786402
1	0xba1c4b7f	-0.00059621775
2	0x3d2e2913	0.04251964
3	0xbd0cce6b	-0.034376543
4	0x3c83d258	0.01609151
5	0xbc008fda	-0.007846797
6	0x3c3465bc	0.0110105835
7	0xbbebe796	-0.007199238
8	0xbc85b0c1	-0.016319634
9	0xbcc26c86	-0.023733389
10	0xbd97e09e	-0.07415889
11	0x3a71ad39	0.00092192326
12	0x3c007e27	0.007842577
13	0x3d2b7113	0.041855883
14	0xbca6f854	-0.020382084
15	0x3b60c9e9	0.0034300035
16	0xbd79f4f2	-0.061024614
17	0x3d280842	0.0410235
18	0x3cf85bea	0.030317266
19	0x3c94d85d	0.018169576
20	0x3ad5505d	0.001627456
21	0x3ca7de47	0.020491732
22	0xbd5c5c39	-0.053798888
23	0x3d1dcd88	0.038526088
24	0x3c369e6d	0.01114617
25	0x3ccfa58e	0.025347497
26	0xbccc1b0c	-0.02491524
27	0x3d55577c	0.052085385
28	0x3d6c6c84	0.057720676
29	0x3d23f471	0.04002804
30	0xbc9d33b6	-0.019189697
31	0x3d0c629a	0.03427372
32	0x3cac4747	0.021030081
33	0x3c15d29d	0.009144452
34	0xbcf3d74b	-0.029765746
35	0x3a5bf194	0.0008390185
36	0x3cadae1f	0.021201191
37	0xbc029909	-0.007971057
38	0x3c1d4ae9	0.0096003795
39	0x3bdd67a6	0.0067567406
40	0x3ca09523	0.019602364
41	0x3ce2a106	0.027664673
42	0xbcdab730	-0.026698679
43	0x3d16a7af	0.03678101
44	0x3c295a9d	0.010336545
45	0xbc7dc870	-0.015489683
46	0xbd18c285	-0.037294883
47	0xbcdc0db5	-0.026862005
48	0x3d47613c	0.048676714
49	0xbc7cd1c3	-0.0154308705
50	0x3c999258	0.01874654
51	0xbb463d01	-0.0030248764
52	0xbc87c81d	-0.016574914
53	0x3cee8af2	0.029118989
54	0x3d3a4eec	0.045485422
55	0x3d13921a	0.036028005
56	0xbd4c5dcb	-0.049894135
57	0xbc1c232d	-0.009529871
58	0x3d1f9e69	0.03896943
59	0xbcf56ba9	-0.029958563
60	0xbcba94e9	-0.022776084
61	0xbd307e1e	-0.043089025
62	0xbbd5e2c6	-0.0065272776
63	0x3cbaf6e7	0.02282281
64	0x3acb2dac	0.0015501282
65	0xbd17f54d	-0.03709917
66	0xbc30fd85	-0.010802631
67	0x393877a2	0.00017592174
68	0x3d1e2e97	0.03861865
69	0xbc81808c	-0.015808366
70	0x3d7224ab	0.059117
71	0x3c2f8346	0.01071245
72	0x3ccab02d	0.02474221
73	0xbcaa1739	-0.020763027
74	0xbc862feb	-0.016380271
75	0xbd1e5c7e	-0.038662426
76	0x3b25484d	0.0025220097
77	0x3ccac1fe	0.024750706
78	0x39e76261	0.0004413305
79	0xbc5e3af9	-0.013563865
80	0xbbf06691	-0.0073364456
81	0xbc6e7281	-0.014553667
82	0xbbeaa930	-0.007161282
83	0xbd015cd4	-0.03158267
84	0xbd0ab363	-0.033862483
85	0x3c66310e	0.0140497815
86	0xbc01f75c	-0.00793251
87	0xbc0305a7	-0.007996953
88	0xbbba9366	-0.005693841
89	0xbc3aa6cd	-0.0113923075
90	0xbc12a7f0	-0.008951172
91	0xbb07d48a	-0.0020726048
92	0x3d1da126	0.03848376
93	0x3c2fa50b	0.010720502
94	0xbd25b8ca	-0.04045943
95	0x3c396276	0.011314979
96	0x3ca6981b	0.020336201
97	0x3d4e5ff2	0.05038447
98	0x3d0a835b	0.033816677
99	0x3d078e30	0.033094585
100	0x3a611aa5	0.0008587039
101	0x3bb82740	0.0056199133
102	0x3b98a6a2	0.004658536
103	0x3b50a8b4	0.0031838836
104	0x3c08bc4d	0.008345676
105	0xbd5cfec0	-0.053953886
106	0xbd05698e	-0.032571368
107	0xbc7b5452	-0.015339928
108	0xbc86ef63	-0.01647157
109	0x3bf38ea5	0.007432776
110	0x3d7704e9	0.060307417
111	0x3b654ebe	0.003498956
112	0xbd0b06e9	-0.033942137
113	0xbb1a98ea	-0.002358968
114	0xbc45635f	-0.012047618
115	0x3c38e67a	0.011285419
116	0xbd0f254b	-0.034947675
117	0xba8e4d59	-0.0010856792
118	0x3cd8c04d	0.026458884
119	0x3d88ad0a	0.066736296
120	0xbb92d8ef	-0.004481427
121	0xbd041323	-0.032244813
122	0xbcc411f8	-0.02393435
123	0x3ca1109a	0.019661237
124	0xbb80e5bd	-0.003933637
125	0x3cd09682	0.025462393
126	0x3c9adbcb	0.018903634
127	0x3bb6dd1f	0.005580559
128	0xbd831f63	-0.06402471
129	0x3b0281db	0.0019913826
130	0x3cce1549	0.025156634
131	0xbcd0fe9e	-0.025512036
132	0x3a1f0c0b	0.0006067163
133	0xbb3eb32a	-0.002909849
134	0x3d25bfa1	0.040465955
135	0xbcb49084	-0.022041567
136	0x3d185f61	0.037200335
137	0xbcf61fc1	-0.030044438
138	0xbcb16bad	-0.02165779
139	0x3bab4396	0.0052265627
140	0x3cd7b169	0.026329713
141	0xbc7ba81b	-0.015359904
142	0x3c9076a5	0.0176347
143	0x3c2fa166	0.010719633
144	0xbbdbf01f	-0.0067119743
145	0xbc752d8e	-0.014964474
146	0x3ccc5b7e	0.02494597
147	0xbc48aa51	-0.012247638
148	0xbc4000a7	-0.0117189055
149	0x3d1edfd1	0.038787667
150	0xbd1bc1bd	-0.03802656
151	0x3ca6b397	0.020349307
152	0x3cb31dc8	0.021864787
153	0x3c243de2	0.01002452
154	0xbd393149	-0.045213018
155	0xbc0bd0b0	-0.008533642
156	0x3bc62170	0.0060464665
157	0x3d11c9df	0.03559291
158	0x3bb69924	0.005572455
159	0xbc2d1964	-0.010565136
160	0xbc4e2c13	-0.01258375
161	0xbd08dfc2	-0.033416517
162	0x3d2b0435	0.04175206
163	0x3b485dc0	0.0030573457
164	0x3b66ad19	0.003519839
165	0x3c020cc6	0.007937616
166	0x3b281323	0.0025646172
167	0x3bd25819	0.0064191935
168	0xbd4b6879	-0.04966018
169	0xbd20a301	-0.039217953
170	0xbbb12a01	-0.0054066186
171	0x3c0b03d3	0.0084847985
172	0x3d4e5224	0.050371304
173	0x3a07dce3	0.0005182756
174	0x3adb3ca4	0.0016726446
175	0xbc4eb5e9	-0.012616613
176	0xbaec3f54	-0.0018024244
177	0x3ca8380f	0.020534543
178	0xbc9a301b	-0.018821767
179	0x3bdc9391	0.0067314585
180	0x3ac18326	0.0014763817
181	0xbd5c8030	-0.053833187
182	0x3cc9127e	0.02454495
183	0x3d1c0988	0.038095027
184	0x3bd30f3b	0.0064410246
185	0x3baa8adc	0.0052045416
186	0x3c276d57	0.01021894
187	0xbd2c553a	-0.042073466
188	0xbd205097	-0.039139356
189	0x3d02d4de	0.031941287
190	0xbc94e64e	-0.018176224
191	0xbb5b344e	-0.0033447924
192	0xbca027a5	-0.019550154
193	0x3cdfd3b4	0.027322628
194	0x3ca8074a	0.020511288
195	0x3b4edc74	0.0031564506
196	0xbce20fff	-0.027595518
197	0xbc583fdc	-0.013198819
198	0xbc29a6d1	-0.010354714
199	0xbc9d943d	-0.019235725
200	0x3c7ade34	0.015311766
201	0x3d49b2c3	0.049242746
202	0xbca9a98a	-0.020710725
203	0x3d208b10	0.03919512
204	0x3c1cd57d	0.009572384
205	0xbb683a46	-0.0035435124
206	0xbc4080fd	-0.011749503
207	0x3bd2cdf1	0.0064332415
208	0xbc37621c	-0.011192825
209	0x3c06e180	0.008232474
210	0x3d0ffb7e	0.03515195
211	0x3d03d77d	0.032187928
212	0xbcaa5280	-0.020791292
213	0x3c1f18e1	0.009710521
214	0x3d251146	0.040299676
215	0xbcb7d8c9	-0.022442238
216	0x3d77d30e	0.06050401
217	0x3cd8d4df	0.026468692
218	0xbc80c9ee	-0.015721288
219	0xbd1657fa	-0.036704995
220	0x3c906a43	0.017628795
221	0xbcb55533	-0.022135353
222	0x3d457d3b	0.048215132
223	0x3cc182db	0.023621967
224	0xbc3cd9de	-0.011526553
225	0xbcbaf6cd	-0.022822762
226	0xbc4d81e4	-0.012543175
227	0x3c1637de	0.009168593
228	0x3c90408d	0.017608905
229	0x3cd86015	0.026413003
230	0x3c9d1310	0.019174129
231	0x3ce168b2	0.027515743
232	0xbcf03f89	-0.02932717
233	0xbc2f515f	-0.010700553
234	0xbd369c89	-0.044582877
235	0xbcbff665	-0.02343292
236	0x3d05f9f1	0.032709066
237	0xbd07c6e4	-0.03314866
238	0x3cafd068	0.02146168
239	0x3d1d082e	0.03833788
240	0x3b8c898b	0.0042888573
241	0x3bec2365	0.007206368
242	0x3d39f5ce	0.045400433
243	0x3d1b7aba	0.037958838
244	0xbd4f87af	-0.050666507
245	0xbcb52a3e	-0.02211487
246	0x3c8c3f34	0.017119981
247	0x3c292a9b	0.010325099
248	0x3b195dcb	0.0023401852
249	0x3b93ea05	0.0045139813
250	0xbc78ae3b	-0.0151782585
251	0xbb2ae004	-0.0026073465
252	0xbca4c038	-0.020111188
253	0xb9aac47a	-0.00032571313
254	0xbb1510af	-0.002274554
255	0x3d1faaab	0.03898112

network_body._body_endoder.seq_layers.2.bias f4 [128]
0	0x00000000	0.0
1	0x00000000	0.0
2	0x00000000	0.0
3	0x00000000	0.0
4	0x00000000	0.0
5	0x00000000	0.0
6	0x00000000	0.0
7	0x00000000	0.0
8	0x00000000	0.0
9	0x00000000	0.0
10	0x00000000	0.0
11	0x00000000	0.0
12	0x00000000	0.0
13	0x00000000	0.0
14	0x00000000	0.0
15	0x00000000	0.0
16	0x00000000	0.0
17	0x00000000	0.0
18	0x00000000	0.0
19	0x00000000	0.0
20	0x00000000	0.0
21	0x00000000	0.0
22	0x00000000	0.0
23	0x00000000	0.0
24	0x00000000	0.0
25	0x00000000	0.0
26	0x00000000	0.0
27	0x00000000	0.0
28	0x00000000	0.0
29	0x00000000	0.0
30	0x00000000	0.0
31	0x00000000	0.0
32	0x00000000	0.0
33	0x00000000	0.0
34	0x00000000	0.0
35	0x00000000	0.0
36	0x00000000	0.0
37	0x00000000	0.0
38	0x00000000	0.0
39	0x00000000	0.0
40	0x00000000	0.0
41	0x00000000	0.0
42	0x00000000	0.0
43	0x00000000	0.0
44	0x00000000	0.0
45	0x00000000	0.0
46	0x00000000	0.0
47	0x00000000	0.0
48	0x00000000	0.0
49	0x00000000	0.0
50	0x00000000	0.0
51	0x00000000	0.0
52	0x00000000	0.0
53	0x00000000	0.0
54	0x00000000	0.0
55	0x00000000	0.0
56	0x00000000	0.0
57	0x00000000	0.0
58	0x00000000	0.0
59	0x00000000	0.0
60	0x00000000	0.0
61	0x00000000	0.0
62	0x00000000	0.0
63	0x00000000	0.0
64	0x00000000	0.0
65	0x00000000	0.0
66	0x00000000	0.0
67	0x00000000	0.0
68	0x00000000	0.0
69	0x00000000	0.0
70	0x00000000	0.0
71	0x00000000	0.0
72	0x00000000	0.0
73	0x00000000	0.0
74	0x00000000	0.0
75	0x00000000	0.0
76	0x00000000	0.0
77	0x00000000	0.0
78	0x00000000	0.0
79	0x00000000	0.0
80	0x00000000	0.0
81	0x00000000	0.0
82	0x00000000	0.0
83	0x00000000	0.0
84	0x00000000	0.0
85	0x00000000	0.0
86	0x00000000	0.0
87	0x00000000	0.0
88	0x00000000	0.0
89	0x00000000	0.0
90	0x00000000	0.0
91	0x00000000	0.0
92	0x00000000	0.0
93	0x00000000	0.0
94	0x00000000	0.0
95	0x00000000	0.0
96	0x00000000	0.0
97	0x00000000	0.0
98	0x00000000	0.0
99	0x00000000	0.0
100	0x00000000	0.0
101	0x00000000	0.0
102	0x00000000	0.0
103	0x00000000	0.0
104	0x00000000	0.0
105	0x00000000	0.0
106	0x00000000	0.0
107	0x00000000	0.0
108	0x00000000	0.0
109	0x00000000	0.0
110	0x00000000	0.0
111	0x00000000	0.0
112	0x00000000	0.0
113	0x00000000	0.0
114	0x00000000	0.0
115	0x00000000	0.0
116	0x00000000	0.0
117	0x00000000	0.0
118	0x00000000	0.0
119	0x00000000	0.0
120	0x00000000	0.0
121	0x00000000	0.0
122	0x00000000	0.0
123	0x00000000	0.0
124	0x00000000	0.0
125	0x00000000	0.0
126	0x00000000	0.0
127	0x00000000	0.0

network_body._body_endoder.seq_layers.2.weight f4 [128, 128]
0	0x3d0dc2b7	0.034609523
1	0x3d628da2	0.055310853
2	0x3d6c9fdb	0.057769638
3	0x3d1229c4	0.035684362
4	0x3d07e41a	0.03317652
5	0xbe131184	-0.1436215
6	0xbdf564a3	-0.119820856
7	0xbd61830d	-0.05505662
8	0xbe3f2678	-0.18667018
9	0xbe191be4	-0.14952046
10	0x3d885c53	0.066582344
11	0x3affecdd	0.0019525547
12	0x3e0167c8	0.12637246
13	0xbd2b8c78	-0.04188201
14	0x3da62e5d	0.08114312
15	0x3d9df9a8	0.07713634
16	0x3e02f75e	0.12789676
17	0x3dbf8059	0.09350652
18	0xbd2c08f0	-0.04200071
19	0xbb64fafe	-0.0034939642
20	0xbe070dc3	-0.13188843
21	0xbd346145	-0.044038076
22	0x3d225703	0.039633762
23	0xbca67562	-0.020319644
24	0xba9384f4	-0.0011254833
25	0x3e1ffaf6	0.15623078
26	0xbde10a9b	-0.10988351
27	0x3d86b5c0	0.06577635
28	0x3e6542ae	0.22388718
29	0xbc27bfe6	-0.010238623
30	0x3d50239c	0.05081521
31	0x3db0084f	0.08595335
32	0xbd87e551	-0.066355355
33	0xbda50098	-0.08056754
34	0xbdd80dc5	-0.10549501
35	0x3ddec890	0.10878098
36	0xbde6c557	-0.11268108
37	0xbbf502f3	-0.007477158
38	0x3cf9386a	0.030422408
39	0xbdab31d0	-0.0835911
40	0xbd17dcc8	-0.037075788
41	0x3dc681eb	0.09692749
42	0xbd87161f	-0.06596016
43	0x3ddbce15	0.107326664
44	0x3d35b32a	0.044360317
45	0x3cd6f380	0.026239157
46	0x3be2b0b6	0.0069180382
47	0xbd5378bf	-0.051628824
48	0x3dab64e4	0.08368853
49	0xbcc9e5d6	-0.024645727
50	0x3d2af0d4	0.041733578
51	0x3c9f6d7d	0.019461388
52	0xbd84b9e3	-0.064807676
53	0xbde66242	-0.1124921
54	0x3cd02bd8	0.025411531
55	0x3cdc495b	0.026890447
56	0xbdd8ede5	-0.1059225
57	0x3d439767	0.04775181
58	0x3e5ed18a	0.2175962
59	0xbcacaef6	-0.021079522
60	0x3e0daf54	0.13836414
61	0x3d9b71b4	0.075900465
62	0xbbd9668a	-0.006634538
63	0x3ce43279	0.027856098
64	0x3b202cc5	0.0024440747
65	0x3c024379	0.007950657
66	0x3d655d28	0.055997044
67	0xba23706b	-0.0006234708
68	0x3d0324a7	0.032017376
69	0xbdb27ae9	-0.087148495
70	0xbb250736	-0.00251813
71	0xbdbade22	-0.091244
72	0xbdb06247	-0.08612495
73	0x3d8b5c21	0.068046816
74	0xbe61ba03	-0.22043614
75	0x3dbb2137	0.091371946
76	0x3da112d1	0.07864917
77	0xbe07cb65	-0.13261183
78	0xbaaf7218	-0.0013385443
79	0xbde9c01d	-0.11413596
80	0x3e4ebb04	0.20188528
81	0xbe438f2d	-0.19097586
82	0x3d8931a5	0.06698922
83	0xbd99a0fd	-0.07501409
84	0xbe1bc316	-0.15211138
85	0x3d9d7b28	0.07689506
86	0x3dca87a7	0.09889155
87	0xbd88d2bb	-0.06680819
88	0xbcdbd12e	-0.026833143
89	0x3d235e5c	0.03988491
90	0x3db44c32	0.088035956
91	0x3e05fd6c	0.13084954
92	0xbe01944c	-0.12654227
93	0x3cdf818a	0.027283449
94	0xbda2c538	-0.07947773
95	0xbe673c0e	-0.22581503
96	0x3e1ad328	0.15119612
97	0xbd09acf5	-0.03361221
98	0xbe6f8585	-0.23390777
99	0xbcaaae8a	-0.02083518
100	0xbdd57462	-0.10422589
101	0x3ddaee66	0.10690002
102	0xbe385739	-0.18002023
103	0x3d99e787	0.075148635
104	0x3dabfd46	0.083979174
105	0xbe2be150	-0.16785169
106	0xbc8be577	-0.01707719
107	0x3d8e560c	0.06950006
108	0xbcf60466	-0.030031394
109	0x3cb3e929	0.021961765
110	0x3dca73af	0.09885346
111	0x3e4f537c	0.2024669
112	0x3e62380d	0.22091694
113	0x3e1c8191	0.152838
114	0x3e0f22c6	0.13978109
115	0x3dd477ee	0.10374437
116	0xbdf13f97	-0.11779707
117	0x3c799f0c	0.015235674
118	0xbd9779a9	-0.07396252
119	0x3dfb47b9	0.122695394
120	0x3d983936	0.07432787
121	0xbda0790d	-0.078355886
122	0xbd152952	-0.03641636
123	0x3d2ed510	0.04268366
124	0x3dd458d8	0.10368508
125	0x3db1e19d	0.086856104
126	0xbdd4e2d4	-0.103948265
127	0xbe4aaa2a	-0.19791475
128	0x3c546315	0.012963076
129	0x3e3cd9b5	0.18442424
130	0x3e191d34	0.14952546
131	0x3b1ac2d0	0.0023614652
132	0x3dfd24f3	0.12360563
133	0xbd5b8a66	-0.053598784
134	0xbdcb6106	-0.09930615
135	0x3e358e60	0.17730093
136	0xbe2adc3b	-0.16685574
137	0xbcbc971a	-0.02302127
138	0x3db885b6	0.09009878
139	0x3e137a40	0.14402103
140	0x3dd976c8	0.10618359
141	0xbdc7e0fb	-0.097597085
142	0x3e5539f0	0.20822883
143	0xbc5d9dfb	-0.013526435
144	0xbafbc004	-0.0019207005
145	0xbc95523d	-0.01822769
146	0x3d30295a	0.043008186
147	0x3c12afa3	0.008953008
148	0xbcb79021	-0.022407593
149	0x3daaab54	0.083334595
150	0xbd7f9dee	-0.062406473
151	0x3cd38de7	0.0258245
152	0x3e5085b2	0.203635
153	0xbb5b165e	-0.003343008
154	0xbdc67ca2	-0.096917406
155	0xbbf09be1	-0.007342801
156	0xbdaeedad	-0.08541427
157	0x3d806385	0.06268982
158	0xbdb6b112	-0.08920492
159	0xbd672f8b	-0.056441825
160	0x3de7cecf	0.113187425
161	0xbd86ffb1	-0.06591738
162	0xbd2f3f4c	-0.042784974
163	0x3db8871d	0.09010146
164	0x3d9e765f	0.07737421
165	0x3db50cd4	0.088403374
166	0xbd9a20fb	-0.07525822
167	0xbdf27f6f	-0.11840712
168	0x3df10a9b	0.11769601
169	0xbe0634f6	-0.1310614
170	0x3af88484	0.0018960391
171	0xbe50a55f	-0.20375584
172	0xbe0dea6b	-0.13858955
173	0xbdf491e7	-0.11941891
174	0xbdf8c2d1	-0.12146533
175	0xbe38fcb0	-0.18065143
176	0x3d9be71a	0.076124385
177	0xbde58927	-0.112078
178	0xbe062b6e	-0.13102505
179	0x3dadf170	0.08493316
180	0xbd7d5fd1	-0.061858956
181	0x3d12c75c	0.035834655
182	0x3db6c4b2	0.089242354
183	0x3ced2218	0.028946921
184	0xbcf8e2ac	-0.030381523
185	0xbd5cc64c	-0.053900048
186	0xbdbad3a8	-0.091224015
187	0xbe05c9c6	-0.13065252
188	0xbc6cc38c	-0.014450919
189	0x3dfbdfbe	0.12298535
190	0x3de4eb27	0.11177664
191	0xbdb4c1b2	-0.08826007
192	0x3e5909d9	0.21195163
193	0x3dc8487d	0.09779451
194	0x3d831e31	0.06402243
195	0xbd43ae71	-0.047773782
196	0xbda4ce4a	-0.08047159
197	0xbd4ac458	-0.049503654
198	0xbdeff681	-0.11716939
199	0xbdf31bd5	-0.11870543
200	0x3d809ed7	0.06280296
201	0x3e4f12e9	0.20222057
202	0x3e02c487	0.12770282
203	0x3e4927ec	0.19644135
204	0x3d5ee10e	0.054413848
205	0xbd8bc341	-0.06824351
206	0x3d989d07	0.074518256
207	0xbe2a1b85	-0.1661206
208	0xbc482747	-0.012216396
209	0x3d1c90ce	0.038224034
210	0xbd852344	-0.06500867
211	0x3d934648	0.071911395
212	0x3dc7c53d	0.09754417
213	0x3cc38a6d	0.023869717
214	0x3b9db1a0	0.0048124343
215	0x3e10c819	0.14138831
216	0xbc56fd43	-0.013121906
217	0x3e0ce900	0.13760757
218	0xbe3dbf3f	-0.18529986
219	0x3d662241	0.05618501
220	0x3e03f5c5	0.12886722
221	0x3d301eec	0.04299824
222	0xbdcb13df	-0.099158995
223	0x3e0798b2	0.13241842
224	0x3cba711f	0.022759018
225	0xbaa2d447	-0.0012422883
226	0x3da56524	0.08075932
227	0x3dcc1001	0.0996399
228	0xbd4d6b06	-0.050150894
229	0xbdfc1f6f	-0.12310683
230	0x3d55b5da	0.05217538
231	0xbd444f00	-0.047926903
232	0x3d3699d1	0.044580285
233	0x3dcbb202	0.09946062
234	0xbe256360	-0.1615119
235	0x3d415b79	0.047206376
236	0xbd465beb	-0.048427504
237	0x3ba4373c	0.0050114673
238	0xbde27401	-0.11057282
239	0x3e0fd8c9	0.1404754
240	0xbd32ec2e	-0.04368227
241	0xbdcc8572	-0.0998639
242	0x3e2a251c	0.16615719
243	0x3bac356b	0.0052553914
244	0x3e375514	0.17903548
245	0x3da9b3c1	0.082862385
246	0x3b7c9931	0.0038543458
247	0xbda7ba40	-0.08189821
248	0xbc680287	-0.014160759
249	0xbcb84842	-0.022495393
250	0xbdc0c30c	-0.09412202
251	0xbda4f244	-0.08054021
252	0xbe358054	-0.17724735
253	0xbd007c6d	-0.03136866
254	0xbdda7f1a	-0.10668774
255	0x3cd9799b	0.026547244

network_body._body_endoder.seq_layers.4.bias f4 [128]
0	0x00000000	0.0
1	0x00000000	0.0
2	0x00000000	0.0
3	0x00000000	0.0
4	0x00000000	0.0
5	0x00000000	0.0
6	0x00000000	0.0
7	0x00000000	0.0
8	0x00000000	0.0
9	0x00000000	0.0
10	0x00000000	0.0
11	0x00000000	0.0
12	0x00000000	0.0
13	0x00000000	0.0
14	0x00000000	0.0
15	0x00000000	0.0
16	0x00000000	0.0
17	0x00000000	0.0
18	0x00000000	0.0
19	0x00000000	0.0
20	0x00000000	0.0
21	0x00000000	0.0
22	0x00000000	0.0
23	0x00000000	0.0
24	0x00000000	0.0
25	0x00000000	0.0
26	0x00000000	0.0
27	0x00000000	0.0
28	0x00000000	0.0
29	0x00000000	0.0
30	0x00000000	0.0
31	0x00000000	0.0
32	0x00000000	0.0
33	0x00000000	0.0
34	0x00000000	0.0
35	0x00000000	0.0
36	0x00000000	0.0
37	0x00000000	0.0
38	0x00000000	0.0
39	0x00000000	0.0
40	0x00000000	0.0
41	0x00000000	0.0
42	0x00000000	0.0
43	0x00000000	0.0
44	0x00000000	0.0
45	0x00000000	0.0
46	0x00000000	0.0
47	0x00000000	0.0
48	0x00000000	0.0
49	0x00000000	0.0
50	0x00000000	0.0
51	0x00000000	0.0
52	0x00000000	0.0
53	0x00000000	0.0
54	0x00000000	0.0
55	0x00000000	0.0
56	0x00000000	0.0
57	0x00000000	0.0
58	0x00000000	0.0
59	0x00000000	0.0
60	0x00000000	0.0
61	0x00000000	0.0
62	0x00000000	0.0
63	0x00000000	0.0
64	0x00000000	0.0
65	0x00000000	0.0
66	0x00000000	0.0
67	0x00000000	0.0
68	0x00000000	0.0
69	0x00000000	0.0
70	0x00000000	0.0
71	0x00000000	0.0
72	0x00000000	0.0
73	0x00000000	0.0
74	0x00000000	0.0
75	0x00000000	0.0
76	0x00000000	0.0
77	0x00000000	0.0
78	0x00000000	0.0
79	0x00000000	0.0
80	0x00000000	0.0
81	0x00000000	0.0
82	0x00000000	0.0
83	0x00000000	0.0
84	0x00000000	0.0
85	0x00000000	0.0
86	0x00000000	0.0
87	0x00000000	0.0
88	0x00000000	0.0
89	0x00000000	0.0
90	0x00000000	0.0
91	0x00000000	0.0
92	0x00000000	0.0
93	0x00000000	0.0
94	0x00000000	0.0
95	0x00000000	0.0
96	0x00000000	0.0
97	0x00000000	0.0
98	0x00000000	0.0
99	0x00000000	0.0
100	0x00000000	0.0
101	0x00000000	0.0
102	0x00000000	0.0
103	0x00000000	0.0
104	0x00000000	0.0
105	0x00000000	0.0
106	0x00000000	0.0
107	0x00000000	0.0
108	0x00000000	0.0
109	0x00000000	0.0
110	0x00000000	0.0
111	0x00000000	0.0
112	0x00000000	0.0
113	0x00000000	0.0
114	0x00000000	0.0
115	0x00000000	0.0
116	0x00000000	0.0
117	0x00000000	0.0
118	0x00000000	0.0
119	0x00000000	0.0
120	0x00000000	0.0
121	0x00000000	0.0
122	0x00000000	0.0
123	0x00000000	0.0
124	0x00000000	0.0
125	0x00000000	0.0
126	0x00000000	0.0
127	0x00000000	0.0

network_body._body_endoder.seq_layers.4.weight f4 [128, 128]
0	0x3d673dc9	0.056455407
1	0xbdef597e	-0.11686991
2	0xbcd76cbb	-0.026296964
3	0x3e02fa3b	0.12790768
4	0x3e1a7abf	0.15085886
5	0x3e1d5e0f	0.15367912
6	0x3da7934f	0.08182394
7	0xbddb54e1	-0.10709549
8	0x3c36508d	0.011127603
9	0xbcf31fcc	-0.029678248
10	0x3e42b018	0.19012487
11	0xbdc124d2	-0.09430851
12	0x3de6109c	0.11233637
13	0x3e314c08	0.1731416
14	0x3d884e81	0.066555984
15	0x3de40170	0.11133087
16	0xbdf3d10e	-0.119051084
17	0x3c405cb9	0.011740857
18	0xbd93faf7	-0.07225602
19	0xbc834644	-0.016024716
20	0xbdaa17c6	-0.08305316
21	0xbcf768b9	-0.030201303
22	0xbdc9b302	-0.09848596
23	0xbd6872eb	-0.05675022
24	0x3c9c24db	0.019060543
25	0xbd986232	-0.07440604
26	0x3d85adff	0.06527328
27	0x3e31c6f5	0.17361052
28	0x3d5f27dd	0.054481376
29	0xbaa31a10	-0.001244368
30	0x3d04cd18	0.032422155
31	0x3d2c8079	0.04211471
32	0xbd0cae65	-0.034346003
33	0x3d4fc644	0.05072619
34	0x3baf8d33	0.0053574084
35	0xbe19bc47	-0.15013228
36	0x3bd2dbd0	0.006434895
37	0xbd46e6ba	-0.04855988
38	0x3d08e4d4	0.033421353
39	0x3df6b02d	0.120453216
40	0x3cc743d6	0.024324339
41	0xbc01c056	-0.007919392
42	0x3dcb2e92	0.09920992
43	0x3dbf40ea	0.09338553
44	0xbd0b56bf	-0.034018274
45	0xbcffb518	-0.031214282
46	0xbd22435e	-0.039615028
47	0x3d920c79	0.07131285
48	0xbd20c668	-0.039251715
49	0x3d185842	0.037193544
50	0xbd805ed1	-0.06268085
51	0xbded664c	-0.11591777
52	0x3e25d0ac	0.16192883
53	0xbdb0e0a6	-0.08636598
54	0x3d990451	0.074715264
55	0xbcd27b30	-0.025693506
56	0xbd0dcb1f	-0.03461754
57	0xbd9b5a77	-0.07585614
58	0xbd59938a	-0.05311922
59	0x3dd16477	0.1022424
60	0x3cd551c7	0.026039971
61	0x3d2d17c7	0.042259004
62	0x3dc86b23	0.0978606
63	0x3e81453b	0.2524813
64	0x3d22782f	0.039665397
65	0x3d848127	0.06469946
66	0xbdbfd8ae	-0.093675
67	0x3d97742b	0.07395204
68	0xbcad0796	-0.021121781
69	0xbdf83609	-0.121196814
70	0xbc174d65	-0.009234761
71	0x3df3a807	0.11897283
72	0xbd8c6de4	-0.068568975
73	0x3df00443	0.11719563
74	0xbd1fab53	-0.038981747
75	0xbe3246eb	-0.17409866
76	0xbd804517	-0.06263178
77	0x3e2df7af	0.16989015
78	0xbd4c04f9	-0.04980943
79	0x3db4abc4	0.08821824
80	0xbdb9d285	-0.090733565
81	0x3c84fba2	0.01623327
82	0xbdce0593	-0.10059657
83	0x3df1b5b7	0.118022375
84	0x3ddf7f35	0.10912935
85	0x3c2b9607	0.010472781
86	0xbdc0e297	-0.094182186
87	0xbddc3980	-0.10753155
88	0x3cc8ce1c	0.024512343
89	0x3d842891	0.0645305
90	0x3d1a619f	0.037690755
91	0x3e6573ef	0.22407506
92	0x3dedb8ee	0.11607538
93	0xbd5befef	-0.053695615
94	0xbe157260	-0.14594412
95	0x3c8adb67	0.016950322
96	0x3d91b1f3	0.07114019
97	0xbd679e74	-0.056547597
98	0xbd02cc6f	-0.031933244
99	0xbdd69713	-0.10478034
100	0xbc8f770e	-0.017512824
101	0xbda489b0	-0.08034074
102	0x3d9cac36	0.07650034
103	0xbd52cd57	-0.05146536
104	0xbb7ea9d9	-0.0038858561
105	0xbcfadaca	-0.030621905
106	0x3da0a024	0.078430444
107	0x3c23fbad	0.010008735
108	0x3c3af5ea	0.01141117
109	0x3e3c8f45	0.18414028
110	0x3bca13db	0.0061669177
111	0x3d5e68e1	0.05429924
112	0x3d4f07c6	0.050544523
113	0xbe173f9f	-0.14770363
114	0xbe1dc6c2	-0.15407851
115	0x3cb9a880	0.022663355
116	0xbe591184	-0.21198088
117	0x3c202e2c	0.009776633
118	0x3cc41516	0.023935836
119	0xbd977d94	-0.07396999
120	0x3dde84e7	0.10865193
121	0xbe17d614	-0.14827758
122	0x3d85a1df	0.06525015
123	0xbcca1c91	-0.024671825
124	0xbd5b841a	-0.05359278
125	0xbd6c565a	-0.05769954
126	0xbdbdaa10	-0.092609525
127	0xbced2a2c	-0.028950773
128	0x3d3fd9cc	0.046838567
129	0x3d24a542	0.040196665
130	0x3dd4e278	0.10394758
131	0x3d12b364	0.03581561
132	0xbd994689	-0.07484157
133	0xbc9cf1b7	-0.019158227
134	0x3df2014e	0.11816655
135	0xbc069e62	-0.008216472
136	0x3e39fc25	0.18162592
137	0xbcc884b3	-0.024477338
138	0xbdab2f88	-0.08358675
139	0x3daaa0f9	0.08331484
140	0xbd7ba013	-0.061431956
141	0xbd5bcd41	-0.053662542
142	0x3d8aec3e	0.06783341
143	0x3d5faff0	0.054611146
144	0xbda99b88	-0.08281618
145	0x3e29b13f	0.1657152
146	0xbdc7fa45	-0.09764532
147	0xbd058f9b	-0.032607656
148	0xbc12a678	-0.008950822
149	0x3d1e2b41	0.03861547
150	0x3e182932	0.14859465
151	0xbe371794	-0.17880088
152	0x3e23a8bc	0.15982336
153	0x3d1e41b8	0.038636893
154	0xbdb8f4bb	-0.09031054
155	0xbc636725	-0.013879572
156	0xbd94ecc2	-0.072717205
157	0x3d44c1af	0.048036274
158	0x3d2a052b	0.041508835
159	0x3e3e119d	0.18561406
160	0xbc079278	-0.008274667
161	0x3d5b3cb2	0.05352468
162	0x3cbf0711	0.0233188
163	0xbdb3b667	-0.08775025
164	0xbe0837fe	-0.1330261
165	0xbcdde646	-0.027087342
166	0xbe17b7cb	-0.14816205
167	0xbc9535bd	-0.018214101
168	0xbd2228af	-0.03958958
169	0xbd96ced5	-0.07363669
170	0xbd7c59d4	-0.061609104
171	0xbd955789	-0.07292087
172	0x3dd12a0d	0.10213099
173	0xbd89e6a6	-0.06733446
174	0x3cac3b55	0.021024385
175	0xbd83346a	-0.064064816
176	0x3d382265	0.044954676
177	0x3d8ba0d1	0.06817783
178	0xbcd1ff1a	-0.025634337
179	0xbd55de0c	-0.052213714
180	0x3e39fd77	0.18163095
181	0x3cfb2c49	0.030660765
182	0xbd575d7b	-0.052579384
183	0x3d7f38b3	0.062309932
184	0xbd4cfd1b	-0.050046068
185	0xbdae70d0	-0.08517611
186	0xbdbcbef0	-0.09216106
187	0x3d6dd2e9	0.058062468
188	0x3dc80029	0.097656555
189	0xbcf42563	-0.029802984
190	0x3c8f5cd4	0.017500319
191	0x3c9abc9c	0.018888764
192	0x3da4d35c	0.08048126
193	0x3d10cfa6	0.03535428
194	0xbe56cd6e	-0.20976803
195	0xbd84ad2b	-0.06478342
196	0x3ce39bb2	0.027784202
197	0x3e7315cb	0.23738782
198	0xbd24a90c	-0.04020028
199	0xbdb7a1fa	-0.089664415
200	0x3db2c215	0.087284245
201	0xbde9792b	-0.11400064
202	0xbdaab884	-0.08335975
203	0xbdc8b673	-0.098004244
204	0xbd5cf654	-0.053945854
205	0xbd9b549f	-0.075844996
206	0x3c98c98c	0.018650793
207	0x3e048eaa	0.12945047
208	0xba7a7845	-0.0009554665
209	0x3e23fae0	0.1601367
210	0x3cbefaea	0.023313005
211	0xbbf24ab3	-0.0073941587
212	0xbcac31f4	-0.021019913
213	0xbc9cba54	-0.019131817
214	0x3dc74a22	0.097309366
215	0x3d25d8b6	0.040489875
216	0xbcbf76c0	-0.023372054
217	0x3d51a1e0	0.051179767
218	0xbd0de334	-0.034640506
219	0x3c4bba99	0.012434625
220	0xbb919d04	-0.0044437665
221	0xbddd4e66	-0.10805969
222	0x3e14b147	0.14520751
223	0xbaa49c15	-0.0012558723
224	0x3ddb4cde	0.10708021
225	0xbca11a67	-0.01966591
226	0xbd180fa3	-0.037124287
227	0x3d9591f8	0.07303232
228	0x3c1c5025	0.009540592
229	0x3d114ea4	0.03547539
230	0x3d90d8b4	0.07072583
231	0x3c4cc5da	0.012498343
232	0x3e07c79d	0.1325974
233	0xbd4e93b5	-0.050433833
234	0x3d17c384	0.037051693
235	0x3d5bed98	0.053693384
236	0x3c1083c5	0.008820479
237	0x3d775e05	0.0603924
238	0x3dd653d3	0.10465207
239	0xbdfa2368	-0.122137845
240	0x3e1e6af6	0.1547049
241	0x3caa1fb8	0.020767078
242	0x3db9e5be	0.09077023
243	0x3c09f97c	0.008421298
244	0xbbf6f902	-0.0075370083
245	0x3d2aa4bc	0.04166101
246	0xbc55f023	-0.013057741
247	0x3e19fa4e	0.1503689
248	0x3d2c7e01	0.042112354
249	0xbe56c122	-0.20972112
250	0x3d8efacc	0.069814295
251	0xbcee349d	-0.029077822
252	0x3d19dbd3	0.037563156
253	0xbdb91426	-0.09037046
254	0xbcb4d28a	-0.02207305
255	0xbc888eba	-0.01666962
