results/BetOrNot6/MoveToBet.onnx (onnx, 949148 bytes, 9 tensors)

action_model._continuous_distribution.log_sigma f4 [1, 16]
000000 39 03 67 3e cc ff f8 3d 59 58 10 3e 73 ba 16 3e
       0.22559823 0.121581644 0.14096202 0.14719562
000010 47 d3 32 3e eb 04 18 3e ab 51 73 3e 1d 51 6d 3e
       0.17463408 0.14845626 0.23761623 0.23175474
000020 87 97 90 3e e6 8e 6c 3e 04 08 65 3e 4c f3 ae 3e
       0.28240606 0.23101386 0.22366339 0.34169996
000030 6d 5a 4d 3e 25 e4 3f 3e 47 0c 02 3e 8d 72 48 3e
       0.20054026 0.18739374 0.12699996 0.19574948

action_model._continuous_distribution.mu.bias f4 [16]
000000 df 40 11 3d ad 0b 38 bd 61 2a 9e bb 32 6b 52 3d
       0.035462257 -0.04493301 -0.0048268293 0.05137176
000010 61 db 80 3c e1 b3 81 3d 8d 97 04 bc d3 5d 0f bd
       0.015729608 0.06333137 -0.008092773 -0.035001587
000020 0a a3 b9 bc 1b 41 8c 3d d4 d7 63 3d a1 74 b1 3d
       -0.02266075 0.068483554 0.05562575 0.08664823
000030 a3 77 9e 3d c3 4f 61 3a 54 80 6d 3d 5e 35 9f 3d
       0.07737663 0.0008594954 0.05798371 0.07773851

action_model._continuous_distribution.mu.weight f4 [16, 128]
000000 94 31 fb 3c 55 a3 10 3d 96 d9 79 bc ed 5f 4c 3d
       0.03066329 0.035312016 -0.01524963 0.04989617
000010 a0 a6 d3 3b 2b 64 82 ba 5f f3 97 3c f9 1b 31 bc
       0.006459072 -0.0009948065 0.018548666 -0.010809892
000020 0c 7a 92 3c 83 28 a5 bc 34 fb 3b bc 36 2e 08 3d
       0.017880462 -0.020160919 -0.011473466 0.033247195
000030 bb 69 87 bc 61 a6 28 bc 4a a7 f1 bc e2 ba 93 3d
       -0.016529908 -0.010293574 -0.029498715 0.072133794
000040 cf d2 73 3d ec 60 6e 3c 1e 83 9a 3c 57 88 3c bd
       0.059527215 0.014549475 0.01886135 -0.04602846
000050 95 a3 13 bd ea 22 22 3c 63 54 15 bd 41 1d d5 bc
       -0.036044676 0.0098960195 -0.03645743 -0.026014926
000060 40 d3 f6 3c b4 8c b8 3b 75 74 31 bd dc e0 ab 3c
       0.030130029 0.0056320075 -0.043323953 0.020981245
000070 ea a7 10 3d 61 d7 05 bd 7f 3c 20 3d 48 8f ad 3c
       0.035316385 -0.032676104 0.039120194 0.021186486
000080 ea ea 6f bc f8 e6 7b bd 2f 8b 8e bc a2 40 11 bd
       -0.01464341 -0.061499566 -0.017400352 -0.03546203
000090 02 43 78 3c c3 ea 62 bb c6 18 f5 b9 fe 59 74 3d
       0.015152695 -0.0034624792 -0.000467485 0.059656136
0000a0 ef 43 44 bc 25 f0 c3 3a 0c 47 0f bc 5a c5 0f bc
       -0.011979087 0.0014948888 -0.008744966 -0.00877508
0000b0 37 1c 03 3d 87 48 4c 3b e6 6b 12 3c 8b d6 2c bb
       0.03200933 0.003117116 0.008936858 -0.0026372995
0000c0 f1 8e d6 3b fe 5d dc 3c a2 ed 8a bd 51 59 6c 3c
       0.0065478017 0.026900288 -0.06783606 0.014425592
0000d0 4e 44 3d bc bd d7 ac bc 7b 77 55 bd cd 8a 07 bd
       -0.01155193 -0.021098966 -0.0521159 -0.033091355
0000e0 78 90 04 3d 98 47 a9 bd 37 ed 49 3c 0f 5f 8a bd
       0.03236434 -0.082656085 0.012324623 -0.06756412
0000f0 d4 f8 1d 3c 1b c7 a8 bc 77 d5 81 3c cd 17 dd 3b
       0.009641845 -0.020602753 0.015848858 0.006747222
000100 9d dc 6b 3c 56 4c 51 bc d3 de be ba a4 3c df ba
       0.01439586 -0.012774548 -0.0014562256 -0.0017031622
000110 c1 69 e2 3a fa 0f 53 3d a0 02 17 3c 42 8d 04 3d
       0.0017273949 0.05152891 0.009216934 0.032361276
000120 77 7e 9b 3c b4 99 c3 bb fa b0 79 bc 58 71 d2 bb
       0.018981202 -0.0059692506 -0.015239948 -0.006422203
000130 bb 4c 19 3b 37 9e c9 bd bb 64 d1 3c d1 80 8b bc
       0.0023391682 -0.0984463 0.025560727 -0.017029198
000140 8f 6d c0 3b 8a f4 00 bd 53 d8 8d bd fb d6 be 3c
       0.0058724354 -0.03148321 -0.06926026 0.02329587
000150 43 ba 28 3d 20 51 88 bc 60 0e b5 3c 1b a5 8e bc
       0.041193258 -0.016640246 0.022101581 -0.017412713
000160 ff 9e 9f 3c b0 91 9e bb 97 7b 3c bd 50 85 c2 bc
       0.019484995 -0.0048391446 -0.046016302 -0.023745209
000170 c5 38 16 3b 70 08 9c 39 29 64 15 3c be 34 e3 3c
       0.002292202 0.00029760925 0.009118118 0.02773511
000180 6d 66 3f 3c 60 dc c0 3c 68 df 97 3b df c9 af 3c
       0.011682135 0.023542583 0.0046347864 0.021458564
000190 d9 db 15 3d d6 d9 c0 bc 45 01 a5 3b 14 15 58 39
       0.036586616 -0.023541372 0.0050355517 0.00020607217
0001a0 57 0f be 39 b2 9e 82 bb 9e 05 42 bd 91 19 3e 3b
       0.00036251053 -0.003986203 -0.04736864 0.0029006938
0001b0 48 7b 36 bd ba 38 03 bc e5 9b c9 bc 6d c8 4a 3d
       -0.044551164 -0.00800913 -0.02461047 0.049507547
0001c0 19 d0 09 3c 5d c9 ae 3c 09 79 4c 3d ca ce f4 bb
       0.008411431 0.021336252 0.049920116 -0.0074709402
0001d0 a3 9b 76 bd 84 c4 a7 3d 4d 0f 5d bc ee ef fa 3c
       -0.06020702 0.08191779 -0.0134924175 0.030631986
0001e0 60 59 93 bc 37 a5 cb bc 7d df 2e bb a8 44 dd bc
       -0.017986953 -0.024859054 -0.0026683502 -0.027010277
0001f0 d5 51 1d bd 8d 99 d4 3c 20 72 c9 3c 1f 45 36 bd
       -0.03840812 0.025952125 0.024590552 -0.044499513
000200 ea 8b f8 3c 74 8a d8 bc f9 5a ff bc 34 d5 e9 3c
       0.030340154 -0.026433207 -0.031171309 0.028544046
000210 a4 07 8a bc 87 b0 06 bd 9f 60 99 bd ed aa f8 3c
       -0.016849346 -0.032883193 -0.07489132 0.030354941
000220 7a ff 21 bd e9 6d 96 3c 4b 8e 3d bc ee 1d 04 bc
       -0.039550282 0.018362956 -0.01156957 -0.008063776
000230 6d c2 99 3c d3 68 1a bd fc b9 9c bd aa 17 e7 3b
       0.018769467 -0.037697624 -0.07652661 0.0070523815
000240 2e 77 0b bd 30 ce 3d bb 25 d9 dd bb 37 77 aa bc
       -0.034049205 -0.0028962009 -0.0067702704 -0.0208088
000250 91 e9 df 3c ce d4 c7 3c ce ec d7 bc 23 98 c1 b9
       0.027333053 0.024393465 -0.026358034 -0.0003692518
000260 43 b7 49 3d 15 fe a8 bc 2f ba f9 3c 10 4d f2 3b
       0.049247038 -0.020628968 0.030484287 0.0073944405
000270 5f ce 2a bb aa 92 59 3c 4a 88 c8 3c 78 03 85 3c
       -0.0026062948 0.013279596 0.02447905 0.016237006
000280 fd 24 62 bc db 3e ab 3c ff f1 62 bc 0b f4 cd bc
       -0.013802764 0.020903995 -0.013851642 -0.025140783
000290 74 79 d4 bb df a6 e3 bb d7 e8 24 bd 4d e7 07 bd
       -0.006484205 -0.006947383 -0.040261116 -0.03317957
0002a0 65 b8 89 bc 03 10 10 bc c9 88 6f 3d f8 bd ff bb
       -0.016811559 -0.00879288 0.058480058 -0.0078046285
0002b0 bc d2 7b 3b 51 d2 84 bb 8f a1 75 bc c1 fe db 3c
       0.0038425168 -0.004053392 -0.014992132 0.026854875
0002c0 57 36 97 3c 63 28 0d bc 71 00 a9 3c ce 01 d2 3c
       0.018458528 -0.008615586 0.020630093 0.025635626
0002d0 79 b1 6d bc 70 92 af bc e6 69 3a 3d 3c 42 17 bd
       -0.014507645 -0.021432132 0.04551115 -0.0369284
0002e0 63 b0 d6 3a 45 bf 84 3d 8c 4c eb 3c 19 5a 0a bd
       0.0016379472 0.06481794 0.028723024 -0.03377733
0002f0 10 df 84 3b fc e5 0c 3c ce f0 64 bc e1 cb ac bc
       0.0040549114 0.008599754 -0.013973428 -0.02109331
000300 b9 44 03 bc e3 00 11 bb 2d 68 10 3c 80 55 bc bc
       -0.00801199 -0.0022125773 0.0088139 -0.022989988
000310 80 ad 24 bd da 57 6c bd f2 be 80 3d 2c 22 83 3c
       -0.040204525 -0.05770097 0.0628642 0.016007505
000320 de 27 ae ba 9f d7 db bb 14 68 2e bd 3c 63 e1 bc
       -0.0013287028 -0.0067090536 -0.042579725 -0.027513139
000330 ba d2 2c 3d 01 dc 89 3d 38 83 37 bd d1 c3 3e bb
       0.042193152 0.067314155 -0.044802874 -0.0029108415
000340 70 55 82 bc f3 e8 2c 3d 06 a2 2f 3b 1a 14 4a bd
       -0.01590988 0.042214345 0.0026799454 -0.049335577
000350 19 39 80 bc 16 f7 52 3d 8a 06 03 3c 2c aa 8a 3c
       -0.015652226 0.05150517 0.0079971645 0.016926847
000360 e4 59 c9 3c c8 65 33 bd 14 98 35 3c 29 7c 62 3c
       0.024578996 -0.043798238 0.0110836215 0.013823547
000370 25 c1 12 bc 52 d6 1b 3c 61 c4 a6 3c 7c 14 cc 3b
       -0.008957182 0.009511547 0.020357313 0.006228028
000380 3e 67 bf bb c2 69 e6 bb b8 ef 21 bc 3b df 28 bd
       -0.005841165 -0.0070316503 -0.009883814 -0.041228514
000390 f3 7d 15 3d f0 30 3f bd ec c8 dd 3b 02 29 a5 bb
       0.036497068 -0.04667753 0.0067683365 -0.005040289
0003a0 9e 54 b6 3c 56 d7 9a 3c f1 99 0f 3c 4c 31 d2 bc
       0.022257145 0.018901508 0.00876473 -0.025658272
0003b0 b6 ef 78 3d f2 cf a7 3a 07 a4 02 3c 5a e9 a6 bd
       0.06077548 0.0012803061 0.0079736775 -0.08149977
0003c0 7c 02 41 bc 2b 8c eb bc f8 40 3d 3c dc de 80 bc
       -0.0117803775 -0.02875336 0.011551134 -0.015731268
0003d0 bc 1d 10 3d 7f 6d 8e bd 76 36 93 bc ce 32 69 3c
       0.035184607 -0.069544785 -0.017970305 0.014233304
0003e0 0d d8 2c 3b 03 d8 69 3d 26 fb c8 3c 58 9e 81 bd
       0.0026373893 0.05709077 0.02453382 -0.0632903
0003f0 9d 68 11 bd 28 2a ca bc 12 ca b3 3c 3e 8d 9e ba
       -0.035500158 -0.024678305 0.02194694 -0.0012096537

action_model._discrete_distribution.branches.0.bias f4 [2]
000000 bd 90 1c 3b 45 90 1c bb
       0.0023889982 -0.0023889702

action_model._discrete_distribution.branches.0.weight f4 [2, 128]
000000 d4 c5 37 3c c0 15 e9 ba 38 d5 c1 3b cc d6 95 3c
       0.0112165995 -0.0017782971 0.0059153102 0.0182909
000010 9c b2 09 bc c5 c5 29 3c 37 29 80 3b 83 74 a9 3b
       -0.0084044 0.010362093 0.003911163 0.00517136
000020 72 67 3e 3b c5 06 81 ba cd 61 d0 bb d7 5f ea 3b
       0.0029053357 -0.0009843936 -0.006359315 0.0071525383
000030 4f 3c 81 3c fa 8e 43 bc 0d fb 12 bc 46 f8 62 3b
       0.015775828 -0.011935944 -0.008970988 0.0034632846
000040 55 68 b2 3c c2 3d 72 bc 25 9f 3f 3b 1f 79 81 bb
       0.021778265 -0.014785232 0.0029239145 -0.0039512063
000050 12 15 dd bc bf e8 bb ba 7a 17 ed 3b 75 49 a0 bc
       -0.026987586 -0.0014336332 0.0072354646 -0.019566277
000060 5b 18 c0 bb 62 f4 f9 bb eb ef c0 3b 5c 5e f1 3c
       -0.0058622784 -0.0076280097 0.0058879755 0.02946394
000070 ab 5a ab bb f1 1e f0 bb 63 0a 4e 3a b6 ba e8 bb
       -0.0052293143 -0.0073279073 0.0007859824 -0.007102336
000080 7a bd 16 3c 09 d3 cd ba 46 b2 47 bb a4 40 3d 3c
       0.009200448 -0.0015703152 -0.003047125 0.011551056
000090 29 24 ab 3b e7 1c e7 3b 3f 77 f7 bb fe be 04 bc
       0.0052228165 0.007053006 -0.007552057 -0.008102177
0000a0 a8 7e 9a bc 10 14 70 bc bf 4b 45 b9 71 e0 80 bb
       -0.018859223 -0.014653221 -0.00018815602 -0.0039330055
0000b0 d2 10 43 3c d7 d2 08 bc 03 dd 51 3b e6 4a f0 3b
       0.011905866 -0.008351049 0.0032022602 0.0073331473
0000c0 2e 1f 79 bb 50 34 6a 3c 90 f0 95 bc 92 0a e1 3b
       -0.003801297 0.014294699 -0.018303186 0.006867715
0000d0 85 d5 a8 3c 01 62 9f ba c3 bb a7 bc ec 5a cf ba
       0.020609627 -0.0012159945 -0.020475274 -0.0015819944
0000e0 1a 98 e3 3b 32 18 3b bc 7d 02 c9 bb 1f cb 2d bc
       0.006945622 -0.011419343 -0.00613433 -0.01060751
0000f0 2e bd 57 3b f3 1c b6 bc a5 e2 08 bc d9 8d 53 bc
       0.0032919156 -0.022230601 -0.0083548175 -0.012912237
000100 79 60 13 bc c0 d4 f0 ba 17 bd c5 3b 0b 8a d6 3b
       -0.008995169 -0.0018373951 0.006034504 0.0065472177
000110 d0 16 6f 3b 1c ce b0 3a 94 da 7b 3c d9 24 e0 bc
       0.0036482103 0.001348916 0.015371937 -0.02736132
000120 06 c2 b8 39 22 3c 98 3c a2 1a 76 3c 00 b6 cd 3b
       0.00035239774 0.018583361 0.015020998 0.0062777996
000130 3a 9e 77 bb c0 17 8d bb 4d dc 6a bb 91 de 95 3c
       -0.003778352 -0.0043058097 -0.0035836876 0.018294604
000140 34 1f 87 3b dd f3 bc ba f1 63 55 3a d1 b7 84 3b
       0.0041235927 -0.0014415939 0.00081401976 0.004050233
000150 5f ca db 3a c9 80 09 3b 12 5e 7b 38 b9 ff 08 bc
       0.0016768685 0.0020981303 5.9930673e-05 -0.00836175
000160 37 09 ec bb da 54 c4 3b 6b 0e 87 bc 0d 3a 38 bc
       -0.007203247 0.0059915604 -0.016486367 -0.011244309
000170 20 f5 8f bb a9 6d 9c 3c 5c 46 80 3b 1e d3 f2 3b
       -0.004393235 0.019095259 0.0039146375 0.007410421
000180 c8 2c 7c bc c4 8d 19 bb 47 eb a5 3b 2a ac d3 bb
       -0.015391536 -0.0023430446 0.0050634476 -0.0064597325
000190 ac 4b a6 bc ed 20 b9 39 44 2d 8e 3a 9a a5 2c 3c
       -0.020299755 0.0003531048 0.001084723 0.010537529
0001a0 43 6b 12 bb 19 99 06 3d 57 16 55 bc 30 cb 77 3c
       -0.0022341765 0.03286085 -0.0130058145 0.015124127
0001b0 ab 2c a1 3b 3a e7 d5 3b 12 8a 6b 3c 50 bc 54 bc
       0.004918655 0.0065278085 0.01437618 -0.01298435
0001c0 b8 19 51 b8 b1 aa 1b 3c 67 3e d4 bb a9 ec 36 bc
       -4.9853435e-05 0.009501145 -0.0064771655 -0.011164823
0001d0 48 6d f2 ba 7a 59 5c bc 82 9a 85 bc 61 16 60 bc
       -0.0018495703 -0.013449067 -0.016309027 -0.013677211
0001e0 64 65 b2 ba 3a fd b3 3b 14 c0 0d 3c ab 16 9c bb
       -0.0013610539 0.0054928334 0.008651752 -0.0047634444
0001f0 7d 9d bd 3b d8 49 83 b8 e8 21 fe 3b 17 f5 98 3b
       0.0057865963 -6.260321e-05 0.007755507 0.004667889
000200 bf 03 2c bc bc 6e 26 3a 6d 19 3e bc ff 18 15 3c
       -0.01049894 0.0006348898 -0.011602742 0.009100198
000210 21 39 89 3c 52 89 8a 3b 70 ad 0f bc cf db 0a bc
       0.016750874 0.0042277956 -0.008769378 -0.008475258
000220 48 bd 81 3b cb 97 b2 3b 02 dc 0b 3c 2c e1 25 bc
       0.0039593317 0.005450224 0.008536341 -0.010124486
000230 48 90 a0 bc a6 a1 4e bb 75 3e 9a 3b e8 f8 5b 3c
       -0.019600049 -0.0031529455 0.0047071525 0.013426043
000240 19 93 b8 bc 02 bd 29 bc 36 dd 8c 3b 2d 53 98 bb
       -0.02253108 -0.010360004 0.0042988313 -0.004648587
000250 1d 86 92 3c b9 4c 22 bc fb e3 a5 3b 3b 83 d6 3c
       0.017886216 -0.009905987 0.005062578 0.026185622
000260 08 30 f5 3b ea d5 9c bc 20 f4 bb bb 59 7e 37 bc
       0.0074825324 -0.01914497 -0.005735889 -0.011199557
000270 94 76 b8 bb 39 1b 22 bb 59 ff 92 3b 26 ab 38 bc
       -0.00562937 -0.0024735464 0.004486006 -0.011271274
000280 e4 cf c0 bb 3a 33 7f bb 21 88 5c bc 54 f1 95 3b
       -0.0058841575 -0.0038940446 -0.01346019 0.0045758877
000290 f1 a9 6a 3c 88 a8 57 3c 4c c9 65 bc b7 92 95 3c
       0.014322744 0.01316274 -0.014025044 0.018258436
0002a0 6a d9 77 3b 0b 81 e9 bb 03 67 60 3c 62 06 57 3b
       0.0037818798 -0.007125979 0.013696435 0.00328102
0002b0 e0 de de bb 99 e8 79 bb 29 5a bd 39 45 6f 0e bc
       -0.006801471 -0.0038133024 0.00036116064 -0.008693521
0002c0 d1 80 f5 39 be 88 c8 bb dc 82 41 3b 59 0b e2 bb
       0.00046826017 -0.0061198166 0.002952746 -0.0068983254
0002d0 e1 19 e7 bb 61 fd 12 3b ea a5 cb bb 5f 43 5d bb
       -0.0070526456 0.0022428858 -0.006214847 -0.003376208
0002e0 36 72 7d 3c ca 86 f6 3b 9d 58 ae 3b 22 38 b9 3c
       0.015469125 0.0075233923 0.005320622 0.022609774
0002f0 66 6b 0f 3c e6 90 76 3c 33 44 ba ba 2f c0 ca 3b
       0.008753633 0.015049195 -0.0014210999 0.006187461
000300 e3 07 40 ba 1a b3 53 bc 88 4d 85 3b f8 4a ab bb
       -0.0007325394 -0.012921119 0.0040680803 -0.005227443
000310 91 3b 34 b9 c1 43 9e bc 6a 28 b4 bb 3a 47 48 3c
       -0.00017188328 -0.019319417 -0.005497982 0.012224013
000320 37 8b 28 39 3e 61 83 3c b7 60 b7 ba 14 05 2d 3a
       0.0001607359 0.01603758 -0.0013990615 0.0006600183
000330 0a cd 21 3b 07 99 be b9 13 46 73 bc 4f b6 10 bc
       0.0024688863 -0.00036353638 -0.01484825 -0.008832528
000340 2d 21 e8 ba 2b 28 90 3b d6 6c 18 bb bf 94 28 3b
       -0.0017710082 0.0043993196 -0.002325823 0.0025723425
000350 29 f1 8e bc 86 9b 39 3b 11 52 a2 bc f0 34 aa bb
       -0.017448978 0.002832146 -0.019814523 -0.005194299
000360 ab 30 09 3b 5d e0 0a 3b 7d 54 43 3b 71 21 c1 bb
       0.002093355 0.002119086 0.0029804998 -0.005893879
000370 79 c9 95 3b de a4 c2 bb 9e ce 50 3b 1e f5 1e bb
       0.0045711366 -0.005940064 0.0031861435 -0.0024254988
000380 c9 15 6a bb a7 d8 27 bb c4 60 4a 3b cb 0f 16 3b
       -0.0035718551 -0.0025611313 0.003088043 0.0022897597
000390 36 63 81 3b d6 fd a7 3b c1 62 50 bb 8a 40 93 39
       0.0039485944 0.005126695 -0.0031797143 0.0002808611
0003a0 65 98 44 3c 06 30 9d ba e9 e5 86 3b 87 be 17 bc
       0.011999224 -0.0011992462 0.004116763 -0.009261734
0003b0 9a 8a ed 3b 70 1f 8b bb c2 c1 1f b8 d8 99 1d 3c
       0.0072491886 -0.004245691 -3.8089005e-05 0.009619199
0003c0 d3 04 6b bb 20 7b f2 3a bc 02 94 3b ff ba 0f bb
       -0.003586103 0.0018499829 0.0045169275 -0.0021931527
0003d0 9e cf ed 3b 09 1f e9 ba fb 9b a4 3b 40 82 09 3b
       0.007257416 -0.0017785738 0.005023477 0.0020982176
0003e0 64 4c 00 bc 92 c8 17 3b 4d 2e c6 3a 85 e3 94 b8
       -0.007830713 0.002316032 0.001512 -7.099569e-05
0003f0 60 4f a9 37 49 bf 47 3c d3 20 83 bb cf 7b 1f bc
       2.0183332e-05 0.012191602 -0.0040017157 -0.009734108

network_body._body_endoder.seq_layers.0.bias f4 [128]
000000 03 f5 8a bc 72 0f 64 3d c5 74 98 bc 50 04 9c 3d
       -0.016962534 0.055678792 -0.018610368 0.0761801
000010 f5 e9 cf 3d c2 64 19 3d 51 ba 82 bc 53 86 11 3d
       0.10152046 0.037449606 -0.015957983 0.035528492
000020 13 09 01 3d d6 c4 7d bd e3 ae 02 3d ab 7f fe bb
       0.031502794 -0.061955296 0.031905066 -0.007766684
000030 4d ab 5d 3c f8 ca aa 3d 42 fd 60 3d 50 61 47 bd
       0.013529611 0.083394945 0.054929025 -0.04867679
000040 04 c1 aa 3d 86 7d 73 3d 16 42 6b 3a 95 d2 57 3d
       0.08337596 0.05944588 0.0008974386 0.05269106
000050 71 1a e8 3c f4 bf 96 3b 46 1d 8f bc 6e 72 dc 3c
       0.02833292 0.0046005193 -0.017470013 0.026910033
000060 40 61 3e bd ba c3 04 3c 6e 38 22 bd 5e 96 10 bd
       -0.046479464 0.0081033055 -0.039604597 -0.03529965
000070 c1 1b 97 3d cd 08 77 3d 08 71 0a 3d a4 5d b1 3d
       0.073783405 0.060311127 0.0337992 0.08660439
000080 41 b0 9c 3b c3 dd 1b 3d c3 b6 81 bc d3 cf f6 3c
       0.0047817533 0.038053285 -0.015834218 0.030128395
000090 df 48 0a bb be bf 4f 3b 33 51 3c 3d ce 2c 85 3d
       -0.0021100563 0.003169998 0.045975875 0.065026864
0000a0 2f d6 89 3c 88 02 e2 3b 5c 8c 5c 3c 16 d9 a3 bc
       0.016825764 0.0068972744 0.013461199 -0.020000976
0000b0 18 4a a8 bc 78 8a 18 bd 87 ea 12 bd 53 5a fc 3a
       -0.020543143 -0.03724143 -0.035868194 0.0019252993
0000c0 d4 84 05 bc 6d 03 42 bc 78 9e e2 bc 56 69 31 bd
       -0.0081493445 -0.011841637 -0.027663454 -0.043313347
0000d0 e2 42 a2 3d ac 6d 8c bc c6 46 65 bd 5c e1 07 bd
       0.07922913 -0.01714214 -0.055975698 -0.033173904
0000e0 0a 93 3d 3d a4 50 62 bd 85 5c 59 3c e0 dc 4b 3d
       0.046282806 -0.055252686 0.013266687 0.04977119
0000f0 c0 ae be 3d 06 46 60 3b 5f d8 c8 bb 6d aa 09 bd
       0.09310675 0.0034221425 -0.006129309 -0.033609796
000100 f7 4a 6f 3c c1 5d a7 bd 00 ba 51 bc 77 83 cc 3c
       0.014605275 -0.08172179 -0.0128006935 0.024965031
000110 50 3b a3 bd 2a 07 de 3c 41 e7 8f bc 65 5f 95 bd
       -0.07970297 0.027103025 -0.017566325 -0.07293586
000120 b9 bc 84 bd 6c d3 be 3c f3 03 c9 bc 1a bc 3e bc
       -0.064813085 0.023294173 -0.024538016 -0.011641527
000130 58 9b ab 3d c0 12 ac 3d 23 05 90 bd b7 23 66 3b
       0.08379239 0.08402014 -0.0703223 0.0035116503
000140 d8 d1 7d 3c b2 2d 8e 3d 9c bf 9a 3c 6c 9f 8c 3c
       0.015491925 0.069423094 0.018890195 0.017165862
000150 8c 87 6b bb 87 07 5b bb d3 b1 a3 3b ad ac 9f bd
       -0.0035938947 -0.0033421235 0.0049955635 -0.07796607
000160 65 4e 0b 3d eb 73 62 3d 3b ba 82 bb be ca e3 bb
       0.03401031 0.05528633 -0.0039894856 -0.006951659
000170 67 be dc 3c 19 9e 9f 3c e5 90 49 3c ae 26 14 3d
       0.02694626 0.019484567 0.012302612 0.0361697
000180 b9 8e 21 3d e9 b3 04 3c 11 a4 0d bd 5d c4 8a 3d
       0.03944275 0.008099535 -0.034580294 0.067757346
000190 63 59 5d bc b4 fb fd 3c 18 f3 5c bd 3f d8 ba bc
       -0.013510081 0.03100381 -0.05394277 -0.022808192
0001a0 ec c8 4c 3d 40 26 e0 bc 08 b6 40 3d ce de 06 3d
       0.0499963 -0.027361989 0.0470486 0.032927327
0001b0 58 6f 6a 3d 02 38 d6 3d 9c be 3a bc cf 4c 3b 3b
       0.057235092 0.104599014 -0.011397984 0.0028579717
0001c0 fe 33 59 3d d8 5b 91 3c 7f 31 a8 3c 47 93 48 3d
       0.0530281 0.01774399 0.020531414 0.04896858
0001d0 92 91 26 3a c0 a6 6a 3d f3 48 7a bd be 08 06 bd
       0.0006354089 0.05728793 -0.061104726 -0.03272318
0001e0 8f 40 8a 3c 92 32 3c 3d 54 6b 30 3d c6 46 f7 3c
       0.016876487 0.045946665 0.043071106 0.030185115
0001f0 d7 96 58 3d e6 83 a7 3c 2b a5 97 3c 81 15 bb 3c
       0.052878227 0.020448636 0.018511375 0.022837402

network_body._body_endoder.seq_layers.0.weight f4 [128, 1700]
000000 8a b1 64 3c aa 4c 4d 3b ca 05 fe 3b e2 c8 9f 3c
       0.013958344 0.0031326213 0.007752155 0.019504968
000010 4f f9 88 bc 34 b7 27 3d 75 5f 24 3a 63 9e 3f 3b
       -0.016720442 0.0409462 0.0006270328 0.0029238693
000020 f8 c7 bf 3b 30 4a d4 3c 0a 76 2c 3d 15 e3 f7 bc
       0.0058526956 0.025914282 0.04210476 -0.030259648
000030 5f 90 85 3d 05 f4 3f 3b 32 ad d0 bc 11 80 16 3c
       0.06521677 0.0029289734 -0.025473211 0.009185807
000040 0a cf 00 3c 2a e9 20 bc 93 5c e6 3b 83 a6 5b 3c
       0.007861862 -0.009821216 0.0070300787 0.013406399
000050 eb 07 00 3d 73 19 1e ba ac 24 cb 3a 50 e9 86 3c
       0.03125755 -0.0006031014 0.00154986 0.016468674
000060 29 28 3c 3c b7 e4 8c 3c 40 16 0c 3c 6f 60 17 ba
       0.011484184 0.017198903 0.008550227 -0.00057745626
000070 d3 bf 96 bc ae a8 c4 3c 96 61 ba 3c 2d bc 83 3c
       -0.018402016 0.024006214 0.02275161 0.01608094
000080 87 d4 41 3b 9d c6 4a bc 80 30 bb bc 56 c7 b8 3c
       0.002957614 -0.012376455 -0.022850275 0.022555988
000090 3d 18 48 bd 95 4a 9b 3c 58 2f 16 3d 81 96 de 3b
       -0.04885124 0.018956462 0.036666244 0.006792844
0000a0 f4 0a a0 3b 90 41 33 bb 76 32 fb 3b 04 c3 62 3c
       0.004884118 -0.002735231 0.0076659275 0.013840441
0000b0 d0 c3 d5 3a bb 4c 94 3c cb 32 1c bd 25 44 64 bc
       0.0016308967 0.018102994 -0.038134377 -0.013932263
0000c0 c3 19 88 3c e5 5e 49 3d 4b 6d 53 bc 1e 62 e0 3c
       0.016613847 0.049162764 -0.012904475 0.027390536
0000d0 a3 a6 07 bd 31 ff 10 3d 3f ec ee bc 76 20 27 bd
       -0.0331179 0.03539962 -0.029165385 -0.04080244
0000e0 27 bf 0e bc 89 39 9a 3c 03 5b 6b bc 4b 97 84 ba
       -0.008712566 0.018826263 -0.014364961 -0.001011589
0000f0 1d bb 56 bd 0a 69 a2 bb 53 47 94 bb 83 7e fd 3a
       -0.05242454 -0.0049563693 -0.004525104 0.0019340072
000100 bb 6a 8b 39 52 1e 1b bc 95 02 ee bb d0 62 48 bb
       0.00026591666 -0.009467678 -0.0072634914 -0.0030576475
000110 48 31 82 3c b9 be ec 3b 02 43 8e 3c 64 a7 98 3c
       0.01589264 0.0072248843 0.017365936 0.018634506
000120 75 fe dc 3c b4 a2 f6 bc 99 e5 0f bd 94 ce 1a 3d
       0.026976803 -0.03010688 -0.03513107 0.037794665
000130 39 1a b7 ba 51 0e d3 bb 4f 75 a7 bc 1e 6c 0c 3d
       -0.0013969607 -0.0064409156 -0.02044168 0.034282796
000140 e8 c3 5b 3b 44 8d 09 3b 31 8e c6 39 e1 61 65 3c
       0.0033533517 0.0020988742 0.00037871444 0.014000387
000150 cc b0 3e bc 09 ab ca 3b d4 3c 67 bb 4d 22 39 3c
       -0.011638831 0.0061849398 -0.003528406 0.011299682
000160 1f b1 58 bc b9 1d df 3c d9 18 7e 3c cc e5 02 3d
       -0.013225823 0.027235853 0.015508854 0.031957433
000170 ac d5 07 3d 3d e0 1e 3d e4 47 3d bc 06 3d 10 bd
       0.033162758 0.03878807 -0.011552785 -0.035214446
000180 a0 9c 27 bc a4 7b e6 3b e9 13 28 bd 03 09 b6 3a
       -0.010230213 0.007033782 -0.041034613 0.0013888184
000190 10 1d 52 bc e0 99 8f 39 ab d5 d1 3b 21 aa 58 3d
       -0.012824312 0.0002738973 0.006403645 0.052896623
0001a0 95 98 77 ba 71 ab d9 3b 4b cc 09 3c 49 41 48 3b
       -0.0009445039 0.006642752 0.008410524 0.003055649
0001b0 5f c6 d1 3b 89 08 d7 bc 81 21 01 bd f0 ba 2d 3b
       0.0064018215 -0.026249187 -0.031526092 0.0026509129
0001c0 9e 10 87 bb 22 8d 1a 3c 85 5c 64 bc a7 71 b4 3c
       -0.004121854 0.009433063 -0.013938074 0.02202685
0001d0 72 7f c9 3b 29 a0 00 3d 5f d1 e7 3a 6e 27 8d 3c
       0.006149226 0.03140274 0.0017686299 0.017230716
0001e0 fd 24 3b 3a 0f db 8f 3b 61 3d 45 3b 7e 1d f9 bb
       0.00071389956 0.0043901275 0.00300964 -0.0076023927
0001f0 70 c2 ef bb a2 05 6c 3a 1d 42 c4 bc 8b d4 e6 3b
       -0.00731688 0.0009003525 -0.023957307 0.00704438
000200 1d 0b d1 bb fe 14 a4 bd ab 34 1a 3d 2e 15 9a 3a
       -0.0063794986 -0.080118164 0.037647884 0.001175558
000210 97 3e eb bc 4f 0e b5 bc 35 f0 72 bd b1 44 a5 bb
       -0.028716369 -0.02210155 -0.05931111 -0.005043589
000220 ee 49 3a bc a1 35 a6 3c 47 81 56 bd bf a2 de bc
       -0.011370165 0.020289244 -0.052369382 -0.027177213
000230 2a 46 07 3c fb c1 6b bc 52 00 93 bc 88 b8 fb 3c
       0.0082564745 -0.01438951 -0.017944489 0.03072764
000240 46 52 75 bd 4f ca 48 3b ec 12 98 3c 98 dc 3d bb
       -0.059892915 0.0030638163 0.01856371 -0.0028970595
000250 75 08 49 3c f8 2d b2 bc b7 5e b9 bb 51 6d 46 bb
       0.012270083 -0.021750435 -0.005657043 -0.003027756
000260 e4 34 16 bd 97 02 c6 bc dd b5 f8 3b 52 37 cb 3c
       -0.036671534 -0.024171157 0.007590039 0.024806652
000270 65 04 f0 b8 5a 07 9a bd ca 47 fb 3c ce 3d 21 3d
       -0.0001144491 -0.075209334 0.03067388 0.039365582
000280 02 22 5c bb 94 87 b0 bc ec ac 38 3a fa 68 84 3c
       -0.0033589606 -0.021549024 0.00070448103 0.016163338
000290 84 75 e5 3c 8d 09 cc bc 4f 0d b5 bb e9 fe 3b 3d
       0.028010137 -0.024906898 -0.005525268 0.0458974
0002a0 30 65 cc 3c 78 3c 5e 3b 16 9c 70 bc fe 8f 77 3d
       0.024950594 0.0033910554 -0.014685651 0.060440056
0002b0 ac 0a dc bb 96 2b 73 3b 83 4e 56 bb 6e fe ce 3c
       -0.0067151394 0.0037104837 -0.0032700605 0.025267806
0002c0 53 e9 6b bc cc 5a e4 bc 13 d6 85 39 41 ed ff 3b
       -0.014398891 -0.027875327 0.00025527235 0.0078102653
0002d0 30 c9 86 bb 45 9e 55 bc 9c f7 a2 3b 60 69 2b 3c
       -0.004113339 -0.013038223 0.004973365 0.010462135
0002e0 6c 99 f8 bc 0d 00 90 3c 0e cd 42 3b 95 9d d7 3c
       -0.030346595 0.01757815 0.0029724273 0.026320258
0002f0 2c 3f 8a bc d6 64 62 bc 2f b6 3b bc 4e 21 7a 3b
       -0.016875826 -0.0138179865 -0.01145701 0.0038166824
000300 35 be 4f 3b fc 89 6d 3c 4b d5 37 3d d3 67 6d bb
       0.0031699066 0.01449823 0.044881146 -0.0036225214
000310 99 18 9f 3b 57 9e 6e bc fb 53 fe bc ee 45 c0 3a
       0.004855227 -0.014564118 -0.031045904 0.0014669278
000320 2a 71 6c bc 12 15 82 bc c8 9d cd 3b 74 a7 43 bb
       -0.014431277 -0.015879188 0.0062749125 -0.0029854449
000330 f5 fc 07 3d 3e 46 54 bd f5 e5 02 3c d8 e3 96 bb
       0.033200223 -0.0518248 0.007989396 -0.004604798
000340 dd dd 05 bd d4 fa 7f bc de 68 66 bc af 83 5f 3b
       -0.03268229 -0.015623767 -0.014063088 0.003410559
000350 a1 e3 1e bd 1b 43 b3 3c 59 df a8 bc 58 49 92 bc
       -0.038791303 0.021882584 -0.020614313 -0.017857239
000360 e1 97 3f bd 2b 21 aa bc 65 c8 64 3c 61 94 2f bd
       -0.046775702 -0.020767769 0.013963793 -0.042866115
000370 38 aa cf ba f0 96 0f bc a5 6f b6 ba 2e d1 1d bc
       -0.0015843576 -0.008764014 -0.0013918771 -0.009632392
000380 12 d1 db 3b 7e 21 62 bc 93 5d f5 bb 88 0d a4 3b
       0.0067082727 -0.0138019305 -0.0074879616 0.005006496
000390 f5 eb 13 3c 2a e5 21 bd 34 2d 02 bc e5 0e db bc
       0.0090284245 -0.03952519 -0.007945348 -0.0267405
0003a0 b9 cd 1a bc 8a 03 cb bb e9 bb db bb 20 d5 cd bc
       -0.009448462 -0.0061954902 -0.0067057502 -0.02512604
0003b0 86 6e ed 3a 08 8e 76 3a e4 25 5b bd 44 07 d3 3b
       0.0018114604 0.00094053196 -0.053502932 0.006440075
0003c0 c0 2b 85 bd 63 a0 91 3c 4b 93 aa 3c 6d 7a 81 bc
       -0.06502485 0.017776674 0.020822188 -0.015805447
0003d0 f9 6b 30 3c d9 93 0c bd 1a e0 66 3c 54 9c eb 3c
       0.01076793 -0.034320686 0.014091516 0.028761066
0003e0 b0 3a e4 39 a1 60 66 bc c7 42 c3 bc 8e fc 93 bc
       0.00043531274 -0.014061124 -0.023835553 -0.018064763
0003f0 fa 3f a8 bd 9e b1 f4 3c 00 65 a7 bb 03 75 1e 3d
       -0.082153276 0.02986985 -0.0051084757 0.03868581

network_body._body_endoder.seq_layers.2.bias f4 [128]
000000 d5 a8 e9 bc a5 b7 ce 3c 9e bb c5 3c 89 53 9c bc
       -0.028522888 0.025234053 0.024137314 -0.019082801
000010 50 cd ad bc b5 d3 49 bd 52 8b 53 3d 99 3c 00 3c
       -0.021216065 -0.049274165 0.051646538 0.007826948
000020 18 21 4d bb d9 75 2d bd 0d 76 56 bd e9 ce 55 bb
       -0.0031300243 -0.042348716 -0.052358676 -0.0032624549
000030 ea 48 1e 3d d5 9b dc 3c 98 03 db bc a2 c5 a6 bc
       0.038643755 0.026929775 -0.026735112 -0.02035791
000040 5b 41 27 bd 12 b9 0d bd 22 45 90 3d cf 47 3f 3c
       -0.040833812 -0.034600325 0.07044436 0.011674835
000050 21 d1 5f bd 85 4f a2 3c 6f 1c dc bc 78 40 29 3d
       -0.0546428 0.019813308 -0.026869027 0.041321248
000060 fb 23 e9 3c 50 5f 13 3d 69 bc df bc b2 f1 23 3c
       0.02845954 0.03597957 -0.02731152 0.010006355
000070 23 0a 40 3d c9 99 14 3d 62 be 15 bc cb e4 d4 3c
       0.046884667 0.036279473 -0.009139629 0.025988003
000080 44 68 a4 3c 79 b6 76 bd db 4f 5e 3d 5b 60 0d bd
       0.020069249 -0.060232613 0.054275375 -0.03451572
000090 5f d8 91 bc 03 20 8d 3d 9a 8f 06 3b 39 41 a0 bc
       -0.01780337 0.068908714 0.002053237 -0.01956235
0000a0 a8 74 c7 3d 91 5e 7b bc 6e 24 a1 bd 0a 5f 82 bd
       0.09739047 -0.015342371 -0.078682765 -0.063657835
0000b0 d7 8e 41 3d 4c f6 26 bd fb 2c dc bc 97 19 d2 3d
       0.047255363 -0.04076223 -0.026876917 0.10258787
0000c0 2c f3 20 bd bb 94 c6 bc b2 e3 1c 3d a2 3f 78 bd
       -0.039294407 -0.024240842 0.038303085 -0.06060756
0000d0 3d 89 fc bc e8 af b7 bb ac f0 18 bd e3 d8 b6 bc
       -0.030827159 -0.0056056865 -0.037338898 -0.022320217
0000e0 71 9a 71 bc 9d 23 59 3c b0 c3 8e 3d e9 c0 f0 3b
       -0.014746294 0.01325312 0.06970918 0.0073472154
0000f0 14 d1 41 3d 80 07 1f bd bd 46 06 bd e3 fe e9 3b
       0.047318533 -0.038825512 -0.032782305 0.0071409806
000100 46 3a 71 bd 41 a6 53 bd 58 e8 3f 3d 0c 25 51 bd
       -0.058893465 -0.051672224 0.04685244 -0.05106072
000110 c4 af c9 3d e0 e1 23 bc 61 0c 17 3c 0f 83 97 bc
       0.09847978 -0.010002583 0.00921926 -0.01849511
000120 cc 5a 10 bc ae cd 57 3d e6 09 92 39 08 ca 0d bc
       -0.00881071 0.052686386 0.00027854665 -0.008654125
000130 95 04 6a 3c d1 5d 28 3d b6 b3 80 3d 12 b5 93 bd
       0.014283319 0.041105095 0.06284277 -0.07212271
000140 8e cf 52 3c 26 a2 27 bd 47 5d fb 3d ca 10 c1 bc
       0.012866868 -0.04092612 0.122736506 -0.023567576
000150 a2 7d c5 bc 69 1d 9e bc 0c 4a a4 3c 36 d2 fc 3c
       -0.024107758 -0.019301133 0.02005484 0.030861955
000160 2f 2a d5 bc 6f 47 8f 3c fc 8b d6 3c 47 ec ec 3c
       -0.026021091 0.017490117 0.026189797 0.02892126
000170 f4 cd 05 3d 1e d0 9d 3c e1 56 94 3d 16 24 40 3d
       0.032667115 0.019264277 0.07243133 0.046909414
000180 1f 6e 37 bd 64 68 10 3d d2 da de bc d1 ce 1f 3d
       -0.044782754 0.035255805 -0.027203951 0.039015595
000190 f2 1e a4 3d a2 a2 39 ba 57 c4 c9 3c 57 e1 97 bb
       0.08013715 -0.0007081424 0.024629755 -0.004635017
0001a0 c7 69 2c 3d 6c 8f 9c bc dc 31 c8 3c 2b db ef bc
       0.042093065 -0.019111358 0.024437837 -0.029279312
0001b0 93 5c 10 3d 9d 2d df bd 22 a6 93 3a 68 7a 5c 3d
       0.035244536 -0.10897372 0.0011264721 0.053827673
0001c0 b4 17 59 3c 5b cf 94 3a 1f 39 00 bb 40 22 d3 bc
       0.01325028 0.0011353301 -0.0019565297 -0.025773168
0001d0 37 3b 51 bc 16 d0 84 3b 62 ab 57 bd 47 8c 48 3c
       -0.012770466 0.004053126 -0.052653678 0.012240476
0001e0 c0 63 6c 3d 55 f4 e8 3c 76 ea f5 bc f6 8a bd bc
       0.057712317 0.02843682 -0.030019026 -0.02313755
0001f0 b0 40 c6 bc 6e ce fa 3c 6c b6 f9 3d 06 ba 39 bc
       -0.024200767 0.030616011 0.12192997 -0.011335855

network_body._body_endoder.seq_layers.2.weight f4 [128, 128]
000000 2c 86 03 3e 53 78 57 3d 79 06 45 bd 01 7e 9c 3d
       0.12844151 0.052604984 -0.048101876 0.07641221
000010 d0 5b 33 bc 74 d8 7d be f2 25 fd bd a5 df af bd
       -0.010947183 -0.24789602 -0.12360753 -0.08587579
000020 08 6f e7 3d 18 47 f5 3d 8d df 03 3d 07 a9 96 3d
       0.113004744 0.11976451 0.032195617 0.07356458
000030 ed 33 09 3e ca e8 a5 3d 99 e3 bf 3d f6 8b 35 3e
       0.13398714 0.081010416 0.09369583 0.17729172
000040 65 a0 1f 3c c6 e7 03 3e f8 df ca bd cd 00 aa bd
       0.009742831 0.12881383 -0.09906 -0.08300934
000050 90 19 69 bc d2 cc c2 3b 1e 96 4a 3e 30 56 5d 3d
       -0.014227286 0.0059448266 0.19783828 0.054037273
000060 7e 17 23 bd f2 a1 79 bd 96 f6 bd bd 56 55 ea 3d
       -0.039817326 -0.06094546 -0.09275548 0.11442058
000070 3a f8 9a 3d 45 15 1c be c8 5d 58 be 8b b9 f8 bc
       0.07566877 -0.15242489 -0.21129525 -0.030361911
000080 52 3e 78 3b dd 23 35 be a5 cc 1d ba a9 ef 75 3d
       0.0037878943 -0.17689462 -0.0006019569 0.06004301
000090 f7 1b f2 bd 82 a8 51 3e a0 2b be 3d 49 2a 21 bd
       -0.1182174 0.20474437 0.092856646 -0.039346967
0000a0 6d 31 87 bd 91 83 a9 bc c5 31 16 3e e9 a4 2d 3d
       -0.06601224 -0.020692619 0.14667423 0.0423936
0000b0 e7 74 8c 3b a2 ee 49 bd 60 a1 e4 bd 18 fa 1a be
       0.004286397 -0.049299844 -0.11163592 -0.15134466
0000c0 fe 0f c1 bd ee 7a fe bc e3 86 16 3e 7d 4a 51 bd
       -0.094268784 -0.031064477 0.14699893 -0.05109643
0000d0 d4 0b f8 3d 65 e1 32 3c 5a fe 78 3d 8a da 95 ba
       0.12111631 0.010917996 0.060789444 -0.0011432928
0000e0 5d 9a e7 bd 03 48 81 bd 78 b4 33 be b7 7a 4e bc
       -0.11308739 -0.06312563 -0.17549312 -0.0126025
0000f0 85 5e 70 3a a5 16 08 3e e3 ae 83 bd 4a ac 6a bd
       0.0009169358 0.13289888 -0.06429841 -0.057293214
000100 83 ae 1b bd 3b cf 10 3d 6d 77 5b bd 81 b9 03 be
       -0.038008224 0.03535388 -0.05358069 -0.12863733
000110 f7 d3 0c be d5 a9 bf bc df 6b 05 be 89 30 73 bd
       -0.13752733 -0.023396412 -0.13029431 -0.05937246
000120 90 2d 9d 3d a4 b9 39 3e 9c 59 7c bc be fd ac bd
       0.07674706 0.18137223 -0.015402224 -0.08446835
000130 9f e7 51 be 9b 01 37 3d 9d ab ed bb 91 1e 96 bc
       -0.20498513 0.044679265 -0.007253124 -0.018325122
000140 13 51 f2 bd 5d 4a 5f 3e ec 0b 6e 3d f9 4f da 3b
       -0.1183187 0.21805711 0.05811684 0.0066623655
000150 34 56 10 be 92 c9 f9 3c 0b eb b1 bc f8 73 1c 3e
       -0.14095384 0.030491624 -0.021718523 0.15278614
000160 9a 40 7d 3d 20 7f 0e 3c 4d 45 58 3d 3d 34 b4 3d
       0.061829187 0.008697301 0.052800465 0.08799026
000170 f5 e1 0c bd 26 cb 39 3e f1 41 2c be 5a 9c 2b bc
       -0.034395177 0.18143901 -0.1682203 -0.010474289
000180 f0 d5 24 3e bc 53 f8 3d 8e b8 13 bd 15 32 63 bd
       0.16097236 0.12125346 -0.036064677 -0.055467684
000190 94 c9 08 be 13 16 ba bd e6 f1 3d 3e 21 a1 ce 3d
       -0.13358146 -0.090862416 0.18549308 0.10089327
0001a0 0e 42 a2 bc 7b 7d 7c bd bc ff e8 3d ab 94 40 bd
       -0.019806888 -0.061643105 0.113769025 -0.04701678
0001b0 12 e7 3d be 2c 56 37 bd 15 13 c3 bc 1a 9b f9 bd
       -0.18545178 -0.044759914 -0.02381281 -0.121877864
0001c0 5d ec e7 3c 5b f1 a2 3c c9 21 e4 bc 24 17 02 bd
       0.028310949 0.019890478 -0.027848141 -0.03176035
0001d0 96 04 76 3e 61 4c 68 bd e9 67 01 be c1 ee be 3d
       0.24025187 -0.056713466 -0.12637295 0.093228824
0001e0 53 ba 2f 3e ba ba 3c 3e 6c 83 02 be a0 29 ef 3d
       0.17160921 0.18430606 -0.12745446 0.11677861
0001f0 e4 43 07 3d 0b 77 6f 3e b8 97 45 3d 74 29 6b bd
       0.03302373 0.23385255 0.048240393 -0.05741258
000200 f0 21 dc 3b 54 2a 16 3e 30 d0 00 be 1e 80 d0 bd
       0.006717913 0.14664584 -0.12579417 -0.101806864
000210 d5 50 06 bd dc 33 e4 bb 2d 5b 31 bc d1 6d 1e 3d
       -0.03279193 -0.00696419 -0.010824961 0.038678948
000220 23 fb 30 3e 97 ef c3 3c a7 d8 20 3c 9e 11 b5 bd
       0.17283301 0.023917956 0.009817279 -0.08841251
000230 b0 9e f5 bd 98 25 23 3d e5 03 ab bd d7 73 bb 3d
       -0.11993158 0.039830774 -0.08350352 0.09152954
000240 5a f7 c3 3d 1e f4 93 bd 24 7e 2e be 03 c9 41 3c
       0.09568663 -0.07224296 -0.17040306 0.01182771
000250 f3 17 14 bd 2c 0d 30 bd fe 4a c1 bd 77 33 39 3e
       -0.036155652 -0.04298131 -0.09438132 0.18086039
000260 50 aa 89 bd ad 93 4f bd 95 2b ff ba 64 51 19 bd
       -0.06721938 -0.050677944 -0.0019467945 -0.037431136
000270 32 0d 0e bd da 61 2f be 7d 50 ac 3d 34 4a 57 bc
       -0.034680553 -0.17127171 0.084137894 -0.01314025
000280 21 9b d2 3d a0 fa a7 bd 12 c3 29 be 73 f9 4b 3d
       0.10283495 -0.082021 -0.1657832 0.04979844
000290 a2 a9 e9 3d d3 24 36 3e f2 6d 2d be c5 6e eb bd
       0.11409308 0.17787485 -0.16936472 -0.11495737
0002a0 ca fd a2 bb 5f cb 87 3d 93 11 2e bd 07 76 b7 bb
       -0.0049741017 0.06630587 -0.04249723 -0.0055987868
0002b0 9f a2 00 bd 38 7e 5b bc 21 8d 09 be 26 12 17 bc
       -0.031405088 -0.013396792 -0.13432743 -0.0092206355
0002c0 67 9c c1 3c 14 37 14 be fb 5f 28 bd dc 74 57 3d
       0.023634149 -0.14474136 -0.04110716 0.05260168
0002d0 fa 35 72 bd 23 77 3a 3d 59 61 91 bd 5c 1e 8b 3d
       -0.059133507 0.045523774 -0.07098646 0.067929
0002e0 c4 05 a8 3d 8a 3c 7e 3d 78 e4 d6 bd b5 35 80 bd
       0.08204225 0.062069453 -0.10492796 -0.06260244
0002f0 7b ba 5a be 64 95 54 bd 68 e2 a0 bd 48 8f 1f 3e
       -0.21360199 -0.051900283 -0.078556836 0.15582001
000300 8d 00 c2 3d e4 61 38 bd 54 86 34 bd b0 9c 3f bd
       0.09472761 -0.04501523 -0.044073418 -0.04678029
000310 4b d8 57 bd df ee 52 bd af e3 e4 3d 91 1a ad bd
       -0.052696507 -0.051497336 0.1117624 -0.08452333
000320 60 e4 49 bd db 0f 04 be 45 52 c9 3d 06 91 8e bc
       -0.04929006 -0.12896673 0.09830145 -0.017403137
000330 8d a9 64 bc 66 36 cf 3d 43 1b 01 3e c2 af 0b 3e
       -0.01395644 0.101177976 0.12608056 0.13641265
000340 ba 5a 67 3d dc d8 4e 3d 8c f6 ea 3d a0 87 e6 bd
       0.056483008 0.050499782 0.11472806 -0.11256337
000350 6e 21 a6 3d 5a 54 47 bd 55 24 e0 3c 4a ed 08 3e
       0.08111845 -0.04866443 0.027361074 0.13371769
000360 0c b6 00 3e 65 36 0c 3e e3 36 9b bd ff 03 22 be
       0.12569445 0.13692625 -0.07578828 -0.15821837
000370 6a 04 0c bd ca f4 6d 3d 6c a3 22 be 27 39 87 bd
       -0.034183897 0.058094777 -0.15882653 -0.06602698
000380 6c 94 7c bd 23 38 1c bd a1 37 63 be 13 ab 23 be
       -0.061664984 -0.038139474 -0.2218919 -0.15983228
000390 44 33 18 be d7 32 22 3c 79 59 8d 3d cd c4 17 3a
       -0.14863306 0.0098998165 0.06901831 0.00057895185
0003a0 79 4e 98 bd 6b 1d 30 3d 6f 65 15 3e 3d d9 cc bd
       -0.074368425 0.042996805 0.14589475 -0.100023724
0003b0 39 57 79 3d b8 36 13 be e9 ee 70 bd b0 70 9d 3a
       0.060874198 -0.14376342 -0.058821592 0.0012011733
0003c0 de 9f 75 3d fe dc 21 3d be 8f 7a bd 24 70 39 3d
       0.059966914 0.039517395 -0.06117224 0.04527296
0003d0 29 2c 91 bd 2a 23 0d 3e dc 71 80 3d 8a 86 a8 3c
       -0.07088501 0.13782945 0.06271717 0.020571966
0003e0 08 f5 92 bd 88 b1 76 3d 89 db 6f bd b8 77 de 3c
       -0.07175642 0.0602279 -0.058558974 0.027156696
0003f0 bd bc f5 3c 53 6d 9e bd c6 bb cf 3c 6c b4 90 3d
       0.029997224 -0.07735696 0.025358092 0.07065663
