results/ppo/MoveToBet/MoveToBet-144316.onnx (onnx, 636216 bytes, 9 tensors)

action_model._continuous_distribution.log_sigma f4 [1, 2]
000000 00 ed 8a 3b 34 7f 29 bc
       0.0042396784 -0.010345269

action_model._continuous_distribution.mu.bias f4 [2]
000000 6a 55 ea ba 18 f9 66 bb
       -0.0017878239 -0.0035243686

action_model._continuous_distribution.mu.weight f4 [2, 128]
000000 93 4e c2 3c e1 09 06 3d 77 b4 df 3b d5 87 88 bc
       0.023719108 0.032724265 0.006826933 -0.016666332
000010 4f d1 4d 3b b8 3d 84 bb 45 8b 51 bc bc f5 0d bc
       0.0031405275 -0.0040356778 -0.012789552 -0.008664545
000020 f7 c4 7b 3c ed 5c 05 39 93 ad c4 3b 49 5f 09 bc
       0.015366784 0.00012718486 0.006002137 -0.008384534
000030 df 28 eb bb fe 77 a7 bc 09 84 8c 3a ff db 38 3d
       -0.007176503 -0.020442959 0.0010720502 0.04513168
000040 d9 6a f0 bc 81 5b ad bc 7a ae 0b 3d 72 7a 80 3b
       -0.029347824 -0.021161797 0.03410194 0.0039208466
000050 e3 3a c8 3c 31 62 36 bc 19 05 25 bc 7f 2e 5e 3c
       0.024442142 -0.011131809 -0.010072016 0.01356089
000060 cb c8 b2 bc c8 55 93 bc 2a 18 a9 3c 79 3a 07 bc
       -0.021824261 -0.01798524 0.020641405 -0.008253687
000070 cb 39 09 bc 9d 18 20 3b 9b 87 ee 3c ec 5d 26 bc
       -0.008375595 0.0024428733 0.029117396 -0.010154229
000080 93 41 9e 3b ac d4 62 3c d6 31 43 ba 39 9a 30 bc
       0.0048295944 0.01384465 -0.0007446086 -0.010778957
000090 5a f1 97 3c 4b 8a 22 3d c8 ee 08 3c da 62 ec ba
       0.018547703 0.039682668 0.008357711 -0.0018034831
0000a0 20 f2 a9 bb 42 42 6d bb da 7f 83 ba 15 8f 02 bc
       -0.0051863343 -0.0036202823 -0.001003261 -0.007968684
0000b0 31 51 53 bc f6 92 12 3d 83 6f 4a 3c 7d 9a 43 3c
       -0.0128977755 0.035784684 0.012355688 0.011938688
0000c0 11 0f 84 3b db 9d 85 bc 6f 2b 89 bc 60 c9 4c bc
       0.0040301164 -0.016310623 -0.016744344 -0.012499183
0000d0 58 c6 67 3c e0 48 69 3c 23 38 db bc 63 5a 23 3c
       0.01414641 0.014238566 -0.026760167 0.00997028
0000e0 f9 02 bf 3c 01 ce 27 bd 5a db de 3b ec 00 c2 bc
       0.023316847 -0.040967945 0.006801051 -0.02368208
0000f0 92 7a 20 3d 99 f4 22 3c 39 86 68 3c 8a 54 8b 3c
       0.039179392 0.009946012 0.014192157 0.017008085
000100 d8 3f 42 bb ee 6b 9e 3c 8f 8a c6 3c 6f a1 72 bc
       -0.0029640105 0.019338574 0.024235992 -0.014808997
000110 d5 0c 17 3d 8b c7 b0 bb fd e3 96 3c 47 69 ba 3c
       0.036877472 -0.005394881 0.01841926 0.022755278
000120 e2 d0 41 bd 46 92 eb bc a8 0c c3 3c 50 b4 88 3b
       -0.047318347 -0.028756272 0.023809746 0.0041718856
000130 2d e5 9a 3c 97 6e 02 3c 1d 70 a3 ba 8c fe c4 3c
       0.018908108 0.007960937 -0.0012469325 0.024047159
000140 55 e7 48 ba 7c e9 ea 3a cd 43 95 bb aa 3b 82 3b
       -0.00076638657 0.0017922367 -0.0045552016 0.0039743977
000150 03 60 91 3b 9a 8c 92 3b e8 04 30 bb c3 22 a3 3c
       0.0044364943 0.0044723274 -0.0026858393 0.019914037
000160 67 cd af bc be 27 29 bc 4a ab 91 bc ec 6d 9c 3c
       -0.021460248 -0.010324417 -0.017781872 0.019095384
000170 1d 4a 37 3c ea 45 88 bb 6c 10 8b bc 4b c5 70 3c
       0.011187104 -0.004158725 -0.016975604 0.014695476
000180 0f 9e 7f 3b a9 4b d9 3c 6c 94 39 bc c4 79 8b 3c
       0.0039004122 0.026525335 -0.01132689 0.017025836
000190 b3 7d db bb af 4a bc bc 09 f8 cf 3b 67 77 ca bb
       -0.006698334 -0.02298483 0.0063467068 -0.0061787846
0001a0 e6 00 83 bc e9 cf b1 bc a9 79 13 3d 97 5c 64 3c
       -0.01599164 -0.021705585 0.036004696 0.013938091
0001b0 4e 3b da 3b 8b ab c3 3c c2 86 d2 3c b5 73 bf 39
       0.0066599017 0.023885509 0.025699023 0.00036516567
0001c0 7f c5 03 3c ee 65 4a bc a7 36 e8 3c c9 79 68 bc
       0.008042692 -0.0123534035 0.028346373 -0.014189192
0001d0 c8 f6 9a bc 05 3d e2 ba 3c ec 09 3b 60 52 a8 bc
       -0.018916503 -0.0017260617 0.0021045348 -0.020547092
0001e0 e3 68 d4 3b fc 89 07 bc 02 ec e6 bc 5f bc ed 3b
       0.00648223 -0.008272644 -0.02818871 0.0072551216
0001f0 53 08 b8 3c 54 15 bf ba 0f a3 2c 3c f1 53 9c bc
       0.022464907 -0.00145785 0.010536923 -0.019082995
000200 de a0 86 bc 01 69 74 bc ec ff 9f bb 4f 97 81 3c
       -0.01643413 -0.014917613 -0.004882803 0.01581922
000210 a1 66 92 3c 4e 5f 94 3c dd 77 6e bc fd c9 16 bd
       0.017871203 0.018111851 -0.014554945 -0.036813725
000220 cd d4 3e 3c c5 62 70 bc a7 34 9a 3c c3 f4 a7 bc
       0.011647415 -0.014671986 0.018823935 -0.020502454
000230 61 2f 1d bb 16 4d b3 bc f1 e0 75 3c d0 ec 4c 3b
       -0.002398454 -0.021887343 0.0150072435 0.003126908
000240 f3 4a 06 bc ce 46 52 bb 7f be c6 bb d8 ef b3 bc
       -0.00819658 -0.003208566 -0.0060651894 -0.021964952
000250 23 0f 85 bc 46 3c 82 bb 45 34 2e 3d 93 c7 36 3d
       -0.01624257 -0.0039744703 0.042530317 0.044623923
000260 88 e3 bb bc 3e e3 77 3a 94 92 9a 3c e0 56 df 3c
       -0.022935644 0.0009456164 0.018868722 0.027263105
000270 4c 0b 20 bc 38 c9 25 3c db 3a d5 bc 36 64 14 3d
       -0.009768318 0.010118775 -0.026029041 0.03622838
000280 b5 ad 31 3c 7d f4 00 3c ad 43 51 3c ec bf 22 3d
       0.010844638 0.007870791 0.012772483 0.039733812
000290 22 96 95 bc 3a 45 09 bb 67 8d d4 bc 5e 7c 03 bc
       -0.018260065 -0.0020945803 -0.025946332 -0.008025257
0002a0 d7 e2 94 3c de fa bd 3c 01 0d 24 3c 00 bf 09 bd
       0.018174572 0.023190912 0.010012866 -0.033629417
0002b0 db f8 08 3d 4d 05 9b 3c 4f d3 0b 3d 73 7d 9b 3c
       0.033440452 0.018923426 0.034137066 0.018980717
0002c0 79 50 2a 3c 8e 9d ef 3b 0c 07 ef bc c9 ca 21 bc
       0.010395163 0.007312483 -0.029178165 -0.009875008
0002d0 d9 12 a0 3b 7d c6 2b 3b 42 21 44 3c 19 67 97 3c
       0.0048850593 0.0026210838 0.01197082 0.018481778
0002e0 14 b6 c2 bc d3 b0 b3 ba 3c 1e 1a 3d c3 ce df bb
       -0.023768462 -0.0013709314 0.03762649 -0.006830068
0002f0 2e 21 d8 bb 6c 66 c4 3c c7 37 80 ba a4 1e 94 bc
       -0.006595752 0.02397462 -0.0009782248 -0.018081017
000300 48 07 1c 3c 17 3b 48 3b 37 6f bf 3c 39 7b ec bc
       0.00952322 0.0030552798 0.023368461 -0.02886735
000310 35 af 76 3a 3e 2b 07 bd f1 28 9a ba 75 4d 4c bc
       0.0009410263 -0.033000223 -0.0011761469 -0.012469639
000320 f5 b5 28 3c 03 b2 aa bc d6 67 61 bc 3f 21 38 3c
       0.010297288 -0.020836836 -0.013757667 0.011238395
000330 c3 bb a0 3a da f8 8e 3c 54 1b aa bb 8d c9 9a bc
       0.0012262989 0.017452646 -0.005191246 -0.018894935
000340 d3 57 72 3c b3 5c 2e 3b 0d 29 e8 bb 28 5c b7 bc
       0.014791447 0.0026605546 -0.0070849718 -0.02238281
000350 d0 95 17 3c 2d d6 08 bd 19 2c 83 3b 5a a8 3a 3c
       0.009252027 -0.03340738 0.0040030596 0.011392677
000360 76 5f 14 bc a0 61 e2 3b 3b d4 4a bc 61 bb bc ba
       -0.009055963 0.0069086105 -0.012379701 -0.0014399105
000370 05 74 1c bc 94 3d ba 3c d7 f4 87 3c 9d f3 2a bb
       -0.009549146 0.02273444 0.01659624 -0.0026085146
000380 01 5d 1d bd cc 4c de bb ab 07 a2 b9 18 70 53 3a
       -0.038418774 -0.0067840572 -0.0003090476 0.00080657145
000390 f6 18 c9 3b a0 35 da bb 1e b1 ef bc b1 b4 db 3c
       0.006137009 -0.0066592246 -0.02925926 0.026819559
0003a0 d3 ba 22 3c 74 cb 06 3d 22 09 4e 3c 03 62 ef bc
       0.009932238 0.03290887 0.01257542 -0.02922154
0003b0 d4 ac 0b 3c 2b 26 be 3b 32 fc c6 bb 9f 28 62 3b
       0.008525092 0.00580289 -0.0060725445 0.0034509075
0003c0 0c 9c bf bc fe 8c 95 3c dd 76 eb 3c 67 99 01 3d
       -0.023389839 0.018255707 0.028743202 0.031640437
0003d0 49 5d 03 bb bc 8f fa 3c 64 54 07 bc ac a5 fc 3b
       -0.0020044616 0.030586116 -0.008259866 0.0077101793
0003e0 c1 93 bc 3c de e9 e1 3b e2 dd 11 bd 50 ce 6b bc
       0.023019673 0.006894334 -0.035611995 -0.01439245
0003f0 83 e1 b5 bc c8 73 88 bc bd 1c 98 bc 2f 44 48 3c
       -0.022202259 -0.016656771 -0.018568391 0.0122232875

action_model._discrete_distribution.branches.0.bias f4 [5]
000000 91 ba 9d bb 4e 6c 1b bb 4e 5d f1 3a 31 df 50 3b
       -0.0048135 -0.0023715678 0.0018414648 0.0031871314
000010 4e 7b 13 3b
       0.0022503915

action_model._discrete_distribution.branches.0.weight f4 [5, 128]
000000 98 9c 80 3c 60 9a 32 3c 03 ca 49 3c 50 92 53 bc
       0.01569967 0.010901064 0.01231623 -0.012913302
000010 49 9e a9 ba a3 75 c3 3c 0c 43 2f bc 92 51 ff 3b
       -0.0012940849 0.023859804 -0.010697138 0.0077917064
000020 87 ca f5 bb 7b f5 a9 bb 8f 2e e7 bb 6e b5 84 3b
       -0.00750095 -0.0051867343 -0.0070551108 0.0040499484
000030 24 c3 22 bb 7f ab 5a ba a3 c6 aa 39 ec a2 41 3c
       -0.002483555 -0.0008341595 0.00032572923 0.011818629
000040 f9 52 c7 3b 36 59 c0 3c 88 61 91 3c b0 2b b9 bb
       0.006082889 0.02348004 0.017746702 -0.00565096
000050 4f 80 e2 3b aa ed 64 3c b0 9f 7a 3b a9 c8 25 bb
       0.006912268 0.013972679 0.0038242154 -0.0025296605
000060 18 90 36 bc b6 80 b0 3a 7c 7b 43 3c 4f 97 2a bc
       -0.011142753 0.0013466093 0.011931296 -0.010412051
000070 36 e5 f0 bb f3 d1 a5 bb ef 9f 7c 3b c6 ff 25 bc
       -0.007351543 -0.0050604283 0.0038547476 -0.010131782
000080 c4 60 59 3b c0 a0 86 3c 2e 7b b7 3c ce 10 da 39
       0.003316925 0.016434073 0.022397604 0.0004159272
000090 8a db 9a 3b 57 ee 86 3b 1f 70 95 3c 16 66 cf bc
       0.004725878 0.004117768 0.01824194 -0.025317233
0000a0 c8 f3 8e 3c 1f 9a d9 bb c0 fc 13 3b a6 ee 28 bb
       0.017450228 -0.006640687 0.002258107 -0.0025777011
0000b0 d6 2c 26 3c 56 00 b2 3c d9 e2 a5 bb 22 fa 50 3c
       0.010142526 0.021728676 -0.0050624427 0.012754949
0000c0 6f 24 80 3c 14 c2 e8 3b 31 99 9e 3a 09 bc 2e bc
       0.015642373 0.007103214 0.0012100098 -0.010664948
0000d0 1d c1 5b bc a6 54 04 bc b7 52 54 3b 75 d0 81 bc
       -0.013412741 -0.008076822 0.0032397935 -0.01584647
0000e0 7d 71 86 bb 0f 13 34 3b 7e 80 c3 3b 6d ab 10 bc
       -0.0041028843 0.002747718 0.005966245 -0.008829934
0000f0 67 8a 8e 3c 37 59 9b 3b 23 fc 01 bc ed e1 9c 3a
       0.01739998 0.00474086 -0.007933649 0.0011969187
000100 b4 e3 98 bb 25 b6 e8 3b f9 57 98 bc af 25 52 bb
       -0.004665816 0.0071017914 -0.018596636 -0.0032065918
000110 db a8 16 3c ae fd 8a bc 9c fd 35 3b c7 eb 20 3c
       0.009195532 -0.016966667 0.0027769571 0.009821839
000120 f6 8f 09 bc f3 66 6b 3b f3 d2 fa 3a e6 b5 8a 3c
       -0.008396139 0.0035919517 0.0019136354 0.016932439
000130 14 0f 9d bb 55 62 ee ba f6 7d ff bb 7f 9b 5a 3c
       -0.004793057 -0.0018187264 -0.007796998 0.013342737
000140 13 3b 4f bc f0 82 f4 bb 68 ea 7b bc 22 e8 24 bb
       -0.012648362 -0.007461898 -0.015375711 -0.0025162776
000150 c7 8a ca bb db a2 1e 3c a2 2a 0c bc 35 7c 90 3b
       -0.0061810943 0.009682382 -0.008555086 0.004409338
000160 33 eb 8f 3c f4 12 4c 3c 79 73 b7 bb 2e cd 18 bb
       0.017568206 0.012455691 -0.005598482 -0.0023315656
000170 a0 72 08 bb fa 39 d3 ba 51 3b 08 3c bd 46 b9 bb
       -0.0020820275 -0.0016115301 0.008314923 -0.0056541846
000180 3b 78 29 bc 70 32 60 bc e1 75 c6 ba ea ef f4 38
       -0.010343607 -0.0136839 -0.0015141332 0.00011679514
000190 4a ca d0 bb e8 52 1a 3c cd 49 49 3a ea 75 71 3c
       -0.006371771 0.00941918 0.00076785387 0.014737586
0001a0 df 70 49 bc e8 ac e0 3b f7 14 72 ba ec 16 a6 3c
       -0.012294977 0.0068565495 -0.00092346914 0.020274602
0001b0 5c b5 4d 3c 13 f5 7e 3c 06 1d 65 ba aa 0e 00 3c
       0.0125554465 0.01556136 -0.00087399816 0.007815996
0001c0 bc 51 b0 bc b6 2c e4 bb 1e c2 10 3c 70 04 92 bb
       -0.021523349 -0.006963338 0.008835344 -0.0044560954
0001d0 90 fd 88 3c b6 e0 23 bb 69 b7 49 3c 28 82 3e 3c
       0.01672247 -0.0025005764 0.012311795 0.011627711
0001e0 97 ca 0f bc 5e fa 7d bb c8 95 07 3d 12 d2 25 ba
       -0.0087763285 -0.0038753967 0.033101827 -0.00063255534
0001f0 5d 2e 4a 3c 66 14 d6 ba 32 10 81 ba 58 3e 2f 3c
       0.012340155 -0.0016332984 -0.0009846746 0.010696016
000200 4b 47 39 3c 93 a5 9c 3b 07 b2 26 bc 44 5c 85 bb
       0.0113085015 0.00478048 -0.010174281 -0.004069837
000210 ae d6 eb 3a 4b d2 15 3c 30 90 19 3c e9 df 61 3b
       0.0017993057 0.009144376 0.009372756 0.0034465736
000220 b9 40 ae ba 4c f3 2c bc d9 73 9c 3c 0f 94 4b 3c
       -0.0013294435 -0.010556053 0.01909821 0.012425437
000230 95 3e 63 bb 39 10 ae 3b 81 14 0a 3b bc 24 61 3b
       -0.0034674753 0.0053119925 0.002106935 0.003435417
000240 43 89 77 bc 9c f0 f0 3b 09 9f 08 3a 28 40 24 ba
       -0.015108409 0.0073529016 0.00052116864 -0.00062656635
000250 28 4e 61 bc 76 8b 80 3a 93 d7 8e 3b 89 89 09 3b
       -0.013751544 0.0009807188 0.0043591945 0.0020986518
000260 4c 40 0e 3c 9d d2 4a bb f6 16 87 3b 4c a2 f6 bb
       0.008682322 -0.003094829 0.00412261 -0.0075266715
000270 dc b5 2b bc 82 94 99 3c 22 69 c5 bb f5 ec 90 3b
       -0.01048037 0.018747572 -0.0060244957 0.0044227787
000280 d1 1f 8a bc e9 16 ff 3b 53 bf 60 bb 8b ea b6 3c
       -0.016860874 0.0077847135 -0.0034293726 0.022328636
000290 fa 77 1b 3c 01 e3 1c 3b 05 25 6c 3c e0 ba 7c bc
       0.009489054 0.0023939016 0.014413123 -0.015425414
0002a0 78 45 6d 3c 6f 47 5b 3b 56 83 96 bb cd 61 e3 3b
       0.014481895 0.0033459326 -0.004593293 0.006939149
0002b0 d6 0f c1 bb cb b5 5a bc c9 45 b2 3b 41 2c bd 3b
       -0.0058917804 -0.013349007 0.005440448 0.0057730977
0002c0 c4 6b 8b 3c 70 52 55 3c 35 23 59 bc 41 1f b2 3b
       0.01701916 0.013020143 -0.013253023 0.0054358547
0002d0 00 a5 e3 bb 85 b5 d1 ba 26 74 9c bc fa f9 14 38
       -0.0069471598 -0.0015999532 -0.019098353 3.551876e-05
0002e0 d8 31 71 bb a7 8b 18 3b 67 88 4d bc 61 92 80 3c
       -0.003680339 0.0023276599 -0.012544728 0.015694799
0002f0 fa 82 66 3b 90 48 59 bb 42 ea 9a bc e7 af f4 3a
       0.0035173283 -0.0033154823 -0.018910531 0.0018668146
000300 06 c9 f9 3b 45 22 b3 bb 84 f0 c5 3a 8a df 17 bc
       0.007622841 -0.0054667317 0.0015101586 -0.009269604
000310 e9 02 45 3c 73 83 16 3b 77 76 e0 3b e1 69 f6 3b
       0.01202462 0.0022966533 0.0068500596 0.007519946
000320 f8 c1 8c bc b6 55 4e 3c 99 1f 27 3b 86 b6 68 3b
       -0.017182335 0.012593677 0.0025501011 0.0035509183
000330 b6 61 af b9 f9 e4 61 3c 7b 89 69 3c 89 c6 b7 3b
       -0.000334514 0.0137875015 0.014253969 0.005608384
000340 ad 85 d3 ba 55 f7 e9 3b 63 4a 53 bb 25 37 c4 3a
       -0.0016137861 0.00714008 -0.0032240383 0.0014970048
000350 09 17 32 3c cc 9b 5b 3b 6e ff a1 bb 51 89 ad 3b
       0.01086975 0.003350961 -0.0049437797 0.0052959104
000360 d6 9d 40 3c 4a a4 82 3a bd e8 4a bb aa 3d d8 bb
       0.011756381 0.0009967175 -0.0030961477 -0.006599148
000370 da af 0b bb 21 bd 9e 3c ae e8 4a 3c ce c5 4d 3c
       -0.0021314532 0.019377293 0.012384577 0.012559367
000380 10 50 dc bb d9 8e e5 bb 39 58 00 bb d1 ae b3 3b
       -0.0067234114 -0.007005554 -0.0019583835 0.005483486
000390 0a fd dd 3c bd 87 5d bc c7 f7 38 3b 01 ab ca 3b
       0.027098197 -0.013521132 0.0028223859 0.006184936
0003a0 77 6b 2d 3b 91 60 cf 3b a8 7b 28 3b b4 52 f1 bb
       0.002646176 0.0063286503 0.002570847 -0.0073645953
0003b0 da 1f 21 bc df f0 31 bb ac ed 75 3c 1c d0 f8 bb
       -0.009834254 -0.0027151627 0.015010279 -0.007593168
0003c0 79 ae a3 bb af 20 98 3b b0 a9 01 3c 90 8a a9 3c
       -0.004995164 0.004642568 0.007913992 0.020695955
0003d0 6f e2 9b 3c fc 2e a5 bb 65 29 29 ba 22 f1 11 bc
       0.01902887 -0.0050410014 -0.00064530066 -0.008907588
0003e0 f6 71 2e bc 10 7b f1 3b a8 78 11 bb f8 e3 9e 3c
       -0.010647288 0.0073694065 -0.002219716 0.019395813
0003f0 79 ec 36 bc b0 53 4e bb ce 5e b6 3a 86 c0 20 bc
       -0.011164778 -0.0031482987 0.0013913752 -0.009811526

network_body._body_endoder.seq_layers.0.bias f4 [128]
000000 88 c1 8a 38 9e 61 c5 bb e0 e4 80 3b c7 45 fb 3b
       6.616401e-05 -0.0060235998 0.003933534 0.00766823
000010 ac 7b 51 bb cd f7 9a ba 77 86 1a bb 09 d2 84 ba
       -0.0031964583 -0.0011823118 -0.0023578682 -0.0010133396
000020 f9 f7 fd bb dc b5 06 bb 60 4f 18 bb 16 fd 6c 3a
       -0.007750508 -0.0020555174 -0.002324067 0.0009040398
000030 57 55 df 3a c9 e1 10 3b f1 16 9f 3b 5d 85 29 3c
       0.0017038983 0.0022107235 0.0048550298 0.010346738
000040 67 e8 18 bb bd 93 1d 3b e3 84 98 3a 9e a8 a3 bb
       -0.0023331882 0.0024044358 0.0011636283 -0.004994466
000050 89 eb 05 3b 3c eb 57 3a 6f a3 34 ba 11 91 69 bb
       0.002043458 0.0008236652 -0.00068908086 -0.0035639445
000060 a1 ca 2c 3c e8 7a 1c bc 03 bc 5e ba 9e 01 be bb
       0.010546357 -0.0095507875 -0.0008496644 -0.0057985326
000070 3e ca 3b b8 f1 23 d3 3a e2 64 de 3a b4 25 21 bb
       -4.4772627e-05 0.0016108734 0.0016967321 -0.0024589123
000080 92 af 6c 3b 38 85 8c bb ee 76 26 3b f1 3d dd bb
       0.003611539 -0.004288342 0.0025400477 -0.0067517688
000090 82 e4 02 ba d8 b6 c1 b9 94 a0 52 bb 4d fa cf bb
       -0.0004993157 -0.00036948058 -0.003213917 -0.006346977
0000a0 aa a9 8a bc a8 30 de 3a c6 7d b7 b9 b0 fb 17 bc
       -0.016926605 0.0016951757 -0.00034998188 -0.009276316
0000b0 56 df cf ba 08 40 61 ba 72 4b 3e bb db 9d e7 3a
       -0.0015859406 -0.000859261 -0.0029036668 0.0017670946
0000c0 e4 24 96 39 ea 1b 80 bb 11 94 11 bc 43 1f d9 3b
       0.00028637715 -0.0039095776 -0.008885399 0.006626041
0000d0 bf b9 2a bb c6 26 28 bc c3 db fc 39 e5 65 b4 3b
       -0.0026050655 -0.010263151 0.0004822892 0.005505311
0000e0 ec 6b 34 3b d4 94 bd 3a 58 d5 70 3c a8 09 22 3b
       0.0027530147 0.001446391 0.014699303 0.0024724994
0000f0 e8 d4 ab 3a 3e 85 18 39 2d 05 2e bb cb d7 81 3a
       0.0013109716 0.00014545486 -0.0026553378 0.000990623
000100 56 98 84 3b 03 f0 89 ba 36 49 0c 3b 55 34 75 ba
       0.00404648 -0.00105238 0.0021405942 -0.00093538064
000110 98 50 67 bb a0 32 6c bb ef fa 0b ba c7 3c ab 39
       -0.003529584 -0.0036040917 -0.0005339821 0.00032660944
000120 c9 84 02 ba 15 96 96 3b 10 f9 b7 bb 44 18 19 3b
       -0.0004978893 0.004595528 -0.0056144074 0.002336041
000130 67 cc 6e bc 39 b6 28 bb 3f 2c 27 bc c7 a8 f4 bb
       -0.0145751005 -0.0025743379 -0.01020342 -0.007466409
000140 0d c0 88 bb 51 37 95 ba 0c 87 8c 3b 76 89 e9 39
       -0.004173285 -0.0011384283 0.00428856 0.0004454364
000150 85 e7 23 3b 27 82 88 bb e1 be 61 3c 2f 1f 76 bb
       0.0025009823 -0.004165906 0.013778419 -0.0037555208
000160 e5 cb 84 3b 09 af ed bb 8b d2 47 bb 96 c4 9d ba
       0.0040526264 -0.007253532 -0.0030490484 -0.0012036737
000170 c3 a4 80 3b 2c 2f 0a bb f8 ae 0e bb bf c9 8a 38
       0.003925891 -0.0021085246 -0.002177177 6.617931e-05
000180 1e 18 ea ba 66 da 43 bb 76 f1 30 3b af 2a 81 ba
       -0.0017859971 -0.0029884814 0.002699939 -0.000985464
000190 7a ad 21 3a 7f 4c e2 3a ca 2b 11 bc 0b 14 d1 3a
       0.00061675126 0.0017265229 -0.008860538 0.0015951408
0001a0 6c f6 52 bc d8 41 3b 3b d7 e6 01 bc 74 27 98 ba
       -0.012876134 0.0028573181 -0.007928572 -0.0011608438
0001b0 58 1b a6 39 cd d2 db bb a2 b4 d1 b9 9d d7 09 bb
       0.0003168236 -0.006708479 -0.00039998168 -0.0021033057
0001c0 d3 84 e6 bb 5f 99 62 3a 5e 7a 13 3a ff 62 b0 ba
       -0.007034877 0.000864407 0.0005625839 -0.0013457238
0001d0 b2 8f 08 bc 67 4c 1f 3c da 98 13 3b ac dd 37 ba
       -0.008335041 0.009722806 0.0022521527 -0.00070139277
0001e0 d4 bb 02 bb 0e 73 df 39 19 6d e9 39 77 4b f8 3b
       -0.001994838 0.00042619597 0.00044522507 0.0075773555
0001f0 6a 4a 1b bb 47 d6 c0 bb 75 dc e5 3b d2 f4 3f 3b
       -0.0023695477 -0.005884919 0.007014806 0.0029290211

network_body._body_endoder.seq_layers.0.weight f4 [128, 1100]
000000 a0 80 97 3c 0e 96 f8 39 b8 36 76 bb 83 db f5 3b
       0.01849395 0.00047414046 -0.0037569236 0.0075029745
000010 81 14 5c bd ce ca de ba e5 c4 2c 3d 4c a8 31 bd
       -0.05373049 -0.0016997696 0.04217996 -0.04337339
000020 8a 28 dd 3a 33 68 08 3d d7 ef 8f 3c c6 30 c4 3b
       0.0016873043 0.033302497 0.01757042 0.0059872596
000030 a3 9c fe 3c 4a 3c cd bc d8 0d 75 bc 43 c7 aa 3c
       0.03108055 -0.025053162 -0.014956914 0.020846969
000040 90 6b 5a 3c 7d e6 bb 3c 4b 55 bb bc 08 7f 2f 3d
       0.013331309 0.022937054 -0.02286782 0.042845756
000050 ce 3d 11 bd 1a 05 8d 3c 02 fe 17 bd e0 b9 60 3d
       -0.035459332 0.017214347 -0.037107475 0.054864764
000060 90 df 7e bc dc 3d 1b 3c 63 f0 80 bc 16 06 2c 3c
       -0.015556231 0.009475198 -0.015739625 0.010499498
000070 59 9f 6f 3d c1 e5 d2 3c 92 e3 f0 bc 49 08 61 bb
       0.058501575 0.02574432 -0.029405389 -0.0034337214
000080 46 91 85 ba 56 9b b4 bc df 79 34 3c 09 12 53 3c
       -0.001019039 -0.022046726 0.011015384 0.012882718
000090 82 8d e0 bc 84 a2 84 3d f3 ca c5 bb 25 8d c1 bc
       -0.027411226 0.0647631 -0.0060361563 -0.023626873
0000a0 50 47 8b 3c dd 3b 67 3c e1 31 a2 3c 4d f4 a7 bc
       0.017001778 0.014113394 0.019799175 -0.020502234
0000b0 cf 8e e0 bc 9c 9b 69 3a 66 30 12 bd e4 22 79 bd
       -0.027411846 0.0008911432 -0.035690688 -0.06082429
0000c0 b7 35 c1 bc 6c 84 3b 3c 3b f9 4e 3b b4 d6 25 bd
       -0.023585184 0.011445146 0.0031581658 -0.04048796
0000d0 7b a5 9a bd ae 5e 9c 3b 6f d4 3f bb 2c c3 b1 bc
       -0.07551094 0.004772029 -0.0029270907 -0.02169951
0000e0 4f 04 e9 3c ec d4 fb 3b 65 f8 26 bc a9 a5 ed 3b
       0.028444437 0.0076852944 -0.010191058 0.0072524142
0000f0 d9 02 ac 3c 92 00 15 3d 7d ca 99 3d cf de c0 bc
       0.020997452 0.036377497 0.07509325 -0.023543743
000100 52 9a 5a bc 2e 19 4d b9 d3 b5 3d bd 11 be 96 3c
       -0.013342457 -0.00019559704 -0.04631598 0.018401178
000110 7e 9e 7e bd d5 7d bb 3a 2f 02 9e bb bb e4 f8 3b
       -0.06216287 0.0014304469 -0.0048220376 0.007595626
000120 75 83 da bc dc 02 26 bd 44 75 e7 bc ae 77 5c 3d
       -0.026674012 -0.04053007 -0.028254159 0.053825073
000130 8d 51 05 3d 2f fe 02 3c 71 b3 02 bd 0c 4f 63 bd
       0.032548476 0.007995172 -0.03190941 -0.055495307
000140 25 f4 4d 3d 75 71 db bc 7f c9 b2 3a c7 15 70 3c
       0.050281662 -0.026787499 0.0013640373 0.01465363
000150 b1 5e e5 3c ad 10 5a bd 61 86 3c 3c 78 e2 01 3d
       0.027999254 -0.05323856 0.011506648 0.031710118
000160 5c 0e 1c bd 48 dd 14 bb 2c 9e 68 3b 4b 5e 2c bc
       -0.03809963 -0.0022714902 0.0035494668 -0.010520528
000170 9b 2b b2 3b dc 70 53 3b 85 b5 1b 3d f0 13 1c 3d
       0.005437327 0.0032263314 0.038014907 0.03810495
000180 5a 92 19 bc d5 c9 e4 bc f7 2c f1 3c 91 3d 2e 3d
       -0.009373272 -0.027928272 0.029440386 0.042539183
000190 45 2c d6 bc df 03 07 bd 6d c3 65 3c 07 1b e3 3c
       -0.026144156 -0.032962676 0.014023644 0.027722849
0001a0 5d 07 e4 bb ae 84 ac bc 7d c2 30 3b 26 50 1d 3d
       -0.0069588856 -0.02105936 0.0026971393 0.038406514
0001b0 90 16 35 3d 0c 4f db 3c af 75 e0 bc 67 f4 7c 3d
       0.04421097 0.02677109 -0.027399866 0.061756518
0001c0 2f a8 85 3d ca c0 19 3d d7 90 33 3c af 95 73 bd
       0.06526219 0.037537374 0.0109598255 -0.05946892
0001d0 f6 1b 21 bd f0 7a 14 bd d7 4c 05 3d 8d 58 2a 3c
       -0.039333306 -0.036250055 0.032543983 0.010397089
0001e0 d4 b4 80 3c fb 70 09 3d 0f 5a 06 bd 48 51 55 3d
       0.015711226 0.033555012 -0.03280073 0.05207947
0001f0 a1 b3 65 b9 5c 73 29 3c b3 6a 7b 3c 94 5a a8 bc
       -0.00021906059 0.010342445 0.015345263 -0.020551004
000200 12 86 30 3c 44 13 3f bd 1a 3e 1e 3c bb 1a 55 3d
       0.010774152 -0.046649233 0.009658361 0.052027445
000210 cd 25 c3 3c 5a c1 4e 3d 7b 89 07 bc 1f ff b7 3b
       0.023821736 0.050477363 -0.008272524 0.0056151296
000220 62 c6 c4 bb 24 84 1c bd 20 cf 37 3d 03 5e 92 3b
       -0.0060050944 -0.038211957 0.044875264 0.0044667735
000230 e8 78 26 bd e0 2f f2 3b 18 ed 84 3d a4 3f e2 bc
       -0.04064265 0.007390961 0.064905345 -0.027618237
000240 2a f7 63 3d 30 5e 6c bb df 2f 15 bc 67 42 20 3c
       0.055655636 -0.0036066882 -0.009105652 0.009781457
000250 7a 21 7b 3c c5 d3 5d 3d 46 96 44 bc 43 f3 43 bc
       0.015327806 0.054157037 -0.011998719 -0.011959854
000260 12 89 1c 3c 79 46 8a 3c 06 25 81 bd ad 43 7c 3c
       0.0095541645 0.016879307 -0.0630589 0.015396995
000270 d4 05 e7 bc 40 5f 98 bb 9d 23 9b 3b 28 39 7d bd
       -0.028201021 -0.0046500266 0.00473447 -0.061822087
000280 e7 41 02 bd 4b 3b 3d bd 25 f0 2e bd 42 1a 5d bd
       -0.03180113 -0.046199124 -0.04270949 -0.05398012
000290 95 bd f9 bc b4 09 b5 3c b7 52 0c 3d ae 49 e1 3b
       -0.030485908 0.022099353 0.03425857 0.0068752384
0002a0 e6 db 7b bb 57 88 d0 3c 4a 5f 84 bc d5 6c a4 bc
       -0.003843063 0.025455637 -0.016158719 -0.020071426
0002b0 97 b5 88 3c 81 e5 75 3c 92 ea 4f 3d 5b fa 07 3d
       0.016688151 0.015008331 0.050760813 0.033197742
0002c0 96 7c 6c bd f8 1a 47 3d d2 df 0b bd c0 e5 b9 3c
       -0.057736002 0.048609704 -0.034149 0.022692561
0002d0 c9 ea fe bc 02 7f db bc e7 70 d4 bb ac 46 71 3c
       -0.031117814 -0.02679396 -0.0064831856 0.014726322
0002e0 fd 2c b4 3c a9 1f d5 3c b7 11 bd bc 66 e7 0f 3d
       0.021994108 0.026016073 -0.023079736 0.035132788
0002f0 20 37 6c bc a6 af 98 bc 62 f9 dc bc b9 12 dc 3c
       -0.01441744 -0.018638443 -0.026974384 0.026864396
000300 90 4a 74 bd 0b 02 d9 bc 30 c6 83 bd 86 27 e5 3b
       -0.05964142 -0.026490232 -0.06434286 0.006993237
000310 94 4f ee bc 5d 5a f6 3c 5f 5b a1 3c d4 fa df 3c
       -0.02909068 0.030072385 0.01969689 0.027341284
000320 04 a6 88 bb 72 2a 22 3c c7 97 61 bd 5c 78 6e 3c
       -0.004170181 0.009897815 -0.055076387 0.014555063
000330 be 69 ba bc fa 29 04 3c 40 89 a9 bb ab 1f ea bc
       -0.0227555 0.008066649 -0.005173832 -0.028579554
000340 c7 77 3b bd 19 1b 9e bc 81 59 d3 3a 14 d1 96 bc
       -0.045768525 -0.01930003 0.0016124697 -0.018410243
000350 88 7c d6 3c 91 4e 86 bd 5a 10 63 bc 8c 4a f3 bc
       0.026182428 -0.06557954 -0.013858879 -0.029698633
000360 ea 73 b6 3b f0 37 ba bc c6 a8 a4 3c a9 95 7c bd
       0.0055680173 -0.022731751 0.020100009 -0.061666165
000370 78 35 97 3c 34 40 fe 3a 04 31 10 3c 5e 2c 8a 3c
       0.018458113 0.0019397796 0.008800749 0.016866859
000380 3c 5a ef 38 c4 5b 1c bc 78 da ae 3c 98 d2 c9 3d
       0.000114132155 -0.009543363 0.021344408 0.09854621
000390 18 e0 a7 3d ca 4a 16 bc 74 04 bb bc 78 6a a2 bc
       0.08197039 -0.009173105 -0.022829272 -0.019826159
0003a0 a4 43 5e 3c 20 48 9a bc 30 8e 3c bc ed d4 71 3d
       0.0135659315 -0.01883322 -0.0115085095 0.059040952
0003b0 3e 34 3d bc 9b ba b7 bc d3 01 1c 3c 00 4c 00 3d
       -0.0115481 -0.022427848 0.009521919 0.03132248
0003c0 78 a9 01 3c 78 a1 19 3b 5c 2b 02 bd 37 59 b3 3c
       0.00791394 0.002344219 -0.031779632 0.021893127
0003d0 2e 82 8a bc 45 c3 3e bc 48 cf 51 bc ac ba c5 bc
       -0.016907778 -0.011643236 -0.012805767 -0.024136864
0003e0 51 6f 05 bd ec 9b 60 3c 69 7e c4 3b 1e 5f cc 3b
       -0.032576863 0.01370905 0.0059965146 0.006236925
0003f0 37 62 b0 bd 65 c1 7d bc 32 2d 1f bc f7 02 fe 3a
       -0.08612483 -0.015488003 -0.009715365 0.0019379546

network_body._body_endoder.seq_layers.2.bias f4 [128]
000000 f0 83 a6 3b c2 10 4c 3b 09 8c 8d ba 0f c4 a1 b8
       0.005081646 0.0031137918 -0.001079918 -7.713597e-05
000010 1f 58 e8 bb a5 57 f2 bb 2d b6 c4 3b 1f 07 52 3b
       -0.007090583 -0.007395702 0.0060031624 0.0032047702
000020 18 cb 98 ba 96 25 c1 3b f8 66 93 bc 57 de fc 3a
       -0.0011657206 0.005894373 -0.017993435 0.0019292337
000030 75 ca c8 3a b3 d7 c2 3b ef bc 10 bc bd 1d 56 3a
       0.0015319126 0.0059461235 -0.008834108 0.00081678835
000040 41 8c 99 3b 42 fe 22 3a 54 09 2b ba 15 94 4d 3a
       0.004685909 0.0006217697 -0.00065245223 0.00078421953
000050 df fd 71 3b ba bd 2a 3b 13 91 ed ba 63 87 55 b9
       0.0036925 0.0026053027 -0.00181249 -0.00020363698
000060 b7 a5 b0 3b c2 74 a2 b9 3f 0b 01 3c ec e7 2c bb
       0.0053908485 -0.0003098604 0.007876216 -0.0026383353
000070 6f 44 d2 3a d5 4b c1 bb 42 81 ab 3b a1 ee 1d bb
       0.0016042123 -0.0058989325 0.0052339146 -0.0024098533
000080 df 98 ef ba 94 22 e2 3a 65 8e 27 bc 6f 87 a5 bb
       -0.0018279812 0.0017252737 -0.010226821 -0.0050515453
000090 18 59 63 3c a1 05 c8 ba 39 47 b0 3b 6f 6a 66 3b
       0.013876222 -0.0015260467 0.005379584 0.0035158654
0000a0 45 ab 42 bb ff 6b 8d ba eb b5 f7 bb 57 8c 6d 3c
       -0.0029704135 -0.0010789632 -0.007559528 0.014498792
0000b0 ca dc 84 bc 3c b7 38 b9 31 73 4a bb 97 e6 1e 3a
       -0.016218562 -0.00017615868 -0.0030891413 0.0006061582
0000c0 2d dc 6b bb 86 50 81 bb 1f 5f a4 3b 02 72 88 3a
       -0.003598939 -0.0039463667 0.005016222 0.0010409954
0000d0 9a 3b a9 bb 35 87 12 bb df 58 e4 ba df c3 fa bb
       -0.0051645758 -0.0022358422 -0.0017421505 -0.007652744
0000e0 8b df c3 3a 29 e4 06 3c 7a 36 0f bb 2c e9 bc 3a
       0.001494394 0.008233109 -0.002185254 0.0014412752
0000f0 29 33 89 ba 3d c1 9d 3a c1 4d ea ba 69 ae dc 3b
       -0.0010467517 0.0012035739 -0.0017875956 0.0067346585
000100 bf 06 f4 bb 1b 9c 1c 39 9c ef 9f bb 6a 21 34 3b
       -0.0074470933 0.00014935473 -0.0048808586 0.0027485737
000110 f3 d8 cb ba 33 c9 82 3b d6 75 91 3a bd 0c 83 39
       -0.0015552327 0.00399127 0.001109774 0.00024995758
000120 42 05 e0 3a d7 3a aa 3b 57 67 49 bb 2c fd a4 bb
       0.0017091411 0.0051950025 -0.0030731761 -0.0050350633
000130 4c db 30 bb 5b 1d 2b bb 3c e9 d4 bb e8 b2 85 3c
       -0.002698618 -0.0026110027 -0.0064975303 0.01632066
000140 ae 6a ef ba 6e 99 b7 bb 6c 0a 3b 3b 4b d1 b9 ba
       -0.0018266046 -0.005603007 0.0028540147 -0.0014176754
000150 b0 e0 d9 bb 03 0d 86 3b ed dc 8b bb 01 b8 ca ba
       -0.0066490993 0.0040909066 -0.0042682798 -0.0015466214
000160 da e5 80 bb 23 a3 0c bc 40 61 da 38 61 5e 25 ba
       -0.0039336504 -0.008583817 0.00010413164 -0.0006308314
000170 da b5 d7 ba a5 80 fc ba bf fa 3d 3a 13 85 58 bb
       -0.0016457394 -0.0019264413 0.0007247142 -0.0033038303
000180 68 60 73 3b 6a 13 7b ba 9e f2 01 bc fa 03 67 ba
       0.003713632 -0.0009577783 -0.00793138 -0.0008812543
000190 a0 fb 0d bb 28 35 16 ba d2 fd 6f 3b ab 22 a1 3a
       -0.0021664873 -0.0005729967 0.0036619795 0.0012293657
0001a0 06 be 2e ba 80 f5 f7 3a b6 fc 2a ba 2e 24 3c 3b
       -0.0006665889 0.0018917769 -0.0006522642 0.0028708088
0001b0 72 42 81 bb fa 76 1d bb 99 20 81 3b b3 77 a5 39
       -0.0039446885 -0.0024027214 0.0039406535 0.00031560435
0001c0 ca 73 a0 3b 40 6b ec ba b4 75 fc ba a9 0e 22 b9
       0.0048966156 -0.0018037334 -0.0019261152 -0.00015454985
0001d0 40 63 19 bc fa c1 fc bb 35 bf 25 3a 08 c1 d6 bb
       -0.009362042 -0.0077135535 0.00063227426 -0.006553773
0001e0 38 f7 b2 bb 5e 77 e4 ba d5 31 84 3b 7e b8 ae 3b
       -0.0054615997 -0.0017430594 0.0040342608 0.005332052
0001f0 97 c8 67 3b 8d c8 41 ba f4 ef 2f 3b cb 06 7e ba
       0.0035367364 -0.000739225 0.0026845904 -0.0009690343

network_body._body_endoder.seq_layers.2.weight f4 [128, 128]
000000 a2 d1 00 be 7c 9a 82 be b2 3a 84 bc 7f 27 d8 bc
       -0.12579969 -0.25508487 -0.01614127 -0.02638602
000010 a7 2d 31 3d 0e 53 2f 3d 91 1e 17 3e 17 51 52 3d
       0.043256428 0.042803816 0.14757754 0.051346865
000020 e6 b9 cd bd 85 6b 4f 3c db da 45 3c 51 7c 0a bd
       -0.10045223 0.012659912 0.012076105 -0.033809964
000030 f7 7e ab 3c 9d d8 d5 ba 06 b8 d6 bd 38 9f 99 3b
       0.020934565 -0.0016315166 -0.104843184 0.00468817
000040 1f f5 ea bd f7 fe 4a 3d 47 e4 0f bd c4 d0 1b 3d
       -0.114725344 0.04955956 -0.03512981 0.03804089
000050 a5 58 70 3c 66 07 6d bd c4 48 ed 3d 64 83 4c be
       0.014669572 -0.057868384 0.115861446 -0.19971997
000060 5a 54 24 bc 71 e2 cd bd b0 3e 96 3d 06 33 b2 bd
       -0.010029877 -0.10052956 0.073361754 -0.08701138
000070 c7 c8 36 be 1e ef 2f 3d ef 20 0f bd 45 38 2e bc
       -0.17850028 0.04295265 -0.034943517 -0.010633533
000080 53 ba db bc 7e e0 46 3c b7 5b 27 3d b8 5e 94 bd
       -0.026822245 0.012138484 0.04085895 -0.07244629
000090 2c 23 ee 3d 62 21 44 3d 8a 42 61 3d 3e bf 0f 3e
       0.11627802 0.0478834 0.054995097 0.14037797
0000a0 b0 9a 44 bc f3 c1 58 bc 97 20 f7 bd ee 5f 2e be
       -0.011999771 -0.013229835 -0.12066763 -0.17028782
0000b0 88 a3 d5 3c ee d9 1d 3d 37 43 37 3c 3d 7e f7 3c
       0.026078954 0.038537912 0.011185459 0.030211562
0000c0 2d 04 14 be 32 5d a3 3c 98 b3 17 3e 8b 28 1e 3e
       -0.14454718 0.0199419 0.14814603 0.15445153
0000d0 be 8e aa 3d 69 0e 51 3d eb 28 2f 3d fb a2 cd 3d
       0.08328007 0.051039133 0.04276363 0.10040852
0000e0 d1 3a 32 3d 4c 7c 99 bd e2 ea d0 3d f9 63 1b 3e
       0.043513123 -0.07494411 0.1020105 0.15174855
0000f0 02 d8 d9 3d 4a fe 00 3e ed 13 16 3d 89 9e 41 3b
       0.10636903 0.12597004 0.036640096 0.0029543957
000100 b6 f0 18 bc c0 bb b9 3d 41 cb 39 3d b2 95 2a be
       -0.009334734 0.090690136 0.045359854 -0.16658667
000110 93 ec 86 ba dd c7 09 be 40 58 25 3d 15 d6 c3 39
       -0.0010293893 -0.13455148 0.040367365 0.00037352802
000120 51 8a 32 bd 2b 7d ff bd d8 f8 77 bd 0b e7 c1 bc
       -0.04358894 -0.12475046 -0.06054005 -0.02366974
000130 c0 c9 c7 3d bd a1 be 3d 7c eb eb 3b f8 e3 31 bd
       0.09755278 0.09308193 0.007199703 -0.0434303
000140 67 88 24 3d 43 d3 0c 3e be db aa 3d 30 76 ab bc
       0.040169146 0.13752465 0.08342694 -0.02093038
000150 8f 2e 67 bd a5 f2 33 bb d8 e9 3c 3e ee b0 51 bd
       -0.056440886 -0.002745786 0.1844858 -0.051194124
000160 1b 1d 61 be 26 b5 34 bd 65 df e2 3c c2 c4 19 3d
       -0.21983759 -0.04411807 0.027694413 0.03754116
000170 49 32 86 bd 51 7f c1 bd 28 9c 79 bd b3 4a 14 3b
       -0.0655256 -0.09448112 -0.060939938 0.0022627532
000180 96 45 83 bd ab e0 52 3d c1 2a f7 bb 1c 6c f7 bd
       -0.06409757 0.05148379 -0.0075429385 -0.12081167
000190 3b 0f 4c be e4 42 84 3d 10 fc 3c be 1e f3 50 3b
       -0.19927685 0.06458071 -0.18455529 0.003188319
0001a0 4c b6 20 3d 50 16 8b 3d e1 4c 0a 3d 2d ba b4 bd
       0.03923635 0.06791365 0.033764724 -0.08824573
0001b0 2e 4e 32 3d 23 f0 5c bc 6a 3e b4 3d d1 87 08 be
       0.04353159 -0.013484987 0.08800967 -0.1333306
0001c0 4a 89 29 3d 5d 90 b3 bd 59 c6 0f 3d 8d 2c d3 bd
       0.041390695 -0.087677695 0.03510127 -0.10311232
0001d0 76 ba 0d 3d 0e 6a 8a bd 54 51 12 3d be ba 65 bc
       0.03460165 -0.067585096 0.03572209 -0.014021574
0001e0 f1 ec f0 bd 76 aa 34 3b dd e5 b3 bd bf a6 8e bb
       -0.11763943 0.0027567423 -0.08784077 -0.004353374
0001f0 77 e5 7b 3d b4 e1 a5 bb 47 60 9c 3d f0 a3 8b bd
       0.06149813 -0.0050623063 0.07635551 -0.06818378
000200 0f 52 02 be c2 df dd bd 7a 57 bb 3c c5 37 27 3d
       -0.12726615 -0.10833694 0.02286886 0.04082467
000210 03 53 c1 3d 07 90 d5 bd 8d bd c4 bb 80 ef 0a 3d
       0.09439661 -0.10427862 -0.0060040415 0.03391981
000220 0d f9 11 be 0b e1 b2 bc 33 91 3c 3d c6 02 20 bd
       -0.14255162 -0.021835824 0.04603691 -0.039065145
000230 b8 52 20 3d 3a 79 63 3c 4b 3a 63 3d 0a 3b 23 bd
       0.039141387 0.013883883 0.055475514 -0.039851226
000240 92 ac 0d 3e a9 91 23 bd b9 84 6a bd 88 1e 06 3c
       0.13835362 -0.039933834 -0.05725548 0.00818599
000250 78 eb 83 bc de 89 33 3d 2e 18 f7 bb d5 bc 52 3d
       -0.016103491 0.043832652 -0.0075407242 0.051449616
000260 de cd a0 3d 20 04 8f bd 78 69 8c 3d 49 5e d1 3c
       0.07851766 -0.06983209 0.06856054 0.025557654
000270 51 06 65 be 40 55 c4 bc 8c bc 93 3d e7 dc 24 3d
       -0.22365691 -0.023966432 0.07213697 0.04024973
000280 e9 06 c2 3d da b2 dc 3c e4 5a 9e bc 5e 02 a9 bd
       0.09473974 0.026940752 -0.01933045 -0.08252405
000290 85 a4 ef 3d de 19 e5 3c 15 73 18 3c e0 4a be bd
       0.117013015 0.027966436 0.009304781 -0.09291625
0002a0 82 f6 e6 bd 4a d5 23 3d 28 46 cf 3d b4 31 14 3e
       -0.112774864 0.03999833 0.10120803 0.14472085
0002b0 88 e4 35 3b 06 be 06 3d ac 7e 87 3d fd ac 00 3d
       0.0027754623 0.032896064 0.066159576 0.031414974
0002c0 93 d4 dd 3d 20 c8 32 bd af f6 e2 bd ff 2e 08 be
       0.10831561 -0.043647885 -0.110822074 -0.13299178
0002d0 8d 8d 0f be 92 61 9d bc 46 86 09 bd 19 65 84 bd
       -0.14018841 -0.019211564 -0.03357532 -0.06464595
0002e0 c7 b2 36 3e 14 37 19 3d 45 f2 f2 bc 3d e0 2e 3c
       0.17841636 0.037406042 -0.029656539 0.01067358
0002f0 50 b6 e5 3c ca 40 db bd 16 de 82 bc ca 79 cf bd
       0.028041035 -0.10705717 -0.01597504 -0.10130651
000300 f3 90 0b bd d2 e4 09 3e 6b 64 ee bc 78 94 cc 3b
       -0.03407378 0.13466194 -0.029100617 0.006243285
000310 9b 0e d8 3d 6c f2 09 be 96 27 86 bd a7 92 01 be
       0.10549661 -0.13471383 -0.06550519 -0.126536
000320 93 27 f0 3d 00 91 7c bd 9d e1 3d be ee 42 ba 3c
       0.11726298 -0.06166172 -0.18543096 0.022736993
000330 23 1e b7 bd eb 63 3e 3e ab 25 44 bc 1b df e0 bc
       -0.08941295 0.18592803 -0.011971871 -0.027450135
000340 9c af f8 bd 84 43 3b be d0 c7 9d bd 82 fd 0a bd
       -0.1214287 -0.18287474 -0.07704127 -0.03393317
000350 cb 73 ac 3d 92 09 dc bc eb e3 2d bd fa 32 69 bc
       0.08420523 -0.026860032 -0.042453688 -0.014233345
000360 9c d6 f0 3d 98 31 fe bd 86 7d 1e 3c 20 6e e9 bd
       0.117596835 -0.12411803 0.009673482 -0.11397958
000370 71 14 13 bc 5d 52 da 3d 0c 67 cb 3d 4b 99 58 3d
       -0.008977042 0.10660241 0.09931764 0.052880567
000380 3f b7 4c bc d0 28 67 bd 5d 38 ae 3d b1 bb ae 3c
       -0.012494861 -0.056435406 0.08506844 0.021329733
000390 e6 00 79 bd 1f 2f 92 be 3a d1 a3 3d 03 39 b3 3c
       -0.060791872 -0.28551576 0.07998891 0.021877771
0003a0 ff 3a 27 3d c7 57 9c 3d 28 8c 27 3e 9f 07 e6 bc
       0.040827747 0.0763393 0.16362059 -0.028079806
0003b0 65 34 b9 3d e7 7d ca 3c 25 b3 cd 3d a0 f7 bc 3c
       0.090431966 0.024718238 0.10043935 0.023067296
0003c0 18 a9 b8 3c 4e d9 ea ba ac 92 5a 3d 5d 59 5d bd
       0.022541568 -0.0017917545 0.053362533 -0.0540403
0003d0 7f 37 6b be 77 63 c8 bc 9b 05 b0 bd 96 70 36 3e
       -0.22970389 -0.024461491 -0.08594819 0.17816386
0003e0 07 29 1d ba e6 93 bc 3d 67 72 c1 3d 77 1e 14 3e
       -0.0005995188 0.09207897 0.09445649 0.14464746
0003f0 8e bc b5 3d 79 65 90 bd 49 55 48 bd bd 30 c9 bc
       0.088738546 -0.070506044 -0.04890946 -0.024559373
