results/ppo/MoveToBet/MoveToBet-18930.onnx (onnx, 636216 bytes, 9 tensors)

action_model._continuous_distribution.log_sigma f4 [1, 2]
00000000: d4c5 a9ba 9b23 e3b9
-0.0012952634 -0.00043323342

action_model._continuous_distribution.mu.bias f4 [2]
00000000: a087 09bb 293b 2bbb
-0.002098538 -0.0026127791

action_model._continuous_distribution.mu.weight f4 [2, 128]
00000000: 2bed a43b 73a1 98bc 93c5 67ba a321 043d
00000010: d6e0 1d3d 527a 62bb f2f3 25bd 03f9 b9bc
00000020: 3e97 55bc 886b 36ba 1c57 adbc 39ef fabc
00000030: 5c64 7c3c d4eb 2d3d 12c0 a23c ab99 d63b
00000040: ffac 883b 897d e43b 3504 6f3c 4bce 373a
00000050: e222 1abb 32ff 7ebb a7f4 b23c 4a83 82bc
00000060: c7f6 88bb 13ee ff3b 1dd7 3fbc 7482 c13c
00000070: 05dd 9cbc 6449 963b 1a13 c23b 8400 1abc
00000080: 7a00 0a3c e741 e0bb a686 c83c 8ddd 823b
00000090: c53b 133c ec37 74bc a102 1a3c bcfd 993c
000000a0: 2177 503c 791a 4fbb f2a9 cb3c dd61 3ebc
000000b0: 2ab9 7f3c 526a 2abc 5749 b0bc bd65 4b3c
000000c0: c87d 10bc 650a 563b 9ba7 973c 6398 e33c
000000d0: 0d79 e4ba ec71 71bc 0298 93bb a48e cb3b
000000e0: 68d8 ceba afa9 a1bc cbf8 b63c 50a6 84bc
000000f0: 3cd3 103c b875 0abd f288 a4bc b2f1 c6bc
00000100: ede9 a8bc d65d 7abb 8c6c a0bc f20c 6c3b
00000110: 98f8 df3b 1f62 f33b b1b4 613c 281c a33c
00000120: 9835 613c cab1 353b b4be cf3c c98f fb3b
00000130: caf1 3cbc ccb1 d5bb 71c9 e9bc 2a5e 43bb
00000140: c775 c73b ae37 c2bc fdc0 ebbb 91d3 2f3c
00000150: 3e4c 59bc 8973 183b a02a 0cbd 48fd 99bb
00000160: c6ca aaba 8df5 01bd 189b a93c 82e8 9b3b
00000170: fb5e 723c ccf8 06bc c770 293c 14ba 10bc
00000180: e1e8 10bc a01d 213d 1be1 203c cfea 9ebc
00000190: c1f9 02bd fbf4 b2ba fce6 b63b 87f7 613a
000001a0: 265c 69bc 52d0 603c debd 9e3b e954 fabc
000001b0: f858 c0bc 67d0 983c 8031 ed3b a1bd 5bba
000001c0: a86e 1a3c 98f7 8339 de4a 95bc 459b dcbb
000001d0: 168a e2bc b5ed 15bb 863b 9f3c 3eeb c83a
000001e0: 223c 10bd 0833 eabb 842c a1bc 27e4 7bbb
000001f0: d54d 22bc e2e6 a0bb e2a7 5e3c 04b5 b43c
00000200: 34c7 ee3b 469e 8639 45cc 5cbc 4640 4dbc
00000210: b835 aabc a530 c2bc 0007 2fba 3334 303b
00000220: a698 06bc 82f4 b83c c621 a6bc e866 02bd
00000230: e500 1bbb 4363 363b 9cdb 813c 38ce 9b3b
00000240: 9dde 963b e02a f8bb be77 11bc c9f1 f8b8
00000250: 5b9e f73c 5851 a13c f7f2 fe3c 726b 1b3b
00000260: 9f4a f03c f2ce 04bd 434b a43b 65ca 983c
00000270: 8689 23bc 43b9 2abc 66b1 27bb 3f71 a73c
00000280: a463 1c3d a9fb 36bd 83a9 82ba 8f61 343b
00000290: df80 713c 1af9 d83c 8300 3abc ce4d 20bc
000002a0: 110b bcbb c93d cbbc 829f 103c 9656 ef3b
000002b0: c8c0 8b3b f95d 84bc 8811 4cbc 7a42 3ebb
000002c0: eb75 d63b 04bc d5bc 1182 a73a 65be bb3a
000002d0: 5d46 f8ba 1d87 c7bc 1f14 003d f396 95bb
000002e0: 5b90 873c 55d7 203c cd8c 90bb 9928 8fbc
000002f0: f05f 133c 27bd 80bb 4ab1 bfbb c5c1 7e3c
00000300: ab06 67bc b1e4 b93c bb15 5a3c b501 9a3c
00000310: 7b9d 623c 9af9 4fbb 6cc9 353c 17e0 de3b
00000320: 911a 28bc b75a d43c 1493 08bd 6e1e 2a3b
00000330: 8168 493b 06b9 85bc 58fa 6c3c 6ba2 5ebc
00000340: 3bdb 25bc 2a7f 22bc f936 653b ec82 3fbc
00000350: ec93 0dbd 878e 993b 5df5 26bc ec50 08bc
00000360: f17b 4cbc 1172 6e3c e8d1 7c3c 1785 a2bc
00000370: cd56 e03c 49bc fdb9 4010 11bb c7a5 e83b
00000380: 4bbd 8c3c cc85 d33c b312 9dbc 755f c6bb
00000390: 65c5 eabc 257e 6dbb 418d d2bb 7e3f 233b
000003a0: dfd5 193c 50df b73b 56c8 b4bb 3c75 44bc
000003b0: 3be0 19bc 3985 303a b9c2 573c 3cad a1bc
000003c0: 8e52 673c c53f 323b 3aad 373c 0dd6 a73c
000003d0: 40f2 a4bc ed75 debc ece7 10bd 8098 d43b
000003e0: 005c 623c 827b 2d3a ae94 093c f339 cebb
000003f0: c815 023d 0dc0 4dbc d4fd 58bc bbcf 913c
0.0050331554 -0.018631672 -0.00088413915 0.03225864 0.0385445 -0.0034557772 -0.040515848 -0.022701746
-0.013036547 -0.00069587724 -0.021159701 -0.030631648 0.015404787 0.04246123 0.019866977 0.0065490804
0.0041710134 0.006972973 0.014588405 0.0007011636 -0.0023519327 -0.0038909432 0.021845175 -0.015931744
-0.004179809 0.007810363 -0.011709002 0.023621775 -0.01914836 0.0045863856 0.0059226872 -0.009399537
0.008422965 -0.0068437937 0.024478268 0.003993696 0.008986418 -0.014905911 0.009400041 0.018797748
0.012723715 -0.0031601472 0.02486131 -0.011620012 0.015608111 -0.010401325 -0.021519346 0.012414393
-0.008819051 0.0032660004 0.018512538 0.027782625 -0.0017431095 -0.014736634 -0.0045042047 0.0062120724
-0.0015781047 -0.019734232 0.02233543 -0.016192585 0.008839425 -0.03380367 -0.020084832 -0.024285171
-0.020619357 -0.0038202903 -0.01958301 0.0036018458 0.0068350546 0.0074274684 0.01377599 0.019910887
0.013745688 0.0027724379 0.025359489 0.0076770526 -0.011532256 -0.006521439 -0.028538438 -0.0029810765
0.006087038 -0.02370819 -0.007194637 0.010731594 -0.013262806 0.0023262224 -0.034220338 -0.004699383
-0.0013030402 -0.031728316 0.020703837 0.0047579417 0.014793153 -0.008238029 0.01034183 -0.008833427
-0.008844585 0.039334893 0.009819294 -0.019399075 -0.031976465 -0.0013653332 0.0055817347 0.00086199533
-0.014243161 0.013721542 0.0048444113 -0.030558066 -0.023479924 0.018654061 0.007238567 -0.0008382444
0.009425797 0.0002517074 -0.018224176 -0.0067323768 -0.027653735 -0.002287728 0.019437563 0.0015328897
-0.035213597 -0.0071471967 -0.019674547 -0.003843555 -0.009906252 -0.004910336 0.013589831 0.022058971
0.0072869305 0.00025676395 -0.013476436 -0.012527531 -0.020777568 -0.023704836 -0.00066767633 0.0026886582
-0.008215105 0.022577528 -0.020279776 -0.03183642 -0.0023651656 0.002783016 0.015851788 0.004754808
0.0046041743 -0.0075734705 -0.008878646 -0.000118705975 0.030226877 0.019692108 0.031121714 0.0023715165
0.029332457 -0.03242392 0.0050138547 0.018651197 -0.009981519 -0.010420146 -0.0025587915 0.020439742
0.038180962 -0.044673596 -0.0009968731 0.002752397 0.014740198 0.026485968 -0.011352661 -0.009784175
-0.005738624 -0.024809735 0.008827092 0.007304023 0.0042649247 -0.01615809 -0.012455352 -0.0029031322
0.0065448186 -0.02609063 0.0012779852 0.001432371 -0.0018941868 -0.02435642 0.03126919 -0.0045651137
0.016548326 0.009816964 -0.004411316 -0.017475413 0.008995041 -0.0039287987 -0.005849992 0.015549128
-0.014100711 0.022692056 0.013310845 0.018799642 0.013831492 -0.0031734467 0.011095386 0.006801616
-0.01026024 0.025922162 -0.03334339 0.002595808 0.0030732455 -0.016323578 0.0144639835 -0.013588528
-0.010123069 -0.009918014 0.0034975393 -0.011688929 -0.034564897 0.00468618 -0.010190335 -0.0083200745
-0.012480722 0.014553563 0.015430905 -0.019838853 0.02738514 -0.00048396204 -0.002213493 0.0070998403
0.017180106 0.025820635 -0.019173956 -0.00605386 -0.028658578 -0.0036238518 -0.00642553 0.002490967
0.00938937 0.0056113377 -0.005517046 -0.0119908415 -0.00939184 0.0006733719 0.013168984 -0.019735925
0.014118804 0.0027198654 0.011210734 0.02048781 -0.020135045 -0.02715584 -0.035377428 0.006487906
0.01381588 0.00066178304 0.008397264 -0.006293529 0.031759053 -0.0125579955 -0.013244111 0.017799249

action_model._discrete_distribution.branches.0.bias f4 [5]
00000000: 2e8f 853b 47e8 ed3a 1b26 7fbb f9af 2a3b
00000010: 2147 06bb
0.0040759062 0.0018150889 -0.0038932625 0.002604483 -0.0020489173

action_model._discrete_distribution.branches.0.weight f4 [5, 128]
00000000: ff3e 57bb 0da3 1b3b 886d 8ebb 7eb9 89bc
00000010: d6bd 8cbc cadf bbbb 238a e23b d4ea 94bc
00000020: 6f0f cfb9 bbbb 03ba 5a4a 6f3c fdf4 6c3c
00000030: 88d8 87b9 5b67 69bc 61be 0f3b c95d 55bc
00000040: 20f7 c8bb fc9f 34bb 113c 14bc 8f29 8bbc
00000050: d9ed b43b be82 c43b fe3c daba 8a1d 9c3b
00000060: 927c 24bb 94a4 643c e032 64bc 6166 19bc
00000070: 5fdc 45bc cdf2 29bc bd0b 71bb f88e 533b
00000080: 602e c3bb a5e6 0b3c 483d a23b 329d b9bb
00000090: 7a6f 073c a5be dcbb 16c5 8dba f960 293c
000000a0: 1acf 3dbc 8265 8ebb 06f2 c4b9 1964 05bb
000000b0: 9813 4a3c 4e95 c6bb 4129 8dbb 3ac0 873b
000000c0: f0eb 583c ebdd 303a 095b b6bb e452 d5ba
000000d0: aed1 343a 99b2 813c c44c b0bb 9cc8 c1bb
000000e0: 3b4d b43b 55ab 263c 3ada 3c3b c01c 703c
000000f0: 586a 9dbb 61ea dab9 2f22 89bc 5459 2e3c
00000100: 5dd5 283b fed0 de3a d39a 84bc 9e30 ddbb
00000110: 590f cb3b 1703 033c 5a16 d23b 5199 3eba
00000120: 5fc0 89bb 346f e7bb d126 2b3c 1f6c bd3b
00000130: 546f 923b 4cda 943c ef02 7b3b f784 d43c
00000140: 65d3 c3ba 967c ddbc 7a2e c33b c658 afbb
00000150: 665d 0d3c e404 b63a 4c21 debb 67bc 1f3b
00000160: 1817 35bb c6d8 b4bb 6ec8 15bc 45c6 96ba
00000170: 6e92 49bc 5147 09bc c811 863b 1cd9 eb39
00000180: 8f2f a2bb e4c2 f13b 0aca 7fbc d34e 273c
00000190: 376d 3a3c 3f27 fa3b 0cb6 c03b 21b4 30ba
000001a0: 25d2 9539 e929 303c 1dfa b5bb 6080 08bc
000001b0: 8342 44bb 266e 92bb 7a03 aabb 5302 913b
000001c0: 6954 773b 5fd5 bcbb ba51 24bb 1869 44bc
000001d0: bfca f5bb 94a1 3a3c 8bc2 403c a869 46bb
000001e0: 90df 9fbb ce85 9eba abd5 84bb 16db 78bc
000001f0: b32a fd3b 9eda 493b 41e6 d23b ef1f 973b
00000200: 642a 6abc 3e74 c63b 43df 69bb ed3d 91bc
00000210: ee64 8e3c d45d b73a 4c5d 4b3b 231d 27bb
00000220: d98f 013c 45df 82ba 3fc8 02bc fa8f 8bbb
00000230: db8f 383c 748e ebba 002f e5bb 0b7d 963c
00000240: f103 123c 97a2 0ebc c4d0 eeba c798 2dba
00000250: c7a8 3abb 3866 d0bb ce77 d63b 6d24 883b
00000260: 09d3 09ba e871 673b 0369 c13c dce5 faba
00000270: 139f ca3b d6d4 c93b 3591 bcba 103a b4ba
00000280: a6f2 c0bb c34e 523b 7aa9 22bc d5fc 053c
00000290: 12d3 08bb 0cd2 413c a952 55bc f786 11bc
000002a0: fd71 7bbc 23e2 5b3c 6175 233c 2c94 2a3a
000002b0: b724 0ebc 3b46 dd3b 25b9 a53c 53dc 32bc
000002c0: 1177 2aba d327 68bc 8b11 62bc fe93 1dbb
000002d0: c767 8b3b 553f b4bb dd4d b3bb 94db 52bb
000002e0: 39b2 6d3c 40ae c43a e0cc a2bb e4e0 503c
000002f0: 496e a7bc d01d 0abc 86c4 2dbb e6f2 c5bb
00000300: a53b 6e3c f570 1e3b c49c d0bb 7e52 0dbc
00000310: e303 463c 51c0 20b9 89f2 983b 85e4 723c
00000320: 123d 0bbc 753b 773c 0189 0ebb 7fe4 08bc
00000330: 5e99 f1b9 7d32 aa3b 5474 583c a0f4 d33a
00000340: 0d19 953c bdb0 6abc 89db 77bb 498c 7d3b
00000350: 3c8f 2f3b 19d8 96ba fb02 cfbb b102 1c38
00000360: 71aa 3339 909d 4c3b e614 a43b 5fcd 823b
00000370: 8fa6 a2bb 2948 bd3b 40e3 b13c 481b 8e3b
00000380: 545d 74bc 6833 283b bb60 27bc 31e3 133c
00000390: 47aa 90ba 9874 953b 53dd 953b 90a3 2939
000003a0: a05e 0ebb 20f6 2c3a a6fa 30bc 2bf7 2a3b
000003b0: ec1d 47bc 12cb 943b f735 08bc cf68 d53b
000003c0: b10b c5bb cd81 b4bb eb3b 1fbc 6a44 69bc
000003d0: cdcf 5fbc 06d8 86bc f31b cbbb 9759 7c3c
000003e0: 8686 bebb 8838 c43b 198a 55bc 9b86 7cbc
000003f0: 9c90 5d3a 7fc7 a63b 8963 aabb 086a 79bb
-0.0032843945 0.002374831 -0.0043465532 -0.016812082 -0.017180365 -0.005733465 0.00691344 -0.018178381
-0.00039493616 -0.00050252274 0.014605129 0.014462707 -0.00025910535 -0.014245833 0.0021933543 -0.013022848
-0.006132975 -0.0027561178 -0.009047524 -0.01698759 0.0055215177 0.005997031 -0.0016650257 0.0047642635
-0.0025098664 0.013955254 -0.013928145 -0.009362788 -0.012076466 -0.01037283 -0.0036780678 0.003228126
-0.005956456 0.008538877 0.004951153 -0.005664491 0.008266324 -0.006736594 -0.0010816182 0.0103380615
-0.011585021 -0.004345597 -0.00037564355 -0.0020353852 0.012333773 -0.006060279 -0.0043078964 0.0041427882
0.013239846 0.00067469355 -0.0055650515 -0.0016275314 0.00068977 0.015832232 -0.005380245 -0.005913807
0.0055023707 0.010172685 0.0028816597 0.014655292 -0.004803937 -0.00041754826 -0.016739933 0.010641415
0.002576194 0.001699954 -0.016187107 -0.0067501804 0.006196898 0.007996342 0.006411356 -0.0007270771
-0.0042038406 -0.007062817 0.010446266 0.0057807113 0.0044688378 0.018170498 0.003830131 0.025942309
-0.001494032 -0.027036946 0.005956468 -0.005351159 0.008628225 0.0013886956 -0.0067788716 0.002437377
-0.0027632173 -0.0055190055 -0.009142024 -0.0011503181 -0.012302978 -0.00837882 0.004091475 0.00044984452
-0.004949517 0.007377969 -0.015612135 0.010211664 0.011378578 0.007634073 0.0058810767 -0.00067407085
0.00028576065 0.01075218 -0.0055534975 -0.008331388 -0.002994687 -0.004468697 -0.0051884027 0.004425326
0.0037739521 -0.0057627405 -0.0025073127 -0.011987947 -0.007500976 0.011391062 0.011765133 -0.0030275378
-0.0048789456 -0.001209432 -0.0040537915 -0.015188953 0.0077260374 0.0030800472 0.00643614 0.004611961
-0.014292333 0.0060563376 -0.0035686053 -0.017729724 0.017382111 0.0013989755 0.003103095 -0.0025499545
0.007907831 -0.0009984752 -0.007982313 -0.0042591067 0.011264767 -0.0017971531 -0.006994128 0.018370172
0.0089120725 -0.008705757 -0.0018220176 -0.0006622192 -0.0028481947 -0.0063598417 0.0065450436 0.004154733
-0.0005257582 0.0035315696 0.023609644 -0.001914199 0.006183514 0.006159405 -0.0014386537 -0.0013750214
-0.005888301 0.0032090403 -0.009928102 0.008177956 -0.002087776 0.011829864 -0.013020196 -0.008882276
-0.015347001 0.013420614 0.009976716 0.00065070647 -0.008675746 0.006752757 0.020229885 -0.010916787
-0.00065027276 -0.014169651 -0.013798128 -0.002404451 0.0042543146 -0.005500714 -0.0054719285 -0.0032174336
0.014507824 0.0015005544 -0.0049682707 0.012748931 -0.02043833 -0.008429959 -0.0026514842 -0.0060409186
0.014540588 0.0024176214 -0.006366344 -0.008625625 0.012085888 -0.00015330433 0.0046675843 0.014824991
-0.008498447 0.015089859 -0.002174914 -0.008355259 -0.0004608137 0.005194007 0.013211329 0.0016170926
0.018200422 -0.014324364 -0.0037820062 0.0038688353 0.0026788255 -0.0011508494 -0.006317494 3.7195805e-05
0.00017134265 0.0031221844 0.005007374 0.0039917673 -0.004963703 0.0057764244 0.021714807 0.0043367483
-0.014914829 0.0025665406 -0.010215933 0.009026335 -0.0011037075 0.004561018 0.004573503 0.00016178028
-0.0021723881 0.0006597955 -0.010801947 0.0026087265 -0.01215313 0.0045408094 -0.0083136475 0.0065127383
-0.0060133566 -0.0055086375 -0.009718875 -0.014237503 -0.013660383 -0.01646043 -0.0061984 0.015402219
-0.0058143763 0.0059881844 -0.013033413 -0.015412952 0.00084520294 0.0050896998 -0.005199854 -0.0038057584

network_body._body_endoder.seq_layers.0.bias f4 [128]
00000000: c886 36b9 37d7 a0b9 f0de 323b 4332 62b7
00000010: 5595 d1ba cc91 71bb 5140 bcba 42cf 2c39
00000020: 6c09 4c3a 513f 26bb e45e 4ebb c567 143b
00000030: ceb5 17bb 40c4 3ebb 7c7e 40b8 509e f6b7
00000040: 10ae 74bb 5365 923b e3e9 81b8 856f 1bbb
00000050: 1d51 523a 4ec2 f239 29bc bdba 7b54 feba
00000060: 2900 22bb 9a07 5fba 66ef 87ba efcb 0abb
00000070: f96f e5bb 9955 433b 6e0c 9eb7 fac8 9a3a
00000080: 9728 45b9 483d 0dbb 1569 733b 3798 79bb
00000090: 404b f13a 15f2 19bb 2fb7 2f3a 6b64 b739
000000a0: 97ba 54bb 5df5 63ba 825c 2e3b 1aea c0ba
000000b0: 4046 b73b eb54 2abb 6dac 833a 8182 6cba
000000c0: 4562 dc3a 2f76 c2b8 700d 2b3a df53 71ba
000000d0: 1779 4839 fb35 49b9 398c 1cbb aaa0 12bb
000000e0: 412e 17bb a737 3639 a97f a43b fa86 feba
000000f0: efd2 4fbb 24cc 73ba f545 993b 9746 62bb
00000100: 92da c2ba 5db5 193b 4c15 5b3b 4713 41bb
00000110: 410d 5a3b 4656 53bb a4a1 a6ba 1b2e 423b
00000120: 48a6 5c3b 1711 10bb 6551 42bb 191e 41b6
00000130: 789f c6ba 70aa 363b 1a90 693a 3f7b b83a
00000140: d749 343b a7a1 0abb 7053 a737 1bb5 76ba
00000150: b118 bb3a 4e0f afbb b657 9eb7 0473 d2ba
00000160: cc14 b1ba b70c 573a cca1 113b 26f3 aebb
00000170: 623a 673b f8ef 47ba 0395 a03b 5f15 1dbb
00000180: f5eb cbba 6674 40ba 891a 41bb 4f01 873b
00000190: afa3 57bb 1858 c1ba 033c 3bbb df73 f6ba
000001a0: 997b 3cbb f71d 8f3b 1dd9 0d3b e609 feb9
000001b0: fa44 8db9 4f47 423a 911d 11bb 6081 593a
000001c0: 6c2b 51bb 7268 86bb b5ba 40bb 0e7e 233b
000001d0: 4c30 e7ba d532 d93a ee84 303b 06a1 ecba
000001e0: 2a65 963b 126e 55bb e7d1 173b c487 9a39
000001f0: 9473 2ebb fff4 913b cb55 aa3b 9c9c c0ba
-0.00017407082 -0.00030677926 0.0027293526 -1.3482352e-05 -0.0015989939 -0.0036860583 -0.001436243 0.00016480408
0.00077833864 -0.002536733 -0.0031489665 0.002264486 -0.0023149136 -0.0029108673 -4.5894165e-05 -2.9399205e-05
-0.0037335195 0.004467645 -6.194764e-05 -0.0023717594 0.0008022951 0.00046302605 -0.0014475632 -0.0019403839
-0.0024719334 -0.00085079076 -0.0010371029 -0.0021178683 -0.0070018736 0.002980566 -1.8840856e-05 0.0011809163
-0.00018802505 -0.002155142 0.0037141491 -0.0038085112 0.0018409267 -0.002349024 0.00067030167 0.00034979297
-0.003245985 -0.0008695925 0.0026605432 -0.0014718205 0.0055930912 -0.0025990556 0.0010045894 -0.0009022132
0.0016813955 -9.272654e-05 0.00065251347 -0.0009205918 0.00019118596 -0.00019188963 -0.002388729 -0.0022373595
-0.002306834 0.00017377605 0.005020101 -0.0019418888 -0.003171142 -0.00093001337 0.004677529 -0.0034526938
-0.0014866164 0.0023454048 0.0033429442 -0.0029460953 0.003327206 -0.0032247468 -0.0012712968 0.0029629532
0.0033668447 -0.0021982843 -0.0029650566 -2.877676e-06 -0.0015153727 0.0027872585 0.00089097174 0.0014074816
0.0027509832 -0.0021153481 1.9946805e-05 -0.0009411142 0.0014274326 -0.0053424006 -1.8875911e-05 -0.0016056006
-0.0013510226 0.0008203494 0.0022221683 -0.005339044 0.0035282602 -0.00076270057 0.004900576 -0.0023969037
-0.0015557992 -0.00073415635 -0.002946528 0.004120029 -0.003290396 -0.0014750985 -0.0028569705 -0.0018802843
-0.0028760193 0.0043675858 0.0021644302 -0.0004845403 -0.00026945007 0.00074111385 -0.0022142867 0.00082971714
-0.003191675 -0.0041018063 -0.002940816 0.002494696 -0.0017638295 0.0016570935 0.00269347 -0.001805336
0.0045896964 -0.0032566828 0.0023165883 0.00029474322 -0.0026619183 0.0044542546 0.0051982156 -0.0014695111

network_body._body_endoder.seq_layers.0.weight f4 [128, 1100]
00000000: 16c1 b23c 55b4 133d d11c 11bd b0df a63c
00000010: f68a 2e3d 7161 0a3d b2ed 973c f02e 783c
00000020: 233f 4fbc 5b1a 9d3d 281e ecbc 2139 4e3c
00000030: 30db b93c 8d8b 0a3d 7fdf 2abd 7268 e2bb
00000040: 8346 0cbc 2441 2d3b 309e 293d 8c74 743c
00000050: 23cf 72bc 49b6 4dbd ba57 443d f09d 553b
00000060: 7cbc 1dbb 1944 103c b523 81bc 5f47 053d
00000070: 7d28 2c3c 33b1 d8bc b021 b6bc 5515 e23c
00000080: a68e d7bc 251b bd3c ee61 a63c 4afc 8ebc
00000090: f1e1 313c d3fa 6ebc 20a7 47bd 7818 983c
000000a0: f07e 003d 8db9 ecbc 5ea4 44bd b535 e0bc
000000b0: 8f08 4cbc 12f0 5ebc 28be 213d 9a2f 2c3c
000000c0: 65a5 1cbc c61b 6dbc 7327 313d e8ba 703c
000000d0: 938f b9ba de5c 953c 5e6a 213d f6e6 a9bd
000000e0: 5731 a6bc 033a 9abc b114 8dbc 6400 88bc
000000f0: 4c4e 803b eb0d 623d 8c85 1c3d 4866 d2bc
00000100: 0bd1 76b9 6b36 0f3d 62ab 6637 cf4b 3f3d
00000110: 1ccd 1f3d 06e6 463c 94ec 1a3d 842f 193b
00000120: fdbb 013b 2c1c 94bc fe16 813a d63e 82bc
00000130: 12ee f63c 4c51 aabc 94ab afbb c1a6 683b
00000140: f272 08bc 81f5 213d 8a80 1fbd dcdd 883c
00000150: 1f01 2dbc 9d2f 443d 5e28 673c 0c8a f53c
00000160: dbc6 023d a461 d83c 3d82 d2ba 6c30 3f3c
00000170: 9f1a 0f3d fa25 eebc a36d 213c d9ec 803d
00000180: 3199 203d 1608 353d 85d1 6bbd 9828 8c3c
00000190: 2393 1abd 6f04 743d 69cb 8c3c 062f 06bb
000001a0: 9272 1e3d fa3c f3bc 6ba2 783c 91fd 833b
000001b0: f556 3bbd f0e2 2c3d a3f5 8c3c d535 dabc
000001c0: 28d8 0fbd fab3 d4bc dfb5 ef3c 1ab0 0fbd
000001d0: 1aa0 863a 99d3 3f3c 2a3c 233c a9e4 c03c
000001e0: 8971 b3bc b2ad cc3c e9b5 a9bc 49b9 3bbc
000001f0: 4b66 c5ba ad19 033d 7e13 843b 78e3 0a3d
00000200: a45a 073d 458c 87bc aee1 18bb 3768 05bb
00000210: 0a58 173c 75fb 013d e3e5 863b 9523 d7bc
00000220: 4185 0dbd da7e af3c 965b 013d 9138 4f3b
00000230: adea 0abc 479a 76bb 50c2 26bc d8d2 71bd
00000240: 2cd9 593d 4bb3 bdbc bc97 5d3c bf5e a53b
00000250: c6d7 cc3c e32a 363d 123f 943c affe 1bbd
00000260: 781a 0ebd 11e1 1d3d bdfa afbb 4e66 033d
00000270: f124 86bc bd1c a9bc 492d 29bd 7cfa 67bb
00000280: 500d c0bc 4c49 d6bc 70d4 22bc 767e 873c
00000290: 1001 4abd 73a3 f53c 9a47 73ba 66f3 ac3c
000002a0: 741f a7bc 7653 263d fa19 19bd 6010 3ebd
000002b0: b7b3 d2bb 7830 3f3d e6a8 83bc 2508 52bd
000002c0: 3f5b f3bc 7741 0c3c 0dc6 30bd 3fc7 43bb
000002d0: c3ed a03c a1da cb3c 9bcc 0abd 83f8 35bd
000002e0: 0d0d cfbb 32ca 783c 297f a83b bb64 32bd
000002f0: 1f42 273d 9cc6 0bbd 61ad 99bc c0be f93c
00000300: 6e99 1a3d 7e4a a33c 2a6a d0b9 7069 2c3c
00000310: 2206 e8ba c79c 863b c49a 0c3d 8c9c b23b
00000320: 2704 d63c a08a 0cbc 7154 473d 5b83 aebd
00000330: 36d8 c23c ff78 e8bc 6d88 34bb 5682 9dbb
00000340: 941d 51ba 97eb b9bc a75f 4ebd 13f8 9d3c
00000350: 76ec 133d 7393 01bb 245e 7fba 1561 f2bc
00000360: accc d9bc 4a93 a73b 867b a33c 9c92 5f3d
00000370: faed 71bc 4600 1dbc b095 a03c 7a22 d2bc
00000380: bae8 bfbc 4a27 00bd 5748 99bc 0b36 0fbc
00000390: a1ff d13c 553e 623c d091 adbc 479e 9ebd
000003a0: 0b09 57bc 20f6 343d 667b 063b 079a f5bc
000003b0: c6be 733c ff03 f7bc d27e 2e3d 7feb f83b
000003c0: 2e10 0d3c faa9 4dbb e03b 13bd 18cb 283d
000003d0: c380 b9bd 198d fe3c 0179 12bd 0986 61bc
000003e0: 9340 15bd de7a 923b 18c8 36bc 6f4c 94bd
000003f0: 5f89 88bb d5aa 393d 0665 68bc e83d 05bc
0.021820586 0.03606065 -0.035427872 0.020370334 0.042612992 0.033784334 0.01854596 0.0151479095
-0.01264933 0.076710425 -0.028822973 0.012586863 0.022687525 0.033824492 -0.04171705 -0.0069094235
-0.008561733 0.0026436532 0.041410625 0.014920365 -0.014819893 -0.05022267 0.047935225 0.0032595359
-0.0024068644 0.008805298 -0.015764097 0.032538768 0.0105077 -0.026451683 -0.02223286 0.027598063
-0.026313137 0.023084233 0.020310368 -0.017454285 0.010857091 -0.014586168 -0.048743367 0.018566355
0.031371057 -0.028897071 -0.048008315 -0.02736936 -0.012453212 -0.013607042 0.039487988 0.010509396
-0.0095609175 -0.014471954 0.043250512 0.014692999 -0.0014157168 0.01823276 0.03940808 -0.082960054
-0.020287199 -0.01882649 -0.01722178 -0.016601749 0.0039155837 0.055189054 0.038213298 -0.025683537
-0.00023538263 0.034964006 1.37489715e-05 0.046703156 0.039013967 0.012139803 0.037823275 0.0023374269
0.0019795888 -0.01807984 0.0009848771 -0.015899103 0.030142818 -0.020790718 -0.00536103 0.0035499784
-0.008328186 0.03954077 -0.038940944 0.016707353 -0.010559349 0.04789697 0.014108745 0.029973052
0.031927925 0.026413746 -0.0016060543 0.0116692595 0.034937497 -0.029070843 0.0098528 0.06295175
0.039208595 0.044197164 -0.05757286 0.0171092 -0.037737977 0.05957454 0.017186837 -0.0020474805
0.03868348 -0.029692162 0.015175442 0.00402803 -0.045737226 0.042208612 0.017206972 -0.026636997
-0.035118252 -0.025964726 0.029261528 -0.035080053 0.0010271103 0.011708164 0.009963075 0.023546534
-0.021904724 0.024985168 -0.020716624 -0.01145775 -0.0015060393 0.03200691 0.004030644 0.033908337
0.033045426 -0.016546378 -0.0023327875 -0.0020356306 0.009237299 0.03173395 0.00411676 -0.026262084
-0.03455091 0.021422792 0.031581484 0.003161941 -0.008478803 -0.0037628578 -0.010178164 -0.059038967
0.053185627 -0.023156783 0.013524946 0.005046695 0.025005233 0.044474494 0.01809648 -0.038084682
-0.03469321 0.03854472 -0.0053704665 0.032079987 -0.016375037 -0.020643586 -0.041302953 -0.0035397103
-0.023443848 -0.026157998 -0.009938344 0.016539793 -0.04931742 0.029985165 -0.0009280384 0.021112155
-0.02040074 0.04060694 -0.03737829 -0.046402335 -0.006430115 0.046677083 -0.016071748 -0.0512773
-0.029706595 0.00856053 -0.043157626 -0.0029873399 0.019644624 0.024884524 -0.033886533 -0.044426452
-0.0063186944 0.015184926 0.005142112 -0.043553095 0.040834542 -0.034124956 -0.018759431 0.030486465
0.03774398 0.019932982 -0.0003975195 0.010523185 -0.0017702023 0.004108045 0.034327284 0.0054507907
0.026125027 -0.008577973 0.048664514 -0.08521148 0.023784738 -0.028378008 -0.0027547136 -0.004806797
-0.0007977125 -0.022695346 -0.05038419 0.01928333 0.03611418 -0.0019771724 -0.0009741506 -0.029587308
-0.026586853 0.005113994 0.019956362 0.054583177 -0.014766211 -0.009582585 0.019602627 -0.025651205
-0.023426402 -0.03128747 -0.018711252 -0.008740912 0.025634589 0.013808806 -0.021187693 -0.07745033
-0.013124715 0.044180036 0.0020520329 -0.029980673 0.014877027 -0.030153273 0.042601414 0.0075964327
0.008609815 -0.0031381832 -0.035945773 0.04120931 -0.090577625 0.03107314 -0.03575993 -0.013764867
-0.036438536 0.0044702133 -0.0111561045 -0.07241141 -0.0041667665 0.045328934 -0.014184242 -0.008132435

network_body._body_endoder.seq_layers.2.bias f4 [128]
00000000: d1f1 7fbb cc07 003b d847 673b d3fc e6ba
00000010: e746 d6ba 5528 273b aeef 583b 2b6c a73a
00000020: 472e 0d3b 1f2d 8eba 10a4 bf3b 7842 3f3b
00000030: 1c76 23ba 852c 23bb 17f8 46bb d5bb a839
00000040: 6040 11bb e9f6 5e39 a62d 1dbb 8fc5 c9bb
00000050: 9bff c0ba 7570 59ba 60a4 5bbb b19c f33a
00000060: dc85 22bb 6ffa 153b fb46 c23a 7623 52bb
00000070: ceb2 353b 4b3e 63ba 1cea 2fbb 10a1 1d3a
00000080: ff3c 53bb fbf5 653b aa71 2cbb f2f3 79bb
00000090: a1d9 25bb f5bc 5cb9 52f1 9a39 b5bc 4938
000000a0: 9c68 60bb 9f36 173b b72f 2ebb f0e7 1a3a
000000b0: abf2 d0ba dab9 423b f7cc 683b 6ecd a0ba
000000c0: aa36 c53a b8ed 323b b1ae 73bb 824e 88bb
000000d0: a31e 223a 2ecd 923b e2dc 79ba f09e 57bb
000000e0: 4f11 2cba 33ee 333b 5e22 46bb 1f4c 943b
000000f0: c254 25bb c561 fe3a cb82 e33a 03f6 7539
00000100: 9e69 273b ec1e 5cbb 569c 5eb9 5842 9dbb
00000110: 76bc 32bb ace4 2dba 8451 0bbb 7467 10bb
00000120: 6311 bfba d5e0 a5ba 5397 963a 9937 80bb
00000130: 23c9 8d3a dda4 953b 8e8b 933a 6f11 a33b
00000140: c303 893a 75f4 0d3b 22ec 7dba df3f e839
00000150: cca3 823b 649f c7ba 18eb d83a 6edd cc3a
00000160: 98d5 003b ca84 9ab8 41a1 68bb 6e89 f83a
00000170: d4ad 8bbb 66a5 5d3b 152d 4fba b268 423b
00000180: bb43 9cbb 13fd 84bb 966d b83a a0fb c03a
00000190: 8f2f 833b a280 083b 2af1 f939 8fd0 cfbb
000001a0: d26a 6e3a f29a f2b9 eeab c739 1fa7 583b
000001b0: a48f 4b3b 3c8d 4bbb 4b86 bfba c060 433b
000001c0: 566b 63bb 51e3 78bb 152c 7e3a baa9 3abb
000001d0: ce42 913a 8530 403b d49f 5e3b c195 d93a
000001e0: bb8e a039 dca6 2b3b f4a4 cf38 758b 253b
000001f0: 914e 85ba 234a 8d3b f40d eab8 389d 51bb
-0.0039054046 0.0019535897 0.0035290625 -0.0017622955 -0.0016348035 0.0025506217 0.0033101845 0.0012773325
0.0021542476 -0.0010847187 0.005848415 0.0029183906 -0.0006235556 -0.0024898362 -0.0030360275 0.00032183403
-0.0022163615 0.00021263551 -0.0023983507 -0.006157584 -0.0014724614 -0.00082946505 -0.0033514723 0.0018586126
-0.0024799025 0.0022884866 0.0014822179 -0.0032064593 0.0027724984 -0.0008668645 -0.002684242 0.0006013075
-0.0032232401 0.0035089243 -0.0026312866 -0.0038139788 -0.002530672 -0.00021051227 0.00029552967 4.809788e-05
-0.003424204 0.0023073328 -0.0026578733 0.0005909195 -0.0015941461 0.0029712827 0.003552256 -0.0012268254
0.0015046198 0.0027302336 -0.0037182982 -0.0041597495 0.0006184375 0.0044800257 -0.00095315103 -0.003290113
-0.00065638585 0.002745521 -0.0030232887 0.004525676 -0.0025227522 0.00194078 0.0017357705 0.00023456667
0.002554513 -0.0033587767 -0.0002122981 -0.0047991686 -0.0027272976 -0.0006633501 -0.0021258304 -0.002203432
-0.0014577325 -0.0012655506 0.001148919 -0.0039128778 0.001081739 0.0045667724 0.00112568 0.0049764435
0.0010453392 0.00216606 -0.00096863706 0.00044298076 0.0039868113 -0.0015229997 0.0016549556 0.0015629956
0.0019658562 -7.368026e-05 -0.0035496505 0.0018961856 -0.0042626653 0.003382051 -0.0007903141 0.0029664454
-0.0047688163 -0.004058489 0.0014070745 0.0014723428 0.004003472 0.0020828624 0.00047672662 -0.006342001
0.0009094897 -0.0004627328 0.00038084335 0.0033058596 0.0031060958 -0.0031059524 -0.0014612166 0.0029812306
-0.0034701428 -0.0037977288 0.00096959 -0.0028482513 0.0011082531 0.0029325795 0.0033969777 0.0016600416
0.0003062392 0.0026191985 9.901254e-05 0.0025260125 -0.0010170509 0.0043118163 -0.000111605885 -0.0031984579

network_body._body_endoder.seq_layers.2.weight f4 [128, 128]
00000000: e876 24bd 192a f43d 61c8 4ebe 35bc c43d
00000010: 90e1 6c3c 6852 5dbd 8300 79bc e09c 793d
00000020: a84b 94bc 3d9e 273c 085e 213d 5eff a93c
00000030: feb4 e03d a110 ab3d 30c8 0dbe f48d f93c
00000040: e32b 123d ebdb 1abd 61ff 8d3c 4a82 70bd
00000050: f42f 9bbd 103b 10be 89e2 1b3e d779 aa3d
00000060: 3aa5 863c 6bd5 153d 4e75 ad3d 47ad 84bd
00000070: 3bc0 8f3e 5305 44bc 68c8 9fbc cc71 66bd
00000080: 8970 0e3d f0c0 20be 963e b13d 2899 15bd
00000090: 0558 1ebe 99e4 74bc a571 97bd e16c 633d
000000a0: 6cef 99bd 27ba 013d dd16 31be 8618 933d
000000b0: f686 c6bd c162 173e 26aa 87bd 278d 4abd
000000c0: 2772 62bd cddf c33d 4614 7dbb 795a 8dbc
000000d0: b35b 313d 522e 553d e179 cfbd a248 b03c
000000e0: d5b8 2cbc c232 883c 469e 0cbe 05f0 f23d
000000f0: 10d6 31bd cb18 1fbd 1d64 3a3e abab b83d
00000100: b011 30be f012 e13d a41f d9bd 7270 85bd
00000110: 4c2f 8cbd 6f11 8a3c 41f2 fbbd ded4 2dbd
00000120: 5540 39bd 163c c7bc f2b7 e13a 6c87 0fbe
00000130: 0871 243d e0d9 c1bd 229e 433e f4b1 9dbc
00000140: c975 2d3e 4cf9 393c 243d fe3b ea76 3e3e
00000150: 0768 d6bd e7c0 ff3d 6314 bf3c 772c 213e
00000160: 6def b3bd a5f9 823d f97d 6d3d 6d2d 6c3d
00000170: 79e9 4d3e 70e9 e03c c892 c33d 5382 e03d
00000180: 968f e03d bc18 10be 4384 89bd 3159 9d3c
00000190: 23b8 5ebe 29bb 7dbd 50cb df3d 4cd7 503d
000001a0: 1b62 1dbd dd9b 873d 4741 27be b16e ac3d
000001b0: 982d 29be 39d8 633d 1502 0abd bb09 38bd
000001c0: e238 03bd f468 37bc 6f70 b03d 36a3 883d
000001d0: 6bc7 4b3d 10a3 4fbe 721f f53d cf32 ef3c
000001e0: ab84 94bd 9388 23bd 7269 2c3d 4d12 d0bd
000001f0: d101 0f3e 1e3a 91bc 5f28 88bd a420 9e3d
00000200: dbe9 353c ca46 00bd 212a 12be eb08 073e
00000210: 30f3 1dbc 81a8 acbd e13a 013e 5dd0 8cbb
00000220: 9c56 db3d aff0 6e3d c026 b5bc 9bda 03bd
00000230: ec97 1bbd 8c2a 9e3d 66b3 cbbc bafd a63c
00000240: e0b9 30bd 6fea e73d 6975 20bb 27e3 af3d
00000250: f0d5 03bc e47d 3f3c e831 afbd bb48 be3d
00000260: dca4 6cbc 1560 d1bd 199a 3b3d 2f85 30bc
00000270: 311e 1abc 4c16 efbd c518 dbbc b68d 6e3c
00000280: 0ae6 d13c fb5f bc3b 1a19 07be f3a7 42bc
00000290: e006 bf3c 602c 853c 2de9 31bd ef32 3bbc
000002a0: 2e52 bcba 699f c63c 0969 af3d bf11 a3bc
000002b0: 9f88 313c 396e 56be c8d2 0c3d a0d1 cb3d
000002c0: 24b3 50bc a972 e0bb 1284 b4bd 5e91 1b3d
000002d0: e2d4 c0bc 9bd3 92bd 361c d1bd 3788 c5bd
000002e0: 5eaf bb3d 76d3 a93d d60b 38bd d0c1 cfbd
000002f0: dc59 03be ee95 503d 72b5 0ebe 1d15 07be
00000300: 97eb 1cbe 570a d5bc a8e0 583e a2ef 24be
00000310: 3b89 b33c bd84 e2bb 8e87 bcbd ba27 1c3e
00000320: 4d68 103e 6423 9f3d ff37 6e3c a0d6 333d
00000330: 1b4e 8ebd 6e0f 403e a0c7 fa3d 0344 b43d
00000340: 7815 e3bd 5ecb 5abd 3aed a03d b167 ebbc
00000350: 63a3 3abc 1d5a 25bd c63e c03b a7e2 613d
00000360: 1c9e d03d 3a19 9ebd 0b48 513d daa6 ddbd
00000370: e308 923d 50e0 5fbc 9c2e 243d f746 a33d
00000380: ecd1 bc3d 986c 04be c0d0 903c 7c4e 453c
00000390: e4a7 7b3d 6c6f 083d e5b8 e3bc 3c68 02be
000003a0: 6e03 093e 562b ad3d 7d5f c43a 6e88 123e
000003b0: 2c1e 07bc fd2f 643c 8807 65bd 7eb7 1b3c
000003c0: 59f0 d2bc 066b d23c 9b3c bb3d 8f89 cb3c
000003d0: 7c94 933d adfe de39 1908 2b3d 945f 7dbd
000003e0: 86d0 61bc 0060 aabd e677 5b3d a17b a7bc
000003f0: 0fb4 a53d 25d9 5dbd bf20 1b3e b697 e13c
-0.04015246 0.11922092 -0.20193626 0.0960621 0.014458075 -0.054033667 -0.015197876 0.060940623
-0.018102482 0.010230598 0.039396316 0.020751651 0.109720215 0.08352781 -0.13845897 0.030463196
0.035686385 -0.037807386 0.017333688 -0.058718003 -0.07577506 -0.1408503 0.15223135 0.0832402
0.016436208 0.036580484 0.0846964 -0.064783625 0.28076348 -0.01196416 -0.01950474 -0.05626087
0.03477529 -0.156986 0.086545154 -0.036523014 -0.15463264 -0.01494708 -0.07394723 0.055523757
-0.07516369 0.03167167 -0.17293878 0.07182412 -0.096937105 0.14783765 -0.0662425 -0.04945102
-0.055284645 0.09564171 -0.003861682 -0.017255055 0.04330034 0.052046128 -0.101306684 0.021519009
-0.010542114 0.016625766 -0.13732252 0.11862186 -0.043417037 -0.038842004 0.18202253 0.09017118
-0.17194247 0.1098994 -0.10601738 -0.06515588 -0.06844959 0.016854016 -0.12302066 -0.042439334
-0.045227367 -0.024320643 0.0017220958 -0.14016503 0.040146858 -0.094653845 0.19103292 -0.019249894
0.16939463 0.011350941 0.0077587534 0.1860005 -0.104690604 0.12487965 0.02332515 0.15739618
-0.08785901 0.06395272 0.057981465 0.05766051 0.20108594 0.027455062 0.09549481 0.10962357
0.10964887 -0.14071935 -0.0671468 0.019207569 -0.2174993 -0.061946068 0.10927451 0.050986573
-0.03842364 0.066215254 -0.16333495 0.0841955 -0.16521299 0.055626128 -0.03369339 -0.044931155
-0.03203667 -0.011194456 0.08615195 0.06671755 0.049750727 -0.20277047 0.11968888 0.029199032
-0.07251867 -0.03992517 0.042092748 -0.101597406 0.13965537 -0.017727908 -0.06648325 0.077210695
0.011103119 -0.03131751 -0.14273883 0.13186996 -0.0096405 -0.08430577 0.12620117 -0.0042973
0.10709879 0.058335003 -0.022113204 -0.0321909 -0.03798668 0.07722959 -0.024865817 0.020384658
-0.043146014 0.113240115 -0.0024484044 0.08588248 -0.008046612 0.0116877295 -0.08554441 0.09291216
-0.014443602 -0.10223404 0.045801256 -0.010773941 -0.009406612 -0.11674175 -0.02674521 0.014560154
0.025622386 0.0057487465 -0.13193169 -0.0118808625 0.023318708 0.016256511 -0.043435264 -0.011425718
-0.0014367753 0.024245935 0.08564956 -0.019905923 0.010835796 -0.20940484 0.034380704 0.09952092
-0.012738023 -0.006849606 -0.08814253 0.03798043 -0.02353901 -0.07169267 -0.10210459 -0.096451215
0.09164308 0.08292286 -0.044933163 -0.10144389 -0.12827247 0.050924234 -0.13936403 -0.13191648
-0.15324245 -0.026005907 0.2117945 -0.16107038 0.021916023 -0.0069127963 -0.092055425 0.1524953
0.14102288 0.07770422 0.014539718 0.043905854 -0.06948491 0.18755886 0.12245107 0.08802035
-0.11088079 -0.053416602 0.078577474 -0.028735967 -0.0113914935 -0.04036914 0.005866858 0.055147793
0.10186407 -0.07719655 0.051094096 -0.1082284 0.07130601 -0.01366432 0.040083513 0.0797252
0.09219727 -0.1293205 0.017677665 0.012042638 0.06143941 0.033309385 -0.027798126 -0.12735075
0.13380215 0.08455531 0.0014982071 0.14309856 -0.00824694 0.013927457 -0.055915385 0.009504197
-0.025749372 0.025685798 0.09142419 0.024845866 0.072060555 0.00042532888 0.04175577 -0.06185873
-0.013782626 -0.08319092 0.05358114 -0.020444693 0.08090984 -0.054162163 0.1514921 0.027538162
