results/ppo/MoveToBet/MoveToBet-5410.onnx (onnx, 768393 bytes, 7 tensors)

action_model._continuous_distribution.log_sigma f4 [1, 17]
0	0x00000000	0.0
1	0x00000000	0.0
2	0x00000000	0.0
3	0x00000000	0.0
4	0x00000000	0.0
5	0x00000000	0.0
6	0x00000000	0.0
7	0x00000000	0.0
8	0x00000000	0.0
9	0x00000000	0.0
10	0x00000000	0.0
11	0x00000000	0.0
12	0x00000000	0.0
13	0x00000000	0.0
14	0x00000000	0.0
15	0x00000000	0.0
16	0x00000000	0.0

action_model._continuous_distribution.mu.bias f4 [17]
0	0x00000000	0.0
1	0x00000000	0.0
2	0x00000000	0.0
3	0x00000000	0.0
4	0x00000000	0.0
5	0x00000000	0.0
6	0x00000000	0.0
7	0x00000000	0.0
8	0x00000000	0.0
9	0x00000000	0.0
10	0x00000000	0.0
11	0x00000000	0.0
12	0x00000000	0.0
13	0x00000000	0.0
14	0x00000000	0.0
15	0x00000000	0.0
16	0x00000000	0.0

action_model._continuous_distribution.mu.weight f4 [17, 128]
0	0xba1607af	-0.0005723191
1	0x3c6bf8c7	0.014402575
2	0x3c8493a5	0.016183684
3	0xbd0dcf8e	-0.034621768
4	0xbbba53b6	-0.0056862487
5	0xbc2eed9f	-0.0106767705
6	0x3ce3b083	0.027794128
7	0xbb560945	-0.0032659334
8	0x3b3d77e7	0.0028910579
9	0xbc2ced9a	-0.0105546955
10	0xbc414c58	-0.011797987
11	0xbcc71237	-0.024300678
12	0x3c665fdd	0.0140609415
13	0x3cace03e	0.02110302
14	0xbd15a6bb	-0.03653596
15	0x3d24f14c	0.04026918
16	0x3cb7c3f0	0.022432297
17	0xbc4802dc	-0.012207713
18	0x3b29fe7d	0.002593904
19	0x3d00127b	0.031267624
20	0x3bc5c922	0.00603594
21	0x3c955321	0.018228116
22	0xbc8271a7	-0.015923334
23	0x3bb41512	0.005495676
24	0xbc1fb48d	-0.0097476365
25	0x3c361aec	0.011114817
26	0x3c925757	0.017863913
27	0xbca2bfd3	-0.01986686
28	0x3c521dfb	0.012824531
29	0x3cb80b00	0.022466183
30	0x3c6d26d0	0.014474586
31	0x3ca877a2	0.020564858
32	0xbcccad5b	-0.024985006
33	0xbcea1e92	-0.02857903
34	0x3bb8005f	0.0056152786
35	0x3c176de0	0.009242505
36	0x3bfe58f2	0.007762068
37	0xb9d872da	-0.00041284302
38	0x3c279f6e	0.010230882
39	0xbc232ba9	-0.00995914
40	0xbcbbe467	-0.02293606
41	0x3c6c14f5	0.014409293
42	0xbbe33d92	-0.00693483
43	0xbc052474	-0.008126367
44	0xbb82f6a5	-0.0039966875
45	0x3c8551d7	0.016274376
46	0xbbd069eb	-0.0063602827
47	0xbb0901bf	-0.0020905582
48	0x3bd9c50f	0.0066458057
49	0xbb61208a	-0.003435167
50	0x3bbfa281	0.0058482294
51	0x3bcf4662	0.006325529
52	0x3bc81a9e	0.0061066886
53	0x3d335ac4	0.043787733
54	0x3c4370f1	0.011928783
55	0xbcf9dbf2	-0.030500386
56	0xbae3beaa	-0.0017375548
57	0xbb40c892	-0.0029416424
58	0x3cc003c8	0.023439303
59	0xbbaffb2b	-0.0053705177
60	0xbc75dd0b	-0.015006314
61	0xbc5a0672	-0.013307201
62	0xbce5a402	-0.028032307
63	0xbad32fef	-0.0016112308
64	0x3c039a54	0.0080324
65	0x3d004582	0.031316288
66	0x3ac07cb7	0.0014685605
67	0xbc592c88	-0.013255246
68	0x3c11fbaf	0.008910104
69	0x3c3599d7	0.011084042
70	0x3cd1db5b	0.025617292
71	0x3bef2f4b	0.007299339
72	0xbc84e98b	-0.016224643
73	0x3c4bee54	0.012446959
74	0x3cdada1b	0.026715329
75	0xbbd79855	-0.0065794387
76	0x3cc8ecbf	0.024526952
77	0x3cfa3eca	0.030547518
78	0x3d263756	0.040580116
79	0xbc4d9137	-0.012546829
80	0x3bae30a3	0.0053158565
81	0x3cbd9351	0.023141535
82	0x3c822dbd	0.01589095
83	0xbc13f36f	-0.009030207
84	0xbbce07c0	-0.006287545
85	0x3b907933	0.0044089793
86	0x3c898599	0.016787337
87	0x3c1145d0	0.008866742
88	0xbc140b23	-0.009035858
89	0xbae85798	-0.00177263
90	0xbbead5fa	-0.0071666213
91	0x3d0d2f0f	0.034468707
92	0x3c7afd48	0.015319176
93	0x39a721a3	0.00031877783
94	0xbc92abe3	-0.017904228
95	0x3c5fd07b	0.013660545
96	0xbc35de97	-0.011100433
97	0xbcf3a74a	-0.029742856
98	0x3c83e12e	0.016098585
99	0x3a7a1fab	0.0009541462
100	0xbbfcd708	-0.0077160634
101	0xbbdef9d7	-0.0068046856
102	0xbab13172	-0.0013518764
103	0xbcde7ed2	-0.027160082
104	0x3cdf19c7	0.027233971
105	0x3c1bd2ab	0.009510676
106	0xbbe3d8a8	-0.0069533177
107	0x3c4495f2	0.01199864
108	0x3c711d63	0.014716479
109	0x3ce9e513	0.028551614
110	0xbc4540b6	-0.012039354
111	0x3cfe0208	0.031006828
112	0xbc34ebbe	-0.011042533
113	0xbd45ba97	-0.04827365
114	0xbc642e08	-0.01392699
115	0xbc21617d	-0.009849903
116	0xb94d2173	-0.00019562784
117	0x3cb8107b	0.022468796
118	0xbcf1208a	-0.029434461
119	0xbc221272	-0.009892093
120	0x3c09b12b	0.008404057
121	0xbc089fb3	-0.0083388565
122	0xbc444e9a	-0.011981631
123	0xbb9dd278	-0.0048163496
124	0x3bde4db5	0.0067841657
125	0x3b8f8ff0	0.0043811724
126	0xbb81813f	-0.003952175
127	0x3b5c3d0b	0.003360572
128	0x3c401e33	0.01172595
129	0xbaddea2b	-0.0016930749
130	0xbc991577	-0.018686993
131	0xbb71634a	-0.0036832863
132	0x372bf35a	1.0249054e-05
133	0xbcea339d	-0.028589064
134	0x3ce404bd	0.02783429
135	0xbce53465	-0.027979085
136	0x3cadba0d	0.02120688
137	0xbabb79c3	-0.0014303256
138	0xbbd2a625	-0.0064284974
139	0xbbbc65f2	-0.0057494575
140	0x3c2fd723	0.010732445
141	0xbc4b189e	-0.012396006
142	0xbc3510e2	-0.011051388
143	0x3b85f958	0.004088562
144	0xbcbc48c7	-0.022983922
145	0xbb591e12	-0.0033129496
146	0xbc431b7b	-0.011908407
147	0xbba7b37f	-0.005117833
148	0x3c49544d	0.012288165
149	0x3c20d652	0.009816723
150	0xbbbaa114	-0.0056954715
151	0x3c2edfad	0.010673446
152	0x3c958a54	0.018254437
153	0xbd357c3a	-0.044307925
154	0x3c6239b5	0.013807704
155	0x3c834ace	0.01602688
156	0x3cf2d633	0.029643154
157	0xbba7558b	-0.005106633
158	0x3b87220a	0.004123931
159	0xbca72dc3	-0.020407563
160	0xbc3d15f2	-0.011540877
161	0xbb70e14a	-0.0036755376
162	0x3b833fbf	0.004005402
163	0x3cae5f72	0.021285746
164	0x3c2f5534	0.010701466
165	0x3c83fe0a	0.016112346
166	0xbb2ca7c2	-0.0026345109
167	0x3a6aaafd	0.0008951871
168	0xbb1ee8ad	-0.0024247572
169	0xbc8d1327	-0.017221047
170	0xbc27a2d3	-0.010231691
171	0x3ad27b3f	0.0016058459
172	0xbb254a47	-0.0025221275
173	0xbc8fd30a	-0.017556686
174	0x3bba1d43	0.005679758
175	0x3d120c3a	0.03565619
176	0xbb9368a3	-0.0044985577
177	0x3b4360a1	0.0029812234
178	0xbd04d5f2	-0.032430597
179	0x3c91821e	0.01776224
180	0x3c12cbaf	0.008959695
181	0x3c4b53e9	0.012410142
182	0x3caa4206	0.020783436
183	0x3c238533	0.009980488
184	0xbbbcb567	-0.0057589295
185	0xbca2386a	-0.019802291
186	0xbc0d73eb	-0.008633594
187	0xbc5dddcf	-0.013541653
188	0xbc1c574b	-0.009542297
189	0x3bfc3543	0.007696779
190	0xbc4246b7	-0.01185768
191	0xbb3f46b0	-0.002918642
192	0x3c8aca42	0.016942147
193	0x3ca6d37c	0.020364515
194	0x3c01316d	0.007885319
195	0x3ce5a258	0.028031513
196	0x3cfc4028	0.03079231
197	0xbcb9e4e3	-0.02269215
198	0x3c5cc5cb	0.013474892
199	0x3d56d778	0.05245158
200	0xbc0f591d	-0.008749274
201	0xbcf02de0	-0.02931875
202	0x3c9e4fc4	0.019325145
203	0x3a9b23e4	0.0011836258
204	0xbc696e2d	-0.014247459
205	0xbc345343	-0.011006179
206	0x3ccac658	0.02475278
207	0xbcb5796b	-0.022152623
208	0xbc63b692	-0.013898509
209	0xbc5e2618	-0.013558887
210	0x3b3137c9	0.0027041307
211	0x397740d3	0.00023579905
212	0xbb09b361	-0.002101146
213	0xbce66077	-0.02812217
214	0x3cbc4e37	0.022986514
215	0xbc18ee05	-0.009334092
216	0xbc2f3eb5	-0.010696103
217	0xbc802d08	-0.015646473
218	0xb9c66577	-0.000378411
219	0x3d114c1e	0.03547298
220	0x3c3eab80	0.0116375685
221	0x3b57597f	0.003285974
222	0xbb517fe2	-0.0031967093
223	0x3c4a14bb	0.012334044
224	0xbc3edf21	-0.011649878
225	0x3c6c94fa	0.014439816
226	0x3ccec83a	0.02524196
227	0x3c5aa7e5	0.013345693
228	0xbb39b67b	-0.0028337527
229	0x3c0288b3	0.007967162
230	0x3c3f043b	0.0116587235
231	0xbc13580a	-0.008993158
232	0xbb173549	-0.0023072532
233	0xbbe11df0	-0.006870024
234	0xbcc1a7ee	-0.023639645
235	0xbcaedb00	-0.021344662
236	0xbc00d0b8	-0.007862262
237	0x3cbd3cd5	0.023100296
238	0x3cee936f	0.029123036
239	0x3cb7dcfb	0.022444239
240	0xb9adc851	-0.0003314638
241	0xbc8f26e6	-0.017474603
242	0x3b06ceeb	0.002057011
243	0x3c811693	0.015757835
244	0xb92be636	-0.00016393591
245	0x3803951b	3.13717e-05
246	0xbcc043ab	-0.023469767
247	0xbc4df707	-0.012571103
248	0x3caba237	0.020951374
249	0x3c6b705f	0.014370053
250	0x3c950eed	0.018195594
251	0x3cb0a345	0.021562228
252	0xbc495e3b	-0.012290533
253	0xbc2a326b	-0.010387997
254	0x3c2e5862	0.010641189
255	0x3ce53a1d	0.027981812

network_body._body_endoder.seq_layers.0.bias f4 [128]
0	0x00000000	0.0
1	0x00000000	0.0
2	0x00000000	0.0
3	0x00000000	0.0
4	0x00000000	0.0
5	0x00000000	0.0
6	0x00000000	0.0
7	0x00000000	0.0
8	0x00000000	0.0
9	0x00000000	0.0
10	0x00000000	0.0
11	0x00000000	0.0
12	0x00000000	0.0
13	0x00000000	0.0
14	0x00000000	0.0
15	0x00000000	0.0
16	0x00000000	0.0
17	0x00000000	0.0
18	0x00000000	0.0
19	0x00000000	0.0
20	0x00000000	0.0
21	0x00000000	0.0
22	0x00000000	0.0
23	0x00000000	0.0
24	0x00000000	0.0
25	0x00000000	0.0
26	0x00000000	0.0
27	0x00000000	0.0
28	0x00000000	0.0
29	0x00000000	0.0
30	0x00000000	0.0
31	0x00000000	0.0
32	0x00000000	0.0
33	0x00000000	0.0
34	0x00000000	0.0
35	0x00000000	0.0
36	0x00000000	0.0
37	0x00000000	0.0
38	0x00000000	0.0
39	0x00000000	0.0
40	0x00000000	0.0
41	0x00000000	0.0
42	0x00000000	0.0
43	0x00000000	0.0
44	0x00000000	0.0
45	0x00000000	0.0
46	0x00000000	0.0
47	0x00000000	0.0
48	0x00000000	0.0
49	0x00000000	0.0
50	0x00000000	0.0
51	0x00000000	0.0
52	0x00000000	0.0
53	0x00000000	0.0
54	0x00000000	0.0
55	0x00000000	0.0
56	0x00000000	0.0
57	0x00000000	0.0
58	0x00000000	0.0
59	0x00000000	0.0
60	0x00000000	0.0
61	0x00000000	0.0
62	0x00000000	0.0
63	0x00000000	0.0
64	0x00000000	0.0
65	0x00000000	0.0
66	0x00000000	0.0
67	0x00000000	0.0
68	0x00000000	0.0
69	0x00000000	0.0
70	0x00000000	0.0
71	0x00000000	0.0
72	0x00000000	0.0
73	0x00000000	0.0
74	0x00000000	0.0
75	0x00000000	0.0
76	0x00000000	0.0
77	0x00000000	0.0
78	0x00000000	0.0
79	0x00000000	0.0
80	0x00000000	0.0
81	0x00000000	0.0
82	0x00000000	0.0
83	0x00000000	0.0
84	0x00000000	0.0
85	0x00000000	0.0
86	0x00000000	0.0
87	0x00000000	0.0
88	0x00000000	0.0
89	0x00000000	0.0
90	0x00000000	0.0
91	0x00000000	0.0
92	0x00000000	0.0
93	0x00000000	0.0
94	0x00000000	0.0
95	0x00000000	0.0
96	0x00000000	0.0
97	0x00000000	0.0
98	0x00000000	0.0
99	0x00000000	0.0
100	0x00000000	0.0
101	0x00000000	0.0
102	0x00000000	0.0
103	0x00000000	0.0
104	0x00000000	0.0
105	0x00000000	0.0
106	0x00000000	0.0
107	0x00000000	0.0
108	0x00000000	0.0
109	0x00000000	0.0
110	0x00000000	0.0
111	0x00000000	0.0
112	0x00000000	0.0
113	0x00000000	0.0
114	0x00000000	0.0
115	0x00000000	0.0
116	0x00000000	0.0
117	0x00000000	0.0
118	0x00000000	0.0
119	0x00000000	0.0
120	0x00000000	0.0
121	0x00000000	0.0
122	0x00000000	0.0
123	0x00000000	0.0
124	0x00000000	0.0
125	0x00000000	0.0
126	0x00000000	0.0
127	0x00000000	0.0

network_body._body_endoder.seq_layers.0.weight f4 [128, 1350]
0	0xbc8f98be	-0.017528888
1	0xba5cfdb2	-0.00084301375
2	0xbd52b248	-0.051439553
3	0x3c876f29	0.016532497
4	0xbd53eae7	-0.051737692
5	0x3cda8a44	0.026677258
6	0x3c520afe	0.012820004
7	0x3d19c13f	0.03753781
8	0xbcd7a140	-0.026322007
9	0x3bb7c0fd	0.005607723
10	0xbd859d19	-0.065241046
11	0xbcd600f3	-0.0261235
12	0xbc8e1978	-0.017346129
13	0xbc9d15f0	-0.0191755
14	0xbd2fb11a	-0.042893507
15	0xbc26d4b7	-0.010182551
16	0xbcde8359	-0.02716224
17	0xbcc6c011	-0.024261506
18	0xbc55befd	-0.013046023
19	0xbc2555dd	-0.010091272
20	0x3d3022a5	0.04300179
21	0x3bf4b6fe	0.0074681034
22	0xbb46f344	-0.00303574
23	0xbd29928c	-0.041399524
24	0x3d336d97	0.043805685
25	0x3c0549bc	0.008135255
26	0x3c977450	0.01848808
27	0x3cd30631	0.025759788
28	0xbba35207	-0.0049841437
29	0xbd0bfa44	-0.03417422
30	0xbd56ca2d	-0.052438904
31	0x3cc764c7	0.024340047
32	0xbc6ee2cf	-0.014580443
33	0xbca756d4	-0.020427145
34	0x3d21a079	0.03945968
35	0xbcddca84	-0.027074106
36	0x3a010386	0.00049214845
37	0x3cbe2556	0.023211163
38	0xbd098410	-0.03357321
39	0x3c9667f7	0.018360121
40	0x3a496e7c	0.0007684005
41	0x3a9738af	0.0011537279
42	0x3ada614e	0.0016661079
43	0xbc24699a	-0.010034943
44	0x3d37710c	0.044785544
45	0xbc87ee27	-0.016593052
46	0x3ce415ad	0.027842367
47	0xbd12200b	-0.03567509
48	0x3c9dc332	0.019258115
49	0xbced905a	-0.028999496
50	0xbb14849e	-0.0022662054
51	0x3c5a6307	0.013329274
52	0xbc81860f	-0.015810994
53	0x3cadccfa	0.021215905
54	0xbd2eb906	-0.04265692
55	0x3d178a6d	0.036997247
56	0xbd0b666e	-0.03403323
57	0x3c9b8aa9	0.018987017
58	0x3c1f7ac4	0.009733859
59	0x3d4e5da7	0.050382283
60	0x3afbadce	0.0019201578
61	0x3c76e142	0.015068354
62	0x3b45acf0	0.0030162893
63	0x397851c8	0.00023681589
64	0x3d267509	0.040638957
65	0xbc187714	-0.009305734
66	0x3c51a27f	0.01279509
67	0x3d11df89	0.03561357
68	0xbcca116a	-0.024666507
69	0xbd2fb8ae	-0.042900734
70	0x3caa398f	0.0207794
71	0xbc387f4a	-0.011260817
72	0xbc69d9e2	-0.014273139
73	0x3baaa149	0.005207215
74	0xbacf09ff	-0.0015795826
75	0xbd17f391	-0.037097517
76	0xbbca84a0	-0.006180361
77	0xbc95a46d	-0.01826688
78	0xbd9ee23f	-0.07757997
79	0xbd534232	-0.0515768
80	0x3cbbd1af	0.022927133
81	0xbc8a9de5	-0.016920993
82	0xbd10aab1	-0.035319034
83	0x3b89c183	0.0042039766
84	0x3caf11cf	0.021370796
85	0x3c2f405d	0.010696498
86	0xbd423649	-0.04741505
87	0x3c3fbc33	0.011702585
88	0xbd89e688	-0.067334235
89	0x3c10fe44	0.008849684
90	0x3cfafbf7	0.030637724
91	0x3c8eb3c3	0.017419701
92	0xbbfbeb71	-0.007687979
93	0x3c142574	0.009042133
94	0x3d81c555	0.06336466
95	0xbd5ecf03	-0.05439664
96	0x3ccfe712	0.025378738
97	0xbbc4aea9	-0.0060022664
98	0x3cd9d7d7	0.026592178
99	0x3d0763f1	0.033054296
100	0xbcb6d191	-0.022316726
101	0x3bf2286a	0.0073900716
102	0x3cf5a86a	0.029987533
103	0xbd5dfe6a	-0.054197706
104	0x3c9108b7	0.01770435
105	0xbb98480a	-0.0046472596
106	0xbbd10bb5	-0.0063795694
107	0xbb809aca	-0.0039247023
108	0x3b1feadc	0.0024401462
109	0xbc40fd08	-0.011779077
110	0x3c826f14	0.015922107
111	0x3c1ac16d	0.00944553
112	0x3d2e9642	0.042623766
113	0xbc19b4c0	-0.009381473
114	0xbd4acb83	-0.04951049
115	0xbb01bad2	-0.0019795191
116	0x3bc68550	0.0060583726
117	0xbcccdc43	-0.025007373
118	0x3d18b03e	0.037277453
119	0xbc79af26	-0.015239513
120	0x3c8c2f7d	0.017112488
121	0x3ba00d67	0.00488441
122	0xbd1aa2b4	-0.037752822
123	0xbd20c8ac	-0.039253876
124	0x3d4ba4ef	0.04971784
125	0x3d7dc861	0.061958674
126	0x3d3bea5a	0.045877792
127	0xbc78e914	-0.015192289
128	0xbbd53ec5	-0.006507727
129	0xbcbaa964	-0.02278585
130	0xbcd32fa4	-0.025779553
131	0x3cf9a46b	0.030473908
132	0xbcbf889e	-0.023380574
133	0xbd0c12f5	-0.034197766
134	0xbc4f2ab8	-0.012644462
135	0x3b7add2d	0.0038278804
136	0xbd0ed380	-0.03486967
137	0x3cbb782c	0.02288445
138	0xbc0b5d00	-0.00850606
139	0x3cd8e995	0.026478568
140	0xbcbf75d7	-0.02337162
141	0xb98822c8	-0.00025965855
142	0xbda34825	-0.07972745
143	0xbc26f871	-0.010191069
144	0x3d1ed399	0.038776014
145	0x3b56b641	0.003276244
146	0xbcc8e689	-0.02452399
147	0xbc315aa0	-0.010824829
148	0xbcc8cc18	-0.024511382
149	0xbcb814b9	-0.022470819
150	0x3ccefdad	0.025267446
151	0xbb7a324f	-0.003817696
152	0x3b935b74	0.004496986
153	0x3b1353eb	0.002248044
154	0xbd45bc25	-0.04827513
155	0x3cde0387	0.027101291
156	0xbd60a09a	-0.05484066
157	0xbca3a219	-0.019974755
158	0x3b8d2bcb	0.004308199
159	0xba324a7b	-0.00068012596
160	0x3b834410	0.0040059164
161	0xbbe6764e	-0.007033146
162	0x3d5dcac1	0.05414844
163	0xbdb307b3	-0.08741703
164	0x3d1f1e8c	0.03884749
165	0xbc430766	-0.011903619
166	0x3a0677c4	0.0005129541
167	0xbd9da817	-0.07698076
168	0xbcff36d6	-0.031154078
169	0xbc1f398d	-0.009718311
170	0xbc073c87	-0.008254177
171	0xbce0cc76	-0.027441245
172	0x3d555a11	0.052087847
173	0x3ca6dd76	0.020369273
174	0xbb7ea120	-0.0038853362
175	0xbccf18e6	-0.025280427
176	0xbca9608c	-0.02067592
177	0xbbbc390b	-0.0057441047
178	0x3cb76f51	0.022391947
179	0xbd8192be	-0.06326817
180	0xbc9a6a43	-0.018849498
181	0xbd158f47	-0.036513593
182	0xbd5ece29	-0.05439583
183	0xbc164c4e	-0.009173466
184	0xbb863c0d	-0.004096514
185	0xbc6ed55a	-0.014577234
186	0x3b3b4300	0.002857387
187	0x3d98d0a5	0.07461671
188	0x3d03eb8d	0.03220706
189	0x3d3f4b8b	0.046702903
190	0x3b2ba619	0.0026191531
191	0x3cb3e96e	0.021961894
192	0x3bdeb20c	0.006796127
193	0xbd0477ba	-0.032340743
194	0xbd05419c	-0.032533273
195	0xba1bc6a7	-0.0005942382
196	0xbc93f870	-0.0180628
197	0x3cb0bbc5	0.02157391
198	0x3cdfd569	0.027323442
199	0x3bcc3d05	0.00623286
200	0xbce71ace	-0.028211024
201	0x3c75347e	0.014966128
202	0xbd1202cb	-0.035647195
203	0xbc885421	-0.016641678
204	0xbd4119ad	-0.047143627
205	0x3b46db83	0.0030343242
206	0x3c96edec	0.018423997
207	0xbb503827	-0.003177175
208	0x3b743fdf	0.0037269515
209	0xbc1c6677	-0.009545914
210	0x3c875cbc	0.016523711
211	0xbc7f0837	-0.015565923
212	0xbd21c67d	-0.039495934
213	0x3b0965bc	0.002096518
214	0x3ced56c8	0.028972045
215	0xbd1f2a2d	-0.03885858
216	0xbc07ddaa	-0.008292595
217	0xbd8e8dcf	-0.069606416
218	0xbcb3521d	-0.02188974
219	0x3cbb7d11	0.022886785
220	0x3bbfee5b	0.0058572716
221	0x3b8cc0d7	0.0042954492
222	0x3d0d6bd2	0.034526654
223	0xbca32ca2	-0.019918744
224	0x3c1dafce	0.009624435
225	0xbd189e57	-0.03726038
226	0x3cfb6eea	0.030692536
227	0x3c3841e6	0.01124618
228	0xbb8c237f	-0.0042766924
229	0x3c161c6c	0.00916205
230	0x3cd1cd92	0.025610719
231	0x3c95a184	0.018265493
232	0x3cc73db2	0.02432141
233	0x3c3bc341	0.011460126
234	0x3d2dd9e4	0.042444125
235	0xbc27d59a	-0.010243798
236	0x3d15e221	0.036592606
237	0xbc086d6a	-0.008326868
238	0x3c65f3b0	0.01403515
239	0x3ca84359	0.020539926
240	0x3c1f3dcd	0.009719324
241	0x3c26c4e7	0.010178781
242	0x3b61581c	0.0034384793
243	0x3ce0deab	0.027449926
244	0xbc272c34	-0.01020341
245	0xbd05bc9a	-0.032650568
246	0xbcfe23cb	-0.031022927
247	0xbac3e0a4	-0.0014944267
248	0x3cc00ca6	0.023443531
249	0x3d0baaeb	0.034098547
250	0xbd664ed4	-0.05622752
251	0xbc2f8fb4	-0.010715414
252	0x3cf71e14	0.03016571
253	0xbcc0b19c	-0.02352219
254	0x3c22d666	0.009938812
255	0xbc8a47f6	-0.016880017

network_body._body_endoder.seq_layers.2.bias f4 [128]
0	0x00000000	0.0
1	0x00000000	0.0
2	0x00000000	0.0
3	0x00000000	0.0
4	0x00000000	0.0
5	0x00000000	0.0
6	0x00000000	0.0
7	0x00000000	0.0
8	0x00000000	0.0
9	0x00000000	0.0
10	0x00000000	0.0
11	0x00000000	0.0
12	0x00000000	0.0
13	0x00000000	0.0
14	0x00000000	0.0
15	0x00000000	0.0
16	0x00000000	0.0
17	0x00000000	0.0
18	0x00000000	0.0
19	0x00000000	0.0
20	0x00000000	0.0
21	0x00000000	0.0
22	0x00000000	0.0
23	0x00000000	0.0
24	0x00000000	0.0
25	0x00000000	0.0
26	0x00000000	0.0
27	0x00000000	0.0
28	0x00000000	0.0
29	0x00000000	0.0
30	0x00000000	0.0
31	0x00000000	0.0
32	0x00000000	0.0
33	0x00000000	0.0
34	0x00000000	0.0
35	0x00000000	0.0
36	0x00000000	0.0
37	0x00000000	0.0
38	0x00000000	0.0
39	0x00000000	0.0
40	0x00000000	0.0
41	0x00000000	0.0
42	0x00000000	0.0
43	0x00000000	0.0
44	0x00000000	0.0
45	0x00000000	0.0
46	0x00000000	0.0
47	0x00000000	0.0
48	0x00000000	0.0
49	0x00000000	0.0
50	0x00000000	0.0
51	0x00000000	0.0
52	0x00000000	0.0
53	0x00000000	0.0
54	0x00000000	0.0
55	0x00000000	0.0
56	0x00000000	0.0
57	0x00000000	0.0
58	0x00000000	0.0
59	0x00000000	0.0
60	0x00000000	0.0
61	0x00000000	0.0
62	0x00000000	0.0
63	0x00000000	0.0
64	0x00000000	0.0
65	0x00000000	0.0
66	0x00000000	0.0
67	0x00000000	0.0
68	0x00000000	0.0
69	0x00000000	0.0
70	0x00000000	0.0
71	0x00000000	0.0
72	0x00000000	0.0
73	0x00000000	0.0
74	0x00000000	0.0
75	0x00000000	0.0
76	0x00000000	0.0
77	0x00000000	0.0
78	0x00000000	0.0
79	0x00000000	0.0
80	0x00000000	0.0
81	0x00000000	0.0
82	0x00000000	0.0
83	0x00000000	0.0
84	0x00000000	0.0
85	0x00000000	0.0
86	0x00000000	0.0
87	0x00000000	0.0
88	0x00000000	0.0
89	0x00000000	0.0
90	0x00000000	0.0
91	0x00000000	0.0
92	0x00000000	0.0
93	0x00000000	0.0
94	0x00000000	0.0
95	0x00000000	0.0
96	0x00000000	0.0
97	0x00000000	0.0
98	0x00000000	0.0
99	0x00000000	0.0
100	0x00000000	0.0
101	0x00000000	0.0
102	0x00000000	0.0
103	0x00000000	0.0
104	0x00000000	0.0
105	0x00000000	0.0
106	0x00000000	0.0
107	0x00000000	0.0
108	0x00000000	0.0
109	0x00000000	0.0
110	0x00000000	0.0
111	0x00000000	0.0
112	0x00000000	0.0
113	0x00000000	0.0
114	0x00000000	0.0
115	0x00000000	0.0
116	0x00000000	0.0
117	0x00000000	0.0
118	0x00000000	0.0
119	0x00000000	0.0
120	0x00000000	0.0
121	0x00000000	0.0
122	0x00000000	0.0
123	0x00000000	0.0
124	0x00000000	0.0
125	0x00000000	0.0
126	0x00000000	0.0
127	0x00000000	0.0

network_body._body_endoder.seq_layers.2.weight f4 [128, 128]
0	0xbe040fe5	-0.12896688
1	0xbe1329b4	-0.14371377
2	0x3e38f8e3	0.18063693
3	0xbe03fb1d	-0.12888761
4	0x3dcbe6e2	0.09956147
5	0x3cea6b81	0.028615715
6	0xbd753ef3	-0.059874486
7	0x3da50def	0.08059298
8	0xbe0cb71e	-0.13741729
9	0xbcc7b03c	-0.024376027
10	0xbd027add	-0.031855453
11	0x3d3f6e00	0.046735764
12	0x3b13d6a1	0.0022558349
13	0xbdf5f647	-0.12009864
14	0xbd68e84c	-0.05686216
15	0x3e0f3763	0.13985972
16	0xbd864e9d	-0.06557963
17	0xbc0c3937	-0.008558563
18	0x3c9521f7	0.018204672
19	0x3dd5c619	0.10438175
20	0x3dbdf361	0.092749365
21	0x3dc710ac	0.09719977
22	0xbd9e3017	-0.07724016
23	0xbd9039ee	-0.07042299
24	0x3d09e636	0.033666812
25	0xbd8c6439	-0.068550535
26	0x3d00e67a	0.0314698
27	0xbd01544b	-0.03157453
28	0xbe270610	-0.16310906
29	0x3da57e32	0.080807105
30	0xbc59d127	-0.013294495
31	0xbc99fac8	-0.01879634
32	0xbcbb5ff2	-0.022872899
33	0x3ce88207	0.028382314
34	0x3cc21ac2	0.0236944
35	0xbde0a8b2	-0.10969676
36	0xbd37155a	-0.044698097
37	0x3d53d735	0.05171891
38	0x3cc13b7e	0.023587938
39	0xbd448af5	-0.047984082
40	0xbd17d3f3	-0.037067365
41	0x3db548c1	0.08851767
42	0xbd187380	-0.037219524
43	0x3d114a0f	0.03547102
44	0xbd12da44	-0.035852686
45	0x3c768999	0.015047454
46	0xbd31470b	-0.043280642
47	0xbac1e73d	-0.0014793646
48	0x3c33bff7	0.010971061
49	0x3e2c1577	0.16805063
50	0x3d0d4095	0.03448542
51	0x3d055a3e	0.032556765
52	0xbdb49612	-0.08817686
53	0xbcf0c7c6	-0.029392134
54	0x3c2ccb15	0.010546465
55	0x3cd81a3d	0.026379699
56	0x3d650509	0.055913005
57	0x3d400c63	0.046886813
58	0x3db7b1ee	0.08969484
59	0x375fad39	1.3332167e-05
60	0xbdef1bc2	-0.11675216
61	0xbd5e1217	-0.05421647
62	0x3beab29e	0.007162406
63	0x3da77822	0.081772104
64	0xbd6220af	-0.05520695
65	0x3de66a4a	0.11250742
66	0xbc84515a	-0.016152073
67	0x3defb1e3	0.11703851
68	0xbd28454c	-0.04108171
69	0xbe5caf7c	-0.21551317
70	0xbba836d4	-0.005133489
71	0x3a9cf60f	0.0011975187
72	0xbd91fb66	-0.071280286
73	0xbdc844d1	-0.09778751
74	0xbe0f59ee	-0.13999149
75	0xbdd999ca	-0.10625036
76	0xbd921c4a	-0.07134302
77	0xbda41508	-0.08011824
78	0xbdd329c5	-0.10310701
79	0xbd177ccc	-0.03698425
80	0xbdcebde7	-0.10094815
81	0x3ca61c04	0.02027703
82	0xbd8dbc1b	-0.06920644
83	0x3e36197d	0.1778316
84	0xbd0c6cb3	-0.03428335
85	0xbad3ccd5	-0.0016159067
86	0xbd20fb5e	-0.039302222
87	0x3e05abb7	0.13053785
88	0x3db66314	0.089056164
89	0xbc43c726	-0.011949336
90	0x3d3982ba	0.045290686
91	0xbe424c1e	-0.18974349
92	0xbdccba9b	-0.0999653
93	0xbceb9e1a	-0.028761912
94	0x3dd985d0	0.10621226
95	0x3e56ca53	0.20975618
96	0x3d1b847e	0.03796815
97	0xbdc33b64	-0.09532812
98	0x3b6083ac	0.003425817
99	0x3ad57c95	0.0016287739
100	0x3c84f2f9	0.01622914
101	0xbd0a985f	-0.03383672
102	0x3d90f544	0.07078031
103	0xbdf707d0	-0.12062037
104	0xbd3c6487	-0.045994308
105	0x3c58828b	0.013214718
106	0xbd6b6e8e	-0.05747848
107	0x3dccc8f5	0.09999267
108	0xbc17feeb	-0.009277086
109	0x3d1803df	0.037113067
110	0x3d04c3bf	0.03241324
111	0xbcdc253a	-0.02687322
112	0x3dc49223	0.09598186
113	0xbbe93c5c	-0.007117791
114	0xbc5ddd08	-0.0135414675
115	0x3e106bde	0.14103648
116	0x3d159591	0.03651959
117	0x3d5ca702	0.05387021
118	0x3e5467c2	0.20742705
119	0x3d891807	0.06694036
120	0x3ce6e703	0.028186327
121	0x3e0dd0f0	0.13849235
122	0x3d846465	0.06464461
123	0x3cee032b	0.029054245
124	0xbe374a19	-0.1789936
125	0xbd5222e9	-0.051302824
126	0x3e22ef0a	0.15911499
127	0xbde046a4	-0.10950974
128	0xbd417225	-0.047227997
129	0xbd2d04b4	-0.042240813
130	0x3d9bcc89	0.07607371
131	0xbd10dd6d	-0.035367418
132	0xbcfd4e1e	-0.030921038
133	0x3d9387fa	0.0720367
134	0x3d05a0bb	0.032623988
135	0x3d849b5e	0.064749464
136	0x3d080085	0.03320362
137	0xbb9dbbc4	-0.004813643
138	0xbcdd4d75	-0.027014473
139	0xbd713501	-0.05888844
140	0x3e0d7cdd	0.13817163
141	0x3da03adc	0.078237265
142	0x3e0a5c45	0.1351176
143	0xbcec5f6d	-0.028854096
144	0xbcc3178b	-0.023814937
145	0xbd79cde4	-0.06098737
146	0x3c7a4cb1	0.015277074
147	0x3d60c774	0.054877713
148	0xbcd3e874	-0.025867678
149	0xbb0e30c0	-0.0021696538
150	0xbe0463ad	-0.12928648
151	0x3d5b81dd	0.053590644
152	0xbdd20654	-0.10255113
153	0xbe3b0271	-0.1826265
154	0x3d569d6f	0.052396234
155	0x3d51e797	0.051246252
156	0x3db1b8e1	0.08677841
157	0xbc9160aa	-0.017746288
158	0xbe055a44	-0.13022715
159	0xbc3c7159	-0.011501634
160	0xbe027975	-0.12741645
161	0x3d628ec1	0.055311922
162	0xbce46755	-0.027881304
163	0x3da2e767	0.07954293
164	0xbdbf8f8b	-0.093535505
165	0xbd9ea368	-0.07746011
166	0x3d381835	0.04494496
167	0xbddbe3b4	-0.1073679
168	0x3d2c731d	0.042101968
169	0x3e269956	0.1626943
170	0xbd141f93	-0.036162924
171	0x39ac7dfa	0.00032900256
172	0xbd82d808	-0.06388861
173	0xbdf6adf3	-0.12044897
174	0x3db81e81	0.08990193
175	0xbdb4005c	-0.08789131
176	0xbe5a76dd	-0.21334405
177	0x3e86c4e6	0.26322097
178	0x3d2807c1	0.04102302
179	0xbd90be0e	-0.070675
180	0x3dd83a9e	0.10558055
181	0xbd2a0407	-0.041507747
182	0x3d5084e3	0.05090798
183	0xbd4540e0	-0.048157573
184	0xbcd603d3	-0.02612487
185	0xbd5250b6	-0.051346503
186	0xbdec519e	-0.11539005
187	0x3d646a9f	0.055765744
188	0x3d028227	0.031862404
189	0x3dc5ef33	0.09664764
190	0xbca1d243	-0.01975358
191	0x3d84dbde	0.06487249
192	0xbddd83c8	-0.10816151
193	0xbc538e60	-0.012912363
194	0xbbaecef2	-0.0053347284
195	0xbcaeb500	-0.021326542
196	0xbc26abb6	-0.010172775
197	0xbe45af7e	-0.19305226
198	0x3da14ae5	0.07875613
199	0xbdbd7fc4	-0.09252885
200	0xbb4c6637	-0.0031188854
201	0x3d2586f6	0.040411912
202	0x3d8bd220	0.068271875
203	0xbd0e7938	-0.034783572
204	0x3b3be54b	0.0028670605
205	0x3d90c3df	0.070686094
206	0x3c8e9804	0.017406471
207	0xbd86163e	-0.06547211
208	0x3e16d8c6	0.1473113
209	0x3dbb8b40	0.09157419
210	0x3c9cfd86	0.019163858
211	0xbcb28b56	-0.021794956
212	0xbd6fd73f	-0.058554884
213	0xbe7b7ffe	-0.24560544
214	0xbe1002ff	-0.14063643
215	0xbd8535ee	-0.06504427
216	0x3a707ce1	0.0009173882
217	0x3d12c9e1	0.035837058
218	0xbd8ce239	-0.06879086
219	0x3c9e2bf5	0.01930807
220	0x3e1574e1	0.14595367
221	0x3c3f9a02	0.011694433
222	0x3d74acd7	0.059735145
223	0xbc7894c9	-0.015172192
224	0x3dbe2d5d	0.09285996
225	0x3d451663	0.048117053
226	0x3d0f2f87	0.034957435
227	0xbc78bdec	-0.015182
228	0x3d835372	0.064124
229	0xbdff5678	-0.124676645
230	0x3ddfc0d6	0.109254524
231	0xbe1a257b	-0.1505336
232	0xbe26ba26	-0.16281947
233	0x3d03e6a6	0.032202385
234	0xbd3587c6	-0.044318937
235	0x3df48fd6	0.11941497
236	0xbd6d8d2c	-0.05799596
237	0xbd7357d6	-0.05940994
238	0xbd9e1d6f	-0.07720458
239	0xbd4696e5	-0.048483748
240	0x3c527dc9	0.012847372
241	0xbdc7d2a8	-0.09756976
242	0x3c87f3cc	0.016595744
243	0xbcf0850e	-0.02936032
244	0xbceb459f	-0.028719721
245	0x3d7fa651	0.06241447
246	0x3d83ad76	0.064295694
247	0x3d992dff	0.07479476
248	0xbe0eb814	-0.13937408
249	0x3d69be82	0.057066448
250	0x3de61b35	0.11235658
251	0x3b0d636a	0.0021574148
252	0xbe065117	-0.13116871
253	0x3cafa217	0.021439595
254	0xbd824c1b	-0.06362172
255	0x3dc1d5ad	0.094645835
