results/ppo/MoveToBet/MoveToBet-5646.onnx (onnx, 636216 bytes, 9 tensors)

action_model._continuous_distribution.log_sigma f4 [1, 2]
0.0 0.0
00000000: 0000 0000 0000 0000

action_model._continuous_distribution.mu.bias f4 [2]
0.0 0.0
00000000: 0000 0000 0000 0000

action_model._continuous_distribution.mu.weight f4 [2, 128]
0.017507024 -0.034784663 0.01745942 -0.012794303 -0.010405119 0.028248644 0.037802562 -0.003550003
-0.0056040976 -0.005503565 -0.011398732 -0.050181538 -0.028479928 -0.026584128 -0.022977185 -0.026050953
-0.01150708 -0.02041389 -0.0024108968 0.012399854 0.023826502 0.02941062 -0.021597141 0.0013265993
-0.014878007 -0.004948304 0.0049111615 -0.00110592 0.013749613 -0.012145013 0.029379502 -0.0187622
-0.02312638 0.0054001925 0.005679959 0.011910398 -0.00329339 0.018836282 -0.0006078899 0.02464851
0.027866602 0.0039354158 0.030722642 0.02055828 -0.0134940585 0.013695158 0.0013674198 0.0088361595
-0.011406887 -0.009436063 0.006821528 -0.0005285628 0.012329201 0.0052715037 -0.008546858 -0.0099330265
-0.022440193 0.017613772 0.017880833 0.023737118 0.031172523 -0.007155359 -0.001888742 -0.00081378996
-0.004067756 -0.048466884 -0.003440401 0.0062492634 -0.013831913 0.0021714687 0.012238667 -0.011439068
0.002734157 -0.0041736974 0.02168624 -0.0043445807 -0.0054104943 -0.007005341 0.020272968 0.02785093
-0.010368821 0.004210539 0.003094923 -0.02148333 -0.061279934 -0.013919619 -0.003561221 -0.0050935387
0.028672267 0.0012305413 -0.009465854 0.0030793052 -0.016615042 -0.012829157 0.0187301 -0.02503924
-0.003927515 0.005920788 -0.0037040112 0.015706098 0.0054806746 -0.0126725305 0.0045318953 -0.00070788624
-0.023801543 -0.0073441095 -0.014486382 0.0151800085 0.0039921287 -0.040613737 0.027971104 -0.023436656
0.031036103 -0.0042812475 0.006647645 0.0063351444 -0.022534814 -0.01358213 0.030058369 -0.006391888
0.0033568193 0.025984932 0.010258823 0.010797795 -0.0010611352 0.014984131 -0.0055281487 0.0075530447
0.028192976 0.027624786 0.027348964 0.021718623 0.01576427 -0.021395778 0.012253101 0.01654133
0.008039753 0.010969527 -0.015007759 -0.0091299685 -0.00035565588 0.020046122 -0.033583146 -0.02474678
0.011618761 0.0002447567 -0.024239955 -0.004813253 -2.4578441e-05 -0.0033309024 -0.028028904 0.015064902
0.009196156 0.015174805 -0.022963598 -0.007939606 0.017257456 -0.018299136 -2.779973e-05 -0.021980608
-0.024447095 -0.011671988 0.034455754 -0.0021275426 0.025086388 -0.018020146 0.008338516 -0.007502202
-0.02593034 -0.010257364 -0.019990897 -0.020460643 0.0045808256 0.011540643 -0.0130254915 0.012420744
-0.02881879 0.0062912367 0.013023927 0.010213171 0.0016048243 0.03623454 0.016035723 -0.005010964
0.0018310882 -0.0033765086 0.020439414 0.03761102 -0.017309453 -0.017520059 -0.011539272 0.019374568
0.0030082925 -0.012177884 0.00062641 0.00904852 0.026817694 0.0070945807 0.030575082 0.018513497
-0.03322587 0.022080818 0.007132847 0.023860931 0.0010472372 0.0017194288 0.00667231 -0.017210532
-0.028217217 0.0040309704 -0.031317916 0.023409188 0.0015404595 0.006177659 0.008999775 0.013432443
-0.028294194 -0.013445707 -0.0024783302 0.0054431404 -0.011928852 -0.0008730813 0.021159453 0.0100635085
-0.016111512 0.06096183 -0.00727897 0.002548823 0.030222064 0.001863665 0.021784162 0.029091759
-0.0061630295 0.0031847612 0.0073127723 -0.025899637 0.009110483 -0.0068507246 -0.002643252 -0.00021060075
-0.00026395347 0.015623435 -0.050118316 0.010420936 0.010345871 0.017625883 -0.012228946 -0.027049338
-0.022190668 -0.012221312 -0.0062667453 -0.02715902 0.0047821617 -0.026826365 -0.012239375 0.020110076
00000000: e46a 8f3c 5d7a 0ebd 0f07 8f3c 329f 51bc
00000010: 3b7a 2abc b369 e73c dcd6 1a3d 2ba7 68bb
00000020: 94a2 b7bb 4057 b4bb bfc1 3abc 288b 4dbd
00000030: bd4e e9bc f5c6 d9bc a63a bcbc cf68 d5bc
00000040: 3188 3cbc 083b a7bc 2300 1ebb c228 4b3c
00000050: cc2f c33c 8aee f03c 7dec b0bc 49e1 ad3a
00000060: e2c2 73bc 6225 a2bb cfed a03b 84f4 90ba
00000070: 0f46 613c e0fb 46bc 48ad f03c 2fb3 99bc
00000080: 8973 bdbc 19f4 b03b f31e ba3b d423 433c
00000090: ead5 57bb 8c4e 9a3c cd5a 1fba aceb c93c
000000a0: 8048 e43c a9f4 803b 0dae fb3c d769 a83c
000000b0: 2f16 5dbc a861 603c ff3a b33a 8ac5 103c
000000c0: f4e3 3abc b799 1abc 2087 df3b 408f 0aba
000000d0: 6b00 4a3c 94bc ac3b 1f08 0cbc 22be 22bc
000000e0: 7fd4 b7bc c24a 903c d37a 923c 5874 c23c
000000f0: 855d ff3c 8077 eabb aa8f f7ba 8554 55ba
00000100: cf4a 85bb 3685 46bd 5a78 61bb 9fc6 cc3b
00000110: 3f9f 62bc 334f 0e3b b184 483c ee6a 3bbc
00000120: 8b2f 333b 83c3 88bb 57a7 b13c fc5c 8ebb
00000130: 844a b1bb 0f8d e5bb 7f13 a63c a227 e43c
00000140: fde1 29bc 90f8 893b 31d4 4a3b cffd afbc
00000150: ab00 7bbd 1d0f 64bc 6063 69bb b3e7 a6bb
00000160: 1ae2 ea3c 1d4a a13a ab16 1bbc 2bce 493b
00000170: 451c 88bc 6231 52bc de6f 993c 181f cdbc
00000180: 62b2 80bb 2b03 c23b ffbe 72bb 13aa 803c
00000190: 3b97 b33b 72a0 4fbc 4b80 943b 7191 39ba
000001a0: 74fb c2bc dba6 f0bb 4a58 6dbc 92b5 783c
000001b0: 67d0 823b 975a 26bd a823 e53c 3bfe bfbc
000001c0: 6d3f fe3c b549 8cbb 7dd4 d93b 0b97 cf3b
000001d0: ee9a b8bc 9587 5ebc f83c f63c 0b73 d1bb
000001e0: 15fe 5b3b 5ade d43c 9f14 283c 3ce9 303c
000001f0: ca15 8bba 0080 753c 7925 b5bb 887f f73b
00000200: f5f4 e63c 604d e23c ef0a e03c 41eb b13c
00000210: 1224 813c 3346 afbc 3bc1 483c af81 873c
00000220: 2bb9 033c 88b9 333c 1be3 75bc dd95 15bc
00000230: 5377 bab9 c437 a43c 7b8e 09bd c2b9 cabc
00000240: 9e5c 3e3c b052 8039 df92 c6bc 7eb8 9dbb
00000250: cd2d ceb7 454b 5abb df9c e5bc c7d2 763c
00000260: 79ab 163c bf9f 783c 281e bcbc 1f15 02bc
00000270: 825f 8d3c 12e8 95bc 7733 e9b7 ad10 b4bc
00000280: 4645 c8bc de3b 3fbc 7a21 0d3d 3e6e 0bbb
00000290: f881 cd3c fc9e 93bc 459e 083c 08d5 f5bb
000002a0: dd6b d4bc 810e 28bc f3c3 a3bc 149d a7bc
000002b0: c01a 963b f714 3d3c df68 55bc 6080 4b3c
000002c0: 6215 ecbc b826 ce3b 4f62 553c 2555 273c
000002d0: f858 d23a ab6a 143d 595d 833c 0333 a4bb
000002e0: 2001 f03a 6a48 5dbb 8f70 a73c 030e 1a3d
000002f0: 8ecc 8dbc 3a86 8fbc 370f 3dbc 6ab7 9e3c
00000300: c626 453b bf85 47bc aa35 243a 3e40 143c
00000310: c8b0 db3c a879 e83b 9878 fa3c 9ea9 973c
00000320: da17 08bd d5e2 b43c a8ba e93b 0078 c33c
00000330: 7343 893a 755e e13a 65a3 da3b 1afd 8cbc
00000340: cb27 e7bc 3b16 843b 3747 00bd a0c4 bf3c
00000350: 3ee9 c93a f66d ca3b cb73 133c c013 5c3c
00000360: 3ac9 e7bc 624b 5cbc 7b6b 22bb 5f5c b23b
00000370: 3b71 43bc 7fdf 64ba 9756 ad3c 6ae1 243c
00000380: 4afc 83bc 1db3 793d 6d84 eebb 270a 273b
00000390: 4394 f73c 3846 f43a b374 b23c d751 ee3c
000003a0: 3df3 c9bb 6db7 503b fb9f ef3b 7a2b d4bc
000003b0: 2344 153c 0b7c e0bb 693a 2dbb b5d4 5cb9
000003c0: 3c63 8ab9 70f9 7f3c dd48 4dbd 93bc 2a3c
000003d0: ba81 293c 2864 903c eb5b 48bc 9396 ddbc
000003e0: 34c9 b5bc e63b 48bc 4559 cdbb 987c debc
000003f0: aeb3 9c3b f7c2 dbbc a987 48bc e3bd a43c

action_model._discrete_distribution.branches.0.bias f4 [5]
0.0 0.0 0.0 0.0 0.0
00000000: 0000 0000 0000 0000 0000 0000 0000 0000
00000010: 0000 0000

action_model._discrete_distribution.branches.0.weight f4 [5, 128]
0.0043502795 -0.0019983354 -0.0047139563 -0.015637398 -0.0033302424 -0.008911062 -0.013055751 -0.0005738093
-0.0062448643 0.009465428 0.009160749 -0.0011046894 -0.002141754 0.0032308442 -0.0082195755 -0.01167748
0.0002724468 0.0014895642 0.012779382 0.006986884 0.00080798677 0.022631893 0.012824485 0.011038004
-0.011988937 -0.0046399306 -0.0046766223 -0.0058241407 -0.0077947425 -0.00047383443 0.007457883 -0.015169272
0.0017325061 0.006296867 -0.0070505687 -0.0006095177 -0.011377145 0.007145025 0.0030879236 -0.014390843
-0.010794953 0.011060914 -3.1992407e-05 0.007620651 -0.0071702837 0.008714746 -0.01224868 0.0037607977
-0.00037580356 -0.010361416 0.0072105615 -0.015353726 0.009612554 -0.0066825943 0.008681542 -0.015492626
-0.0042023063 0.006668493 -0.013839982 0.00609629 -0.004090667 -0.0009226949 -0.004106024 -0.0049606287
0.0007920853 0.0012807747 0.0050528743 0.009546174 -0.0031484205 0.0055389674 0.0011542306 0.015462251
-0.017064514 -0.010247495 0.008289178 0.010015896 0.0085752895 -0.0039860583 -0.00013882418 0.007956771
-0.012428655 -0.0010423869 -0.017521419 -0.015252488 0.0014964071 0.0051904945 0.0062908307 -0.009419243
0.018448668 0.008802641 0.011699843 -0.0007367235 0.013504572 -0.024721215 0.0018242914 0.0013023638
-0.0114224935 -0.0030371298 0.001194296 0.008964994 -0.0028646807 -0.0059620435 0.015524496 -0.011639865
-0.0035713941 0.0069504515 0.0021290476 -0.015112854 0.00083425286 0.008612057 0.00012831533 -0.0026680217
-0.0026533136 0.0001554621 -0.012990859 0.010154128 -0.01645032 -0.005173459 0.0075830505 -0.013257136
0.0050614113 -0.005627051 0.0033768152 -0.0043249363 0.0041801166 -0.005725049 0.011792379 -0.018395728
0.008419822 0.014179661 -0.0063406765 0.0032329932 -0.0025902048 -0.006651487 0.010616706 -0.002662548
-0.009208116 -0.00795384 -0.0043974905 0.00068975 0.016853249 2.3484623e-05 0.019644724 0.009787957
0.013696167 0.0039453446 0.010942838 -0.014923522 -0.0059572584 0.0015613874 -0.00088340085 -0.004191885
0.002520296 0.014313388 -0.012817405 0.0077343895 -0.0001464763 -0.009364216 0.00026890234 -0.002664772
-0.002720645 0.006221748 -0.0119760195 -0.006078804 0.008499525 -0.0044541145 -0.013860069 0.00438705
0.01401497 0.005001733 -0.009607184 0.00494975 0.005678049 -0.0019871916 0.0042117904 0.008688539
0.0030386616 0.0057007014 0.0072519453 -0.00373674 -0.0032610816 -0.012448681 0.0086040655 0.0054538115
0.009430107 -0.009624227 -0.0033126918 -0.0015428938 0.0009358531 0.0053164116 0.0022727214 -0.0047228895
-0.018136594 0.014711498 0.018470224 0.0008810912 0.0026298885 -0.01042886 -0.0112794265 -0.006906999
0.010183071 -0.0046512866 0.0010522793 0.0023335356 -0.015253122 -0.0022494637 0.0038406686 -0.012562908
-0.009226858 0.005489127 -0.0029179675 -0.010796356 -0.019010043 -0.005432501 -0.0011762017 0.015949583
0.006273392 -0.012478951 -0.012105384 0.0078053414 -0.010508422 -0.013575248 0.0004645284 0.019418154
0.006955976 0.0067585483 -0.0054671713 0.0005324424 -0.0022765663 -0.007460476 -0.00019125371 -0.022316463
-0.002953546 0.011606421 -0.0064091454 0.017428063 0.005835732 0.0035963915 0.009485849 0.0005148674
-0.008101582 -0.005817728 0.009536711 0.009037639 0.008324478 -0.01530536 -0.01423114 -0.011334396
-0.007603907 -0.008447454 0.004566755 -0.0034977582 0.0061164303 -0.009206944 -0.0028913622 0.004961266
00000000: ca8c 8e3b 81f6 02bb 8877 9abb 001a 80bc
00000010: 3240 5abb b4ff 11bc cae7 55bc b16b 16ba
00000020: b8a1 ccbb e214 1b3c f716 163c 3acb 90ba
00000030: ab5c 0cbb 92bc 533b 66ab 06bc e752 3fbc
00000040: 31d7 8e39 7b3d c33a 9d60 513c 3bf2 e43b
00000050: 13cf 533a 8566 b93c ca1d 523c bfd8 343c
00000060: 3f6d 44bc 8f0a 98bb 5a3e 99bb 6fd8 bebb
00000070: 0a6b ffbb fb6c f8b9 4261 f43b 8a88 78bc
00000080: 4215 e33a f355 ce3b 7508 e7bb 0ac8 1fba
00000090: 3467 3abc d020 ea3b c35e 4a3b 92c7 6bbc
000000a0: 51dd 30bc d638 353c 962f 06b8 a7b6 f93b
000000b0: b3f4 eabb 4bc8 0e3c b0ae 48bc b777 763b
000000c0: 8007 c5b9 eec2 29bc 9346 ec3b 328e 7bbc
000000d0: f97d 1d3c aaf9 dabb 073d 0e3c c8d4 7dbc
000000e0: 80b3 89bb 6083 da3b 18c1 62bc 63c3 c73b
000000f0: 000b 86bb 02e1 71ba d38b 86bb c58c a2bb
00000100: f2a3 4f3a abdf a73a 9592 a53b 8e67 1c3c
00000110: bb55 4ebb 3a80 b53b 8d49 973a 6255 7d3c
00000120: e1ca 8bbc 1ce5 27bc 55cf 073c b619 243c
00000130: 5f7f 0c3c 7b9d 82bb 5591 11b9 1e5d 023c
00000140: 8fa1 4bbc b3a0 88ba 1489 8fbc 92e5 79bc
00000150: 1723 c43a 0615 aa3b 5023 ce3b 2b53 1abc
00000160: a921 973c f438 103c b3b0 3f3c ad20 41ba
00000170: 4842 5d3c 2584 cabc 101d ef3a 14b4 aa3a
00000180: 6925 3bbc 950a 47bb ed89 9c3a e9e1 123c
00000190: 5ebd 3bbb 3f5d c3bb 755a 7e3c 22b5 3ebc
000001a0: 0d0e 6abb 9dc0 e33b 7e87 0b3b e79b 77bc
000001b0: c3b1 5a3a 9619 0d3c 628c 0639 fad9 2ebb
000001c0: 37e3 2dbb 8a03 2339 9dd7 54bc 805d 263c
000001d0: d2c2 86bc 1f86 a9bb 3d7b f83b 7534 59bc
000001e0: 32da a53b 2063 b8bb 8f4d 5d3b 32b8 8dbb
000001f0: 5cf9 883b 3199 bbbb d334 413c a3b2 96bc
00000200: 4bf3 093c cf51 683c 73c5 cfbb a0e0 533b
00000210: 6dc0 29bb b8f4 d9bb b1f1 2d3c 257e 2ebb
00000220: a3dd 16bc d350 02bc d318 90bb 57d0 343a
00000230: d30f 8a3c d800 c537 f9ed a03c ab5d 203c
00000240: e365 603c f347 813b 9749 333c ca81 74bc
00000250: 1b35 c3bb 78a7 cc3a 0794 67ba 145c 89bb
00000260: 8d2b 253b b382 6a3c 1800 52bc c370 fd3b
00000270: 6f97 19b9 5e6c 19bc 76fb 8c39 75a3 2ebb
00000280: d94c 32bb cedf cb3b 1137 44bc b430 c7bb
00000290: 9741 0b3c d2f3 91bb 5815 63bc 3ec1 8f3b
000002a0: 0b9f 653c 94e5 a33b 7367 1dbc 8331 a23b
000002b0: ed0e ba3b 8b3b 02bb 0f03 8a3b 605a 0e3c
000002c0: 4824 473b f3cc ba3b baa1 ed3b 18e4 74bb
000002d0: dfb7 55bb 8df5 4bbc 11f8 0c3c e3b5 b23b
000002e0: bc80 1a3c efae 1dbc bf19 59bb ed3a caba
000002f0: 0a54 753a 4b35 ae3b f0f1 143b 78c2 9abb
00000300: 3293 94bc 7f08 713c de4e 973c 08f9 663a
00000310: 355a 2c3b cfdd 2abc 58cd 38bc 1b54 e2bb
00000320: e5d6 263c d269 98bb a2ec 893a 3bee 183b
00000330: 3be8 79bc bd6b 13bb bab3 7b3b a8d4 4dbc
00000340: 3f2c 17bc 22de b33b 5f3b 3fbb 33e3 30bc
00000350: f3ba 9bbc 1f03 b2bb c82a 9aba b3a8 823c
00000360: 0791 cd3b 8474 4cbc a955 46bc f3c3 ff3b
00000370: 842b 2cbc b86a 5ebc f28b f339 d212 9f3c
00000380: f5ee e33b d076 dd3b f525 b3bb 9b93 0b3a
00000390: 7232 15bb 0277 f4bb 478b 48b9 04d1 b6bc
000003a0: 4790 41bb dc28 3e3c cf03 d2bb 4cc5 8e3c
000003b0: ab39 bf3b 70b1 6b3b 896a 1b3c 2bf8 063a
000003c0: 7fbc 04bc a4a2 bebb dd3f 1c3c 9b12 143c
000003d0: 6463 083c 55c3 7abc ba29 69bc e7b3 39bc
000003e0: 322a f9bb 3167 0abc b8a4 953b a53a 65bb
000003f0: 566c c83b b9d8 16bc 027d 3dbb 1e92 a23b

network_body._body_endoder.seq_layers.0.bias f4 [128]
0.0 0.0 0.0 0.0 0.0 0.0 0.0 0.0
0.0 0.0 0.0 0.0 0.0 0.0 0.0 0.0
0.0 0.0 0.0 0.0 0.0 0.0 0.0 0.0
0.0 0.0 0.0 0.0 0.0 0.0 0.0 0.0
0.0 0.0 0.0 0.0 0.0 0.0 0.0 0.0
0.0 0.0 0.0 0.0 0.0 0.0 0.0 0.0
0.0 0.0 0.0 0.0 0.0 0.0 0.0 0.0
0.0 0.0 0.0 0.0 0.0 0.0 0.0 0.0
0.0 0.0 0.0 0.0 0.0 0.0 0.0 0.0
0.0 0.0 0.0 0.0 0.0 0.0 0.0 0.0
0.0 0.0 0.0 0.0 0.0 0.0 0.0 0.0
0.0 0.0 0.0 0.0 0.0 0.0 0.0 0.0
0.0 0.0 0.0 0.0 0.0 0.0 0.0 0.0
0.0 0.0 0.0 0.0 0.0 0.0 0.0 0.0
0.0 0.0 0.0 0.0 0.0 0.0 0.0 0.0
0.0 0.0 0.0 0.0 0.0 0.0 0.0 0.0
00000000: 0000 0000 0000 0000 0000 0000 0000 0000
00000010: 0000 0000 0000 0000 0000 0000 0000 0000
00000020: 0000 0000 0000 0000 0000 0000 0000 0000
00000030: 0000 0000 0000 0000 0000 0000 0000 0000
00000040: 0000 0000 0000 0000 0000 0000 0000 0000
00000050: 0000 0000 0000 0000 0000 0000 0000 0000
00000060: 0000 0000 0000 0000 0000 0000 0000 0000
00000070: 0000 0000 0000 0000 0000 0000 0000 0000
00000080: 0000 0000 0000 0000 0000 0000 0000 0000
00000090: 0000 0000 0000 0000 0000 0000 0000 0000
000000a0: 0000 0000 0000 0000 0000 0000 0000 0000
000000b0: 0000 0000 0000 0000 0000 0000 0000 0000
000000c0: 0000 0000 0000 0000 0000 0000 0000 0000
000000d0: 0000 0000 0000 0000 0000 0000 0000 0000
000000e0: 0000 0000 0000 0000 0000 0000 0000 0000
000000f0: 0000 0000 0000 0000 0000 0000 0000 0000
00000100: 0000 0000 0000 0000 0000 0000 0000 0000
00000110: 0000 0000 0000 0000 0000 0000 0000 0000
00000120: 0000 0000 0000 0000 0000 0000 0000 0000
00000130: 0000 0000 0000 0000 0000 0000 0000 0000
00000140: 0000 0000 0000 0000 0000 0000 0000 0000
00000150: 0000 0000 0000 0000 0000 0000 0000 0000
00000160: 0000 0000 0000 0000 0000 0000 0000 0000
00000170: 0000 0000 0000 0000 0000 0000 0000 0000
00000180: 0000 0000 0000 0000 0000 0000 0000 0000
00000190: 0000 0000 0000 0000 0000 0000 0000 0000
000001a0: 0000 0000 0000 0000 0000 0000 0000 0000
000001b0: 0000 0000 0000 0000 0000 0000 0000 0000
000001c0: 0000 0000 0000 0000 0000 0000 0000 0000
000001d0: 0000 0000 0000 0000 0000 0000 0000 0000
000001e0: 0000 0000 0000 0000 0000 0000 0000 0000
000001f0: 0000 0000 0000 0000 0000 0000 0000 0000

network_body._body_endoder.seq_layers.0.weight f4 [128, 1100]
-0.10452431 -0.021330984 0.01775493 0.0014554502 0.013944774 -0.0066928524 -0.027062176 -0.01871894
0.061689004 -0.037206583 -0.020559965 0.006633233 0.003962716 0.065102674 0.009891584 -0.029617274
-0.013418441 -0.04416982 0.0070176125 0.0036845182 -0.03199207 0.011507505 -0.046601746 0.035960197
0.0053034853 -0.020251855 0.03426719 0.03682855 0.00954464 -0.0140914405 0.03429535 0.059290774
0.006478416 0.0017129347 0.0017400502 -0.0046397327 0.0020343468 0.02609801 -0.0031464475 -0.00010869461
0.068858944 -0.02362905 -0.023793217 0.006446415 0.0011118611 -0.008326634 0.048207637 -0.065588675
0.027275769 -0.0032640696 -0.0029061143 -0.0016270799 -0.01879078 0.0075252005 2.252634e-05 0.0037607644
0.087046415 -0.025136149 -0.004538604 0.0050792787 0.0027762356 0.023922712 0.0020905305 0.07021111
0.01839178 0.030692436 -0.009155091 0.031654764 -0.013848872 0.06144458 0.019787453 -0.018725112
-0.04187956 -0.002212177 -0.017306058 -0.00076135446 -0.0020338688 -0.016055426 0.019435545 -0.07162179
0.022749634 0.013323517 -0.058377925 0.015444022 0.0343043 -0.038307372 -0.007641817 0.037482515
0.04796228 0.03843942 0.03202883 -0.009733513 0.0569258 -0.04199416 0.02220729 0.019808795
-0.07005064 0.025367577 -0.011462431 -0.030960813 0.01916531 -0.020430828 -0.033464577 -0.010250134
-0.014749159 -0.06629982 0.006537262 -0.00036152094 -0.010419048 0.021745779 -0.025214003 0.0105872005
0.021934815 0.07528131 -0.029243995 -0.017276658 0.0030955498 -0.05538381 0.030641438 0.023670647
-0.02930878 0.024168242 -0.053257003 -0.01965683 -0.01166115 -0.04086448 0.031109482 0.021060431
0.017492142 -0.053076826 0.007129187 -0.009724789 0.0046960465 -0.021655744 -0.00511994 0.00697972
-0.037892565 0.022616044 -0.019141756 0.006962357 -0.046552815 -0.003911313 0.030679852 0.043828566
0.04412575 -0.014630646 0.016098347 0.018564716 -0.028663272 -0.03984935 0.024552535 -0.028717631
-0.0040249815 -0.036234 -0.0029364973 -0.048099205 -0.0015027771 -0.014708019 -0.008555153 -0.0065808985
-0.046577606 0.0151748825 0.11314475 0.029470352 -0.023722088 -0.03633876 0.034547932 0.0022674336
0.010897556 0.0009485618 0.015178896 0.02572297 -0.034820523 -0.02318736 -0.04288575 0.018545918
-0.059758786 0.03290295 0.027342575 -0.012368343 -0.01951192 0.032847956 0.012656846 0.021178577
0.0063845315 0.036693208 -0.0158401 0.018522251 0.0044823876 0.036712077 -0.016814288 -0.0016936718
-0.041898362 -0.016369503 -0.0219352 0.02193634 0.030622412 0.039204165 -0.0065407283 -0.004676911
0.051542163 0.060467564 -0.0661506 0.01745358 -0.0025075267 0.038142834 -0.0041834917 -0.031175882
0.03659517 -0.02125278 0.04897563 0.027834259 -0.020133767 0.003768515 -0.02964193 0.026889332
0.028324608 -0.016649846 0.002836109 -0.010730971 -0.005467253 0.00790842 -0.051606946 0.0053554275
0.024093295 0.07182529 0.0122028915 0.03912881 0.04763844 0.022204686 -0.028685372 0.046559084
0.0031893682 0.030019216 -0.03092536 0.028768772 0.02696601 0.046473365 0.03345624 -0.026574759
0.0026573709 0.02666624 0.017986 0.010409151 0.021890745 -0.020488754 -0.014977428 0.028958388
0.012360057 -0.043051824 -0.044074427 0.046497054 0.014155315 -0.034093797 0.042902958 -0.014214529
00000000: d710 d6bd 51be aebc c972 913c cec4 be3a
00000010: 9f78 643c b74f dbbb 7fb1 ddbc 7658 99bc
00000020: 9cad 7c3d ee65 18bd 5f6d a8bc 975b d93b
00000030: acd9 813b 8d54 853d 4f10 223c ed9f f2bc
00000040: 05d9 5bbc 6aeb 34bd 00f4 e53b f577 713b
00000050: 1e0a 03bd f989 3c3c 79e1 3ebd 004b 133d
00000060: dcc8 ad3b 38e7 a5bc c15b 0c3d 89d9 163d
00000070: 1f61 1c3c c9df 66bc 4879 0c3d e2da 723d
00000080: e448 d43b 8d84 e03a 6512 e43a e608 98bb
00000090: ad52 053b 7ecb d53c a134 4ebb f9f2 e3b8
000000a0: eb05 8d3d b691 c1bc fee9 c2bc 733c d33b
000000b0: debb 913a 6f6c 08bc 5f75 453d 5b53 86bd
000000c0: 6f71 df3c 00ea 55bb 8274 3ebb be43 d5ba
000000d0: 1fef 99bc f595 f63b f2f6 bc37 2877 763b
000000e0: 6445 b23d 53ea cdbc 92b8 94bb 1470 a63b
000000f0: 81f1 353b 90f9 c33c 4801 093b d8ca 8f3d
00000100: 5caa 963c b46e fb3c 3cff 15bc 6da8 013d
00000110: 61e6 62bc 50ad 7b3d 4c19 a23c 6865 99bc
00000120: e789 2bbd 2cfa 10bb 6fc5 8dbc a295 47ba
00000130: a84a 05bb ab86 83bc 4b37 9f3c 72ae 92bd
00000140: 715d ba3c e14a 5a3c b11d 6fbd ec08 7d3c
00000150: aa82 0c3d 31e8 1cbd 3568 fabb 4487 193d
00000160: 1974 443d a772 1d3d aa30 033d 5079 1fbc
00000170: 072b 693d 1102 2cbd 10ec b53c 0e46 a23c
00000180: b676 8fbd aacf cf3c eccc 3bbc 88a1 fdbc
00000190: 9100 9d3c 8d5e a7bc 2712 09bd 2ef0 27bc
000001a0: 75a6 71bc 33c8 87bd 8736 d63b 858a bdb9
000001b0: a8b4 2abc 3424 b23c 998d cebc f075 2d3c
000001c0: a4b0 b33c 162d 9a3d 1a91 efbc c787 8dbc
000001d0: b5de 4a3b 22da 62bd c103 fb3c f2e8 c13c
000001e0: f718 f0bc 7afc c53c 0424 5abd 5c07 a1bc
000001f0: 680e 3fbc 8361 27bd 50d9 fe3c ed86 ac3c
00000200: ae4b 8f3c 1667 59bd f59b e93b b954 1fbc
00000210: 4be1 993b 6367 b1bc 2bc5 a7bb 23b6 e43b
00000220: 3c35 1bbd 4845 b93c 2ccf 9cbc 7c24 e43b
00000230: 2aae 3ebd 792a 80bb 5054 fb3c 9585 333d
00000240: 34bd 343d 61b5 6fbc aee0 833c 0815 983c
00000250: 3dcf eabc 1239 23bd 6622 c93c 3d41 ebbc
00000260: fee3 83bb 1a6a 14bd 4072 40bb ac03 45bd
00000270: d5f8 c4ba e7f9 70bc ea2a 0cbc 94a4 d7bb
00000280: 29c8 3ebd 12a0 783c 6fb8 e73d cf6b f13c
00000290: d354 c2bc f4d7 14bd 2282 0d3d 3999 143b
000002a0: aa8b 323c e8a8 783a e7b0 783c fab8 d23c
000002b0: f79f 0ebd 6bf3 bdbc f8a8 2fbd 9ced 973c
000002c0: a1c5 74bd 3ec5 063d 89fd df3c 97a4 4abc
000002d0: 76d7 9fbc 948b 063d a95e 4f3c b27e ad3c
000002e0: 5535 d13b 9e4b 163d 19c3 81bc fabb 973c
000002f0: fee0 923b 675f 163d 1ebe 89bc 32fe ddba
00000300: 9e9d 2bbd 5619 86bc 73b1 b3bc d7b3 b33c
00000310: dadb fa3c 8c94 203d 9b53 d6bb c640 99bb
00000320: e01d 533d d6ac 773d f779 87bd cffa 8e3c
00000330: 5155 24bb a93b 1c3d ac15 89bb 9064 ffbc
00000340: d1e4 153d 4f1a aebc ac9a 483d ac04 e43c
00000350: 92ef a4bc 31f9 763b a2d3 f2bc 0447 dc3c
00000360: 0209 e83c 4265 88bc 03de 393b f4d0 2fbc
00000370: a426 b3bb 5192 013c ce61 53bd 957c af3b
00000380: 4d5f c53c 2319 933d a3ee 473c 8845 203d
00000390: 8620 433d 9ae6 b53c 96fd eabc bdb4 3e3d
000003a0: b804 513b dcea f53c 2e57 fdbc 7dac eb3c
000003b0: d2e7 dc3c db5a 3e3d 6909 093d 4fb3 d9bc
000003c0: 4927 2e3b 2973 da3c 6057 933c 258b 2a3c
000003d0: 3854 b33c 08d8 a7bc e363 75bc 243a ed3c
000003e0: d681 4a3c 1c57 30bd 6387 34bd b273 3e3d
000003f0: b2eb 673c f0a5 0bbd 03bb 2f3d 0ee4 68bc

network_body._body_endoder.seq_layers.2.bias f4 [128]
0.0 0.0 0.0 0.0 0.0 0.0 0.0 0.0
0.0 0.0 0.0 0.0 0.0 0.0 0.0 0.0
0.0 0.0 0.0 0.0 0.0 0.0 0.0 0.0
0.0 0.0 0.0 0.0 0.0 0.0 0.0 0.0
0.0 0.0 0.0 0.0 0.0 0.0 0.0 0.0
0.0 0.0 0.0 0.0 0.0 0.0 0.0 0.0
0.0 0.0 0.0 0.0 0.0 0.0 0.0 0.0
0.0 0.0 0.0 0.0 0.0 0.0 0.0 0.0
0.0 0.0 0.0 0.0 0.0 0.0 0.0 0.0
0.0 0.0 0.0 0.0 0.0 0.0 0.0 0.0
0.0 0.0 0.0 0.0 0.0 0.0 0.0 0.0
0.0 0.0 0.0 0.0 0.0 0.0 0.0 0.0
0.0 0.0 0.0 0.0 0.0 0.0 0.0 0.0
0.0 0.0 0.0 0.0 0.0 0.0 0.0 0.0
0.0 0.0 0.0 0.0 0.0 0.0 0.0 0.0
0.0 0.0 0.0 0.0 0.0 0.0 0.0 0.0
00000000: 0000 0000 0000 0000 0000 0000 0000 0000
00000010: 0000 0000 0000 0000 0000 0000 0000 0000
00000020: 0000 0000 0000 0000 0000 0000 0000 0000
00000030: 0000 0000 0000 0000 0000 0000 0000 0000
00000040: 0000 0000 0000 0000 0000 0000 0000 0000
00000050: 0000 0000 0000 0000 0000 0000 0000 0000
00000060: 0000 0000 0000 0000 0000 0000 0000 0000
00000070: 0000 0000 0000 0000 0000 0000 0000 0000
00000080: 0000 0000 0000 0000 0000 0000 0000 0000
00000090: 0000 0000 0000 0000 0000 0000 0000 0000
000000a0: 0000 0000 0000 0000 0000 0000 0000 0000
000000b0: 0000 0000 0000 0000 0000 0000 0000 0000
000000c0: 0000 0000 0000 0000 0000 0000 0000 0000
000000d0: 0000 0000 0000 0000 0000 0000 0000 0000
000000e0: 0000 0000 0000 0000 0000 0000 0000 0000
000000f0: 0000 0000 0000 0000 0000 0000 0000 0000
00000100: 0000 0000 0000 0000 0000 0000 0000 0000
00000110: 0000 0000 0000 0000 0000 0000 0000 0000
00000120: 0000 0000 0000 0000 0000 0000 0000 0000
00000130: 0000 0000 0000 0000 0000 0000 0000 0000
00000140: 0000 0000 0000 0000 0000 0000 0000 0000
00000150: 0000 0000 0000 0000 0000 0000 0000 0000
00000160: 0000 0000 0000 0000 0000 0000 0000 0000
00000170: 0000 0000 0000 0000 0000 0000 0000 0000
00000180: 0000 0000 0000 0000 0000 0000 0000 0000
00000190: 0000 0000 0000 0000 0000 0000 0000 0000
000001a0: 0000 0000 0000 0000 0000 0000 0000 0000
000001b0: 0000 0000 0000 0000 0000 0000 0000 0000
000001c0: 0000 0000 0000 0000 0000 0000 0000 0000
000001d0: 0000 0000 0000 0000 0000 0000 0000 0000
000001e0: 0000 0000 0000 0000 0000 0000 0000 0000
000001f0: 0000 0000 0000 0000 0000 0000 0000 0000

network_body._body_endoder.seq_layers.2.weight f4 [128, 128]
-0.021996424 -0.10899824 -0.043345474 0.01471512 -0.13903476 -0.15225427 0.13929842 -0.06407159
-0.08824996 -0.07026182 -0.14241804 -0.013742184 0.08950156 -0.14748408 0.05324428 -0.0033059341
0.021879964 -0.25259265 0.093707845 0.034138776 0.09834216 -0.045961343 -0.06651083 -0.094463974
-0.034421664 0.10777111 -0.02736258 0.1169169 0.026580965 -0.0030157866 0.02653433 -0.23364274
-0.13857856 0.057489328 0.12318139 0.174756 -0.038906004 0.0744829 -0.01880977 -0.16889235
0.0031604243 -0.017418362 -0.19935055 -0.02309711 -0.011523738 -0.13639815 -0.18319435 0.09941953
-0.01790447 -0.053515386 0.13297918 -0.18353859 -0.040162146 -0.08419223 0.010518842 0.07401987
0.015360155 -0.029209847 -0.08641094 -0.017641863 0.02099891 -0.10612569 -0.048272643 -0.06585854
-0.13314202 0.034529064 -0.07648576 -0.11259236 0.013932555 -0.049531855 -0.05579445 0.039298218
-0.09934917 -0.092698105 0.042599913 -0.098656245 -0.041298427 -0.24608272 -0.015608687 -0.102222376
-0.008030981 -0.024413811 0.09100473 -0.04098697 -0.1590024 0.02233909 -0.016831156 -0.068185925
0.05234037 -0.11739857 0.014666925 -0.12920755 0.003722724 -0.1034435 -0.09069493 0.022134436
-0.07227462 -0.10913999 -0.012728768 -0.029960291 0.020658843 -0.0086947745 0.007803957 0.029527064
-0.021130439 -0.052594304 0.08548031 -0.019343372 -0.08279123 0.053042572 -0.16164857 0.062398583
0.23281346 -0.034254067 -0.052084427 0.052528687 -0.061853364 -0.060374733 0.02081887 -0.06691428
0.12600258 0.0086004445 -0.0351798 0.079906285 -0.0898241 -0.25557238 -0.046288893 0.07200274
0.0025991332 0.0718356 0.19734475 0.0520691 -0.108915545 0.10323638 -0.06738421 -0.053928215
0.12025527 -0.044821434 0.018779993 0.019993437 0.0047203745 0.05659807 0.031741146 0.04101871
0.19060527 -0.07961396 -0.026295558 0.11782815 0.19181566 0.016777422 0.026000323 -0.09819026
-0.08222759 -0.08503099 0.032282688 -0.109635934 0.0012727655 0.01809401 0.18935986 -0.07841976
-0.109621204 0.10198207 0.016343983 -0.025678642 0.07055278 0.0063689537 0.023523724 0.1607356
0.002274304 -0.12843737 0.028228823 0.22578602 0.032679915 -0.29386196 0.073933676 -0.04708809
0.12512474 0.16018574 0.08232716 -0.0050941557 0.08053556 -0.026717184 0.036533702 0.09552926
0.0030693826 0.11593158 0.0098397015 -0.05687937 0.06719499 0.16353858 0.049572505 -0.15745978
-0.18200403 -0.13988978 0.060670562 -0.2440381 0.08445072 -0.051686622 -0.023183396 0.052679107
0.10814984 -0.13429497 -0.070963174 -0.07261501 0.08083369 -0.059939798 0.05495272 0.022411086
-0.009550709 0.07386831 0.0051133875 -0.005489562 -0.046362285 -0.12890354 0.061005197 -0.00834704
0.0027567747 0.063076854 -0.052809104 0.1335035 -0.174055 -0.22181486 -0.007474485 -0.08010479
-0.028540127 0.06597182 0.10487347 0.057822224 0.059166323 -0.12125576 -0.0627939 0.27694467
0.12560505 -0.037170365 0.008473953 0.023496874 0.06353848 -0.09499514 -0.15543361 0.15371402
-0.029677643 -0.019375945 0.20745534 -0.036456257 -0.111642934 0.11575604 0.016668633 -0.04280441
0.06784202 0.0001899074 0.118877195 -0.117697455 0.03450145 0.04415368 -0.30420452 -0.054894827
00000000: d831 b4bc 783a dfbd 068b 31bd b017 713c
00000010: 215f 0ebe 8be8 1bbe 3fa4 0e3e f737 83bd
00000020: 65bc b4bd 6ee5 8fbd 09d6 11be e626 61bc
00000030: 984c b73d 1106 17be ad16 5a3d 5fa8 58bb
00000040: 9c3d b33c d353 81be e6e9 bf3d 1ad5 0b3d
00000050: 9d67 c93d f641 3cbd d436 88bd 5476 c1bd
00000060: bbfd 0cbd 1ab7 dc3d 7d27 e0bc 2172 ef3d
00000070: 53c0 d93c 81a4 45bb 865e d93c 0b40 6fbe
00000080: 8ae7 0dbe ee79 6b3d 8646 fc3d 3df3 323e
00000090: e75b 1fbd 7e8a 983d f216 9abc 1ef2 2cbe
000000a0: 1f1f 4f3b f4b0 8ebc 8d22 4cbe 2736 bdbc
000000b0: 0fce 3cbc f5ab 0bbe 4d97 3bbe 779c cb3d
000000c0: 65ac 92bc f332 5bbd b22b 083e 8af1 3bbe
000000d0: 1081 24bd fa6c acbd 3957 2c3c bb97 973d
000000e0: 29a9 7b3c 7d49 efbc 38f8 b0bd ab85 90bc
000000f0: e805 ac3c 6d58 d9bd 89b9 45bd d8e0 86bd
00000100: 6256 08be 596e 0d3d 91a4 9cbd d396 e6bd
00000110: 5f45 643c eae1 4abd b988 64bd 2bf7 203d
00000120: 9477 cbbd 81d8 bdbd 3f7d 2e3d 490c cabd
00000130: 8a28 29bd 1cfd 7bbe 94bb 7fbc f759 d1bd
00000140: 6094 03bc 79ff c7bc b060 ba3d f4e1 27bd
00000150: 86d1 22be 7800 b73c 7ee1 89bc 10a5 8bbd
00000160: db62 563d a96e f0bd 8b4d 703c fc4e 04be
00000170: f2f8 733b 30da d3bd 43be b9bd 4753 b53c
00000180: b704 94bd c984 dfbd 538c 50bc 496f f5bc
00000190: bc3c a93c 8774 0ebc 56b8 ff3b bee2 f13c
000001a0: be19 adbc 206d 57bd 4d10 af3d fe75 9ebc
000001b0: 738e a9bd 2b43 593d 3487 25be a895 7f3d
000001c0: a766 6e3e fe4d 0cbd 7b56 55bd 5228 573d
000001d0: f459 7dbd 7f4b 77bd 568c aa3c 5b0a 89bd
000001e0: d206 013e e1e8 0c3c b218 10bd e8a5 a33d
000001f0: b3f5 b7bd 62da 82be 6c99 3dbd 2c76 933d
00000200: 3856 2a3b 8b1e 933d be14 4a3e 6946 553d
00000210: 1d0f dfbd 986d d33d bc00 8abd d5e3 5cbd
00000220: 6548 f63d ae96 37bd 80d8 993c 47c9 a33c
00000230: 5fad 9a3b 61d3 673d 0103 023d 3c03 283d
00000240: 072e 433e a50c a3bd c869 d7bc e34f f13d
00000250: 536b 443e ce70 893c a1fe d43c fa17 c9bd
00000260: f066 a8bd ba24 aebd da3a 043d ce88 e0bd
00000270: ecd2 a63a e439 943c 8de7 413e 8a9a a0bd
00000280: 1581 e0bd fadb d03d d1e3 853c 045c d2bc
00000290: fa7d 903d a8b2 d03b d3b4 c03c e097 243e
000002a0: 7d0c 153b 1685 03be 2240 e73c 7334 673e
000002b0: 60db 053d 1375 96be 8a6a 973d 71df 40bd
000002c0: b320 003e bb07 243e 249b a83d e0ec a6bb
000002d0: d4ef a43d ffdd dabc 5da4 153d d8a4 c33d
000002e0: b227 493b 896d ed3d b336 213c 58fa 68bd
000002f0: 879d 893d a876 273e 8a0c 4b3d 233d 21be
00000300: 445f 3abe 443f 0fbe b281 783d 20e5 79be
00000310: 80f4 ac3d 5ab5 53bd 1beb bdbc 0cc6 573d
00000320: aa7d dd3d 9f84 09be 2455 91bd 2eb7 94bd
00000330: 228c a53d 6f83 75bd 1a16 613d 7497 b73c
00000340: 947a 1cbc 4548 973d 348e a73b c9e1 b3bb
00000350: 61e6 3dbd 4aff 03be 96e0 793d 06c2 08bc
00000360: 01ab 343b 702e 813d 5c4e 58bd 24b5 083e
00000370: 793b 32be 6f23 63be 86ec f4bb fb0d a4bd
00000380: fccc e9bc 3c1c 873d e7c7 d63d ffd6 6c3d
00000390: 6358 723d f154 f8bd 179a 80bd b1cb 8d3e
000003a0: 9c9e 003e f43f 18bd 56d6 0a3c 847c c03c
000003b0: 7620 823d d08c c2bd fd29 1fbe 3567 1d3e
000003c0: 871e f3bc 4dba 9ebc 2c6f 543e 2853 15bd
000003d0: 0da5 e4bd 8111 ed3d a88c 883c ad53 2fbd
000003e0: c2f0 8a3d e121 4739 e375 f33d 5d0b f1bd
000003f0: 6451 0d3d 7dda 343d b2c0 9bbe 66d9 60bd
