results/ppo/MoveToBet/MoveToBet-4037.onnx (onnx, 768393 bytes, 7 tensors)

action_model._continuous_distribution.log_sigma f4 [1, 17]
0.0 0.0 0.0 0.0 0.0 0.0 0.0 0.0
0.0 0.0 0.0 0.0 0.0 0.0 0.0 0.0
0.0
00000000: 0000 0000 0000 0000 0000 0000 0000 0000
00000010: 0000 0000 0000 0000 0000 0000 0000 0000
00000020: 0000 0000 0000 0000 0000 0000 0000 0000
00000030: 0000 0000 0000 0000 0000 0000 0000 0000
00000040: 0000 0000

action_model._continuous_distribution.mu.bias f4 [17]
0.0 0.0 0.0 0.0 0.0 0.0 0.0 0.0
0.0 0.0 0.0 0.0 0.0 0.0 0.0 0.0
0.0
00000000: 0000 0000 0000 0000 0000 0000 0000 0000
00000010: 0000 0000 0000 0000 0000 0000 0000 0000
00000020: 0000 0000 0000 0000 0000 0000 0000 0000
00000030: 0000 0000 0000 0000 0000 0000 0000 0000
00000040: 0000 0000

action_model._continuous_distribution.mu.weight f4 [17, 128]
0.008639054 0.011522042 0.014079963 -0.0050035967 -0.012892167 0.0070773996 -0.018186633 0.019388208
0.0242201 -0.031560507 0.0017061419 0.003318244 0.0033731703 -0.0035564054 -0.028640682 -0.0018244818
-0.0048742974 0.015367131 -0.008982263 0.034192614 0.010805511 -0.007361592 0.018748924 0.008804751
0.0031267912 -0.009558109 0.008324005 0.016844219 0.007490085 -0.008616664 0.003997496 -0.006296576
0.008446396 0.016925095 -0.0120310895 -0.0013052371 0.054538388 0.020962356 -0.0019418314 -0.016730608
-0.010722815 0.0016395288 -0.012214345 0.0026533795 0.0014785709 0.024657909 -0.004513152 0.004252492
0.013451748 0.015897205 0.013585712 0.00975373 0.000540656 0.017135682 0.004472683 0.0106829945
-0.003231231 -0.01736637 0.0131126195 0.005992485 -0.002498148 0.02440512 -0.013590678 0.00083077134
-0.0029244928 0.0027009598 0.024132123 0.032919064 0.01966358 -0.009091659 0.0073813978 -0.032617252
0.0029799382 -0.02164646 -0.02293669 0.0077493847 0.018790541 0.009787565 0.013354056 -0.013054537
0.021566244 0.013763169 0.010875068 0.007797317 -0.0040047956 -0.008026071 0.014982896 -0.0071432455
0.0137689775 -0.03211477 0.02190612 0.0004151926 -0.016294278 -0.0287765 0.03189851 -0.014624345
-0.020603491 0.0131324185 0.0074199974 0.025298843 0.0086196065 0.023210844 -0.0057601943 -0.01531694
-0.011337387 0.0076768096 -0.015514836 -0.01768491 -0.022600813 -0.0018356991 -0.0067634205 0.024746498
0.014917015 0.015332776 -0.013145554 -0.033299077 0.009732234 0.029395385 -0.004601382 -0.024160197
-0.0021246308 0.0017037744 0.0063350447 -0.014463312 0.020929597 0.010352347 -0.021419514 -0.022354946
0.02476496 0.0048952014 -0.0024381613 -0.021119082 -0.0034568706 -0.014177854 0.023082782 0.016282437
0.006622938 0.005934673 -0.01746024 0.008202205 -0.0071525197 -0.017606117 -0.009994691 -0.014768319
-0.005106515 0.016170286 -0.023957364 0.0063180686 0.023063045 -0.0018648835 -0.00622864 -0.010629415
-0.023068784 0.010832416 0.008780365 0.0061783493 -0.004539798 -0.007536684 0.030749468 -0.0022060478
-0.020595731 0.025993455 0.009439369 0.0010752993 -0.011074464 -0.0010670373 -0.01012421 0.0032737576
0.013583963 -0.00017320683 -0.026127264 0.009756872 -0.0031656676 0.011301174 -0.024606178 -0.020818485
-0.017930238 -0.027107269 -0.014618616 0.020470703 -0.006251941 0.012361449 0.030802235 0.018521473
0.0014375071 -0.009163135 0.00557466 -0.0134836035 0.012141314 -0.0116469925 -0.0119087575 0.012389092
-0.003962373 -0.00657572 0.00751457 0.020585105 -0.0111561315 -0.025674134 -0.013939279 0.015405414
-0.001783447 0.014170403 0.02394744 -0.006029486 -0.019813301 0.014149097 -0.01751365 -0.014962767
0.03169721 -0.02017164 -0.010905011 -0.020173477 -0.017577797 0.0087548485 -0.008759088 0.0006581962
-0.026452217 -0.0016155217 -0.0012462478 -0.008578503 -0.0076796166 -0.008634185 -0.024434386 0.03387419
0.003107555 0.0056686066 -0.008444743 0.031165047 -0.0036447612 0.012667819 -0.00037809086 0.004720531
0.0067357323 0.0299436 0.013277027 0.009702474 0.0012720223 -0.0060493704 -0.02237813 -0.02645631
-0.010717739 -0.014843965 0.00075163005 -0.02392755 0.03735554 0.013503644 -0.014549458 -0.016605733
-0.00037579998 0.021688312 0.0076798587 -0.0050141457 0.01134213 -0.007449679 0.015695792 -7.824293e-05
00000000: d28a 0d3c f2c6 3c3c a5af 663c 36f5 a3bb
00000010: ab39 53bc 88e9 e73b 22fc 94bc 05d4 9e3c
00000020: 3b69 c63c 9745 01bd 9fa0 df3a e576 593b
00000030: 6810 5d3b 9512 69bb dd9f eabc 7323 efba
00000040: 92b8 9fbb 6bc6 7b3c 572a 13bc 8e0d 0c3d
00000050: 9909 313c 8239 f1bb 5897 993c cd41 103c
00000060: daea 4c3b 9d99 1cbc 6861 083c e3fc 893c
00000070: 636f f53b e92c 0dbc 6dfd 823b 8253 cebb
00000080: c162 0a3c 7fa6 8a3c 0c1e 45bc 7d14 abba
00000090: a563 5f3d 3fb9 ab3c 0d85 feba a10e 89bc
000000a0: bfae 2fbc 75e5 d63a ad1e 48bc 52e4 2d3b
000000b0: 9bcc c13a 62ff c93c 10e3 93bb 7d58 8b3b
000000c0: b864 5c3c db3a 823c 9b96 5e3c 1cce 1f3c
000000d0: cfba 0d3a 2160 8c3c 968f 923b ba07 2f3c
000000e0: 0fc3 53bb eb43 8ebc 50d6 563c 9c5c c43b
000000f0: f8b7 23bb 3fed c73c 6fab 5ebc 1fc8 593a
00000100: d9a8 3fbb 9602 313b bbb0 c53c 24d6 063d
00000110: 8415 a13c 2ff5 14bc a7df f13b ab99 05bd
00000120: 114b 433b eb53 b1bc bae5 bbbc 8dee fd3b
00000130: 9fee 993c 065c 203c f8ca 5a3c b2e2 55bc
00000140: b1ab b03c ea7e 613c 572d 323c a380 ff3b
00000150: a93a 83bb c87f 03bc d27a 753c e311 eabb
00000160: 4797 613c c78a 03bd 7774 b33c 35ae d939
00000170: 947b 85bc b2bc ebbc 03a8 023d f39a 6fbc
00000180: a7c8 a8bc 5b29 573c 7323 f33b 853f cf3c
00000190: 4039 0d3c ab24 be3c 03c0 bcbb e7f3 7abc
000001a0: 73c0 39bc bf8d fb3b f031 7ebc f2df 90bc
000001b0: 5725 b9bc d79b f0ba af9f ddbb 2bb9 ca3c
000001c0: 7f66 743c 5336 7b3c 7360 57bc 9d64 08bd
000001d0: f373 1f3c 97ce f03c 31c7 96bb 9beb c5bc
000001e0: 643d 0bbb 2f51 df3a 3596 cf3b 87f7 6cbc
000001f0: 8c74 ab3c e49c 293c fa77 afbc b821 b7bc
00000200: e3df ca3c ed67 a03b 8fc9 1fbb ed01 adbc
00000210: aa8c 62bb 3b4a 68bc 1a18 bd3c bf62 853c
00000220: 3b05 d93b a577 c23b c708 8fbc 8b62 063c
00000230: af5f eabb b43a 90bc c6c0 23bc d2f6 71bc
00000240: 8d54 a7bb 8c77 843c 3c42 c4bc cd07 cf3b
00000250: b6ee bc3c 1b6f f4ba 9f19 ccbb ff26 2ebc
00000260: bffa bcbc 727a 313c 85db 0f3c c073 ca3b
00000270: 96c2 94bb 4af6 f6bb 4fe6 fb3c 5793 10bb
00000280: 61b8 a8bc 3af0 d43c 95a7 1a3c 0ff1 8c3a
00000290: ab71 35bc d5db 8bba 04e0 25bc 8a8c 563b
000002a0: 458f 5e3c db9e 35b9 d808 d6bc 4adb 1f3c
000002b0: 1777 4fbb 8f28 393c e592 c9bc 878b aabc
000002c0: 6fe2 92bc 1010 debc eb82 6fbc 2db2 a73c
000002d0: 15dd ccbb ad87 4a3c f854 fc3c 58ba 973c
000002e0: bc6a bc3a f920 16bc a3ab b63b 55ea 5cbc
000002f0: 5dec 463c 07d3 3ebc f31c 43bc 9efb 4a3c
00000300: cbd6 81bb 2379 d7bb c83c f63b 18a2 a83c
00000310: 35c8 36bc 9052 d2bc 9361 64bc fd66 7c3c
00000320: 8dc2 e9ba fa2a 683c 6c2d c43c ff92 c5bb
00000330: 814f a2bc 9dd1 673c c978 8fbc 6526 75bc
00000340: efd4 013d ff3e a5bc eeaa 32bc d942 a5bc
00000350: 50ff 8fbc 7f70 0f3c 4782 0fbc cd8a 2c3a
00000360: 52b2 d8bc eabf d3ba 2359 a3ba d98c 0cbc
00000370: 4ba5 fbbb 6676 0dbc 9f2a c8bc aabf 0a3d
00000380: 1fa8 4b3b b8bf b93b d25b 0abc d74d ff3c
00000390: f2dc 6ebb af8c 4f3c 7f3a c6b9 afae 9a3b
000003a0: 6bb7 dc3b 484c f53c e387 593c 20f7 1e3c
000003b0: fcb9 a63a cc39 c6bb 5752 b7bc e7ba d8bc
000003c0: 7599 2fbc 1a34 73bc 0a09 453a b603 c4bc
000003d0: 1f02 193d 633e 5d3c da60 6ebc bf08 88bc
000003e0: 0507 c5b9 b0ab b13c 53a7 fb3b b44d a4bb
000003f0: 57d4 393c 701c f4bb 7694 803c 5a16 a4b8

network_body._body_endoder.seq_layers.0.bias f4 [128]
0.0 0.0 0.0 0.0 0.0 0.0 0.0 0.0
0.0 0.0 0.0 0.0 0.0 0.0 0.0 0.0
0.0 0.0 0.0 0.0 0.0 0.0 0.0 0.0
0.0 0.0 0.0 0.0 0.0 0.0 0.0 0.0
0.0 0.0 0.0 0.0 0.0 0.0 0.0 0.0
0.0 0.0 0.0 0.0 0.0 0.0 0.0 0.0
0.0 0.0 0.0 0.0 0.0 0.0 0.0 0.0
0.0 0.0 0.0 0.0 0.0 0.0 0.0 0.0
0.0 0.0 0.0 0.0 0.0 0.0 0.0 0.0
0.0 0.0 0.0 0.0 0.0 0.0 0.0 0.0
0.0 0.0 0.0 0.0 0.0 0.0 0.0 0.0
0.0 0.0 0.0 0.0 0.0 0.0 0.0 0.0
0.0 0.0 0.0 0.0 0.0 0.0 0.0 0.0
0.0 0.0 0.0 0.0 0.0 0.0 0.0 0.0
0.0 0.0 0.0 0.0 0.0 0.0 0.0 0.0
0.0 0.0 0.0 0.0 0.0 0.0 0.0 0.0
00000000: 0000 0000 0000 0000 0000 0000 0000 0000
00000010: 0000 0000 0000 0000 0000 0000 0000 0000
00000020: 0000 0000 0000 0000 0000 0000 0000 0000
00000030: 0000 0000 0000 0000 0000 0000 0000 0000
00000040: 0000 0000 0000 0000 0000 0000 0000 0000
00000050: 0000 0000 0000 0000 0000 0000 0000 0000
00000060: 0000 0000 0000 0000 0000 0000 0000 0000
00000070: 0000 0000 0000 0000 0000 0000 0000 0000
00000080: 0000 0000 0000 0000 0000 0000 0000 0000
00000090: 0000 0000 0000 0000 0000 0000 0000 0000
000000a0: 0000 0000 0000 0000 0000 0000 0000 0000
000000b0: 0000 0000 0000 0000 0000 0000 0000 0000
000000c0: 0000 0000 0000 0000 0000 0000 0000 0000
000000d0: 0000 0000 0000 0000 0000 0000 0000 0000
000000e0: 0000 0000 0000 0000 0000 0000 0000 0000
000000f0: 0000 0000 0000 0000 0000 0000 0000 0000
00000100: 0000 0000 0000 0000 0000 0000 0000 0000
00000110: 0000 0000 0000 0000 0000 0000 0000 0000
00000120: 0000 0000 0000 0000 0000 0000 0000 0000
00000130: 0000 0000 0000 0000 0000 0000 0000 0000
00000140: 0000 0000 0000 0000 0000 0000 0000 0000
00000150: 0000 0000 0000 0000 0000 0000 0000 0000
00000160: 0000 0000 0000 0000 0000 0000 0000 0000
00000170: 0000 0000 0000 0000 0000 0000 0000 0000
00000180: 0000 0000 0000 0000 0000 0000 0000 0000
00000190: 0000 0000 0000 0000 0000 0000 0000 0000
000001a0: 0000 0000 0000 0000 0000 0000 0000 0000
000001b0: 0000 0000 0000 0000 0000 0000 0000 0000
000001c0: 0000 0000 0000 0000 0000 0000 0000 0000
000001d0: 0000 0000 0000 0000 0000 0000 0000 0000
000001e0: 0000 0000 0000 0000 0000 0000 0000 0000
000001f0: 0000 0000 0000 0000 0000 0000 0000 0000

network_body._body_endoder.seq_layers.0.weight f4 [128, 1350]
-0.019314023 -0.015306103 -0.037876606 -0.00029962749 -0.049107738 0.009819516 -0.0039433073 0.004353704
0.004683552 0.009704151 -0.024777811 0.036427245 -0.025979806 -0.032588303 -0.015642082 -0.006722429
-0.014139441 0.030702973 0.008933194 0.024782825 0.037811536 0.027966266 0.031344444 -0.023307782
-0.008027528 0.0111191515 0.0042691953 -0.018551363 -0.003872055 0.013970626 0.0058439113 -0.024395788
-0.015656635 0.029995272 0.058000192 0.012796244 0.051965546 0.021282993 -0.012336461 0.019731244
0.017297443 -0.015622594 -0.020578435 -0.0233749 0.049227707 -0.038284764 -0.012639044 0.06607691
0.0055548525 0.0053007314 0.029400107 -0.0059526153 -0.0201509 -0.021151682 0.028404286 0.024042549
-0.0072667054 0.004559871 0.011742253 -0.013116689 -0.024053266 -0.0011383978 0.053115793 -0.0123828985
-0.011691908 -0.02454377 0.017997695 -0.028822701 -0.03382756 -0.0038354648 0.018698005 0.013651074
-0.011566706 0.020167109 -0.040359918 0.027436784 -0.02025014 0.038957972 0.004831736 -0.044871174
0.02794418 -0.010765722 -0.015430574 -0.024608344 -0.04228812 -0.0008090387 -0.03616287 -0.019355776
-0.03380757 0.068598114 0.044730857 0.035365704 0.015869932 -0.011312343 0.023857983 0.041335896
-0.011858595 -0.029041642 0.009690981 -0.05202255 -0.072406255 0.0054000304 0.021644909 0.013033041
-0.026560968 -0.0025053928 -0.016495306 0.014068671 0.010143816 0.020177463 0.020096384 0.024270482
-0.001908018 0.009478622 -0.0014483747 -0.011506366 0.015745264 -0.020031014 -0.022120556 0.06845955
-0.028515652 -0.0023631481 -0.016451424 -0.03393806 0.045224052 -0.018277679 -0.026206542 -0.039959986
-0.043206505 -0.021671161 0.013810275 0.011602093 0.020105008 0.01919648 0.031345747 0.020938756
0.014730949 -0.038765296 -0.014175216 0.00798241 -0.038150225 0.0036192134 -0.0026907967 -0.027770443
-0.05459089 -0.014549455 -0.0025315236 -0.018241104 0.017711483 -0.026732828 -0.010097361 -0.02710343
0.055313222 -0.06796072 0.0022426844 -0.010658597 0.04988537 0.0135964565 -0.0256016 -0.029514594
-0.029075092 0.03547649 0.022661868 -0.03321459 0.0053976574 0.006997884 0.006417939 -0.025622599
0.018646963 0.016237754 -0.018993476 -0.034880053 -0.015683388 -0.0025851314 0.027514247 0.034361843
-0.04862252 -0.005552782 0.0003001924 -0.04560852 0.004272959 -0.0035637177 -0.0015094263 -0.035417438
-0.044271056 -0.058471236 0.0064094216 0.006024915 -0.011528734 -0.018481547 0.046569977 0.019859036
0.02695239 0.01570525 -0.042106856 -0.02225769 0.023740606 -0.008568293 -0.018942319 0.030225625
-0.0083099045 0.004006693 0.01738074 -0.032644216 0.015104834 0.013339645 0.020400722 0.014539553
0.06638916 -0.061708145 0.0058352286 -0.015104131 -0.034573026 0.01889743 -0.026534025 -0.0141544035
0.0015699336 -0.016161516 0.018697888 0.03343555 -0.043395992 -0.009118282 0.002264052 0.012846604
-0.020589672 0.00589092 -0.0231004 -0.015259745 -0.02191143 0.0095653 -0.03036251 -0.0016358679
-0.0022797363 0.046230342 -0.005559244 0.008231825 0.0486103 0.030716779 -0.02095719 0.017940678
-0.005317754 0.021609897 -0.020514833 0.0006589224 -0.036987197 0.009906054 -0.009372801 0.0065492764
0.024034813 -0.022029866 0.0076636304 -0.014477181 -0.016263882 -0.011311599 -0.01877032 -0.015294118
00000000: 7138 9ebc 73c6 7abc 8024 1bbd 5217 9db9
00000010: 3225 49bd 09e2 203c dc36 81bb 84a9 8e3b
00000020: 7b78 993b 29fe 1e3c d6fa cabc bc34 153d
00000030: 9ad3 d4bc 507b 05bd d323 80bc d247 dcbb
00000040: 1da9 67bc cd84 fb3c 885c 123c 5a05 cb3c
00000050: 45e0 1a3d 8319 e53c 0863 003d f6ef bebc
00000060: e585 03bc 1a2d 363c 9be4 8b3b 07f9 97bc
00000070: 4ec2 7dbb 0de5 643c 487e bf3b add9 c7bc
00000080: 5842 80bc a5b8 f53c 9c91 6d3d 56a7 513c
00000090: d3d9 543d ac59 ae3c de1e 4abc 6ba3 a13c
000000a0: 5eb3 8d3c e9f5 7fbc 1b94 a8bc b87c bfbc
000000b0: fea2 493d 7cd0 1cbd fe13 4fbc 5553 873d
000000c0: 7b05 b63b c2b1 ad3b 7ed8 f03c 280e c3bb
000000d0: 8013 a5bc 4b46 adbc 1bb0 e83c e1f4 c43c
000000e0: 8b1d eebb f86a 953b 9462 403c 62e7 56bc
000000f0: 5b0b c5bc 4b36 95ba f28f 593d a4e1 4abc
00000100: 6b8f 3fbc 0410 c9bc e76f 933c 961d ecbc
00000110: c48e 0abd 6c5c 7bbb 8f2c 993c c1a8 5f3c
00000120: 4882 3dbc 7e35 a53c 7150 25bd 1bc3 e03c
00000130: 9fe3 a5bc 6592 1f3d 8a53 9e3b d6ca 37bd
00000140: 31eb e43c b662 30bc 85d0 7cbc 7097 c9bc
00000150: 4f36 2dbd ab15 54ba 841f 14bd 0190 9ebc
00000160: ce79 0abd 2b7d 8c3d b437 373d a1db 103d
00000170: a901 823c 6857 39bc d171 c33c d44f 293d
00000180: 8d4a 42bc bde8 edbc ecc6 1e3c 9915 55bd
00000190: bb49 94bd bdf2 b03b aa50 b13c 8988 553c
000001a0: 6396 d9bc 8431 24bb 2a21 87bc 4880 663c
000001b0: 3f32 263c 354b a53c 2ca1 a43c e4d2 c63c
000001c0: 7616 faba 394c 1b3c 64d7 bdba 3285 3cbc
000001d0: 36fc 803c 1518 a4bc 2b36 b5bc 8534 8c3d
000001e0: a899 e9bc 0cdf 1abb 23c5 86bc a302 0bbd
000001f0: db3c 393d 12bb 95bc 1aaf d6bc 15ad 23bd
00000200: 4ef9 30bd b887 b1bc 7e44 623c b516 3e3c
00000210: 42b3 a43c f041 9d3c 6664 003d c187 ab3c
00000220: 145a 713c 5cc8 1ebd 2a3f 68bc a7c8 023c
00000230: 6943 1cbd 5330 6d3b 1458 30bb d77e e3bc
00000240: b29a 5fbd d660 6ebc ebe7 25bb 5e6e 95bc
00000250: ac17 913c cefe dabc 676f 25bc 0308 debc
00000260: 1e90 623d fd2e 8bbd 00fa 123b 65a1 2ebc
00000270: 9a54 4c3d acc3 5e3c 72ba d1bc 97c8 f1bc
00000280: e32e eebc cc4f 113d 62a5 b93c 060c 08bd
00000290: d5de b03b 814e e53b 934d d23b 7ce6 d1bc
000002a0: 84c1 983c 0a05 853c 3598 9bbc 63de 0ebd
000002b0: 737a 80bc 4f6b 29bb 8f65 e13c 01bf 0c3d
000002c0: 6828 47bd 1df4 b5bb 2463 9d39 00d0 3abd
000002d0: 2e04 8c3b 438d 69bb f1d7 c5ba e011 11bd
000002e0: 9155 35bd 897f 6fbd 2006 d23b a66c c53b
000002f0: 04e3 3cbc 9d66 97bc 29c0 3e3d 6baf a23c
00000300: 42cb dc3c 4ca8 803c 3d78 2cbd c255 b6bc
00000310: a97b c23c 0762 0cbc ec2c 9bbc bb9b f73c
00000320: 4426 08bc 944a 833b 0e62 8e3c f1b5 05bd
00000330: 447a 773c 878e 5a3c 6a1f a73c 4e37 6e3c
00000340: 0af7 873d aec1 7cbd 7235 bf3b 5177 77bc
00000350: 729c 0dbd c8ce 9a3c e25d d9bc dfe7 67bc
00000360: 3bc6 cd3a 2865 84bc 502c 993c b7f3 083d
00000370: ffbf 31bd d964 15bc 7d60 143b 907a 523c
00000380: acab a8bc 9e08 c13b 0d3d bdbc 0204 7abc
00000390: 997f b3bc c7b7 1c3c ccba f8bc 9e6a d6ba
000003a0: a167 15bb 075c 3d3d 522a b6bb c7de 063c
000003b0: 981b 473d c1a1 fb3c 6aae abbc 54f8 923c
000003c0: 8e40 aebb 3d07 b13c b90e a8bc 89bb 2c3a
000003d0: e37f 17bd 004d 223c 6090 19bc 509b d63b
000003e0: a8e4 c43c fa77 b4bc 311f fb3b b331 6dbc
000003f0: d53b 85bc 4954 39bc 37c4 99bc 2e94 7abc

network_body._body_endoder.seq_layers.2.bias f4 [128]
0.0 0.0 0.0 0.0 0.0 0.0 0.0 0.0
0.0 0.0 0.0 0.0 0.0 0.0 0.0 0.0
0.0 0.0 0.0 0.0 0.0 0.0 0.0 0.0
0.0 0.0 0.0 0.0 0.0 0.0 0.0 0.0
0.0 0.0 0.0 0.0 0.0 0.0 0.0 0.0
0.0 0.0 0.0 0.0 0.0 0.0 0.0 0.0
0.0 0.0 0.0 0.0 0.0 0.0 0.0 0.0
0.0 0.0 0.0 0.0 0.0 0.0 0.0 0.0
0.0 0.0 0.0 0.0 0.0 0.0 0.0 0.0
0.0 0.0 0.0 0.0 0.0 0.0 0.0 0.0
0.0 0.0 0.0 0.0 0.0 0.0 0.0 0.0
0.0 0.0 0.0 0.0 0.0 0.0 0.0 0.0
0.0 0.0 0.0 0.0 0.0 0.0 0.0 0.0
0.0 0.0 0.0 0.0 0.0 0.0 0.0 0.0
0.0 0.0 0.0 0.0 0.0 0.0 0.0 0.0
0.0 0.0 0.0 0.0 0.0 0.0 0.0 0.0
00000000: 0000 0000 0000 0000 0000 0000 0000 0000
00000010: 0000 0000 0000 0000 0000 0000 0000 0000
00000020: 0000 0000 0000 0000 0000 0000 0000 0000
00000030: 0000 0000 0000 0000 0000 0000 0000 0000
00000040: 0000 0000 0000 0000 0000 0000 0000 0000
00000050: 0000 0000 0000 0000 0000 0000 0000 0000
00000060: 0000 0000 0000 0000 0000 0000 0000 0000
00000070: 0000 0000 0000 0000 0000 0000 0000 0000
00000080: 0000 0000 0000 0000 0000 0000 0000 0000
00000090: 0000 0000 0000 0000 0000 0000 0000 0000
000000a0: 0000 0000 0000 0000 0000 0000 0000 0000
000000b0: 0000 0000 0000 0000 0000 0000 0000 0000
000000c0: 0000 0000 0000 0000 0000 0000 0000 0000
000000d0: 0000 0000 0000 0000 0000 0000 0000 0000
000000e0: 0000 0000 0000 0000 0000 0000 0000 0000
000000f0: 0000 0000 0000 0000 0000 0000 0000 0000
00000100: 0000 0000 0000 0000 0000 0000 0000 0000
00000110: 0000 0000 0000 0000 0000 0000 0000 0000
00000120: 0000 0000 0000 0000 0000 0000 0000 0000
00000130: 0000 0000 0000 0000 0000 0000 0000 0000
00000140: 0000 0000 0000 0000 0000 0000 0000 0000
00000150: 0000 0000 0000 0000 0000 0000 0000 0000
00000160: 0000 0000 0000 0000 0000 0000 0000 0000
00000170: 0000 0000 0000 0000 0000 0000 0000 0000
00000180: 0000 0000 0000 0000 0000 0000 0000 0000
00000190: 0000 0000 0000 0000 0000 0000 0000 0000
000001a0: 0000 0000 0000 0000 0000 0000 0000 0000
000001b0: 0000 0000 0000 0000 0000 0000 0000 0000
000001c0: 0000 0000 0000 0000 0000 0000 0000 0000
000001d0: 0000 0000 0000 0000 0000 0000 0000 0000
000001e0: 0000 0000 0000 0000 0000 0000 0000 0000
000001f0: 0000 0000 0000 0000 0000 0000 0000 0000

network_body._body_endoder.seq_layers.2.weight f4 [128, 128]
-0.23740304 0.02373511 0.0247422 -0.12401459 0.15103124 0.122596286 0.018505234 -0.08111405
0.11895867 -0.21033715 0.026473932 0.019773873 -0.006622654 -0.06302378 0.14190046 0.035073295
-0.045017187 -0.035516717 0.04973018 -0.03900588 0.07697958 -0.044642087 0.10961307 -0.1083956
0.16818835 -0.059187002 0.08747168 -0.05282696 0.09893868 0.058906715 -0.005752556 -0.04716403
-0.08084537 -0.047181062 -0.14718255 -0.021941328 0.01764122 0.084546834 -0.124192476 -0.0820747
0.12594531 0.013310394 0.1685832 -0.11463735 0.14698662 -0.049775165 0.109148175 -0.05405534
0.15955952 -0.0046095815 0.09774993 -0.023742257 0.06057595 -0.08729969 0.14057909 0.2172919
-0.0016203545 -0.079707794 0.17791927 -0.05685446 -0.12655216 -0.030280812 0.02116181 -0.10742976
-0.15770026 0.14513212 -0.19588237 -0.076468825 -0.092261285 0.031817794 -0.017116982 0.024810772
-0.06418754 0.025017412 -0.05494877 0.03262637 0.061555434 -0.073357254 -0.089037135 -0.01518841
0.1698897 -0.1428757 0.11022056 0.029487783 -0.013999362 0.12629646 -0.08633037 0.09353072
0.067166105 -0.0031516273 0.11423469 0.026306305 0.039147474 0.03545822 0.034078762 -0.0182282
-0.21101902 -0.17320004 -0.09738481 0.018602774 -0.18340819 0.010151083 -0.015612117 -0.07044319
-0.04638992 -0.027192857 -0.102766775 -0.027224079 -0.06948715 0.006521753 0.07817623 0.012732546
0.09225726 0.09679388 0.15442707 -0.045539044 -0.121390685 0.087147966 0.09017643 -0.08920483
0.16360189 -0.0105894515 0.0035606364 -0.057683215 0.027835006 0.026019784 0.016825257 -0.009607694
-0.05333013 -0.005141335 0.053089846 -0.060186885 -0.08653442 0.06272526 0.022107821 -0.038697217
0.11019588 0.013634647 0.04259272 -0.009051145 0.21468222 0.07769003 -0.10867093 -0.08953847
-0.021117205 0.030522147 -0.0145072155 -0.031221442 0.0902915 0.10019949 0.04641243 -0.017922612
0.06697327 -0.035900455 -0.02559384 -0.06658322 0.11290079 -0.018956237 -0.04806418 0.04878758
-0.03129683 -0.03505815 0.01817361 -0.08378952 0.048473638 -0.012287555 0.05518247 0.11150978
-0.22081062 0.21013756 0.07366549 -0.02135145 -0.03704448 0.044828963 -0.09308252 0.069771275
-0.014129322 0.015031179 -0.02524459 0.050888713 -0.1364072 -0.039168835 -0.076472476 -0.024110073
0.08619575 -0.1377694 0.10178142 0.015177388 -0.049991526 -0.061364893 -0.02989676 -0.019963022
-0.09668603 -0.001958127 -0.069678225 -0.13106978 -0.07940466 -0.020227687 -0.06672707 0.13951726
4.0658273e-05 -0.03353473 0.0123976255 -0.058812026 0.07938782 0.16365968 0.0034383517 0.12712228
-0.10653464 -0.0039532073 -0.08338489 -0.0630363 0.07687485 -0.10593568 -0.08369446 0.026253628
-0.00091001316 0.035743903 -0.15753046 -0.08066105 -0.04284961 -0.018000083 0.017624818 0.099946484
-0.09274986 0.065233044 -0.22653629 -0.026694447 -0.047282543 -0.0007769893 -0.07761676 -0.009156578
0.065228604 -0.09968562 0.054912217 0.12078958 -0.089517 0.07471938 -0.109699875 0.027149666
0.02950307 0.0392513 0.083197765 0.010846257 -0.07702393 0.048380703 0.089505926 -0.092758566
0.023083434 0.053253885 -0.20254911 0.1171219 0.112791985 -0.06396104 0.025414836 -0.0014359266
00000000: c819 73be 2270 c23c 27b0 ca3c 5dfb fdbd
00000010: efa7 1a3e c313 fb3d 4a98 973c 1f1f a6bd
00000020: 9aa0 f33d 9f62 57be dcdf d83c d1fc a13c
00000030: d902 d9bb 9d12 81bd 5b4e 113e 04a9 0f3d
00000040: f163 38bd fa79 11bd e0b1 4b3d a1c4 1fbd
00000050: 78a7 9d3d 9fda 36bd d17c e03d 83fe ddbd
00000060: 9139 2c3e 126e 72bd 5a24 b33d 1561 58bd
00000070: 5da0 ca3d 2b48 713d f07f bcbb 122f 41bd
00000080: 4292 a5bd ee40 41bd 06b7 16be 4dbe b3bc
00000090: 5284 903c e426 ad3d a058 febd c816 a8bd
000000a0: cff7 003e d713 5a3c 13a1 2c3e fdc6 eabd
000000b0: a983 163e 0be1 4bbd 1489 df3d 2269 5dbd
000000c0: 9263 233e f90b 97bb 1e31 c83d 1f7f c2bc
000000d0: 7d1e 783d 2eca b2bd f7f3 0f3e c581 5e3e
000000e0: 1362 d4ba d73d a3bd 7830 363e 39e0 68bd
000000f0: e496 01be 770f f8bc 885b ad3c 2204 dcbd
00000100: 2d7c 21be 849d 143e 6395 48be b09b 9cbd
00000110: 7cf3 bcbd 6053 023d ea38 8cbc f63f cb3c
00000120: c274 83bd 51f1 cc3c f611 61bd 3ba3 053d
00000130: 8d21 7c3d 543c 96bd 1a59 b6bd cfd8 78bc
00000140: 91f7 2d3e 024e 12be 51bb e13d 5d90 f13c
00000150: 945d 65bc dc53 013e facd b0bd 098d bf3d
00000160: 628e 893d 888b 4ebb e1f3 e93d 5280 d73c
00000170: 1a59 203d a33c 113d 2c96 0b3d 4e53 95bc
00000180: 5f15 58be 5a5b 31be b071 c7bd d864 983c
00000190: 5bcf 3bbe ba50 263c f7c9 7fbc 8544 90bd
000001a0: 5b03 3ebd 8ec3 debc 6377 d2bd 0805 dfbc
000001b0: 474f 8ebd 6eb4 d53b dc1a a03d 2b9c 503c
000001c0: 60f1 bc3d df3b c63d 2122 1e3e 2687 3abd
000001d0: ae9b f8bd a27a b23d 6cae b83d 06b1 b6bd
000001e0: 4187 273e 617f 2dbc 9159 693b 3c45 6cbd
000001f0: 3d06 e43c 7127 d53c 1fd5 893c 9769 1dbc
00000200: b270 5abd a578 a8bb bd74 593d 8686 76bd
00000210: f538 b1bd 1a76 803d 761b b53c f980 1ebd
00000220: 61ae e13d db63 5f3c b475 2e3d 414b 14bc
00000230: a8d5 5b3e f31b 9f3d dd8e debd f25f b7bd
00000240: fdfd acbc 9509 fa3c acaf 6dbc 1cc4 ffbc
00000250: c0ea b83d 6435 cd3d f61a 3e3d 71d2 92bc
00000260: 4829 893d 5b0c 13bd 2caa d1bc c95c 88bd
00000270: 8838 e73d 1c4a 9bbc f2de 44bd 7cd5 473d
00000280: 1b31 00bd 2299 0fbd d3e0 943c d799 abbd
00000290: 4b8c 463d be51 49bc 0307 623d 3d5f e43d
000002a0: 2e1c 62be 4d2e 573e efdd 963d 3ce9 aebc
000002b0: f4bb 17bd 939e 373d 0ca2 bebd 3ee4 8e3d
000002c0: ac7e 67bc 5645 763c becd cebc af70 503d
000002d0: 54ae 0bbe 806f 20bd 9a9d 9cbd 7d82 c5bc
000002e0: 6687 b03d 6c13 0dbe c772 d03d 94aa 783c
000002f0: eac3 4cbd c159 7bbd 0dea f4bc 7e89 a3bc
00000300: 5303 c6bd eb53 00bb 75b3 8ebd 2837 06be
00000310: e99e a2bd 89b4 a5bc 34a8 88bd 9ddd 0e3e
00000320: 7d88 2a38 b75b 09bd 691f 4b3c e1e4 70bd
00000330: 1596 a23d 6796 273e f855 613b 582c 023e
00000340: d52e dabd e889 81bb b2c5 aabd 2d19 81bd
00000350: 9070 9d3d cef4 d8bd 0068 abbd d911 d73c
00000360: f38d 6eba 3368 123d aa4f 21be 9f31 a5bd
00000370: 1383 2fbd e974 93bc ec61 903c beb0 cc3d
00000380: a3f3 bdbd e798 853d 21f9 67be 50ae dabc
00000390: 57ab 41bd dfae 4bba 89f5 9ebd 7905 16bc
000003a0: 9396 853d f927 ccbd a2eb 603d 8760 f73d
000003b0: b054 b7bd 7906 993d 54aa e0bd fa68 de3c
000003c0: 6cb0 f13c f9c5 203d 9763 aa3d 80b4 313c
000003d0: b9be 9dbd d82a 463d e24e b73d 34f8 bdbd
000003e0: 7819 bd3c bf20 5a3d 0969 4fbe 9bdd ef3d
000003f0: 7cff e63d 01fe 82bd c632 d03c b435 bcba
