results/ppo/MoveToBet/MoveToBet-11136.onnx (onnx, 768393 bytes, 7 tensors)

action_model._continuous_distribution.log_sigma f4 [1, 17]
0.00489214 0.0010882436 0.0004078579 -0.0022563464 -0.0006481463 -0.0019225087 -0.00015645423 -0.0002902857
-0.0030468148 -0.004319325 2.292914e-05 0.0048854235 -0.00079869793 -0.00480724 -0.00017005963 -0.001449658
-0.0018837751
00000000: 3f4e a03b 65a3 8e3a c3d5 d539 36df 13bb
00000010: 5de8 29ba b0fc fbba dd0d 24b9 7d31 98b9
00000020: 12ad 47bb 2089 8dbb f457 c037 e715 a03b
00000030: b65f 51ba 0d86 9dbb 0952 32b9 7302 beba
00000040: 01e9 f6ba

action_model._continuous_distribution.mu.bias f4 [17]
-0.0024503532 0.00061880524 0.00014044269 -0.00033204877 -4.2934003e-05 -0.0001655024 -0.0021780648 -0.0012988455
0.0006567135 0.00048195056 0.00019274806 -0.00064845494 0.0018431694 0.00033097644 -0.0004243283 0.0029791943
-0.0011502128
00000000: 1b96 20bb 5137 223a cc43 1339 d516 aeb9
00000010: 0914 34b8 b68a 2db9 ddbd 0ebb 063e aaba
00000020: 4c27 2c3a 4fae fc39 6a1c 4a39 13fd 29ba
00000030: 8196 f13a e886 ad39 6178 deb9 963e 433b
00000040: bdc2 96ba

action_model._continuous_distribution.mu.weight f4 [17, 128]
0.03138784 0.0006592087 -0.0012386355 0.0042374004 -0.00027856702 -0.01776772 0.018891502 -0.024720749
0.004150179 -0.013611445 -0.009085056 0.021377912 -0.0009068937 -0.0075661372 0.014285508 -0.022175254
-0.0030383577 0.031956017 -0.0005908157 0.00040809708 -0.03233454 0.014893644 -0.02482002 0.018189233
-0.010228835 -0.018278394 0.0015087634 -0.018259041 -0.031497303 0.00818666 -0.035936184 0.0025936018
0.024869367 -0.0014670452 -0.008722227 -0.013585189 0.0052782255 0.0062890584 0.047893737 -0.007845852
0.01679891 -0.005297591 0.008650913 -0.0035726198 0.002856331 -0.012844702 0.0040730075 0.019036017
-0.0053079943 -0.04263543 -0.023849526 -0.005939545 -0.0030904203 -0.0035660297 -0.0020577011 -0.035279166
-0.011634006 -0.027198015 0.011462709 0.0028845393 0.040776886 -0.010819158 0.010956078 -0.0028268078
0.0026691714 -0.045260448 0.011297968 0.011576316 0.017525656 -0.021520888 -0.012823119 0.017210137
0.0010192855 -0.0029740885 0.019845713 0.007597507 -0.00092332985 0.011897456 0.0012861915 0.004678072
0.010624952 -0.0028309068 0.012876194 0.033376846 0.039103456 -0.040053878 -0.010548324 0.020807948
0.017232126 0.00975832 0.003714409 -0.0011722122 -0.0009906759 -0.007284857 -0.03247311 0.015743598
-0.0038419531 0.01680157 -0.0019656213 0.019111935 0.021323588 0.001754859 0.007890511 0.004517714
-0.015163202 -0.031737875 -0.0094961105 0.018238043 0.0108717475 0.0016905643 -0.0049546896 0.046608232
0.014846181 0.0042865956 0.019386102 0.0058913454 -0.005998313 -0.0023826433 0.023817044 -0.0028102864
-0.03278098 -0.0010255558 0.0218618 -0.0059491526 -0.0052472507 0.01187116 0.03438362 0.01513399
0.045174032 0.021900572 -0.022286111 0.0031148656 -0.003618253 -0.010909499 -0.023392588 -0.02037593
0.005090811 0.016779069 -0.008994863 -0.010989321 0.008019778 -0.0028080423 -0.024037218 0.021299664
0.017051596 -0.006602848 -0.03669579 0.0018481346 0.0027778086 -0.011557472 -0.014020445 -0.00080885476
0.006285527 -0.021865597 0.00705524 -0.0054846155 -0.0021915287 -0.019213708 0.011386037 -0.021759626
0.016262535 -0.033369515 -0.01585354 -0.012879837 -0.0178125 -0.0072087506 0.004792789 -0.034834906
0.022915678 -0.009173021 -0.0023164498 -0.02284349 -0.0104427375 -0.010329006 0.00748364 0.0022568293
0.014171849 -0.017989393 0.006863584 -0.027574638 -4.91633e-05 0.009354111 0.016942902 -0.001931321
0.010216702 -0.022879204 0.023487464 -0.014007594 0.022781663 0.00089277164 0.00010713911 -0.00011450346
-0.015490877 0.0042625386 0.043536875 0.017453592 -0.011198692 -0.0054102833 -0.033171862 0.03094777
0.0004142594 0.010198297 -0.0120744575 0.025223833 -0.013069185 0.012016394 0.0011757377 -0.008627426
-0.02140116 0.013140288 0.0064670816 0.02243082 -0.0012420999 0.037054986 0.005436872 -0.024391545
0.0042117937 0.0029737928 -0.03723721 -0.024671307 -0.0049086846 -0.0014925388 -0.040228665 -0.0075736735
0.0122658955 0.0058394005 -0.006761543 -0.010659165 0.021363249 -0.013111723 0.014841325 0.02261064
-0.006387401 0.02047919 0.0056436723 0.02107294 0.022152321 -0.035930015 0.022720965 0.02691053
0.012286173 -0.015817096 -0.011185449 0.00992845 -0.02176545 -0.042189095 -0.0014991319 0.029552966
-0.0041314247 -0.009875894 0.003140717 0.014107363 0.016985241 0.024285657 -0.032377277 -0.010827249
00000000: 8990 003d bfce 2c3a b659 a2ba e4d9 8a3b
00000010: a20c 92b9 9c8d 91bc 5ac2 9a3c 2b83 cabc
00000020: 3afe 873b 8a02 5fbc 7dd9 14bc bb20 af3c
00000030: 9bbc 6dba 5ced f7bb c30d 6a3c e1a8 b5bc
00000040: 2f1f 47bb 50e4 023d f8e0 1aba ddf5 d539
00000050: 3971 04bd 7804 743c 5b53 cbbc 9601 953c
00000060: d896 27bc 92bc 95bc b3c1 c53a fc93 95bc
00000070: 5103 01bd 5721 063c d231 13bd 6bf9 293b
00000080: d8ba cb3c de49 c0ba ace7 0ebc 6a94 5ebc
00000090: f7f4 ac3b 7214 ce3b 392c 443d e38b 00bc
000000a0: de9d 893c 6a97 adbb 8fbc 0d3c 9d22 6abb
000000b0: 4831 3b3b 9672 52bc dd76 853b 6cf1 9b3c
000000c0: afee adbb 7da2 2ebd 1560 c3bc 84a0 c2bb
000000d0: a688 4abb 0db4 69bb 7fda 06bb e380 10bd
000000e0: 8f9c 3ebc 5fce debc 16ce 3b3c 8a0a 3d3b
000000f0: aa05 273d d642 31bc 1f81 333c f741 39bb
00000100: 44ed 2e3b 0563 39bd 1d1b 393c 97aa 3d3c
00000110: f791 8f3c 934c b0bc 0f18 52bc 46fc 8c3c
00000120: 8c99 853a ede8 42bb 7a93 a23c 82f4 f83b
00000130: 9e0b 72ba 8ced 423c 6d95 a83a 834a 993b
00000140: 4714 2e3c bc86 39bb acf6 523c 29b6 083d
00000150: f22a 203d 890f 24bd e1d2 2cbc 6e75 aa3c
00000160: 632a 8d3c 5ce1 1f3c 716d 733b eaa4 99ba
00000170: 91d9 81ba cfb5 eebb 8602 05bd b8f8 803c
00000180: 47c9 7bbb 72a3 893c a7d1 00bb a290 9c3c
00000190: ceae ae3c 4c03 e63a 3447 013c 5509 943b
000001a0: 146f 78bc 93ff 01bd 9395 1bbc f367 953c
000001b0: 6a1f 323c ed95 dd3a f35a a2bb 46e8 3e3d
000001c0: 653d 733c 9276 8c3b 9acf 9e3c 300c c13b
000001d0: 7f8d c4bb 1f26 1cbb f61b c33c c82c 38bb
000001e0: 5945 06bd f16b 86ba 8517 b33c 1cf1 c2bb
000001f0: 21f1 abbb 417f 423c d7d5 0c3d 8ef4 773c
00000200: 6808 393d d468 b33c 5d91 b6bc c622 4c3b
00000210: 3620 6dbb c1bd 32bc d0a1 bfbc 6ceb a6bc
00000220: d1d0 a63b 4274 893c 315f 13bc 8e0c 34bc
00000230: 6365 033c 2207 38bb b3e9 c4bc a27c ae3c
00000240: caaf 8b3c b45c d8bb 534e 16bd 1b3d f23a
00000250: e50b 363b 8d5b 3dbc 02b6 65bc 5309 54ba
00000260: d2f6 cd3b 7b1f b3bc a52f e73b 4ab8 b3bb
00000270: c09f 0fbb 1166 9dbc 808c 3a3c 3e41 b2bc
00000280: 0239 853c 79ae 08bd 48df 81bc f405 53bc
00000290: 85eb 91bc 6237 ecbb d40c 9d3b 0caf 0ebd
000002a0: a9b9 bb3c 704a 16bc 94cf 17bb 4522 bbbc
000002b0: 0418 2bbc fe3a 29bc 5339 f53b 50e7 133b
000002c0: 0b31 683c 7e5e 93bc eae7 e03b 35e4 e1bc
000002d0: b134 4eb8 fc41 193c d7cb 8a3c 6124 fdba
000002e0: f463 273c 2b6d bbbc c868 c03c 1c80 65bc
000002f0: 9ca0 ba3c e408 6a3a dfaf e038 9421 f0b8
00000300: 73cd 7dbc c4ac 8b3b b953 323d d6fa 8e3c
00000310: b87a 37bc bf48 b1bb 38df 07bd 2e86 fd3c
00000320: f530 d939 c216 273c f2d3 45bc 36a2 ce3c
00000330: 2320 56bc 69e0 443c 361b 9a3a 0c5a 0dbc
00000340: 7c51 afbc 5d4a 573c d0e9 d33b d7c0 b73c
00000350: f5cd a2ba f8c6 173d ca27 b23b c7d0 c7bc
00000360: 1603 8a3b f7e3 423b 0b86 18bd 7b1b cabc
00000370: 08d9 a0bb 4ba1 c3ba d0c6 24bd 942c f8bb
00000380: e5f6 483c 7158 bf3b ef8f ddbb c7a3 2ebc
00000390: fb01 af3c 8dd2 56bc 0729 733c f339 b93c
000003a0: 674d d1bb f9c3 a73c 8eee b83b 29a1 ac3c
000003b0: c978 b53c 5a2b 13bd 5121 ba3c 7973 dc3c
000003c0: f24b 493c db92 81bc 2c43 37bc f0aa 223c
000003d0: 754d b2bc 79ce 2cbd 857e c4ba 1019 f23c
000003e0: e760 87bb 80ce 21bc 7dd4 4d3b 9222 673c
000003f0: a224 8b3c b7f2 c63c 099e 04bd c664 31bc

network_body._body_endoder.seq_layers.0.bias f4 [128]
-0.0017857336 0.0010659058 -0.0016778859 -0.00112605 0.00013713939 0.0020828838 -0.0013141274 0.00016220722
0.0017623778 -0.0010374537 0.001587837 0.0013960906 -0.0014460133 0.0005326888 0.0005764047 -0.00055359624
0.0012698618 -0.0036925934 0.00079376186 0.00043674433 0.0025873727 -0.001223673 -0.000112663845 -0.0014111706
0.0008687063 -0.00049573666 -0.0010105202 -0.0026616098 0.00085343164 -0.00048185312 0.00028449108 -0.001016828
0.0013878281 -0.00020354638 0.0001405725 0.00060456083 -0.00046876032 -0.00096575316 0.00055435684 0.0021991048
-0.0005285807 0.0029655404 0.0013014505 -0.0026997076 0.0005041649 0.000642075 -0.00041038287 6.0348997e-05
0.00010332038 -0.00086059043 0.00082599436 -0.00017137203 0.0015693003 0.00028772277 -0.0018462313 -0.0028973415
-0.002960777 -0.00034642534 -0.00035240207 0.0018730375 0.0011821251 0.001124062 -0.00076711725 0.0017835884
-0.002753195 -0.00085357536 -0.003590268 -0.0012109051 -0.00067668664 -0.00025553466 -0.0015212687 -0.0009971827
-0.0007410211 0.00026644813 -0.0015917514 0.00015221581 -0.002740184 -0.0020380241 -0.0010243409 -0.0021852946
-0.00016899589 -0.0014069823 -0.00027485006 0.00057968067 -0.00064886356 -0.0002859395 0.0002325764 -0.0008871074
-0.00034818644 0.0011610885 -0.004310756 0.00059188233 -0.0014810766 -0.00079310377 -0.0015400879 0.0021567314
6.6773755e-05 0.00026853808 0.00028520694 -7.302081e-05 0.002384752 -0.0017600299 -0.0005399481 9.942397e-05
-0.00090609805 -0.0004627004 -0.0009773462 -0.0008531081 0.00032238688 -0.0011748543 0.001364371 0.0019001212
-0.0013488992 0.00015834384 -0.001361767 -0.000411848 0.0010869823 -0.0017006693 0.0009098184 9.735054e-06
0.0007294601 -0.002148674 -0.0029566067 0.0013593276 -0.001057122 -0.0016062437 -0.0036316058 0.00029847733
00000000: 470f eaba ddb5 8b3a 82ec dbba f897 93ba
00000010: 13cd 0f39 fe80 083b cc3e acba 2b16 2a39
00000020: 96ff e63a 2bfb 87ba f81e d03a 07fd b63a
00000030: 2888 bdba 24a4 0b3a dd19 173a 371f 11ba
00000040: 7e71 a63a 70ff 71bb 7514 503a d5fa e439
00000050: e990 293b a763 a0ba f145 ecb8 07f7 b8ba
00000060: e5b9 633a 53f4 01ba 6e73 84ba 676e 2ebb
00000070: d4b8 5f3a 3ba1 fcb9 bf27 9539 1647 85ba
00000080: c9e7 b53a 116f 55b9 a566 1339 647b 1e3a
00000090: f2c3 f5b9 992a 7dba 4252 113a db1e 103b
000000a0: 7390 0aba 8359 423b 6f95 aa3a 94ed 30bb
000000b0: ef29 043a ed50 283a a828 d7b9 3e1f 7d38
000000c0: b5ad d838 3f99 61ba 8b87 583a 54b2 33b9
000000d0: fbb0 cd3a 7fd9 9639 3efd f1ba 53e1 3dbb
000000e0: 9809 42bb 6ca0 b5b9 9bc2 b8b9 b680 f53a
000000f0: 89f1 9a3a 4355 933a 5e18 49ba 4cc7 e93a
00000100: f26e 34bb 79c2 5fba b44a 6bbb 3cb7 9eba
00000110: ac63 31ba 48f9 85b9 4f65 c7ba e6b3 82ba
00000120: 1641 42ba 10b2 8b39 50a2 d0ba 1f9c 1f39
00000130: a994 33bb 5f90 05bb 2d43 86ba 2937 0fbb
00000140: 7d34 31b9 7e6a b8ba c019 90b9 b6f5 173a
00000150: 7f18 2aba 26ea 95b9 c1df 7339 c58c 68ba
00000160: cb8c b6b9 aa2f 983a 3e41 8dbb 8d28 1b3a
00000170: af20 c2ba 4be8 4fba c6dc c9ba f357 0d3b
00000180: e308 8c38 92ca 8c39 d487 9539 c022 99b8
00000190: 8049 1c3b ceb0 e6ba 4e8b 0dba d681 d038
000001a0: 3687 6dba 9996 f2b9 4c1a 80ba 1ea3 5fba
000001b0: 0906 a939 92fd 99ba b2d4 b23a 7d0d f93a
000001c0: 8ccd b0ba 1a09 2639 517d b2ba 4eed d7b9
000001d0: 1379 8e3a fee8 deba e180 6e3a bd53 2337
000001e0: 3d39 3f3a c5d0 0cbb a1c3 41bb 772b b23a
000001f0: 218f 8aba 9888 d2ba 3c00 6ebb f37c 9c39

network_body._body_endoder.seq_layers.0.weight f4 [128, 1350]
-0.037107892 -0.010442561 -0.0053490982 -0.052097462 0.035897046 -0.012623597 -0.028880456 0.0015862869
0.04774243 -0.020290958 0.037054684 0.017789181 0.0023675335 -0.02250899 0.0034061535 -0.024913752
0.04823324 0.016655847 -0.01333757 0.037366223 -0.0012684623 0.038105097 0.029416008 0.028786303
-0.016265828 -0.023922449 0.013196589 -0.07953393 -0.050118197 -0.027105011 -0.033833176 0.010896503
-0.03380776 -0.025538309 0.03235271 0.03940897 0.03230852 -0.004227701 0.06020107 -0.023268195
-0.04141481 -0.04796011 -0.020169342 0.0017516059 -0.0065631606 0.007800067 0.006125502 -0.010945911
0.03504752 -0.03438427 -0.04944024 -0.01684958 -0.0240401 0.024388153 0.055279642 -0.036092125
0.023511732 -0.024634851 0.006199365 0.020946011 0.0043927683 -0.03328955 0.017224537 0.016409561
0.00783974 0.020849228 0.06286582 0.032430373 0.030982649 0.03701206 0.032807365 0.01378067
0.031448286 -0.018078329 -0.020223118 0.026584484 -0.016476437 0.012992545 -0.003002473 0.022377428
0.0050945934 -0.05882334 -0.015029882 0.026400723 -0.018171513 -0.0018899366 0.025329124 -0.028517079
-0.022157213 -0.010057582 -0.026501073 0.019043684 0.027179312 0.0063209757 0.03401274 0.006684788
0.0220678 -0.0030699354 -0.023661751 0.0061930553 -0.0033166448 -0.029075643 -0.004106241 -0.004327161
-0.043155197 -0.021789744 0.012922111 0.011329102 0.07424025 0.0058671017 -0.0316817 0.020668013
0.013898799 -0.024536775 -0.024825865 -0.00024505067 0.061685834 -0.0023720958 0.003296105 -0.049805894
-0.007813872 -0.027923282 -0.016370371 -0.036825813 -0.080608 0.0066785137 0.03529178 0.030904492
0.0021318847 0.014737299 0.0018618873 -0.058210097 0.018841133 -0.014263377 0.010836508 0.022585988
0.03326447 -0.029953187 0.0068569863 -0.007956097 -0.0011506532 -0.025426187 -0.041970346 -0.020041315
0.044414364 0.027103059 -0.009921998 -0.0025689597 0.040606994 -0.030329328 -0.007049427 0.026636608
0.027592516 -0.0022798048 -0.053944033 -0.023575146 -0.037494615 0.0103155 -0.041826285 -0.015367662
-0.016370254 0.0036244912 -0.021193648 -0.021198893 -0.047882125 -0.0055336235 -0.020555744 0.005369356
0.014106837 0.037526574 0.027498214 0.024510901 -0.04030892 0.005618476 -0.046504363 -0.008826537
-0.06740586 -0.0064800503 0.036608472 -0.005008767 0.041312207 -0.019616153 -0.030815164 0.030636646
-0.027132481 -0.026491903 0.039305802 -0.014773963 -0.03962306 -0.03600773 -0.024539791 -0.035718236
0.00053698913 -0.024289988 -0.0053283465 -0.004962686 0.0383607 0.006259101 5.832758e-05 -0.03632184
0.009087331 0.017072963 -0.022726806 0.024223536 0.028377732 0.021142203 0.011093394 -0.018021224
0.010393517 0.014935153 0.012884173 -0.031614956 -0.04893039 0.0046318807 0.016233401 -0.04041037
-0.048063427 0.0279078 -0.046478588 -0.009376127 -0.01665522 0.0018829969 0.057956945 -0.0054110307
0.030126074 0.026089039 0.017084388 0.007731138 -0.015107141 -0.033132307 0.029671352 -0.007515248
0.0064758067 0.0051261657 -0.02339874 -0.00024784575 0.012192453 -0.04559727 0.0047812904 0.03569334
0.028242808 0.0026064736 0.046023052 0.053598464 0.0020682903 0.039146166 -0.013079936 -0.00015072226
-0.02104408 0.01971485 0.003969108 0.03378778 0.036478847 0.0041996716 -0.030772254 0.0056996075
00000000: 72fe 17bd 4617 2bbc 7d47 afbb 2664 55bd
00000010: c808 133d 34d3 4ebc b596 ecbc f5ea cf3a
00000020: 918d 433d 3939 a6bc a7c6 173d 9eba 913c
00000030: 9f28 1b3b c664 b8bc c639 5f3b ed17 ccbc
00000040: 3890 453d d871 883c d385 5abc 530d 193d
00000050: 8842 a6ba 1714 1c3d d7f9 f03c 41d1 eb3c
00000060: ea3f 85bc 03f9 c3bc 8236 583c afe2 a2bd
00000070: bd48 4dbd 540b debc a894 0abd 3f87 323c
00000080: 017a 0abd b735 d1bc 4684 043d 4d6b 213d
00000090: f055 043d 8788 8abb 6695 763d f19c bebc
000000a0: 93a2 29bd d271 44bd 2d3a a5bc 2496 e53a
000000b0: c80f d7bb b497 ff3b 6fb8 c83b 7a56 33bc
000000c0: fd8d 0f3d 85d6 0cbd d981 4abd 2108 8abc
000000d0: beef c4bc aac9 c73c e86c 623d 56d5 13bd
000000e0: ad9b c03c 07cf c9bc 0b24 cb3b f896 ab3c
000000f0: 36f1 8f3b a05a 08bd 791a 8d3c 586d 863c
00000100: 4172 003c 00cc aa3c ccbf 803d b6d5 043d
00000110: 53cf fd3c f599 173d 0461 063d 52c8 613c
00000120: ebcf 003d 0119 94bc f4aa a5bc b4c7 d93c
00000130: 98f9 86bc afde 543c 23c5 44bb de50 b73c
00000140: 8cf0 a63b bef0 70bd e53f 76bc 5446 d83c
00000150: 6ddc 94bc c0b7 f7ba 067f cf3c a69c e9bc
00000160: 0b83 b5bc 8ec8 24bc c718 d9bc 8001 9c3c
00000170: 26a7 de3c 3020 cf3b f150 0b3d 110c db3b
00000180: 88c7 b43c f830 49bb 4ad6 c1bc 1def ca3b
00000190: 115c 59bb 0b30 eebc a58d 86bb dbca 8dbb
000001a0: 81c3 30bd 6880 b2bc 43b7 533c b39d 393c
000001b0: 460b 983d d140 c03b acc4 01bd f74f a93c
000001c0: cab7 633c 5901 c9bc 9d5f cbbc 257a 80b9
000001d0: 49aa 7c3d 2a75 1bbb 7703 583b 4401 4cbd
000001e0: c105 00bc 5ebf e4bc 281b 86bc aad6 16bd
000001f0: cf15 a5bd 6fd7 da3b 1d8e 103d 6b2b fd3c
00000200: 17b7 0b3b b674 713c 920a f43a b66d 6ebd
00000210: b858 9a3c f0b0 69bc 9c8b 313c 4006 b93c
00000220: 5340 083d 6360 f5bc 92b0 e03b 4a5a 02bc
00000230: 84d1 96ba 944a d0bc 19e9 2bbd af2d a4bc
00000240: d6eb 353d 3c07 de3c e08f 22bc fe5b 28bb
00000250: 8553 263d 3675 f8bc e1fe e6bb 0435 da3c
00000260: b309 e23c c768 15bb 6bf4 5cbd aa20 c1bc
00000270: f493 19bd 5802 293c 0a52 2bbd a5c8 7bbc
00000280: e91a 86bc df88 6d3b 4d9e adbc 4da9 adbc
00000290: 0c20 44bd 6653 b5bb 8564 a8bc 6cf1 af3b
000002a0: 5d20 673c 77b5 193d ef43 e13c 16cb c83c
000002b0: f71a 25bd 311b b83b 5c7b 3ebd 2e9d 10bc
000002c0: 150c 8abd 9a56 d4bb c4f2 153d 9520 a4bb
000002d0: fd36 293d 0eb2 a0bc 1570 fcbc b4f9 fa3c
000002e0: f044 debc 8c05 d9bc 1fff 203d 7e0e 72bc
000002f0: ca4b 22bd d77c 13bd ac07 c9bc 494d 12bd
00000300: bbc4 0c3a ccfb c6bc 6999 aebb 079e a2bb
00000310: 1c20 1d3d 2519 cd3b c3a4 7438 36c6 14bd
00000320: 07e3 143c 99dc 8b3c 912d babc 7070 c63c
00000330: 6b78 e83c 6a32 ad3c 11c1 353c 3fa1 93bc
00000340: 9249 2a3c 92b2 743c 2318 533c af7e 01bd
00000350: 3c6b 48bd 08c7 973b e9fb 843c 5885 25bd
00000360: 28de 44bd e69e e43c 5560 3ebd 549e 19bc
00000370: 8770 88bc e4ce f63a 4364 6d3d 044f b1bb
00000380: f5ca f63c aeb8 d53c 8ff4 8b3c 7c55 fd3b
00000390: f183 77bc beb5 07bd 5611 f33c 7842 f6bb
000003a0: 0133 d43b 65f9 a73b b7ae bfbc 4bf1 81b9
000003b0: dbc2 473c 34c4 3abd 5fac 9c3b 2e33 123d
000003c0: 765d e73c 5fd1 2a3b ab82 3c3d 108a 5b3d
000003d0: 278c 073b bb57 203d 3a4d 56bc 330b 1eb9
000003e0: a264 acbc 0981 a13c 4b0f 823b 0e65 0a3d
000003f0: d86a 153d 669d 893b 1816 fcbc c6c3 ba3b

network_body._body_endoder.seq_layers.2.bias f4 [128]
-0.000109409215 -0.00021957404 -0.00079008896 0.00061017676 -0.0019499928 -0.001194984 0.00016656409 0.0017944464
-0.0016940123 -0.00023436014 0.0005617699 -0.0021034488 0.001016249 0.00010540112 -0.00056091504 0.000503894
0.002065959 0.0003913435 -0.0011524099 0.0015835321 -0.0002941001 -0.0002261224 -0.00028189083 -0.0024631866
-0.00027171228 -0.00047084995 0.00085505896 0.0012273296 -0.0001760926 0.0012527837 -0.0010657958 -9.999275e-05
-0.0019178105 -0.001022268 -0.001781046 0.00056071434 0.0007002518 -0.00090312085 -0.0015976658 -0.0012028329
0.0023057722 0.00011419179 -0.0015499162 -0.0003217675 -0.0012287787 -0.001520316 0.0010926994 -0.0016757697
0.00023425894 -6.850537e-05 -0.0010170453 -0.00085580867 0.00031802832 0.00055803376 0.0023393808 0.0021566069
-0.0016192414 -0.00074905314 -0.0008564284 0.00041330457 0.0017449075 -0.0013806307 0.0009884115 0.0005976376
3.209006e-05 -0.00045635275 -0.0009823542 0.00045049653 0.0010312054 0.0027574836 0.0014443896 2.9614218e-06
-0.00048186284 -0.0005010169 -0.0011264342 0.00086599117 -0.001433476 -0.00068352005 -0.0007583033 0.0023027568
0.000121516714 0.0007656446 0.0009471626 -0.00092176074 -0.00093620695 0.00034936157 0.0016947035 0.00075304625
0.00033983568 -0.001388789 0.00017355211 -0.00046409576 -0.0012841506 0.0010408557 0.0010444255 -0.0004989959
-0.00025486064 -0.0002251636 -0.00019283468 -0.0017216423 0.0012871198 -0.00073534757 0.0012064116 0.00072970183
0.0016812705 -5.597146e-05 -0.00039241774 -0.0005178914 -0.0020361727 0.001530652 0.0009269668 -0.00048237116
-0.0033407004 0.00041368027 -0.000422674 -0.00053412 -0.0026715517 0.0003541718 -0.0017105502 0.0021298018
0.0017080463 0.00011990809 0.00043766332 -0.0008504758 0.0008455855 -0.0018996785 -0.00039049092 -0.00038761922
00000000: a072 e5b8 753d 66b9 f91d 4fba 45f4 1f3a
00000010: e796 ffba 02a1 9cba b5a7 2e39 a133 eb3a
00000020: 9f09 deba 92be 75b9 bd43 133a 04da 09bb
00000030: a833 853a cc0a dd38 5f0a 13ba c117 043a
00000040: 0a65 073b 3c2d cd39 760c 97ba 858e cf3a
00000050: 7231 9ab9 451b 6db9 bfca 93b9 6a6d 21bb
00000060: 9b74 8eb9 69dc f6b9 0926 603a 59de a03a
00000070: 7fa5 38b9 7234 a43a 2cb2 8bba 33b3 d1b8
00000080: 0b5f fbba 9ffd 85ba fd71 e9ba e7fc 123a
00000090: 1a91 373a 6abf 6cba c568 d1ba 60a8 9dba
000000a0: 701c 173b 407a ef38 8f26 cbba e7b2 a8b9
000000b0: f90e a1ba 5745 c7ba e838 8f3a 80a5 dbba
000000c0: 68a3 7539 8aaa 8fb8 614e 85ba 5958 60ba
000000d0: 0abd a639 0349 123a 4c50 193b dc55 0d3b
000000e0: ba3c d4ba 1b5c 44ba f081 60ba cdb0 d839
000000f0: 61b5 e43a 47f6 b4ba 968d 813a c8aa 1c3a
00000100: 7198 0638 a142 efb9 56c2 80ba 9f30 ec39
00000110: 8329 873a e6b6 343b ac51 bd3a d7bc 4636
00000120: 89a2 fcb9 ad56 03ba dca4 93ba af03 633a
00000130: 79e3 bbba 412e 33ba dfc8 46ba d9e9 163b
00000140: cad6 fe38 8ab5 483a 024b 783a 51a2 71ba
00000150: c96b 75ba 842a b739 d020 de3a 1468 453a
00000160: f92b b239 0708 b6ba 8afb 3539 e151 f3b9
00000170: f250 a8ba 526d 883a 1be5 883a 0ccf 02ba
00000180: d19e 85b9 e519 6cb9 aa33 4ab9 bba8 e1ba
00000190: 93b4 a83a 57c4 40ba 7520 9e3a 7649 3f3a
000001a0: 145e dc3a e6c2 6ab8 6bbd cdb9 1bc3 07ba
000001b0: 4f71 05bb 29a0 c83a b0ff 723a c3e6 fcb9
000001c0: a7ef 5abb 3ae3 d839 589a ddb9 3004 0cba
000001d0: 3315 2fbb 22b0 b939 8a34 e0ba 2594 0b3b
000001e0: 86e0 df3a 2a77 fb38 2d76 e539 77f2 5eba
000001f0: 48aa 5d3a a2fe f8ba ceba ccb9 5f39 cbb9

network_body._body_endoder.seq_layers.2.weight f4 [128, 128]
-0.09734344 -0.028416136 -0.066819154 0.01580407 -0.0009019576 -0.0883564 -0.1157088 0.010797827
0.013097797 -0.008652399 0.119578995 0.0979279 0.02155986 0.033237018 0.0036519293 -0.09865428
0.065497056 0.100248836 -0.13075317 -0.030336227 -0.05485551 0.045738358 0.03651385 -0.1506146
-0.12480207 0.021433184 0.030361287 -0.16090034 -0.13329 -0.050054017 0.037701175 -0.088343315
0.022026498 0.041569583 -0.004676969 -0.0102199055 -0.052158833 -0.023403786 -0.05184407 0.12696977
-0.0054591526 0.10907917 0.19018881 0.075342335 0.018561311 0.04338559 -0.025563216 -0.07501437
-0.07345967 0.108506195 0.04946652 -0.037199896 -0.033480797 0.0809518 -0.042978186 0.08082081
0.055184238 0.031230822 0.048149507 -0.09990933 0.0549422 -0.005306683 -0.03030187 0.08152151
-0.025028195 0.2685355 0.09351349 0.20210315 -0.022321463 -0.0024419622 -0.12687007 0.033512738
-0.06708565 0.0033039409 -0.08235545 0.048089534 -0.030529294 0.09791897 -0.08543388 -0.010445037
0.20154238 -0.10844049 -0.19382381 -0.0871846 0.049859233 0.02086082 -0.13225393 0.08108686
-0.110993534 -0.17099246 0.008607711 0.07053197 0.08791598 -0.1716273 0.042879995 0.005762855
0.07710861 -0.009065886 0.12147451 -0.01145111 0.08826878 -0.033129714 -0.1480812 -0.05200111
0.076724514 0.087204464 -0.0959552 0.20240006 0.031372402 0.068821564 -0.08788094 -0.110516064
0.024834367 0.06987236 0.2669862 -0.017523184 0.039295696 -0.10980507 0.0886494 0.06079576
0.007896472 0.03353263 0.04063966 0.03945839 -0.038082525 -0.03664359 0.04349939 -0.031169333
0.01469389 0.04315562 -0.19200702 0.0015342488 -0.03835646 -0.038789466 -0.15260775 -0.058353126
0.12966071 -0.04294783 -0.10047125 -0.011440481 -0.09906457 0.09879108 -0.040272173 0.0028113197
0.039266437 0.07991563 -0.055303145 -0.009117599 -0.15265246 0.098855115 0.05851506 0.026690826
0.09078469 -0.051159322 -0.08681207 0.14054786 0.094060585 -0.07586195 0.085133865 0.02735523
0.06450529 -0.11672693 -0.07620271 -0.16544943 0.018363869 -0.08822151 -0.07954096 -0.097229086
0.13334386 0.111234814 0.121125564 0.120717615 -0.081244946 -0.14810807 0.057114203 -0.1753407
0.015987955 -0.1579302 -0.03654538 -0.16832297 0.15325485 -0.09236191 -0.001025814 -0.053199213
0.090243526 0.20228063 0.006506758 -0.02328041 0.002253887 -0.07873164 -0.030966708 0.106352605
-0.020526007 0.09801318 0.029163206 0.11269644 0.093724914 -0.0064217118 0.02676183 -0.1234143
-0.045551166 -0.05667073 0.06269759 0.051015273 0.028579585 -0.04560562 -0.052785296 -0.00841461
-0.059960786 -0.0715526 -0.045281854 -0.21492638 0.040427793 0.018208126 0.034567304 -0.106461644
-0.09481569 0.101351075 -0.019876376 -0.07301823 -0.056314442 0.022490254 0.10396741 -0.08735087
0.042456843 0.0375561 -0.014526966 -0.14022617 0.025825474 -0.008329129 0.017299611 -0.089272454
0.14297616 0.2101705 0.09608149 0.23003381 -0.027118238 -0.0718351 -0.06003592 0.042756625
0.058398303 -0.079171166 -0.018874854 0.0022317155 0.033889636 -0.07133581 0.058234267 -0.090367444
0.106227115 -0.017918661 0.0639959 -0.055262774 0.024613615 -0.0561439 0.08149269 0.07196134
00000000: ff5b c7bd f5c8 e8bc 7bd8 88bd 8977 813c
00000010: 5a71 6cba 33f4 b4bd bcf8 ecbd 5ee9 303c
00000020: 2498 563c cbc2 0dbc d5e5 f43d 6c8e c83d
00000030: 4e9e b03c 8a23 083d 3555 6f3b 410b cabd
00000040: 5223 863d 434f cd3d 29e4 05be ae83 f8bc
00000050: 2cb0 60bd 2558 3b3d 8c8f 153d b73a 1abe
00000060: 3a98 ffbd a594 af3c 3cb8 f83c 0fc3 24be
00000070: 2c7d 08be 7105 4dbd 8c6c 1a3d 57ed b4bd
00000080: ea70 b43c de44 2a3d 4241 99bb 6471 27bc
00000090: 80a4 55bd 4cb9 bfbc 735a 54bd 5d04 023e
000000a0: b1e2 b2bb e664 df3d dbc0 423e 154d 9a3d
000000b0: e40d 983c 17b5 313d f369 d1bc 22a1 99bd
000000c0: 0672 96bd 7f38 de3d 689d 4a3d eb5e 18bd
000000d0: 2923 09bd 0fca a53d e509 30bd 6185 a53d
000000e0: de08 623d c8d7 ff3c 6b38 453d 439d ccbd
000000f0: 130b 613d afe3 adbb a13b f8bc c0f4 a63d
00000100: ee07 cdbc 7c7d 893e 0084 bf3d 21f4 4e3e
00000110: 80db b6bc 5409 20bb 3aea 01be a744 093d
00000120: 3464 89bd ee86 583b f9a9 a8bd 88f9 443d
00000130: 9218 fabc be89 c83d f5f7 aebd a921 2bbc
00000140: 2061 4e3e 0c16 debd c079 46be d78d b2bd
00000150: 3239 4c3d 4fe4 aa3c 936d 07be de10 a63d
00000160: 9450 e3bd a618 2fbe 5b07 0d3c 1173 903d
00000170: 4b0d b43d 11bf 2fbe efa2 2f3d 55d6 bc3b
00000180: 1eeb 9d3d 1589 14bc a1c7 f83d 709d 3bbc
00000190: 43c6 b43d 06b3 07bd 99a2 17be 1eff 54bd
000001a0: be21 9d3d 4198 b23d 2984 c4bd f641 4f3e
000001b0: 5980 003d 52f2 8c3d ecfa b3bd 3f56 e2bd
000001c0: 7171 cb3c 3d19 8f3d 6ab2 883e c88c 8fbc
000001d0: 86f4 203d 7be1 e0bd d18d b53d fa04 793d
000001e0: 3460 013c 8359 093d c675 263d 1f9f 213d
000001f0: 6cfc 1bbd 9717 16bd 6b2c 323d d456 ffbc
00000200: a4be 703c f3c3 303d 7d9d 44be d918 c93a
00000210: aa1b 1dbd b4e1 1ebd 3545 1cbe b003 6fbd
00000220: c7c5 043e 10ea 2fbd dfc3 cdbd db70 3bbc
00000230: 5ee2 cabd fa52 ca3d 6ff4 24bd 1e3e 383b
00000240: d8d5 203d ceaa a33d 8d85 62bd fb61 15bc
00000250: ed50 1cbe 8d74 ca3d 7dad 6f3d b8a6 da3c
00000260: 53ed b93d 708c 51bd 87ca b1bd c7eb 0f3e
00000270: d6a2 c03d 835d 9bbd aa5a ae3d 1318 e03c
00000280: 591b 843d 870e efbd 2b10 9cbd 936b 29be
00000290: d36f 963c 7bad b4bd 5fe6 a2bd 0b20 c7bd
000002a0: 4b8b 083e 14cf e33d ae10 f83d cc3a f73d
000002b0: c063 a6bd a4a9 17be 95f0 693d 838c 33be
000002c0: 2cf9 823c 74b8 21be 9cb0 15bd db5c 2cbe
000002d0: d7ee 1c3e 3e28 bdbd 9b74 86ba 6be7 59bd
000002e0: 99d1 b83d a722 4f3e a436 d53b 8fb6 bebc
000002f0: f3b5 133b 0e3e a1bd e5ad fdbc 65cf d93d
00000300: 2826 a8bc 22bb c83d ade7 ee3c 64cd e63d
00000310: d9f2 bf3d 396d d2bb a03b db3c a3c0 fcbd
00000320: dc93 3abd 911f 68bd 9867 803d 64f5 503d
00000330: bc1f ea3c f5cc 3abd 6535 58bd 6fdd 09bc
00000340: 7199 75bd 2b8a 92bd 7779 39bd a915 5cbe
00000350: 9d97 253d 3529 953c 7296 0d3d 9008 dabd
00000360: ba2e c2bd 2791 cf3d c8d3 a2bc 958a 95bd
00000370: f9a9 66bd 7b3d b83c deec d43d 03e5 b2bd
00000380: 3ae7 2d3d 6dd4 193d 8302 6ebc 7397 0fbe
00000390: f28f d33c e676 08bc eab7 8d3c 7ad4 b6bd
000003a0: 5868 123e f036 573e 5fc6 c43d fc8d 6b3e
000003b0: 1127 debc 481e 93bd 3ae8 75bd 9221 2f3d
000003c0: 0f33 6f3d 7e24 a2bd 709f 9abc f941 123b
000003d0: dccf 0a3d 8218 92bd 0e87 6e3d 9112 b9bd
000003e0: 9a8d d93d 28ca 92bc 4810 833d 385b 62bd
000003f0: 7ea2 c93c 25f7 65bd a4e5 a63d 7860 933d
