results/ppo/MoveToBet/MoveToBet-640.onnx (onnx, 73524 bytes, 9 tensors)

action_model._continuous_distribution.log_sigma f4 [1, 2]
000000 00 00 00 00 00 00 00 00
       0.0 0.0

action_model._continuous_distribution.mu.bias f4 [2]
000000 00 00 00 00 00 00 00 00
       0.0 0.0

action_model._continuous_distribution.mu.weight f4 [2, 128]
000000 71 3b 05 bb 03 ab 1a bc 72 7d 1d bb c2 bb ef bb
       -0.002032962 -0.009440186 -0.002403107 -0.0073160836
000010 ba 7f d7 bb 27 ac f0 3c f0 c3 7e 3c 50 a9 26 bc
       -0.0065765055 0.029378964 0.015549645 -0.010172203
000020 75 b3 57 3c 1a f0 64 bc 7b 1a 78 3b 1d a8 0a bd
       0.0131653445 -0.01397326 0.003785758 -0.03385173
000030 9e 6a a1 3b 12 2f 54 bc 75 58 6d bc d7 83 d7 3c
       0.00492604 -0.012950676 -0.014486422 0.026307983
000040 2b fc 18 3b 45 93 a3 3c 66 34 48 bd f7 e2 a4 bc
       0.0023343663 0.019967685 -0.048878096 -0.020127757
000050 47 e9 05 bc 33 12 9c 3b 20 6f 26 bd ff 11 1f 3c
       -0.008173293 0.0047629117 -0.04063332 0.00970888
000060 55 68 17 3c b3 48 75 3b 53 ad 8c ba c4 14 cb bb
       0.009241183 0.0037427365 -0.0010732807 -0.006197544
000070 40 df 79 bb 89 2c 40 bc f3 6d 08 3c 41 44 3a bc
       -0.0038127452 -0.011729368 0.008326995 -0.011368812
000080 1d 33 8c 3c ad db 3b 3c 97 93 0f 3c 37 d8 ee bc
       0.017114216 0.011465949 0.0087632155 -0.029155834
000090 8d c2 a7 3c af 42 92 bc 28 72 85 3c 77 99 bc bc
       0.020478511 -0.017854063 0.016289786 -0.023022396
0000a0 96 17 32 3c df 30 08 bb d7 45 aa 3c 44 a1 12 3b
       0.010869881 -0.0020781083 0.020785255 0.0022373954
0000b0 3e 4c a9 bb 82 37 89 bc 53 15 7c bc ee 65 82 3c
       -0.0051665595 -0.016750101 -0.015385943 0.015917744
0000c0 ac 17 80 bc 43 3c 1f 3c 93 0f a8 3c cd 94 d6 bc
       -0.015636288 0.009718957 0.020515239 -0.026194
0000d0 4b 9a 63 3c ea 39 84 3c 87 67 d5 bb 86 cf a6 bb
       0.013891767 0.016140897 -0.0065125856 -0.0050906567
0000e0 fb db c9 3b bb 61 43 bc c0 70 cc ba 01 e5 9b 3c
       0.006160257 -0.011925156 -0.0015597567 0.019030096
0000f0 06 64 2e 3c fb 8a 81 bb 47 46 0d ba 0b c7 77 bc
       0.010643965 -0.0039533353 -0.0005389195 -0.015123139
000100 8d 52 99 bc a8 6c cf 3c c5 de 49 bc 28 3d 4e 3c
       -0.018716121 0.025320366 -0.012321179 0.012587823
000110 35 0a 49 bc b3 b8 e4 ba 3e ad a5 3c 1d 3f fb bb
       -0.0122705 -0.0017450064 0.02022421 -0.007667436
000120 53 af 26 bd 3a aa ef 3b e4 66 8b bc fd d7 68 3c
       -0.040694546 0.0073139938 -0.017016836 0.014211652
000130 d5 92 18 bc 24 10 85 bc 3b 73 48 3c 50 91 55 bc
       -0.009312351 -0.016243048 0.012234504 -0.0130351335
000140 03 93 56 bc b7 23 f2 bb b5 6e cd 3b 7d bf ce bb
       -0.013096574 -0.0073895114 0.006269301 -0.0063094483
000150 0b b7 8a bc f2 1e b4 3c 6a 58 19 3c 05 20 26 bd
       -0.016932985 0.021987412 0.009359458 -0.04055788
000160 23 ea e9 3c 02 6c de bc a3 1c 19 bd 87 c4 c7 3c
       0.028554028 -0.027151112 -0.037380826 0.024385704
000170 b0 78 fa 3a 3c ea 15 3c 77 55 a6 bc ae 69 b4 3c
       0.0019109454 0.009150084 -0.020304425 0.022023048
000180 70 2c ab bc f4 55 82 bc b1 34 c8 bb 72 05 9b 3c
       -0.020895213 -0.015910126 -0.006109797 0.018923495
000190 6a a2 ea 3b 47 55 8c 3c dd 7d 29 bb 74 81 3b ba
       0.0071604745 0.017130507 -0.0025862374 -0.0007152774
0001a0 f1 19 cb 3a df e5 86 bb 7b 67 ce bb 60 71 08 3d
       0.0015495402 -0.0041167582 -0.006298957 0.033311248
0001b0 f3 39 57 bc 8c 6a 8b 3a 0a e6 46 bc 48 87 a5 bc
       -0.013136375 0.0010636612 -0.0121398065 -0.020206109
0001c0 ec 72 bc 3c 3a 71 ec bb 07 70 2f 3c 7b 68 1c 3b
       0.023004018 -0.007215646 0.010707862 0.0023865986
0001d0 27 a3 c9 bc f4 3c 30 bc a0 7f f6 bb e0 e0 ea bc
       -0.02461393 -0.01075672 -0.0075225383 -0.028671682
0001e0 ed 1c 83 3c a3 d0 d7 3c f3 00 c3 3b 27 cb 38 3c
       0.016005004 0.026344603 0.005951041 0.011278904
0001f0 a7 f6 5b 3c 25 8d 9e bc 5b 27 2f bc 45 cf b7 bc
       0.013425506 -0.019354412 -0.010690535 -0.022437701
000200 51 48 ba 3c c1 7b 8b 3b 52 1f ca 39 ab f4 01 3d
       0.022739561 0.004256696 0.00038551778 0.031727474
000210 5f 48 29 bc f7 30 89 3c 47 21 ce 3c 7f 87 8b bc
       -0.010332196 0.016746981 0.025162352 -0.017032383
000220 2a 47 b7 3c 9f 81 0a bc d7 02 80 3c 8d 93 9d bc
       0.0223728 -0.008453756 0.015626354 -0.019235397
000230 cc db c3 3c 3f 24 bc 3b 8d 5a 58 3c ff 94 d9 bb
       0.023908518 0.0057416256 0.013205183 -0.006640076
000240 7c ad c4 3b c9 6c 2b 3b 2f dc 7a bc 77 f5 4c 3b
       0.0060021263 0.002615737 -0.015311285 0.0031274238
000250 d7 d8 ba bc 7c 02 28 bc 32 28 84 bc 88 4b cd ba
       -0.022808475 -0.010254499 -0.016132448 -0.0015662769
000260 9f 71 7d 39 9b b8 af bb 9a 8a a7 3c 4a 60 a2 3c
       0.00024170287 -0.005362583 0.020451833 0.019821305
000270 bd 33 17 3c 47 de cc ba 62 a2 37 3c 52 e3 98 bb
       0.009228644 -0.0015630209 0.011208149 -0.0046657706
000280 87 27 b7 3c 99 a2 b2 3c a5 aa e3 bc a1 b9 3f 3b
       0.022357715 0.021806048 -0.02779133 0.002925493
000290 b8 b4 67 bc f2 f3 63 3c bd 76 d5 bb 16 b6 44 3b
       -0.014142208 0.013913142 -0.006514399 0.0030015758
0002a0 7f a5 b5 3c 27 d3 a0 bc dc 5a c2 bc 8b a6 7f bc
       0.022173641 -0.019631935 -0.023724966 -0.015603672
0002b0 4b 15 90 3b c2 f6 67 bc 13 d8 d6 bc 0d 0e 83 3b
       0.0043970696 -0.014157953 -0.02622608 0.0039994777
0002c0 ab dd 8a 3c d0 a7 37 bd ab 3b 91 3c ff 64 48 bc
       0.016951403 -0.044837773 0.017728647 -0.012231111
0002d0 ea 58 11 bd b8 c8 0c 3c f9 d1 00 3c 16 3b 8c bb
       -0.035485186 0.008592777 0.007862561 -0.0042795045
0002e0 08 98 e0 3a 8a ce d6 3b 77 f0 a4 3c fa 50 08 bb
       0.0017135153 0.006555383 0.020134194 -0.002080022
0002f0 3f b3 a8 3c a6 4d 92 3c df 1f 06 bd 8c 53 97 bc
       0.020593284 0.017859291 -0.03274524 -0.018472455
000300 61 c2 bc 3c 7b a9 9e bb 7b e5 bf ba 86 75 15 3c
       0.023041906 -0.004841981 -0.0014640534 0.009122258
000310 c7 75 97 bc 40 df 79 bc b7 f8 bd bb f4 ba 26 bc
       -0.018488778 -0.015250981 -0.0057974714 -0.010176409
000320 e5 96 14 3d 77 b8 9f 3b 67 11 1f bc 0e c9 3a 3c
       0.036276717 0.004874285 -0.009708739 0.011400474
000330 89 ca 0f 3c 30 fe 00 3b 73 73 a0 bb 13 f2 ea bc
       0.0087763155 0.0019682758 -0.004896575 -0.028679883
000340 69 f6 07 bc 03 d3 38 bc 4d cf 79 3c cc d6 c0 3c
       -0.008298495 -0.011280778 0.015247178 0.023539923
000350 02 67 cf bc 52 72 eb bb 33 58 ef bc fa ab d1 3c
       -0.025317673 -0.007185259 -0.029216861 0.0255947
000360 9d 53 e1 bc 8a d4 b1 bc d1 ec 99 3b 7c 91 b6 3b
       -0.02750569 -0.021707792 0.00469742 0.0055715423
000370 e7 6f 00 3c 0c ee 3b 3b 8b 10 e9 bb cd 94 58 3c
       0.00783918 0.0028675823 -0.007112568 0.013219071
000380 67 53 bf 3c 3f 41 26 bc 03 ba d4 bb b9 ab af 3c
       0.023355199 -0.010147392 -0.006491901 0.021444188
000390 67 55 28 3c d3 50 7d 3c 4a 32 f3 3b e5 1c 85 3c
       0.010274268 0.0154611645 0.0074217664 0.01624913
0003a0 f2 c0 83 3b 3c 1d 19 bc bb 9a 3a bd 33 49 ef bb
       0.0040208036 -0.009345349 -0.04555772 -0.007302427
0003b0 77 aa 60 3b 14 28 0a bc 7d 6f 06 3b 60 d0 f7 3c
       0.0034281292 -0.008432407 0.002051323 0.030250728
0003c0 30 5b 1e bc 11 22 a9 bc bf d8 18 bb a5 80 ce 3c
       -0.0096652955 -0.020646127 -0.002332255 0.025207827
0003d0 28 08 01 bc ea a5 1c bd 28 48 51 3b e7 ff a8 3b
       -0.00787548 -0.038244165 0.0031933878 0.005157459
0003e0 6f bd 9e 38 b7 38 88 bc da bb 79 bc d8 8a 37 3c
       7.569312e-05 -0.016628606 -0.015242541 0.0112025365
0003f0 d5 1b 52 bc 77 2c 9d bc 50 da d9 3c d4 00 b4 bb
       -0.0128240185 -0.019186242 0.026593357 -0.005493263

action_model._discrete_distribution.branches.0.bias f4 [5]
000000 00 00 00 00 00 00 00 00 00 00 00 00 00 00 00 00
       0.0 0.0 0.0 0.0
000010 00 00 00 00
       0.0

action_model._discrete_distribution.branches.0.weight f4 [5, 128]
000000 da 1d eb 3b 9f 90 12 3b 1f 35 2c 3c 44 32 2f bc
       0.0071751894 0.0022364033 0.010510712 -0.010693137
000010 32 b1 59 bc ce 29 44 bc 45 47 5c bc 1c b7 a9 bb
       -0.013286876 -0.011972858 -0.013444726 -0.005179299
000020 00 e3 76 3c dd c2 d3 bb 4b 2f 94 bb 29 47 23 3b
       0.015068769 -0.0064624385 -0.0045222393 0.002491424
000030 e5 50 75 3b 01 dd 02 bc e4 08 22 bc d3 54 06 bc
       0.003743225 -0.007987262 -0.009889815 -0.008198935
000040 52 f5 ae 3b 6c 8f c2 3a ed 36 30 3b 4c 69 4a 3b
       0.005339303 0.0014843768 0.0026888207 0.0030885516
000050 38 29 53 3a bd 31 5b 3b 89 96 19 bc 6a 19 60 3c
       0.00080551533 0.0033446394 -0.009374269 0.013677934
000060 fc 16 1f 3c 65 67 92 ba 62 51 58 bc 97 08 57 bc
       0.00971007 -0.001116973 -0.013202997 -0.013124607
000070 1a 97 d6 3b b3 eb 69 ba cb 44 11 bc 8a 4b 7d bc
       0.0065487744 -0.00089233665 -0.008866499 -0.015459904
000080 45 8e d6 bb 6f 3f 87 bc 8a 1c 0e ba 9b 71 81 3b
       -0.0065477216 -0.01650974 -0.0005421123 0.0039503104
000090 3d 8a 43 bc 12 d3 b3 ba f7 23 a2 bc 10 be b3 bb
       -0.011934814 -0.001371952 -0.01979254 -0.0054853037
0000a0 de 2f ab bc 03 cf 91 bb ea 78 fb bb ef b2 fd bb
       -0.020896848 -0.0044497265 -0.007674326 -0.007742278
0000b0 22 81 70 bc 27 ca 5a b9 f5 1b 05 bb 12 76 95 3b
       -0.014679225 -0.00020865408 -0.0020310853 0.004561194
0000c0 e0 db 7c 3c 9b a4 ae bb eb f6 0c bc 03 64 8b 3b
       0.015433282 -0.005329681 -0.008603792 0.0042538657
0000d0 0a f8 f3 3b 2c 76 2d bb ff f7 44 3c 1a 09 00 3c
       0.00744534 -0.002646814 0.0120220175 0.00781467
0000e0 e3 d0 ea bb 46 67 24 bc 77 19 63 bc b4 bc c5 bb
       -0.0071660145 -0.010034388 -0.013861052 -0.006034458
0000f0 f2 ec 61 bc 77 d5 15 3c 27 09 07 bc 97 d0 a0 3b
       -0.013789402 0.009145132 -0.008241928 0.0049076783
000100 87 39 60 bb f4 5a b6 3c a5 62 02 3c 13 9b 8b 3b
       -0.0034213976 0.022260167 0.007958089 0.0042604296
000110 fa 8a 55 3c 3a ab 76 bc 7f ae b8 3b db e5 93 bb
       0.013033623 -0.015055472 0.005636036 -0.004513485
000120 6a eb 08 3b 12 35 76 bb b0 ba 50 3b 10 e4 4a 3c
       0.002089227 -0.0037568253 0.0031849556 0.012383476
000130 ed e3 0c 3b d4 79 bb bb f0 45 1a 3c fb cf f9 bb
       0.002149816 -0.00572131 0.009416088 -0.00762367
000140 85 d1 72 3c c2 4f f8 bb 59 0c 84 3b 75 e9 25 3c
       0.014820461 -0.0075778672 0.0040297923 0.010126461
000150 0a 3c 25 bb 39 6d a3 3a 19 ac 34 bc e5 0f 31 bc
       -0.0025212788 0.0012468464 -0.011027359 -0.010807012
000160 6d 27 f2 bb 77 a0 cb 3b 44 76 28 bb d7 66 0c 3c
       -0.007389954 0.0062141973 -0.0025705257 0.008569441
000170 63 7e d5 bb 2f 1b 03 bc 15 a2 ba 3b 76 e5 10 3c
       -0.0065153106 -0.008002087 0.005695591 0.00884377
000180 b7 e9 fd bb 3a 18 93 3b f0 2a 58 3b 70 59 70 3c
       -0.0077488082 0.004488972 0.0032984577 0.014669761
000190 71 1a 95 bb 53 04 12 3c 26 aa 17 bc d7 6a df 39
       -0.004550271 0.008912164 -0.009256875 0.00042613476
0001a0 f3 cc 15 bb dd bb df 3b 33 46 75 3c e6 dd 0e bc
       -0.0022857755 0.006827815 0.01497035 -0.008719897
0001b0 a7 01 d0 3a 9f 9d 11 3b 45 ae 5f 3c 3d 3e 5f 3b
       0.0015869633 0.0022219194 0.013652389 0.0034064197
0001c0 8b 32 86 3c 27 0e 45 bc 65 d4 50 bc 1f 96 96 3c
       0.016381523 -0.0120273 -0.012745951 0.01838213
0001d0 58 01 14 3c 7c 32 1e bc 70 6a 19 bc 78 d7 7c bc
       0.0090335235 -0.009655591 -0.009363756 -0.015432231
0001e0 6b 39 02 bc bd 83 58 bc ff 43 3a bb 3a ef f7 bb
       -0.00794826 -0.013215003 -0.0028421876 -0.00756636
0001f0 13 ff 79 bb 18 a8 73 bc 75 ca 6a bb 2f 2d 4e bc
       -0.003814642 -0.01487162 -0.003582624 -0.012584015
000200 53 0a 93 3c 32 05 28 bb d7 6d 79 bb 34 08 80 bc
       0.017949259 -0.0025637862 -0.0038059854 -0.015628912
000210 8a e2 ef bb ef 91 37 3c 12 4d 18 bb 88 37 c8 bb
       -0.0073207067 0.011204227 -0.0023239297 -0.0061101355
000220 5a 32 99 bb 5f 7d a7 3b 42 6e f3 bb 9b 36 d3 3b
       -0.004675192 0.005111381 -0.0074289152 0.0064457185
000230 68 43 fa 3b 0c 14 bb ba 13 ac 9c bb 01 49 b1 3b
       0.00763743 -0.0014272942 -0.004781255 0.005410314
000240 48 cb cf 3a f3 0c 0b bc c5 bf b7 bb a2 10 02 3c
       0.0015853429 -0.008486974 -0.0056075775 0.007938536
000250 f3 59 0b 3c e7 62 e6 3b a7 ec c7 b9 0a 6d 60 3b
       0.008505332 0.007030833 -0.00038132558 0.003424468
000260 ab c8 86 bb 19 38 98 bb 32 e1 e9 bb 5f 65 e4 bb
       -0.004113277 -0.0046453592 -0.007137441 -0.006970092
000270 2b 30 65 3c 1f 9d 20 3c ff 3d 52 bb 8a a1 32 bc
       0.013988535 0.009803086 -0.003208041 -0.010902772
000280 ec 10 b0 3b bb f2 9a 3c 4b a5 fe 3b 14 15 26 3c
       0.005373111 0.018914571 0.0077711693 0.010136861
000290 9a 7c 77 3c 10 8f ef 36 3a 1b fd 3b 13 b9 3f 3c
       0.015105391 7.1394097e-06 0.007724193 0.01170184
0002a0 3b 78 68 bc da ee 57 bb 73 a7 86 3b 73 08 f5 bb
       -0.014188821 -0.0032948763 0.004109317 -0.007477814
0002b0 07 13 5a bc 54 b3 3d bc 55 71 26 38 05 60 91 bc
       -0.013310201 -0.0115784 3.9683033e-05 -0.017745981
0002c0 65 e6 19 3b a3 7b 08 bb 62 e5 84 bb c8 3b 6c 3c
       0.0023483273 -0.0020825646 -0.004055665 0.01441855
0002d0 b2 d1 cc bb 19 e3 b4 b9 df 80 6b bb 36 f2 ca bb
       -0.0062505836 -0.00034501476 -0.0035934967 -0.0061934246
0002e0 7b ab 01 3c e7 bf 57 b9 17 54 55 bc 28 85 95 38
       0.007914419 -0.00020575487 -0.013020537 7.129676e-05
0002f0 ad e0 83 bc 8b a9 ac 3a b6 21 97 bb f9 2c 46 3c
       -0.016098345 0.0013173086 -0.004612173 0.012095683
000300 42 87 d3 bb e7 02 19 3b 7d 41 3e ba 85 a1 4d bb
       -0.006455333 0.0023347677 -0.00072576833 -0.003137679
000310 04 bb 82 ba eb 33 6e bc 87 b6 5d 3b db 44 22 bc
       -0.0009973948 -0.014538745 0.0033830719 -0.009904112
000320 03 d7 e3 3b 93 15 9e ba 1a 24 a8 3b 2d 60 49 bb
       0.0069531216 -0.0012060873 0.0051312568 -0.0030727491
000330 62 93 b7 bb 16 dd c6 bb f3 59 6f 3c 38 87 33 bc
       -0.005602286 -0.006068836 0.014608848 -0.010957532
000340 57 77 41 bb db 3e db 3b dd 0a 77 bc cb 50 a5 3b
       -0.0029520595 0.0066908426 -0.015078274 0.0050450317
000350 f7 ef aa bc a3 ab b9 bb 87 9b c4 3b bb d4 b5 3b
       -0.020866377 -0.0056662126 0.0059999856 0.005549041
000360 26 38 8e 3b a7 eb a7 3a ea 76 49 ba bd 58 69 bb
       0.0043401895 0.0012811319 -0.0007685261 -0.003560587
000370 d0 1b 87 3c 24 18 2c 3c 53 78 41 bc 7c f0 24 bb
       0.016492754 0.010503802 -0.011808473 -0.0025167754
000380 97 8f 4f 3b 80 24 51 bb 5f 13 82 3c ed 60 5b bb
       0.003167128 -0.0031912625 0.015878377 -0.003347452
000390 3a 2e cc b9 e7 c8 de 3b 5a 79 46 bb 58 d2 01 3c
       -0.00038944354 0.006798852 -0.0030284734 0.007923685
0003a0 cb e4 18 3c 3a 9d fb ba 88 74 4f 3c f8 3d 01 bb
       0.009331892 -0.0019196637 0.012662061 -0.0019720774
0003b0 cc 6c c1 38 cf a7 02 bc d0 fa 46 bc 9f c2 86 3a
       9.223222e-05 -0.007974579 -0.012144759 0.001028139
0003c0 9d 7a 6b 3c 32 1b 64 3c 3b 2d ce bb bb b7 46 bc
       0.014372495 0.0139224995 -0.006292013 -0.012128766
0003d0 f2 16 00 ba cb 6e 37 bb 65 3c d3 3b 84 aa 1f 3c
       -0.00048862316 -0.0027989622 0.0064464086 0.009745244
0003e0 28 82 0d 3b ae 4c bd b8 8a 57 f8 bb 8d af fa bb
       0.0021592472 -9.026505e-05 -0.007578795 -0.007650322
0003f0 1f 5c 1f bc 9d d8 08 bb 24 0f a3 bc 2d ed 7c bc
       -0.009726553 -0.0020881065 -0.01990468 -0.0154374065

network_body._body_endoder.seq_layers.0.bias f4 [128]
000000 00 00 00 00 00 00 00 00 00 00 00 00 00 00 00 00
       0.0 0.0 0.0 0.0
000010 00 00 00 00 00 00 00 00 00 00 00 00 00 00 00 00
       0.0 0.0 0.0 0.0
000020 00 00 00 00 00 00 00 00 00 00 00 00 00 00 00 00
       0.0 0.0 0.0 0.0
000030 00 00 00 00 00 00 00 00 00 00 00 00 00 00 00 00
       0.0 0.0 0.0 0.0
000040 00 00 00 00 00 00 00 00 00 00 00 00 00 00 00 00
       0.0 0.0 0.0 0.0
000050 00 00 00 00 00 00 00 00 00 00 00 00 00 00 00 00
       0.0 0.0 0.0 0.0
000060 00 00 00 00 00 00 00 00 00 00 00 00 00 00 00 00
       0.0 0.0 0.0 0.0
000070 00 00 00 00 00 00 00 00 00 00 00 00 00 00 00 00
       0.0 0.0 0.0 0.0
000080 00 00 00 00 00 00 00 00 00 00 00 00 00 00 00 00
       0.0 0.0 0.0 0.0
000090 00 00 00 00 00 00 00 00 00 00 00 00 00 00 00 00
       0.0 0.0 0.0 0.0
0000a0 00 00 00 00 00 00 00 00 00 00 00 00 00 00 00 00
       0.0 0.0 0.0 0.0
0000b0 00 00 00 00 00 00 00 00 00 00 00 00 00 00 00 00
       0.0 0.0 0.0 0.0
0000c0 00 00 00 00 00 00 00 00 00 00 00 00 00 00 00 00
       0.0 0.0 0.0 0.0
0000d0 00 00 00 00 00 00 00 00 00 00 00 00 00 00 00 00
       0.0 0.0 0.0 0.0
0000e0 00 00 00 00 00 00 00 00 00 00 00 00 00 00 00 00
       0.0 0.0 0.0 0.0
0000f0 00 00 00 00 00 00 00 00 00 00 00 00 00 00 00 00
       0.0 0.0 0.0 0.0
000100 00 00 00 00 00 00 00 00 00 00 00 00 00 00 00 00
       0.0 0.0 0.0 0.0
000110 00 00 00 00 00 00 00 00 00 00 00 00 00 00 00 00
       0.0 0.0 0.0 0.0
000120 00 00 00 00 00 00 00 00 00 00 00 00 00 00 00 00
       0.0 0.0 0.0 0.0
000130 00 00 00 00 00 00 00 00 00 00 00 00 00 00 00 00
       0.0 0.0 0.0 0.0
000140 00 00 00 00 00 00 00 00 00 00 00 00 00 00 00 00
       0.0 0.0 0.0 0.0
000150 00 00 00 00 00 00 00 00 00 00 00 00 00 00 00 00
       0.0 0.0 0.0 0.0
000160 00 00 00 00 00 00 00 00 00 00 00 00 00 00 00 00
       0.0 0.0 0.0 0.0
000170 00 00 00 00 00 00 00 00 00 00 00 00 00 00 00 00
       0.0 0.0 0.0 0.0
000180 00 00 00 00 00 00 00 00 00 00 00 00 00 00 00 00
       0.0 0.0 0.0 0.0
000190 00 00 00 00 00 00 00 00 00 00 00 00 00 00 00 00
       0.0 0.0 0.0 0.0
0001a0 00 00 00 00 00 00 00 00 00 00 00 00 00 00 00 00
       0.0 0.0 0.0 0.0
0001b0 00 00 00 00 00 00 00 00 00 00 00 00 00 00 00 00
       0.0 0.0 0.0 0.0
0001c0 00 00 00 00 00 00 00 00 00 00 00 00 00 00 00 00
       0.0 0.0 0.0 0.0
0001d0 00 00 00 00 00 00 00 00 00 00 00 00 00 00 00 00
       0.0 0.0 0.0 0.0
0001e0 00 00 00 00 00 00 00 00 00 00 00 00 00 00 00 00
       0.0 0.0 0.0 0.0
0001f0 00 00 00 00 00 00 00 00 00 00 00 00 00 00 00 00
       0.0 0.0 0.0 0.0

network_body._body_endoder.seq_layers.0.weight f4 [128, 1]
000000 28 32 e6 3e a5 72 3c bd 40 dd eb bd 19 a7 96 be
       0.4496014 -0.04600777 -0.115168095 -0.2942436
000010 85 ff da 3f f7 7d 8c bd b9 b5 94 3e bb 57 60 be
       1.7109228 -0.068599634 0.29044893 -0.21908467
000020 14 1f d8 3e 07 88 07 3d 9e d0 1f be 5a 38 bc bf
       0.4221121 0.03308871 -0.15606925 -1.4704697
000030 34 f3 24 3e 5a 64 b2 bf f0 20 c4 bf 24 2f 14 3e
       0.161084 -1.3936875 -1.5322552 0.14471108
000040 9f a7 3a bf 14 36 c6 3e 1c 7d a8 bf 7f 5d c6 bf
       -0.7291202 0.38713133 -1.316318 -1.5497283
000050 0c 83 9d bf 60 3f 9f 3f 4e 13 ee be 6c ea 1c 40
       -1.2305617 1.2441216 -0.46499103 2.451808
000060 59 70 d1 3f 50 fc bf be 99 1e 53 3f f6 59 be 3e
       1.6362411 -0.37497187 0.82468563 0.3717801
000070 4b fe 9d 3f 8e 77 62 3f fb 39 a5 3f 74 40 ea bf
       1.2343229 0.88463676 1.2908319 -1.830092
000080 e2 f0 8a bf 09 d2 79 bf 03 12 20 bd 33 9d d8 bf
       -1.0854762 -0.97586113 -0.039079677 -1.6922973
000090 d1 3c a1 3f db cb 51 be 81 78 c4 be a6 26 00 3f
       1.2596685 -0.20487921 -0.38373187 0.5005897
0000a0 df 36 9e 3f fd 56 9b be eb e5 23 3e 38 51 82 bf
       1.2360495 -0.30339804 0.16005675 -1.0181036
0000b0 fd 0a c8 3f 4c c2 24 3f 7e eb 7a 3f 9c 6b 0d 3e
       1.5628353 0.64358974 0.9801558 0.13810581
0000c0 12 0d 72 bf 5a 03 22 c0 f0 3e 07 bf cc 4d 7c bf
       -0.94551194 -2.5314546 -0.5283041 -0.9855621
0000d0 62 49 a5 3f 6c 2e 81 be 0f 2e 64 bf 60 9e 8b 3e
       1.291302 -0.2523073 -0.8913278 0.27269268
0000e0 b4 af bf bf 40 c8 a3 3e be c2 72 be bb f4 5b bf
       -1.4975495 0.31988716 -0.23707101 -0.85920304
0000f0 ac 20 97 3d a9 b3 9d bf 77 e0 e7 bf 2b 4e 9f be
       0.073792785 -1.2320453 -1.8115376 -0.31114325
000100 ae 25 46 bf 49 d1 03 3f c1 fc 4e 3e 8d 4c 0a 40
       -0.77401245 0.5149122 0.20213605 2.1609223
000110 de 54 93 3f cf 58 d7 3f 3d 66 d0 3e 72 64 60 3f
       1.1510274 1.6823977 0.40703002 0.8765327
000120 4b b9 fd bf cd f3 f6 3f ad 01 82 3f c9 e5 eb be
       -1.9822172 1.9293152 1.0156761 -0.4607375
000130 64 87 49 3f f0 5b dc bf c9 8d 31 bf e0 db d4 3f
       0.78722215 -1.7215557 -0.6935697 1.66296
000140 2c 71 03 bf 81 53 d7 3f d8 32 aa bd f4 e5 34 3f
       -0.5134456 1.6822358 -0.08310479 0.7066338
000150 5e 5f ca bc 7e 0e 0b 3f f4 04 14 c0 dd 7e a0 bf
       -0.024703678 0.5431899 -2.3128023 -1.2538716
000160 95 77 82 bf 33 85 e0 bf cf af cb 3e ae 9f 0d 3f
       -1.0192744 -1.7540649 0.3978257 0.55321777
000170 68 ac df 3f 55 63 2e 3f b0 8d 30 3e 2f 4d 45 3c
       1.7474489 0.6812032 0.1724155 0.012042328
000180 65 87 1b c0 47 ce 4c bd 93 9f 15 3e af ac ff bf
       -2.4301388 -0.05000141 0.14611654 -1.9974574
000190 9c 91 f4 bf 1a 9d 18 c0 fb 85 49 bf 35 a6 96 3f
       -1.9106936 -2.3845887 -0.7872006 1.1769472
0001a0 b9 42 55 bf 80 aa ed bd a4 7f a7 3f 07 3e 4e bf
       -0.83304936 -0.11604786 1.3085828 -0.80563396
0001b0 b5 72 27 3f 75 6e 92 bf bc 11 10 be dd 7b 34 bf
       0.65409404 -1.1439959 -0.14069265 -0.705015
0001c0 45 50 29 3f 1c 6a 1e be 45 be c6 3e ca 85 43 c0
       0.66138107 -0.15470165 0.3881704 -3.0550408
0001d0 1e bc d3 be ba c0 8a bf bc ce 24 bf 40 4a a0 3f
       -0.4135446 -1.0840065 -0.6437795 1.2522659
0001e0 2d d1 16 3f 60 de 0a bf 38 74 c9 bf 23 cc 43 bf
       0.58912927 -0.5424557 -1.5738592 -0.7648336
0001f0 1f 50 67 bf 8e f1 c2 be fb 25 bc 3f 27 b3 87 3f
       -0.9035663 -0.38074917 1.4699091 1.0601548

network_body._body_endoder.seq_layers.2.bias f4 [128]
000000 00 00 00 00 00 00 00 00 00 00 00 00 00 00 00 00
       0.0 0.0 0.0 0.0
000010 00 00 00 00 00 00 00 00 00 00 00 00 00 00 00 00
       0.0 0.0 0.0 0.0
000020 00 00 00 00 00 00 00 00 00 00 00 00 00 00 00 00
       0.0 0.0 0.0 0.0
000030 00 00 00 00 00 00 00 00 00 00 00 00 00 00 00 00
       0.0 0.0 0.0 0.0
000040 00 00 00 00 00 00 00 00 00 00 00 00 00 00 00 00
       0.0 0.0 0.0 0.0
000050 00 00 00 00 00 00 00 00 00 00 00 00 00 00 00 00
       0.0 0.0 0.0 0.0
000060 00 00 00 00 00 00 00 00 00 00 00 00 00 00 00 00
       0.0 0.0 0.0 0.0
000070 00 00 00 00 00 00 00 00 00 00 00 00 00 00 00 00
       0.0 0.0 0.0 0.0
000080 00 00 00 00 00 00 00 00 00 00 00 00 00 00 00 00
       0.0 0.0 0.0 0.0
000090 00 00 00 00 00 00 00 00 00 00 00 00 00 00 00 00
       0.0 0.0 0.0 0.0
0000a0 00 00 00 00 00 00 00 00 00 00 00 00 00 00 00 00
       0.0 0.0 0.0 0.0
0000b0 00 00 00 00 00 00 00 00 00 00 00 00 00 00 00 00
       0.0 0.0 0.0 0.0
0000c0 00 00 00 00 00 00 00 00 00 00 00 00 00 00 00 00
       0.0 0.0 0.0 0.0
0000d0 00 00 00 00 00 00 00 00 00 00 00 00 00 00 00 00
       0.0 0.0 0.0 0.0
0000e0 00 00 00 00 00 00 00 00 00 00 00 00 00 00 00 00
       0.0 0.0 0.0 0.0
0000f0 00 00 00 00 00 00 00 00 00 00 00 00 00 00 00 00
       0.0 0.0 0.0 0.0
000100 00 00 00 00 00 00 00 00 00 00 00 00 00 00 00 00
       0.0 0.0 0.0 0.0
000110 00 00 00 00 00 00 00 00 00 00 00 00 00 00 00 00
       0.0 0.0 0.0 0.0
000120 00 00 00 00 00 00 00 00 00 00 00 00 00 00 00 00
       0.0 0.0 0.0 0.0
000130 00 00 00 00 00 00 00 00 00 00 00 00 00 00 00 00
       0.0 0.0 0.0 0.0
000140 00 00 00 00 00 00 00 00 00 00 00 00 00 00 00 00
       0.0 0.0 0.0 0.0
000150 00 00 00 00 00 00 00 00 00 00 00 00 00 00 00 00
       0.0 0.0 0.0 0.0
000160 00 00 00 00 00 00 00 00 00 00 00 00 00 00 00 00
       0.0 0.0 0.0 0.0
000170 00 00 00 00 00 00 00 00 00 00 00 00 00 00 00 00
       0.0 0.0 0.0 0.0
000180 00 00 00 00 00 00 00 00 00 00 00 00 00 00 00 00
       0.0 0.0 0.0 0.0
000190 00 00 00 00 00 00 00 00 00 00 00 00 00 00 00 00
       0.0 0.0 0.0 0.0
0001a0 00 00 00 00 00 00 00 00 00 00 00 00 00 00 00 00
       0.0 0.0 0.0 0.0
0001b0 00 00 00 00 00 00 00 00 00 00 00 00 00 00 00 00
       0.0 0.0 0.0 0.0
0001c0 00 00 00 00 00 00 00 00 00 00 00 00 00 00 00 00
       0.0 0.0 0.0 0.0
0001d0 00 00 00 00 00 00 00 00 00 00 00 00 00 00 00 00
       0.0 0.0 0.0 0.0
0001e0 00 00 00 00 00 00 00 00 00 00 00 00 00 00 00 00
       0.0 0.0 0.0 0.0
0001f0 00 00 00 00 00 00 00 00 00 00 00 00 00 00 00 00
       0.0 0.0 0.0 0.0

network_body._body_endoder.seq_layers.2.weight f4 [128, 128]
000000 8b ef a7 bd e3 6b fe 3d 27 11 a1 3d 0d 44 8a bb
       -0.08199986 0.124229215 0.078646 -0.004219538
000010 a6 da 7e bd 73 75 a2 bc 35 bf 0c 3e a2 9b 06 bd
       -0.06222024 -0.019831395 0.13744815 -0.032863267
000020 68 66 b4 bc ca 50 28 3d 34 fe 8d 3d 00 86 d1 bd
       -0.022021487 0.04109267 0.06933251 -0.102306366
000030 8f 59 10 3d 60 90 0e bd 53 eb 04 3c 0d cf 63 3d
       0.03524166 -0.034805655 0.008112746 0.05561738
000040 ed 38 2c 3e 4c 75 da 3d a7 be ac bd 9b 74 2a 3d
       0.1681859 0.10666904 -0.084348015 0.04161511
000050 79 77 b7 bd 41 1d 11 3e 28 1c ad bc c1 82 04 be
       -0.089583345 0.14171316 -0.02113159 -0.12940504
000060 f7 b8 8c bc 77 6b 23 3d 8b 81 eb 3c 53 be 18 be
       -0.017178042 0.03989741 0.028748294 -0.14916353
000070 fb 4c 05 3e a9 74 33 ba 30 32 3b bd 79 25 86 3d
       0.13017647 -0.0006845692 -0.04570216 0.06550116
000080 12 8a b1 bd 42 5c 68 3d 5a f5 03 be 2d e3 ad bd
       -0.08668913 0.05672861 -0.12886563 -0.08490596
000090 11 0e f7 bd 91 f1 f4 3d 2e 5c ed 3c 95 16 b5 3d
       -0.1206323 0.11960138 0.028974619 0.08842198
0000a0 56 86 77 3d 00 4f a8 bd a9 55 67 3d 8c 62 07 3d
       0.060430847 -0.08218193 0.056478176 0.033052966
0000b0 56 05 78 bc fe 56 60 3b 6a 86 82 bd 61 d5 30 3d
       -0.015137991 0.003423154 -0.06373294 0.043172244
0000c0 5e 44 45 3d c4 6c 46 be 0b 43 e6 3c 64 2a 1c 3e
       0.048160903 -0.19377428 0.02810814 0.15250546
0000d0 6a 51 92 bc 82 65 09 bd 4a e0 c4 3d fa 60 8d bc
       -0.017861087 -0.03354407 0.09613092 -0.017258156
0000e0 f2 47 3d be 39 da 22 3d 87 92 a2 3c 7e 68 02 be
       -0.18484476 0.039758895 0.01984526 -0.12735173
0000f0 a4 d9 e5 bb d4 ed 41 3c de b3 d2 bc c5 10 57 3d
       -0.00701447 0.011836488 -0.025720533 0.052506227
000100 26 d8 90 3e e3 98 68 3d 8e d8 4a 3d 06 a9 a9 3d
       0.28289908 0.05678643 0.04952293 0.08284192
000110 c6 27 6b bc 7a 92 cf bd 21 b6 0e 3c 69 ac 41 bd
       -0.014352744 -0.1013536 0.008710415 -0.047283564
000120 1a 5b b2 bd df 3f f9 bc 9f d7 c9 bd 41 3d df 3d
       -0.087087825 -0.030425964 -0.098555796 0.10900355
000130 24 4f e3 bd 71 7b 06 3d ae 96 4c bd 8f 61 6e 3d
       -0.11099079 0.032832567 -0.049948387 0.058198508
000140 00 4b 99 3c 6b a4 b7 bd 4f 55 e6 bc 82 a9 55 bd
       0.01871252 -0.08966907 -0.02811685 -0.05216361
000150 2d c6 d3 bd 10 c6 ac 3d 64 a1 15 bd a6 b5 3b be
       -0.103405334 0.08436215 -0.036530867 -0.18331012
000160 b4 7f 99 3d c4 dd 49 3d b8 dc 23 be 0e 38 4d bd
       0.074950606 0.049283758 -0.16002166 -0.050102286
000170 4e 7c 5a bd 84 46 a5 bd c1 bb d3 3d ef d3 02 3e
       -0.053341202 -0.080700904 0.103385456 0.12776159
000180 81 be c9 bd f9 2f ed bd 36 0e c2 bc 9e ce 19 be
       -0.09850789 -0.11581416 -0.023688417 -0.15020224
000190 7c 40 92 bd 04 4d e2 bd 93 96 8a bd ed 2f 80 3d
       -0.07141206 -0.11049846 -0.06767001 0.06259141
0001a0 c2 13 02 3e d5 76 70 bd a6 4c f4 bc d7 6f 84 3d
       0.1270285 -0.058707077 -0.029821705 0.06466644
0001b0 5b ea 31 3c 54 c9 1b 3d 83 7e f2 bd b9 91 31 3d
       0.010859097 0.0380338 -0.118405364 0.043351863
0001c0 8d 7c 33 bd e4 d7 eb 3d 99 71 54 3d e8 21 20 3d
       -0.043819953 0.11515787 0.051866148 0.039094836
0001d0 b9 62 c6 bc ad b6 5e bd ea a1 80 3d 72 bf 00 3d
       -0.024216997 -0.054373432 0.06280883 0.031432576
0001e0 a5 ed 67 bd ec f5 b4 bd cb 2b 05 3e 41 b3 8b bd
       -0.05662312 -0.088359684 0.13004987 -0.06821299
0001f0 ff b2 d8 bc 38 67 9a bd 7f f5 9b 3d 83 d6 61 bd
       -0.02645254 -0.07539219 0.07615184 -0.055136215
000200 cd 46 95 bd 31 31 ed bd 88 d4 66 bd 44 42 08 3d
       -0.07288895 -0.11581648 -0.05635503 0.03326632
000210 ae 5c 70 bd 25 f9 b7 3d a9 83 f2 3c 1c e2 2b be
       -0.058682136 0.089830674 0.029603796 -0.16785473
000220 fa d3 e1 bb e6 2a c7 bd 61 8e f5 bd 6f f7 11 bd
       -0.0068917247 -0.09724979 -0.11990047 -0.03563636
000230 fa 2c 16 be 3f fc d0 3d 97 42 61 bd 72 35 21 bd
       -0.14665595 0.10204362 -0.054995146 -0.03935761
000240 5d 1b 92 bc ab d6 ba 3d 81 dc 82 bd 58 a9 b3 3d
       -0.017835313 0.09122976 -0.06389714 0.08772534
000250 c2 44 84 bd 75 3d 24 bd e1 71 1e 3d 6f ef bc bd
       -0.06458427 -0.040097672 0.038682822 -0.09225356
000260 31 01 25 be 21 92 fb 3c 38 73 ba 3c a6 4a 47 bd
       -0.16113736 0.030709328 0.022760019 -0.048655175
000270 13 65 d3 bd ba e3 86 3d a7 77 87 3c e8 1d 48 bc
       -0.10322013 0.06586404 0.016536547 -0.012214161
000280 99 9c 96 3d 75 f1 50 bd ff 41 97 3d 4c e1 f0 bd
       0.073540874 -0.05101152 0.07385635 -0.11761722
000290 9c 86 02 3e e8 dc 07 be 35 c0 3e 3e f9 58 e9 3d
       0.12746662 -0.13267863 0.18628009 0.11393923
0002a0 c4 e6 81 3d e4 69 09 bd cc 5c 88 bd 9f d4 c7 bc
       0.06342843 -0.03354825 -0.066583246 -0.024393378
0002b0 ec 2a ab 3d 97 20 d9 3d a7 84 83 3d 5e 61 1d be
       0.08357796 0.10601919 0.06421786 -0.15369174
0002c0 20 43 34 bc 58 59 8a bd 7d b5 2e 3b 8c 2a 05 3e
       -0.011002332 -0.06755322 0.0026658468 0.13004512
0002d0 44 03 3c 3d 81 03 93 bd 0b 1b 19 3d 9e de de bb
       0.04590155 -0.07178403 0.037379306 -0.0068014404
0002e0 72 db cb bd 21 f8 76 3d 1d 20 99 bd b1 e9 0e bc
       -0.09953965 0.060295228 -0.07476828 -0.008722709
0002f0 cf a4 e6 bd 2b df c5 bd 5e e9 1f 3d ab b5 bb bc
       -0.112619035 -0.096617065 0.039040916 -0.022913774
000300 64 60 9b 3d 37 33 05 bd 6a 1b 98 3d ad ff 3b 3e
       0.075867444 -0.032519545 0.07427104 0.18359251
000310 a2 71 d5 bd 74 16 0e be 02 0a 01 3e 9d 7b 6b 3d
       -0.10422064 -0.13875753 0.12601474 0.057490934
000320 63 db 97 bd 6d 62 8a bd 3b 28 6b 3d b6 ff 51 3d
       -0.074148916 -0.067570545 0.057411414 0.051269256
000330 0d 0d 30 3e 3f 51 e9 bc 65 b6 6e 3d 9d df 20 bd
       0.17192478 -0.028481124 0.058279414 -0.039275754
000340 16 ba 7a bd e4 02 ec bd 4f 0a d1 3c e4 b0 45 be
       -0.06121262 -0.11523989 0.02551761 -0.1930576
000350 a9 85 a5 bc 00 62 6d bc cf 84 63 3d d2 34 7f 3d
       -0.020205336 -0.014488697 0.055546578 0.062306233
000360 b6 ac 47 bd 35 25 5d 3d 67 98 ac 3c 0d 45 14 3d
       -0.048748694 0.05399056 0.021068765 0.036198664
000370 f3 b8 25 3d 80 8a 9d 3d cb eb d0 3d 97 8b 93 bc
       0.040459584 0.076924324 0.10201224 -0.018010898
000380 db 48 88 bd ac 35 19 3d 20 e4 38 be 68 00 86 3c
       -0.06654521 0.0374047 -0.18055773 0.016357616
000390 88 9a 50 bd be 33 a5 3d f9 e1 4f bd 02 54 14 3d
       -0.050928622 0.0806651 -0.050752614 0.03621293
0003a0 2f 39 86 bc 7c 47 2c bd f7 70 03 3e c9 1b 98 3d
       -0.01638469 -0.04206036 0.12836061 0.074271746
0003b0 65 74 03 3c d2 87 14 bd bc 61 92 3d f4 72 8f 3d
       0.008023356 -0.03626234 0.071475476 0.070043474
0003c0 10 77 eb 3d 41 33 13 3e e1 3d 3a 3d 39 7a 47 3d
       0.11497319 0.1437502 0.04546917 0.048700545
0003d0 fd 76 29 3d f5 79 71 3b 40 9c 25 3d 48 67 1b bd
       0.04137324 0.0036846374 0.040432215 -0.037940294
0003e0 99 9b e8 bc e3 6b 9e 3d 29 0f 1b bd 01 f9 fa bb
       -0.028394507 0.077354215 -0.037856255 -0.007659078
0003f0 59 bf c9 bd ba 4b 1d be ce a3 0b 3d 4a e6 a1 ba
       -0.0985095 -0.15360919 0.034091763 -0.0012351957
