results/ppo/MoveToBet/MoveToBet-25928.onnx (onnx, 636216 bytes, 9 tensors)

action_model._continuous_distribution.log_sigma f4 [1, 2]
000000 ac 8a 6f 3b 6c b5 0e 3b
       0.003655116 0.0021775616

action_model._continuous_distribution.mu.bias f4 [2]
000000 e9 10 c6 bb 8d 75 ea 3b
       -0.0060444963 0.0071551264

action_model._continuous_distribution.mu.weight f4 [2, 128]
000000 bd 11 0c bc b7 ee a9 3b 23 ea 77 bc 59 a9 38 bb
       -0.008549151 0.0051859277 -0.015131506 -0.002817711
000010 69 27 85 bc 88 13 08 bd 49 60 1c 3c 41 45 3b bc
       -0.016254144 -0.03322175 0.009544441 -0.011430086
000020 fb bb e1 3c 23 10 5f bc f7 c2 3f bc 72 a2 8c ba
       0.027555456 -0.013614687 -0.011704198 -0.0010729565
000030 15 79 fd ba 1e 56 4a 3c f4 c8 a8 3c 2b 56 0b 3c
       -0.0019338453 0.0123496335 0.020603634 0.008504431
000040 cc 79 ee bb 44 ba 3e 3c 7d d1 56 bc a8 8d 84 3c
       -0.007277703 0.011641089 -0.013111469 0.016180828
000050 0d 3a 7e bc 19 93 f8 3b 38 43 84 bc 94 b5 c4 3c
       -0.01551677 0.007585895 -0.016145334 0.024012364
000060 4a 10 70 3b 74 54 43 3c 06 35 8f 3a ee 26 05 ba
       0.0036630803 0.011921991 0.0010925836 -0.00050793483
000070 e1 34 04 bd 40 15 0e bc 46 93 00 bd 8f 95 0f bb
       -0.03227699 -0.008672059 -0.03139045 -0.0021909212
000080 6c f2 b9 bc 02 2c 56 bc d2 ad 95 bb 97 47 9b 3c
       -0.022698604 -0.013072016 -0.00456784 0.018955035
000090 0a 11 50 bc a6 6a 9f bc 18 11 41 3c d7 55 cb 3b
       -0.012699375 -0.019460034 0.011783861 0.0062053013
0000a0 22 04 37 bd ea 4b 83 3c 30 fb ef bc 8f 00 ac 3c
       -0.044681676 0.01602741 -0.02929458 0.02099636
0000b0 91 d1 12 bb 4b e6 37 bc b9 f8 a7 bc 60 a2 40 3d
       -0.0022402743 -0.01122434 -0.020504342 0.047029853
0000c0 24 b7 13 3b 3a a2 3b bb 22 b7 dc bb 2f a6 06 bb
       0.002253958 -0.002863063 -0.0067356983 -0.002054583
0000d0 af 76 07 3d 7f 10 0b 3c c3 cf ea bb ec da 79 bc
       0.03307217 0.00848782 -0.0071658804 -0.015249949
0000e0 e1 12 0f 36 66 32 e3 bc bd 26 80 3b 6c a5 cc bb
       2.131965e-06 -0.027733993 0.003910868 -0.0062453058
0000f0 2e 2a 2a bc 12 2b 10 bb 35 b8 68 bc e1 04 45 bc
       -0.010386033 -0.0021998328 -0.014204075 -0.012025089
000100 47 de 21 bc 85 c7 d2 3b 20 02 2a 3c 46 10 c6 3c
       -0.009879655 0.006432476 0.010376483 0.024177682
000110 22 dc 2d 3c d6 29 07 3a 61 8b 88 bc d3 b8 1a bb
       0.010611566 0.00051560753 -0.016668024 -0.00236087
000120 ea 79 83 bc 56 93 03 3a 97 2f d1 bb 9b 5c a8 bc
       -0.016049344 0.0005019208 -0.006383847 -0.02055197
000130 06 dd a4 bb 2a ba 23 bc 13 04 10 3c 4c 85 c0 3c
       -0.005031231 -0.009993115 0.008790034 0.02350106
000140 1c 02 2b bd 37 85 1b 3c 62 5a 8d 3c ec 5e 1d 3a
       -0.04175006 0.00949221 0.017255012 0.0006003219
000150 2c fb 01 3a 2f b1 1b bc f7 e0 d5 3c 2c 7c 22 bb
       0.0004958387 -0.009502693 0.026108248 -0.002479325
000160 ea 3c 6d 3c 3c 07 b1 3c 2c d8 a5 3c a7 e2 42 3b
       0.014479855 0.021609895 0.02024468 0.0029737146
000170 7c 0e 02 bc 65 47 a1 bc c5 2c 85 bc 06 ae 2e bc
       -0.007938024 -0.019687364 -0.0162567 -0.010661608
000180 db 9a 49 bc e9 a3 8c 3c 19 07 a1 3b 3f c0 66 bc
       -0.012304987 0.017168002 0.004914176 -0.014083921
000190 45 d0 17 bc 8c 4b 34 3c d2 5c 23 bc b3 a6 6e bc
       -0.009265964 0.01100434 -0.009970861 -0.014566111
0001a0 fe 6d 60 bc d4 ea 88 bb e9 75 37 3c d3 86 e3 bb
       -0.013698099 -0.0041783843 0.011197546 -0.0069435625
0001b0 38 ff 53 3b 0b 35 8d 3c be 78 e4 3b 8e 08 06 bd
       0.0032348167 0.017237207 0.0069724014 -0.032723002
0001c0 e1 07 2c bc 07 2f 62 3b 78 b2 27 bd 02 87 a7 3b
       -0.010499925 0.0034512894 -0.040941685 0.0051125297
0001d0 a3 cb 82 bb 90 7c a6 bb 15 56 26 3c 29 04 21 3c
       -0.0039915605 -0.005080767 0.0101523595 0.009827652
0001e0 3c 62 8e bc 21 04 d0 bc 35 4d 67 bb 44 4c 2f bd
       -0.017380826 -0.025392594 -0.0035293822 -0.042797342
0001f0 88 9c 74 bb cf 25 23 bd ad 39 69 3c 72 ec e4 3b
       -0.0037324745 -0.03983098 0.014234942 0.0069861943
000200 7b 4b 8e b9 8a 3c a5 3b 49 32 09 bc 54 c6 f2 bc
       -0.00027140588 0.005042617 -0.008373805 -0.029635586
000210 4d 80 09 bc b1 64 ba 3b cd 29 d0 3a 3e 1e 00 bd
       -0.008392406 0.005688273 0.0015881598 -0.03127884
000220 fc 1f 04 bd 66 f8 5b bb 05 5e ac bb 3f b3 3d b8
       -0.032257065 -0.0033564805 -0.0052602314 -4.5228047e-05
000230 41 bd 52 ba df 03 7a bc 69 c5 ce bc 84 8c ee bc
       -0.0008039065 -0.015259712 -0.025240617 -0.029119737
000240 b4 34 32 3c 78 1f dd bb 0e 88 32 3c de a9 97 3c
       0.010876823 -0.006748136 0.010896696 0.018513616
000250 13 97 f9 bc f3 b2 d1 bc 6a a0 2d 3c b5 56 43 bd
       -0.030467546 -0.025598025 0.010597328 -0.047690112
000260 30 5b b5 3c 40 6a cc bc d6 d8 0b bc 72 97 a3 39
       0.022138208 -0.024953008 -0.008535584 0.00031202618
000270 3e 54 03 3d 0c 42 ef bb 1f 53 fe bb 95 71 73 bb
       0.03206276 -0.0073015746 -0.0077613737 -0.0037146558
000280 2a 3d 00 3b 1f 1e e4 3b 56 34 09 bd 2c f7 10 bd
       0.0019567707 0.0069615985 -0.033497177 -0.03539197
000290 6d f0 e7 3c 98 f5 42 3c f6 51 d4 3b a7 c4 2f 3b
       0.028312886 0.011899374 0.006479497 0.0026820095
0002a0 42 27 f6 3b 49 b3 af bc 49 fd 90 bc 34 68 d6 bb
       0.007512004 -0.021447795 -0.0176989 -0.0065431837
0002b0 85 0a df bb 72 08 a7 bc 16 83 3d 3d 28 aa 9c 39
       -0.006806674 -0.02038977 0.04626759 0.00029881415
0002c0 6c 89 45 3c dd 8f 1c bc ad 73 ae 3b 03 75 6b 3c
       0.01205669 -0.009555784 0.005323848 0.0143711595
0002d0 39 28 8d bc ba 39 a0 3b 59 52 9b 3b 90 01 12 bc
       -0.017231094 0.004889694 0.004740041 -0.008911505
0002e0 f0 d7 08 3c 75 59 ef bb a4 83 6a bc 1f 60 6c bb
       0.008352265 -0.0073043653 -0.014313612 -0.0036068035
0002f0 49 69 8e bc 33 fd d1 bc ef 96 52 bc c3 a4 11 3c
       -0.017384188 -0.02563343 -0.012853368 0.00888938
000300 1e 6b 2b 3c 1f 3e 13 bd 67 7c 21 3c ba c5 9e bb
       0.01046255 -0.035947915 0.00985632 -0.004845348
000310 87 ee cf bc 89 82 9f bc 76 77 22 3b 52 da a5 3b
       -0.025382293 -0.019471424 0.0024790443 0.005061426
000320 0c 78 5f 3c 6c fe ed 3c 71 59 e5 bc ae 19 fb 3c
       0.013639461 0.029051982 -0.02799675 0.030651893
000330 6b 2e 2c bd 60 8c 5a 3c 95 4f 27 3c 48 a1 f2 bb
       -0.042036455 0.013339132 0.010211845 -0.00740448
000340 1a b2 6f bb cb 82 7f 3b fc 63 dd bc 32 56 51 bc
       -0.0036574663 0.003898787 -0.027025215 -0.012776898
000350 eb 68 95 bc 1f af 49 3c 15 a4 88 3c 56 84 ba 3c
       -0.018238505 0.0123098185 0.016679803 0.02276818
000360 15 a4 5b bc d3 f8 aa 3b 7d 14 c4 bb a9 32 a7 3b
       -0.013405819 0.0052176504 -0.0059838877 0.0051024747
000370 f6 9a 28 bc 64 1f cc 3a 23 a7 f3 3b 06 12 c6 3c
       -0.010290852 0.001557332 0.0074356957 0.024178516
000380 9b 3a b9 bc b6 e5 16 3b ef ab 90 bb f0 ef 48 3c
       -0.022610953 0.0023025102 -0.0044150273 0.012264237
000390 eb d0 be bb be 0c be bc 1e 9f 9a bc 57 b2 87 3c
       -0.005823245 -0.023199435 -0.018874701 0.016564531
0003a0 bd 84 a7 bb 25 a4 bb 3c 98 24 ec 3c 0b 33 d5 ba
       -0.005112259 0.022905419 0.028826043 -0.0016265822
0003b0 96 67 61 bb 08 29 a2 3b f1 8d 8e 3c dc 1c b7 bc
       -0.0034394017 0.004948739 0.017401667 -0.022352628
0003c0 10 e7 cc 3c 77 56 02 3c f6 62 6d 3c 1a c0 ac 3c
       0.025012523 0.007955185 0.014488926 0.021087695
0003d0 a5 26 57 3c c7 42 62 bc 0e f3 9b bc e2 4c 9c 3c
       0.013131772 -0.013809866 -0.019036796 0.01907963
0003e0 65 00 ad 3c 3a a4 bc bc 49 6d a6 bb 9d ca 90 3b
       0.021118352 -0.023027528 -0.005078946 0.0044186846
0003f0 1b db a9 3a f1 3f 62 3c 15 6f 06 bc 99 09 4b 3d
       0.0012958975 0.01380919 -0.008205195 0.0495697

action_model._discrete_distribution.branches.0.bias f4 [5]
000000 e7 b3 28 3b 16 7c f0 3a 6d 6f 95 bb 8d b5 fb 3a
       0.0025741996 0.0018347527 -0.004560402 0.0019203887
000010 0c de 5a bb
       -0.003339651

action_model._discrete_distribution.branches.0.weight f4 [5, 128]
000000 3b 83 0f bb 73 0a 13 3c ab 86 20 3b af 47 1a 3c
       -0.0021898288 0.008974659 0.002449433 0.009416505
000010 3f 7c 14 3c b8 09 59 bb fc 58 61 3b 00 d7 27 3c
       0.009062826 -0.0033117365 0.0034385314 0.010244131
000020 4f 36 a8 bb c6 8a b2 bb da 1d b5 3b d6 f3 97 bb
       -0.005133427 -0.005448672 0.00552724 -0.004637222
000030 19 f3 31 bb a7 7d 86 3b 8b b4 3c 3b 0f b0 75 bb
       -0.0027152954 0.0041043344 0.0028794135 -0.0037488972
000040 b2 34 75 3c 80 57 9a 3b b6 6f 6f 3b 72 4a 84 bb
       0.014966177 0.004710138 0.003653509 -0.004037195
000050 04 7f 9c bc 3d b8 54 3c 6d 0a 24 bc 74 00 18 bc
       -0.019103535 0.012983379 -0.010012251 -0.009277452
000060 98 26 8a ba c1 b7 a7 39 ff 41 dd 3b 8d 7a 13 bb
       -0.0010540066 0.0003198963 0.006752252 -0.0022503466
000070 f8 a6 05 bb d4 0c 59 bb cc 39 c6 3b 1d 09 df 3b
       -0.002039371 -0.0033119218 0.0060493704 0.0068065063
000080 eb 20 28 3c 72 ef 3b 3a 60 be 61 bc f6 1a 88 3b
       0.0102617545 0.0007169164 -0.013778299 0.0041536046
000090 bc f3 cd bb e0 fc 1c bc ba ee 66 bc b1 07 dc 3b
       -0.006285159 -0.0095817745 -0.014095003 0.006714784
0000a0 25 d3 fd 3b 0d e8 80 bc 3a 6f c4 3b c9 29 59 bc
       0.0077461177 -0.01573565 0.0059947046 -0.013254591
0000b0 c8 87 88 bc ad b4 cc ba e2 72 a6 bb 2e 86 11 3c
       -0.016666308 -0.001561781 -0.005079613 0.008882089
0000c0 7e 9b 21 3c 77 0c 68 bc dc 00 2c 3c 11 5c e2 ba
       0.009863732 -0.014163128 0.010498252 -0.001726987
0000d0 46 a7 f4 3a 55 c3 23 3b 7a b3 4e 3c 3d 19 6c bc
       0.0018665574 0.0024988253 0.012616033 -0.014410314
0000e0 79 b3 3d 3c 1f e8 93 bb 59 ef a1 3a 43 4c a6 3c
       0.011578434 -0.004513755 0.0012354656 0.020300036
0000f0 56 5a fb 3b cc 01 a4 bb 21 36 88 ba b6 9c 9f bc
       0.007670681 -0.005005097 -0.0010392108 -0.019483905
000100 ac f7 44 bb b3 4e 7a 3c cf 69 f7 3b 53 ee 11 bc
       -0.003005485 0.015277552 0.007550455 -0.008906919
000110 5b b8 36 bc 5f 0f b9 ba e4 98 7e 3b 6d 1c 2f b9
       -0.011152352 -0.0014118961 0.0038848454 -0.0001669989
000120 b7 15 05 3c 70 a8 03 3b 77 4b 65 bb c8 c7 91 bc
       0.008122853 0.002008941 -0.0034987608 -0.017795458
000130 89 44 ee 3b 5a 7a 7a ba 80 00 36 bc d3 dc 27 3b
       0.0072713536 -0.0009554975 -0.011108518 0.00256138
000140 7c 86 f6 38 0d 2b 44 bc 31 65 83 bc aa 6d ab bb
       0.00011755244 -0.011973155 -0.016039463 -0.005231579
000150 58 41 ea 3a 03 46 4f bc 98 54 19 3c 70 a6 85 3c
       0.0017872257 -0.012650969 0.009358548 0.016314715
000160 02 35 ef 3b 08 ea 15 bb d9 b5 02 3c 40 74 a0 bb
       0.00730002 -0.002287509 0.007977926 -0.0048966706
000170 6b 51 13 bd d5 5c 1a bc 1f ed 4d bc e0 ce ff 3b
       -0.035966318 -0.009421547 -0.012568741 0.007806644
000180 0c 05 86 3b 5f f2 14 3c 00 af 2d 3c c2 32 64 3c
       0.004089957 0.009090989 0.010600805 0.013928117
000190 ff f5 e0 bb 13 68 86 3c 6b 33 a7 bc 4b 95 d6 3b
       -0.0068652625 0.016407048 -0.02041026 0.006548559
0001a0 38 92 dc ba 59 4b a1 3b 4f 59 88 bb a4 ab 3e 3c
       -0.0016828245 0.004922312 -0.004161037 0.011637602
0001b0 87 bf 55 3c 68 a8 00 3a 09 05 93 bb 2b 10 5a 3a
       0.013046152 0.0004907907 -0.004486684 0.0008318449
0001c0 3c fb 35 3c 29 61 82 3b 1a a9 86 3c cd b2 f5 3b
       0.011107262 0.0039788675 0.016438056 0.0074981214
0001d0 31 b0 ac 3c dd c7 7f bc f6 54 7b 3a be 6f 0b 3b
       0.021080108 -0.015611616 0.00095875503 0.002127632
0001e0 c6 16 97 bb 15 f6 59 3c b8 bf 8b 39 cc a7 9a 3a
       -0.004610869 0.013303299 0.00026654988 0.0011799275
0001f0 c4 6f a0 3b bf d2 f6 bb 45 a6 b5 3b 61 6f 03 bc
       0.004896136 -0.007532447 0.0055435025 -0.00802216
000200 66 3a 03 bc 43 31 c0 3b 56 14 75 3c 81 a6 6c 3c
       -0.008009529 0.0058652475 0.014958462 0.0144439945
000210 d1 31 a2 3b e5 f4 04 bc ec f4 32 ba 11 1e 2f 3c
       0.0049497862 -0.008115028 -0.00068266573 0.010688321
000220 f3 32 89 bc 00 c1 43 bc 11 f4 a1 3c 9d 76 54 3c
       -0.016747927 -0.01194787 0.0197697 0.012967733
000230 b3 c1 29 3c d2 a3 86 3c 4c ad ef bc 71 db c4 3b
       0.010361123 0.016435537 -0.02925744 0.0060076048
000240 82 6e b3 3b b0 29 29 bc a8 2b 4d 3b 88 d7 0e b9
       0.00547582 -0.0103248805 0.0031306539 -0.00013622467
000250 70 e0 00 39 b2 6a 05 3c 50 9f 1f 3c d5 df b5 bc
       0.00012290641 0.008143114 0.009742573 -0.022201458
000260 3a 1a 01 3c fd 0a 07 bc 21 d1 d6 bb c8 c6 21 bb
       0.007879788 -0.008242366 -0.006555692 -0.0024685133
000270 02 9c 0c 3b 67 e7 72 bb 2a 07 43 bb e9 c1 44 3c
       0.0021455293 -0.0037064196 -0.0029758909 0.012009122
000280 53 5c ff 3a d6 98 2f 3b 8c 8d 3d bb 06 2d d3 3b
       0.0019482471 0.0026793978 -0.002892348 0.006444576
000290 8d 4c 2b 3c 3d 7c 47 3b 2f 0a 0a bc d1 ea 01 bc
       0.010455263 0.0030439042 -0.0084252795 -0.00792952
0002a0 0a 46 1a 3c 46 d1 8c bc 1c 98 2d bc d7 6a 54 bb
       0.009416113 -0.017189633 -0.010595348 -0.0032412314
0002b0 83 39 a9 bb c4 3d e4 bb 27 81 a7 bb 0d 33 b6 bb
       -0.0051643266 -0.006965371 -0.0051118317 -0.005560285
0002c0 fd 98 a6 3b 1e 05 f6 3b c8 11 1f 3b 60 e6 0c 3b
       0.0050841556 0.0075079342 0.0024272073 0.002149962
0002d0 41 25 9d 3b af d7 a9 bc cd 8e ae 3c 6e 86 77 3c
       0.004795701 -0.020732729 0.021308327 0.015107734
0002e0 82 65 1d 3d d2 7d 38 bb eb 4a b0 bc 75 7d 41 bb
       0.038426884 -0.0028151167 -0.021520099 -0.002952424
0002f0 9c 41 fe b9 30 53 20 bc 5d 54 0f 3c 2d 2a 72 3a
       -0.00048495538 -0.009785458 0.008748141 0.0009237852
000300 97 d6 a3 3b 06 c9 b6 bb 1b e8 5c bc e7 64 86 bc
       0.0049999463 -0.005578163 -0.013483073 -0.016405536
000310 11 cd ed bb 24 fc 56 3b 95 76 2e 3b 0d 88 65 3c
       -0.007257112 0.0032804096 0.0026620973 0.014009488
000320 9a ff de bb bf f0 64 bb 79 7f 20 bc ff 95 4d 3c
       -0.0068053724 -0.0034933535 -0.009796017 0.012547969
000330 3e 7f 0c bc bc dd 48 bc 5e f3 24 3c 92 7d b9 3b
       -0.008575259 -0.012259897 0.010067789 0.005660721
000340 1d fa b5 3c d7 80 db 3b d4 8b 46 3b 82 2b ae ba
       0.02221399 0.0066987085 0.0030295746 -0.0013288113
000350 1c e4 dc 3b 32 bc 85 3c 0d ee b8 3b bd 20 8a 3b
       0.00674106 0.01632509 0.0056436122 0.0042153285
000360 f2 94 0e 3c c8 09 c7 3b b1 a5 8a 3a b0 2a 29 3c
       0.0087025035 0.006074164 0.0010577944 0.010325119
000370 b5 aa a7 3c c0 fb 33 ba 6a 79 45 bb 60 ae ff 3b
       0.020467142 -0.0006865822 -0.0030132183 0.0078027695
000380 58 70 50 bc 9e 58 75 bb 42 6f 54 bc 95 ed 04 bc
       -0.012722097 -0.0037436853 -0.012965979 -0.008113285
000390 c0 8f 24 3c dd 50 02 bc ac 26 83 bb 54 5e d9 3b
       0.010044038 -0.00795385 -0.004002413 0.0066335592
0003a0 04 e2 67 3c f4 04 d2 39 67 c1 89 3b 98 7a 33 3a
       0.014153007 0.00040058012 0.0042039636 0.0006846576
0003b0 ca c8 96 3b c4 6a 16 3b 35 d1 24 bc 08 10 bf 3b
       0.0046015726 0.002295182 -0.0100596445 0.0058307685
0003c0 26 85 8e 3a b2 ac 5e ba e7 f0 5c 3c a6 59 01 bb
       0.0010873422 -0.00084943615 0.01348517 -0.0019737273
0003d0 64 ec 8a ba 65 08 2f 3c 31 b6 90 bc e6 fc 23 3b
       -0.0010599014 0.010683154 -0.017665 0.0025022565
0003e0 88 9f 11 bb 15 0b b8 bb 69 1d 1c bc 13 f8 15 3c
       -0.0022220332 -0.0056165555 -0.009528496 0.009153384
0003f0 8d b5 56 bc 7d db 8f bc 16 ac 1a bc 7a af 10 3a
       -0.0131048085 -0.017560715 -0.009440443 0.0005519312

network_body._body_endoder.seq_layers.0.bias f4 [128]
000000 77 b8 e0 3a 6f f6 f8 bb ad 12 71 39 39 79 96 3b
       0.0017144819 -0.0075977365 0.00022990508 0.0045920876
000010 78 71 c6 3b 45 1e 25 bc e7 58 fa 3b 99 36 c2 bb
       0.006056007 -0.010078018 0.0076399925 -0.0059269187
000020 29 89 fa bb 36 5b dd bb c8 ea d8 bb 62 d9 9f 3b
       -0.0076457453 -0.006755258 -0.006619785 0.004878209
000030 3e c6 09 ba 0f 72 19 bc d6 1d c0 3b a8 5a 61 bb
       -0.00052556756 -0.009365573 0.0058629317 -0.003438631
000040 c5 e5 e7 3b 19 f0 6d 3a 44 79 9c bb 91 95 35 3b
       0.007076951 0.000907661 -0.004775198 0.0027707557
000050 86 47 bf 39 03 1e 0f bc 96 73 3a 3b 00 70 6e bb
       0.00036483648 -0.008735183 0.0028450242 -0.0036382675
000060 38 e0 35 bb c2 dc ef ba 22 44 cf bb ab b0 a6 bb
       -0.0027752053 -0.0018300044 -0.0063252607 -0.0050869784
000070 21 05 ec 3b 60 81 31 bb 64 ae aa 3b bb 91 04 bc
       0.00720276 -0.002708517 0.0052087773 -0.0080913855
000080 43 a1 03 bc 28 8f 83 3b 14 0f 70 bb 85 69 8e 3b
       -0.008034053 0.0040148683 -0.003663008 0.004346075
000090 95 57 05 bc 04 ef ae bb 8b 60 3f 3b 38 02 1e 3c
       -0.008138557 -0.0053385515 0.0029201831 0.009644084
0000a0 6b bd f5 3b 5a 3d fe bb 8b 56 05 bc ce fb d9 ba
       0.007499387 -0.0077587785 -0.008138309 -0.001663083
0000b0 10 26 05 bc b0 c0 60 bb 42 97 db bb 86 01 57 3b
       -0.008126751 -0.0034294538 -0.006701381 0.0032807305
0000c0 4e 03 94 3b c0 5b 19 b9 d5 1c a9 3b 0c 7d a0 ba
       0.0045169955 -0.00014625397 0.0051609077 -0.0012244298
0000d0 f6 db 0e bc 91 b1 01 bc 03 67 46 bb 3e a9 f3 3b
       -0.008719435 -0.00791587 -0.0030273802 0.0074359467
0000e0 06 a8 25 bb 8b 54 de 3b 30 e3 cd 3b 59 a2 60 b9
       -0.0025277152 0.0067849807 0.0062831864 -0.00021422784
0000f0 4b 24 0d ba 80 e1 ec bb 7b 7c cb bb 3e 12 81 38
       -0.0005384131 -0.00722903 -0.0062099076 6.154597e-05
000100 db 8f 07 bc de 3a 26 36 ec 41 ce bb 84 5d 02 3c
       -0.008274044 2.4770193e-06 -0.0062944796 0.007956866
000110 16 30 15 3b 84 6e 95 3a 5e be 06 3c 77 f0 f5 3b
       0.0022764257 0.0011400734 0.008224098 0.0075054723
000120 11 7e e6 bb 89 1c da bb 32 98 bd 3b f9 06 7f bb
       -0.0070340713 -0.0066562337 0.0057859654 -0.0038914068
000130 0f d9 bb 3b 51 62 c0 3a 29 b2 17 bc e5 6f 74 3b
       0.0057326625 0.0014677738 -0.009258785 0.003729814
000140 16 b6 c7 3b c8 16 aa bb a3 77 7f 3b 71 5f 87 bb
       0.0060947044 -0.005190704 0.003898122 -0.0041312505
000150 4d f7 0b bc b6 a9 ba bb 15 fc 0b 3c b0 17 91 39
       -0.008542848 -0.0056965007 0.008543988 0.00027674204
000160 dc fe a0 bb d7 8a 89 3b 66 41 fa bb b3 d3 b3 3b
       -0.004913194 0.004197459 -0.0076371906 0.005487883
000170 a6 9b d0 3b a7 07 69 3b a0 3c 99 3b 12 bc 07 39
       0.006366211 0.003555754 0.0046764165 0.00012944665
000180 a2 70 ff bb e1 c6 1d 3c ad 45 b3 bb 02 c1 db bb
       -0.0077954093 0.009629936 -0.0054709525 -0.006706358
000190 91 66 ef b9 fc 35 9c 38 5a 3c e7 39 03 81 d2 bb
       -0.0004566205 7.448715e-05 0.0004410472 -0.006424071
0001a0 24 01 b7 bb f9 74 9d 39 de a4 8f 3b 76 e2 20 3c
       -0.005584853 0.00030032525 0.0043836674 0.0098196175
0001b0 51 9a 77 3b 5f ad 90 3b f5 f7 a8 3b ac 98 b0 3b
       0.0037781189 0.0044151987 0.005156512 0.0053892937
0001c0 ee 0a a6 3b 6a 5f 8b 3b 6e a0 7d 3b 10 87 55 3b
       0.005067221 0.0042533176 0.003870036 0.0032581724
0001d0 4b bd 01 bb 96 bf 1c 3b 51 ec 80 3b dd 1c e5 3a
       -0.0019796665 0.0023917905 0.003934421 0.0017479915
0001e0 ca 59 13 bc c0 1f 7d 39 a1 e8 85 ba bb 73 55 bb
       -0.008993575 0.00024139788 -0.0010216424 -0.0032570201
0001f0 5d e9 17 bc 8c 66 d2 3b e6 21 a0 ba 74 17 a1 3b
       -0.009271947 0.006420916 -0.0012217134 0.004916126

network_body._body_endoder.seq_layers.0.weight f4 [128, 1100]
000000 24 f8 bc bc 6c 73 b6 ba e7 fc 8e 3b c6 87 60 bb
       -0.023067541 -0.0013919896 0.0043636444 -0.0034260615
000010 20 13 b1 bc 2d a0 76 3c cf 8c 83 3c 4a 38 19 3c
       -0.021615565 0.015052837 0.016058354 0.009351799
000020 38 55 4d bd c2 53 c1 3c c3 c0 49 bc 62 7a 21 3d
       -0.0501301 0.02359951 -0.012314024 0.039423354
000030 4d 34 87 3c cc e3 cb 3c 06 48 61 3c 11 32 4b bd
       0.016504431 0.024888895 0.013750082 -0.049608294
000040 06 df cc 3b bc 4c 24 bd 0b ba 42 bc 1d 74 89 3d
       0.0062521724 -0.040112242 -0.011885176 0.067116
000050 9b 14 7e ba 63 c6 7d 3c 77 b8 ed bc dd 9b 18 bd
       -0.00096924015 0.015489194 -0.029018624 -0.037258018
000060 31 83 e6 bc 39 90 ad bb 7a 8d ab bc 9f 76 07 3d
       -0.028138729 -0.0052967337 -0.020941485 0.03307211
000070 19 87 0b 3b 88 e3 73 3d 95 06 80 3a 86 15 63 3d
       0.0021290241 0.059543163 0.0009767587 0.05544045
000080 2c 96 01 bd d0 2e 5c 3c a3 8a 29 3d bb 90 fa 3c
       -0.031637356 0.013438895 0.04139198 0.030586591
000090 86 a7 99 bd e4 88 04 bd d3 af 91 bc af 1c 39 bd
       -0.07502656 -0.03235711 -0.017784035 -0.04519337
0000a0 54 7c 82 bd f4 da eb bc 6a 02 00 bd c7 f7 ad bc
       -0.0637137 -0.028790928 -0.031252302 -0.021236314
0000b0 9f a4 75 bd ca 1d 44 bd 1c d5 ee bc 5d a7 a4 bc
       -0.059971448 -0.04787997 -0.029154353 -0.020099336
0000c0 ec 9d a2 3c 5a 9d 81 3c 1c 35 ec 3c 4f 1f 36 bc
       0.019850694 0.015822101 0.028833918 -0.011115863
0000d0 91 5b ad 3c e0 76 88 bc 8c a8 41 bd 47 e2 02 bd
       0.021161826 -0.016658247 -0.04727988 -0.031954076
0000e0 8d 7d 94 bc 8f a6 b2 bc 48 39 af bd 1a ae cb bc
       -0.018126274 -0.021807937 -0.085558474 -0.024863292
0000f0 9d cc 1d 3c 6d 4c 97 3c 71 34 3b 3d f4 2d 25 bd
       0.009631303 0.01846906 0.04570431 -0.040327027
000100 dc 64 2b 3d 17 30 1c bd d8 99 19 3c cb b0 e8 3b
       0.041844234 -0.0381318 0.009375058 0.0071011535
000110 c2 8a 4b bd 4d 8e d8 bc 4a 87 68 bd d7 da 81 bb
       -0.049692877 -0.026435042 -0.056769647 -0.0039628553
000120 ca 18 fe 3c e2 d9 4a ba 27 86 0d bd 89 70 c5 3c
       0.03101768 -0.00077381555 -0.034551766 0.024101513
000130 69 17 fd 3c 46 5e 58 3d c6 24 59 3d d0 b6 13 bc
       0.030894952 0.05282428 0.053013586 -0.009015754
000140 b5 f7 ef bc 9d 2c 13 3c 6d c3 eb 3c c4 25 1d 3d
       -0.02929292 0.008982805 0.02877971 0.038366094
000150 2f a3 20 39 a6 68 f8 3b 81 2d 14 bb 62 d0 ff bc
       0.0001531958 0.0075808344 -0.002261013 -0.031227294
000160 58 41 44 bc d0 9b ea bb 3b d0 17 bc 55 79 c8 bc
       -0.01197847 -0.0071596876 -0.009265955 -0.024471918
000170 0c 39 2a bd ac 80 40 bd 54 f4 c3 bd ef 64 91 bb
       -0.04155831 -0.04699771 -0.09568086 -0.004437081
000180 22 b4 18 3d 0e cc 97 3b bb b3 d9 bb ec 5d d3 3a
       0.037281163 0.0046324795 -0.00664374 0.0016126013
000190 77 2c ae bc d0 d1 df 3c 6a e4 8c bc bf ba 05 bd
       -0.021261437 0.027321726 -0.01719876 -0.032648798
0001a0 5b 14 68 bb 4b f5 fd bc b5 27 2d bc e9 54 56 3c
       -0.0035412523 -0.031000754 -0.010568549 0.013081768
0001b0 5b 06 87 3c 16 e5 26 bd 53 44 19 3d 52 83 a3 bb
       0.016482523 -0.040745817 0.037418675 -0.00499002
0001c0 a9 4d 8c bc 2f 93 93 bc 04 85 38 bd e5 93 18 ba
       -0.017126875 -0.018014519 -0.04504873 -0.0005820378
0001d0 0b 4f 9f bc 01 41 aa 3c cc 7c b3 3c 86 96 e4 bc
       -0.01944687 0.02078295 0.021910094 -0.027903806
0001e0 a2 0b a2 3c 62 b6 57 3c 31 29 5d bc 8e b0 1d bd
       0.019780938 0.013166042 -0.01349859 -0.038498454
0001f0 db 4a a8 3c 90 d3 06 3d 4b 00 e1 bc 86 72 14 3d
       0.020543506 0.032916605 -0.02746596 0.03624203
000200 2e a3 6a 3c 83 9e 0f bd 15 f7 ce 3c 4c 52 16 3c
       0.014321132 -0.035063278 0.025264302 0.009174895
000210 0a 84 04 3d 2e 67 db bc 15 e7 31 3c 03 cb b2 bb
       0.032352485 -0.026782598 0.010858317 -0.00545633
000220 7b 10 9c 3c 6a 22 a4 3d 7e 48 93 bc 17 1c 10 bd
       0.019050827 0.080143765 -0.017978903 -0.03518304
000230 3c b1 1b bc 09 29 0c bd e2 49 8e bc 13 38 bf 3b
       -0.009502705 -0.03421882 -0.017369214 0.005835542
000240 00 96 8e bb 60 68 10 3c 52 b4 eb bb d3 8d 36 bc
       -0.0043513775 0.008813947 -0.0071931267 -0.011142212
000250 09 1f 09 bd 1e 30 b2 3c a4 c6 46 3a bb fb 03 3d
       -0.033476863 0.02175146 0.00075827003 0.03222249
000260 56 21 c3 ba d8 22 9b 3b ba b9 49 bc 58 42 24 bd
       -0.0014887254 0.0047343783 -0.012312347 -0.040102333
000270 fa 27 96 bc 65 09 c8 3c a2 d5 73 3b e2 fd 14 bd
       -0.01832961 0.024418542 0.0037206193 -0.036374934
000280 d2 46 e0 3c 4f bd 07 3c a0 3c c2 3c 55 f7 fb bc
       0.02737752 0.008284881 0.023710549 -0.030757586
000290 74 7c bb bb 66 87 53 3c 85 d9 05 3d ef fc 33 3d
       -0.005721623 0.0129106995 0.032678146 0.04394239
0002a0 2c 38 d9 bc ef 45 ad bc ed 66 93 3c 00 7e 44 3b
       -0.026516043 -0.021151511 0.017993415 0.0029982328
0002b0 2c 54 19 bd d3 d3 5f 3d 1d 84 6e bc e9 a6 87 bd
       -0.03743379 0.05464537 -0.014557865 -0.066236325
0002c0 11 50 5e bd c2 a1 28 3d 16 08 51 bc 13 d9 19 bc
       -0.054275576 0.04116989 -0.0127582755 -0.009390133
0002d0 99 2d af 3d 13 9a a5 3a 8a 14 37 3d 61 88 aa 3b
       0.08553619 0.0012634419 0.044697322 0.005204246
0002e0 cb 97 00 bd a7 38 a1 3c d3 23 b0 3b 5d 4d 97 bc
       -0.03139476 0.019680334 0.0053753643 -0.018469507
0002f0 39 32 f6 3c 66 13 1a bd f0 1a dc 3a af 5a 49 3c
       0.030053245 -0.037616156 0.0016792696 0.012289687
000300 71 92 94 3d 78 9a f2 bc d3 eb d1 3c 3a c7 4d bc
       0.07254494 -0.029614672 0.025625145 -0.012559706
000310 44 4a cb 3c 80 83 dc b8 1c 07 60 3c 46 f2 7c bd
       0.024815686 -0.00010514911 0.01367357 -0.061754487
000320 ed fd 12 3c 98 0a 3a 3d 24 4e b6 3c a1 b1 22 bc
       0.008971673 0.04542026 0.022254057 -0.009930045
000330 6c 6f 1d bd 6d bc c1 3b d8 8b e4 bc 03 02 63 3c
       -0.03843634 0.0059123547 -0.027898714 0.01385546
000340 79 56 0b bc c5 b1 e8 bb 55 b1 5c 3d e2 0b 8b 3d
       -0.008504503 -0.00710127 0.053880055 0.06789376
000350 43 9f 89 bc 62 20 99 3c 5b ed 33 bd 83 2f 29 bb
       -0.016799575 0.0186922 -0.04392753 -0.0025815673
000360 59 00 fc bc 76 ff 9b bb 86 68 a2 bc ca 4a 89 3c
       -0.030761885 -0.004760678 -0.019825231 0.016759295
000370 11 23 68 bb 81 0b 04 3d 5a 03 df bc af dc e3 3c
       -0.0035421292 0.032237533 -0.027223278 0.027815191
000380 df 97 91 bb 9f 4f e3 3c 8f ee 6b 3a 8a 29 2a bc
       -0.0044431533 0.027747927 0.00090000866 -0.01038588
000390 e2 e0 e3 bc 33 33 16 bd f0 92 32 3c 35 28 f3 3c
       -0.027817193 -0.03666992 0.01089929 0.029682258
0003a0 a6 07 74 bd 3a 5b f9 3c 38 bf 34 3d 57 1c 22 3a
       -0.059577607 0.030439008 0.044127673 0.00061840325
0003b0 62 4f 62 3d e3 cd a6 bd 2f 5c 3b 3c 08 fb 48 3c
       0.055251487 -0.081447385 0.0114355525 0.012266882
0003c0 cc 4e bd 3c 4a 06 bc 3c 8e 13 37 3c 47 43 b4 3c
       0.023108862 0.022952218 0.011174096 0.022004737
0003d0 ec 7b 11 3b a3 b6 c5 3c a6 2c 0c 3a ce 25 2b 3c
       0.0022199107 0.02413494 0.00053472293 0.010446025
0003e0 5c a9 8f bc 80 3e 58 3d 59 0a 25 3d 4f 26 6c bd
       -0.017536812 0.05279398 0.04029307 -0.05765372
0003f0 c1 27 1b bd 45 62 17 3d 94 ba 75 bc ed 27 63 bc
       -0.03787971 0.03695895 -0.014998097 -0.0138644995

network_body._body_endoder.seq_layers.2.bias f4 [128]
000000 b0 34 ac 3b 98 e1 59 3a 8c 3f 62 3b e9 f9 9a bb
       0.0052553043 0.0008311509 0.003452274 -0.0047294986
000010 c5 ff 40 3a 82 ef a7 3b 8a c3 ca 3a 98 96 6e bb
       0.00073623314 0.005124987 0.0015469652 -0.003640568
000020 3e 37 27 bc fb 77 b3 3b 8a e8 75 3b f7 4d 95 bb
       -0.010206042 0.0054769493 0.0037522637 -0.0045564133
000030 8b 0f c9 bb 34 37 01 bc 9a 8d 0d bc 3d f6 e6 bb
       -0.006135886 -0.007886697 -0.0086397175 -0.007048397
000040 ad 28 17 3c 17 7d 01 bc e1 e6 02 3c 22 76 1a 3b
       0.009226006 -0.007903359 0.007989616 0.0023568948
000050 ea 31 9a bb fc 16 f9 bb da 9e fb 3b 53 eb 27 bc
       -0.0047056573 -0.007601617 0.0076788487 -0.010248977
000060 41 ab bd 3b 5b c3 0d bc c6 2f 8f bb 07 04 a3 3b
       0.0057882373 -0.008652533 -0.0043697087 0.0049748453
000070 d2 23 ed 3b 90 f3 61 3b 76 9a 56 3b f9 4d 06 3b
       0.007236936 0.003447745 0.0032745874 0.0020493253
000080 4f fb 68 3b 01 5e 0f 3c 1b 76 c3 bb 59 8c fa bb
       0.0035550182 0.00875044 -0.005965007 -0.0076461253
000090 1c 59 fd 3b be d1 dd 3b 74 8f 0f bb 6f 77 65 b9
       0.00773157 0.006769388 -0.0021905573 -0.00021883634
0000a0 63 09 a1 3b 8c 6d 33 bc 5a e0 06 ba 37 13 e6 bb
       0.004914449 -0.010951411 -0.00051451253 -0.0070213336
0000b0 62 b2 f4 bb 66 7d 05 bb c7 b5 06 3c 59 23 c4 bb
       -0.007467554 -0.0020368933 0.00822205 -0.005985659
0000c0 a8 76 b8 3b 06 8e c8 bb c4 48 d6 3b 22 47 c2 3b
       0.0056293793 -0.006120446 0.006539436 0.00592889
0000d0 99 22 18 bc 9f 0f bc bb 17 b8 10 3c fe ee dc 3a
       -0.0092855925 -0.005739167 0.008832953 0.0016855893
0000e0 c3 94 29 3c c8 26 de 3b 26 f1 1e bc 5f f5 89 bb
       0.010350409 0.0067795254 -0.009701049 -0.0042101587
0000f0 fd c9 b2 ba b9 59 ab bb 54 fa af 3a 9d 66 07 3c
       -0.001364052 -0.0052292016 0.0013426044 0.008264211
000100 07 d4 0a 3c df ef de bb 80 27 52 bb 26 7f f6 bb
       0.008473403 -0.006803497 -0.0032067 -0.0075224815
000110 04 35 10 bc 57 39 d7 bb 54 5d 1b 3b 1f 3b 16 3c
       -0.008801702 -0.0065681147 0.002370675 0.009169369
000120 4e 2a ea 3b 82 b5 c3 3b ad c4 f9 bb 2f 7c 02 3c
       0.0071461564 0.005972565 -0.0076223225 0.007964178
000130 c8 5b d6 bb af 1d be 3b c4 cd 9c 3b 9d d3 be bb
       -0.006541703 0.0058018784 0.0047852714 -0.005823566
000140 fb 2c bc 3b f8 cf 46 3b f2 bb 11 bc bb 17 09 bc
       0.005742667 0.0030336361 -0.008894907 -0.008367474
000150 0b 9d ac bb c5 c8 04 3c 5f 5f a7 ba 7b 1b cb 3b
       -0.0052677444 0.008104508 -0.0012769512 0.0061983443
000160 e4 31 ff bb 6c 38 c2 ba 59 0b 16 bc 86 19 c3 3b
       -0.00778793 -0.001481784 -0.009157979 0.0059539704
000170 7d 49 00 bb 9e 80 d0 3b 9a 8c 97 3b 1d 60 08 3c
       -0.0019575052 0.0063629886 0.0046249153 0.008323696
000180 be 67 bd bb 2f f8 ab bb 9c 94 fc bb 69 0e cd 3b
       -0.0057801893 -0.0052480916 -0.0077081453 0.0062578213
000190 c3 67 5a b9 cb 0e e0 bb 45 b6 ba bb 08 60 08 3c
       -0.00020828754 -0.006837701 -0.0056979978 0.008323677
0001a0 17 44 96 3b 3b 7b c0 3b 17 0f 57 3b e2 18 c7 3b
       0.0045857537 0.005874065 0.003281539 0.0060759643
0001b0 fc 2f cb bb 46 c7 ad bb 95 d8 b5 3a 8c e3 8a 3a
       -0.0062007885 -0.0053032963 0.001387375 0.0010596379
0001c0 a1 64 e5 3b 2f 4a cb 3b ab ec ca 3b 09 6f a0 3b
       0.0070005213 0.0062039117 0.006192764 0.004896049
0001d0 10 92 ce 3b 95 43 9c bb f8 d3 0b bc 99 39 7d 3b
       0.006304033 -0.0047687986 -0.008534424 0.0038639067
0001e0 bc 2b f0 3b 35 33 7b 3a 0c ca 3b 3a 18 0f ed 3b
       0.0073294323 0.00095825206 0.0007163591 0.0072344653
0001f0 1f 42 c0 3a 13 0a d2 3b 0a f4 ff bb 71 72 b5 3b
       0.0014668143 0.0064098923 -0.007811074 0.005537324

network_body._body_endoder.seq_layers.2.weight f4 [128, 128]
000000 59 8e e9 bd 85 52 26 be 2b d1 75 bd 20 6b e6 bd
       -0.11404104 -0.16242416 -0.06001393 -0.11250901
000010 7c 10 f2 3d 3e 7b 86 3c 1b e0 20 be 56 c2 80 bc
       0.118195504 0.016416188 -0.1571049 -0.015717667
000020 27 cd 8d 3d d0 63 49 bd bc 8a b3 3d 1d 96 ab bc
       0.06923895 -0.049167454 0.08766696 -0.020945603
000030 79 8c a8 3d 85 cf 4a 3b 97 64 04 3e 3c cf 0d be
       0.08229918 0.0030946445 0.12928997 -0.13848585
000040 d5 df f5 3d b1 6e 88 bd f7 8a aa 3c 3d 3c c3 bd
       0.12005583 -0.06661738 0.020818217 -0.09532974
000050 4a f9 36 bd d5 26 db bc 3f 08 09 bd ad 16 2a be
       -0.044671334 -0.026751915 -0.03345513 -0.16610213
000060 c6 ed d7 3c 6f db 6e bd e0 4e 31 be ef 00 da 3c
       0.026358496 -0.058314737 -0.17315245 0.026611773
000070 42 6b fa 3d 87 3e 74 3b b7 40 9c bc 39 a5 b6 3c
       0.12227489 0.0037268715 -0.019073827 0.022295581
000080 86 2a 42 3e 69 f3 9d bd 33 f4 92 bd a0 9f 89 bd
       0.18961534 -0.077124424 -0.071754836 -0.06719899
000090 41 c6 36 3c 65 ef 5f bd 3b 0b 08 3d f2 ab c6 bd
       0.011155666 -0.054671664 0.033213835 -0.09700765
0000a0 55 fc c3 bc 7f 3a 33 bd f8 b2 cf bc 72 dc ed 3c
       -0.023924032 -0.043756958 -0.025353894 0.02903578
0000b0 7d 03 0d 3c ef 6e 77 bc c3 c2 0c bd 63 f2 fb bd
       0.008606789 -0.015102132 -0.034365427 -0.12302091
0000c0 3e c3 c3 3c 7f 0e a2 bc c6 8c ec bd 28 fb 2b 3d
       0.02389681 -0.019782303 -0.11550288 0.04198757
0000d0 96 6f e3 3d ec b0 4e bd 3f 68 9c bd 84 3d ba 3c
       0.11105268 -0.050461695 -0.07637071 0.022734411
0000e0 14 42 a8 3d 58 5c e7 3d fc 88 0a 3d d0 99 42 be
       0.082157284 0.1129691 0.033822045 -0.19003987
0000f0 c6 1b 59 3d 53 9a 17 be 6f 38 16 be 4b 13 83 3d
       0.053005002 -0.14804964 -0.14669965 0.06400164
000100 eb f9 e4 3c d6 f4 82 bd 08 4c a2 bd 87 a4 75 3e
       0.027951201 -0.06394355 -0.07924658 0.23988543
000110 bd aa 03 be ef 03 ec 3d f7 9d db 3d 20 42 44 bd
       -0.128581 0.11524188 0.10723489 -0.047914624
000120 03 a9 84 3d f5 72 c5 3c 81 8d c9 bd fd 7d 5a bd
       0.06477549 0.024102667 -0.09841443 -0.053342808
000130 75 e2 38 bd b2 bc 0a 3e 7d be b9 bd a8 0a 11 3e
       -0.04513784 0.13548544 -0.09069536 0.14164221
000140 48 8f 5f 3c 20 9c da 3a 3b 5f 48 3c a1 36 38 be
       0.013645001 0.0016678609 0.012229736 -0.1798959
000150 07 e9 76 bd ab ea 12 be 36 f6 27 bd 2f 91 81 3d
       -0.060280826 -0.14347331 -0.04100629 0.0632652
000160 12 98 04 3e 4c 78 56 bc 98 80 e0 bd 8e 05 ab bd
       0.12948635 -0.013090204 -0.10962027 -0.08350669
000170 ec ae 42 3e 32 61 18 be 9f e1 02 be ef 08 11 3e
       0.1901204 -0.14880827 -0.1278138 0.14163564
000180 6c 2f 96 3d 79 e6 24 3d d2 dd d9 bc 42 31 9e bc
       0.07333264 0.04025886 -0.02659503 -0.019310597
000190 d3 ff b9 3c 29 67 48 3d 42 1b 1e 3e 43 dc 8c bd
       0.022704994 0.048926506 0.15440086 -0.06877949
0001a0 01 54 ed 3d 72 59 95 3d 80 da 6f bc ff 19 56 be
       0.11588288 0.07292451 -0.014639497 -0.20908354
0001b0 f2 97 89 be c4 a5 df bd c9 be 88 3d b8 09 c9 bd
       -0.26873738 -0.10920289 0.066770144 -0.09816307
0001c0 61 fd 5e 3d 59 58 d4 bd 6d fd c9 3c 21 ac 6d bd
       0.05444086 -0.103684135 0.024656976 -0.058025483
0001d0 d3 a0 8f 3d eb af 5f 3d 9a 57 ed bc c7 9b 0a 3e
       0.07013097 0.054611128 -0.028972436 0.13535987
0001e0 19 eb f5 bc 7e a0 07 3e 61 e8 91 bb 07 92 e2 3d
       -0.03001933 0.13244817 -0.0044527506 0.11063009
0001f0 be b8 0c 3e fc 2c a0 3d 23 a8 d0 bd 3e b7 c6 bd
       0.13742349 0.0782108 -0.101883195 -0.097029194
000200 9b 0a a1 bc 5f a6 cc bd 78 66 02 bd 3d 5d fb 3d
       -0.019658377 -0.0999267 -0.031836003 0.12273643
000210 1a 37 93 bc cb aa db 3c 9c 87 b3 3d f6 d3 87 bc
       -0.01797061 0.026814839 0.087661 -0.016580563
000220 25 2b db bd 43 82 79 3c ec 0d 0a 3e 05 4a 5b 3b
       -0.107015885 0.015228811 0.13481873 0.0033460867
000230 53 0e 10 3c b1 3f 2e 3a 11 1d f8 bc 36 9d 4b 3d
       0.008792478 0.0006647064 -0.030287297 0.049710475
000240 63 73 64 3b 41 31 df bd e4 b9 4c bd 49 8e 2c 3e
       0.0034858815 -0.10898066 -0.049981967 0.16851152
000250 4c 4f b7 bd 24 e9 83 bd 73 58 e4 3d f0 12 2d 3d
       -0.089506716 -0.064409524 0.11149683 0.04225439
000260 cd 13 34 bd c5 cc 80 be a5 be ff 3c 1b 94 f6 bd
       -0.043964196 -0.25156227 0.031218836 -0.120399676
000270 11 bd 25 3e 7d 32 ba bc 94 41 7b 3d 3c 66 8a 3c
       0.16185404 -0.022729153 0.061341837 0.016894452
000280 1c f3 25 3d fd 8a 0b bc 0f b0 c3 bc 93 67 5c bd
       0.04051505 -0.008517024 -0.023887662 -0.053809714
000290 08 dc 3a bd be aa 93 bd d2 cb db bd ef be 91 bc
       -0.045619994 -0.07210301 -0.10732235 -0.01779124
0002a0 30 da a8 3d f3 9c c8 3d c2 1f 36 3e ff 17 cd 3c
       0.08244741 0.09795561 0.17785552 0.025035856
0002b0 21 55 fc bc c7 00 d6 bc 9d b7 8e 3c 2b b2 0e 3d
       -0.030802311 -0.026123418 0.017421538 0.034837883
0002c0 b7 96 1c 3e a4 76 d6 bd 8a e9 29 3c cb 7d db bd
       0.15291868 -0.10471848 0.010370621 -0.107173525
0002d0 0a 77 41 bb 28 de 9f 3b 90 76 19 bc 50 db 2e bd
       -0.0029520416 0.004878778 -0.009366646 -0.04268962
0002e0 f4 4a 1b 3d 47 95 8e 3d f4 42 07 be d0 a7 c3 bd
       0.037913278 0.06962066 -0.13209134 -0.09553492
0002f0 80 50 03 bd e9 f0 0b 3e 46 52 8b 3c d1 fa a3 3d
       -0.032059193 0.13666119 0.017007004 0.08006824
000300 c6 12 06 bc 17 79 75 3d 57 9e 84 3e 92 7d 16 3c
       -0.008183187 0.059929933 0.25902054 0.009185212
000310 b1 a3 09 3e e6 e1 8f bd aa 04 a1 bc c8 09 de 3c
       0.1344135 -0.070255086 -0.019655544 0.027104273
000320 cc cf bc 3c 74 4a 2f bd b7 e7 c1 bd 7e db da 3c
       0.023048304 -0.042795613 -0.09468024 0.02671599
000330 50 bb 9d 3d ce 09 40 3e 25 5c 69 be ee b7 8f bd
       0.07701743 0.1875374 -0.22789057 -0.07017504
000340 76 df 86 3d 53 da 80 bd ee 6b fb 3c 87 b3 99 bd
       0.065855905 -0.06291642 0.030691113 -0.07504945
000350 f7 10 34 be c0 bc 97 3b 21 b5 a7 bd ea db 45 3d
       -0.17584597 0.004630655 -0.081888445 0.04830543
000360 2c 97 25 bc 40 ca 62 3d 3c dc 77 3c fd ab b5 bc
       -0.010106843 0.055368662 0.015128192 -0.022176737
000370 3f ef b2 bc 87 11 81 3d 2d 7c eb 3c 6f 20 80 3d
       -0.021842597 0.06302171 0.028745735 0.06256186
000380 5f da aa bd b6 aa 18 3e af e6 dc bd 14 17 1b 3e
       -0.08342432 0.14908871 -0.10786187 0.15145522
000390 2f 3a f1 bc c8 cd 9b bd e2 17 fb bc fb 27 ff 3c
       -0.02944669 -0.07607609 -0.030651037 0.031146994
0003a0 91 88 ee bd fa 1a 6f bc 23 48 14 3d ea 40 b6 3c
       -0.11647142 -0.014593834 0.036201607 0.02224775
0003b0 5e 6a 38 bd f4 b2 1a bd 3b 15 e6 3c 97 5b b5 bc
       -0.045023315 -0.03776832 0.028086295 -0.0221384
0003c0 57 a8 ea bd cb 4e 08 3d 3a 49 6f 3e 9c 99 b4 3c
       -0.114578895 0.033278268 0.23367777 0.022045903
0003d0 10 3d 4a bd 4f 09 b4 3d b8 c6 24 bd 77 fc a2 3c
       -0.04937464 0.08790838 -0.040228575 0.019895775
0003e0 e9 27 10 39 54 9e fd 3c 3f 70 1b 3e 30 4b d8 bd
       0.00013747778 0.030959286 0.15179537 -0.10561216
0003f0 0a 43 f3 bd 04 70 47 3d ed 0b 33 bc af 69 00 be
       -0.11878021 0.04869081 -0.010928136 -0.12540315
