results/ppo/MoveToBet/MoveToBet-7792.onnx (onnx, 636216 bytes, 9 tensors)

action_model._continuous_distribution.log_sigma f4 [1, 2]
00000000: 0000 0000 0000 0000
0.0 0.0

action_model._continuous_distribution.mu.bias f4 [2]
00000000: 0000 0000 0000 0000
0.0 0.0

action_model._continuous_distribution.mu.weight f4 [2, 128]
00000000: 03f6 8fbc a057 bfbc cde9 25bc f8d2 ee3b
00000010: 0df9 623b f321 af3c 1633 1f3b b745 3f3c
00000020: f6a4 233c d3cc 25bc b9a6 103c 1691 4c3c
00000030: c2a8 74bc 45e0 cebc e886 0cbd 1062 4d3a
00000040: ba4e 373b 4885 8d3c 3d8a 163b 02cc 763b
00000050: 2f0c 873c 8b2c c13c f716 8838 67da 7bbc
00000060: a175 bdbc 22ed 023c cb20 b8bb 2525 edbc
00000070: 772d 1abd c4f0 03bd e9e1 3ebc 63d7 953c
00000080: ad86 913c 5c02 91bc fb47 4ebc b734 27bc
00000090: ade5 4c3c eb50 673c 4aa1 d23a 8827 72bc
000000a0: c9d6 9abc fdab 123d 6ab4 003c a644 bebc
000000b0: afd2 81bb 043e a7bc 37a6 683c 373d cebc
000000c0: dfdb f33b 3c69 9cbb d2d0 87bc 07d2 50bc
000000d0: 46fb 2e3d 0750 58bc 8062 af3c 056a d2bc
000000e0: e985 3f3d 75c2 f73c fab7 15bc d6e3 02bc
000000f0: 6ab7 97bc fa46 7e3b c766 24bc 1b14 c3bc
00000100: 9c20 813b 94e9 9abc 5711 63bc 6a4b c63c
00000110: a210 17bc 5a8f 77bc 47d3 babc 9752 2d3b
00000120: ebac 67bc a3d1 fc3c fb4b 003c 7916 8d3b
00000130: 8ff7 7fbc 9446 143c b724 0dbc b302 013c
00000140: 38b1 aa3c 6284 66bc 57ec 11bc 72c3 cfbc
00000150: 3bb9 7ebb 895f b6bb 34d4 8dbc 9711 18bb
00000160: 4d6f 973c baab 773c 18b3 e6bc 5e2e 113b
00000170: c1dd 8bbc ee36 0aba cbe5 32bc a32e c03c
00000180: cfe5 033d adf2 763c 0061 0d3c a09b 743c
00000190: b86c d1bc 6a17 4a3c cec3 2d3c efa3 093d
000001a0: 4806 80bc 2ac4 a23b 7f29 32bc 6268 273a
000001b0: b440 aabc a693 ac3c 13c6 30bc e1ed 95bc
000001c0: cd6c 573c 9fa2 213c eb3c c8bc 9138 afbc
000001d0: 7deb 5cbd 10ce 8ebc 4656 9e3c cb7f f43b
000001e0: d795 81bb 5ac9 c73c 3422 c3bc 22cf 993c
000001f0: babe 8d3c 35fd 2f3b 5562 90bc 4668 93bb
00000200: a36e dd3b 8e1a 853c dbd7 c43c 97f8 91bc
00000210: 232a 893c e51f 04bd 67b0 803c 6ac0 b4bc
00000220: 652b b6bc f8e9 643c 1547 143b 73e9 2039
00000230: 3a7f bcbc c322 39bd d8c9 18bd 61fd 03bc
00000240: fb37 843c 37b4 b6bb 0285 e33c f7ee 28bc
00000250: ea2f f4bb 1c80 bf3c b0cc 613c f608 3cbb
00000260: 10a9 ecba da33 183c 80be 7abc 2770 02bd
00000270: 1b9d b7bc e39c 85bc 4b4f 033b b7f0 f9bc
00000280: 432c 873c cd06 9cbc a728 d83c 18b1 4e3b
00000290: 4202 d4bb 0775 093c c4e5 00bc eb3c 80bc
000002a0: a563 d1ba 46b2 04bc f7ca 95bc 62e8 773b
000002b0: 260a 263c cfa6 c4bc 9fd3 b439 20d3 c5bc
000002c0: ff52 9fbc 338b b93a c259 bebc 18de a33b
000002d0: f9c2 01bc 71e1 c4bc 63cf 153b 27e1 a9bc
000002e0: 97ac 8a3c 8d11 153d c899 9b3c 8b12 243c
000002f0: 559a d039 4a22 02bc f09f f1bc 1019 503b
00000300: 52e4 873c bad7 e2bc f073 e0bc 6550 0b3c
00000310: 4fff 51bc 7eee 3f3d 3da8 53ba 3f04 a9ba
00000320: e8c8 6abc 6fe3 843c 3b75 c2bc 1389 0b3c
00000330: bfd6 c33c 752e ee3b b499 b33a 5eae c83c
00000340: 9a19 583a f54f f13c 955e 86bc d69e 233b
00000350: 6651 36bc b854 c53c 87be ffbc 757c 083c
00000360: 886e dabc 9fc6 493c f610 3d3d b37c 933c
00000370: b7c9 60bc 908b d9bb a5a8 e53b 3c9c 92bc
00000380: 6f0d 94bc c957 133c c7ba 883c 7d7d 8ebc
00000390: 47b4 2839 7c44 033c b25d 893c abac 5fbc
000003a0: 15e2 ed3b e732 4f3c 52ab 8a3b ebeb 703c
000003b0: 593a b33c c3ed c7bb 9b0d 8e3c 2748 92bc
000003c0: 3924 953c c6cb b73c fb81 a43a 14c0 11bc
000003d0: e84f 54bc e377 e03a 7f19 003b 3abb 1ebc
000003e0: 215a 97bb 0376 7c3c c8f0 56bc 37a8 4a3c
000003f0: bf78 42bc 5f32 293d 489d 9a3c d02c f23b
-0.017573362 -0.023357213 -0.010126543 0.007288333 0.003463331 0.021378493 0.0024291924 0.011674336
0.00998806 -0.010119635 0.008828812 0.012485763 -0.014932813 -0.025253424 -0.034308344 0.0007834742
0.0027970509 0.017275468 0.002297058 0.003765822 0.016485302 0.02358081 6.489263e-05 -0.015371895
-0.023127379 0.007991107 -0.0056191436 -0.028948376 -0.037641015 -0.032212034 -0.011650541 0.018291181
0.017764414 -0.01770132 -0.012590404 -0.010205439 0.012505931 0.014118413 0.0016069796 -0.014779933
-0.018901246 0.035808552 0.007855514 -0.023226094 -0.003961883 -0.020415314 0.014199785 -0.025175674
0.007441982 -0.004773287 -0.016579065 -0.012745387 0.0427201 -0.013202674 0.021409273 -0.02568532
0.046758566 0.030244092 -0.009138102 -0.007988891 -0.018520076 0.003879963 -0.01003427 -0.023813298
0.003940655 -0.018910207 -0.013859115 0.024205882 -0.009220274 -0.015109861 -0.022805823 0.0026446932
-0.014140348 0.030861681 0.007830615 0.0043056575 -0.015622987 0.00905003 -0.0086147105 0.007874179
0.020836458 -0.014069648 -0.0089064455 -0.02536175 -0.003886773 -0.005565588 -0.0173131 -0.0023203844
0.01848569 0.015116626 -0.02816157 0.002215288 -0.017073514 -0.00052724674 -0.010919045 0.023459738
0.032201584 0.015072507 0.008629084 0.014929682 -0.025564536 0.012334684 0.0106057655 0.033603605
-0.015627995 0.0049672322 -0.010874151 0.00063860987 -0.020782806 0.021066498 -0.010789412 -0.018301906
0.013148499 0.009865432 -0.02444311 -0.021389278 -0.053935517 -0.017432243 0.019328248 0.007461523
-0.00395463 0.024388004 -0.02382002 0.018775526 0.01730286 0.0026853804 -0.017625013 -0.0044985143
0.0067575737 0.016248014 0.02402871 -0.017818732 0.016743725 -0.03225698 0.015709115 -0.022064406
-0.022237489 0.013971798 0.0022625376 0.00015345756 -0.023009885 -0.045199167 -0.03730187 -0.008056016
0.016139975 -0.0055756825 0.027773384 -0.01031088 -0.007452001 0.023376517 0.013781711 -0.0028691865
-0.0018055756 0.009289706 -0.015304208 -0.031845238 -0.02241378 -0.016310161 0.0020036276 -0.03051029
0.016500598 -0.019046212 0.026386572 0.0031538662 -0.0064699957 0.008389718 -0.00786728 -0.015654048
-0.0015975131 -0.008099144 -0.018285258 0.003782772 0.0101342555 -0.024005322 0.00034489945 -0.024148524
-0.019448755 0.0014155864 -0.02323616 0.005000841 -0.00792002 -0.02403328 0.0022859208 -0.020737244
0.016928 0.03639369 0.018994227 0.010014187 0.00039787838 -0.007942745 -0.02949521 0.003175322
0.016588364 -0.027690757 -0.027399033 0.008503054 -0.012817218 0.046858303 -0.00080740807 -0.0012894942
-0.014330126 0.01622173 -0.02373754 0.008516568 0.02390611 0.0072687217 0.0013702423 0.024497207
0.0008243561 0.029457072 -0.016402522 0.00249665 -0.011127805 0.024088249 -0.03121878 0.008330454
-0.026664034 0.012315421 0.046158753 0.018003797 -0.013719968 -0.0066389516 0.0070086294 -0.017896764
-0.018072812 0.008993098 0.016690625 -0.017393822 0.00016088887 0.008011933 0.01676831 -0.013652007
0.007259617 0.012646413 0.0042318488 0.014704685 0.021878408 -0.0061013415 0.017340472 -0.01785667
0.018205749 0.022436034 0.0012550944 -0.008895893 -0.012958504 0.0017125573 0.0019546447 -0.009688193
-0.0046188985 0.015408996 -0.01311893 0.012369207 -0.011869608 0.041307803 0.018873826 0.007390596

action_model._discrete_distribution.branches.0.bias f4 [5]
00000000: 0000 0000 0000 0000 0000 0000 0000 0000
00000010: 0000 0000
0.0 0.0 0.0 0.0 0.0

action_model._discrete_distribution.branches.0.weight f4 [5, 128]
00000000: 9a8f a33a 3ca7 a53b 43b4 883b e7f4 453c
00000010: 103e aa3b 8a1a 353c d856 9bbb 1595 01bc
00000020: bf34 0b3b 803c 5a3c 5d3f 593a 4333 6ebb
00000030: d8e4 66bc 67cb b4ba 81e3 a03b 850a 22bc
00000040: 92d0 e4ba b08f 69bc 7bc9 e73b accd 123c
00000050: 0b01 75bc 35c6 583c f0e0 b6bb 0b81 f93a
00000060: bdc1 d5bb 47a8 d2bb d028 543b 6b53 b6bb
00000070: 592c b1ba 1745 66bc 240c b93a 5382 7cbc
00000080: 2555 4e3c 66bb c43b 8605 2b3c cd46 18bb
00000090: b31e 81bc f314 913b 2d12 7a3c 621e 6abc
000000a0: 8b7f 843b 8026 b53a 1eb5 95bb 0634 943b
000000b0: eb6b 403c 68c3 5dbb 380a dabb f622 113c
000000c0: 5bd6 1c3b 9ab8 093c 58e2 f1bb 10c6 cbbb
000000d0: 1dbb e4bb e1a6 aebb 5faa 353b 9233 0f3c
000000e0: 2752 d4bb 89e9 12bb 0362 a0bb dfea 173b
000000f0: ef91 adba 67d7 223c 6d0b d8bb 119f 84bc
00000100: 8de4 ff3b bf19 0ebc 364b 2e3a 5b03 403b
00000110: c290 a33a 8863 d43b b0bc d73a b0ec 0ebc
00000120: fa71 06bc 1ece bb3b 58e7 49ba ee6d 193c
00000130: 0eca 22ba 62fe cdbb e58e 033a c371 02bc
00000140: b86b c1bb 13a3 11bb 6ca4 993b d545 ca3b
00000150: cf9f 243a 8b0a 38bc 6805 503c 7789 75bb
00000160: 3f07 293a 074d ecba e095 58bc 210d 273b
00000170: 9883 dabb 0a8b 95bb 54d2 b03b a525 5e3b
00000180: ed09 04bc 9036 b939 5b78 e5bb ec68 2fbc
00000190: daa5 21bc 47ec abbb ff0d 6cbb cb60 86bb
000001a0: d0f5 a0bb 60ad 1839 6ba8 67bb a3a2 0b3c
000001b0: 5a10 80b8 37b1 24b9 d7db 94bc 43e3 903b
000001c0: 2390 d3b9 3f3d febb 8b1f 473c 6e82 87bb
000001d0: 0bf3 ecba 5bf3 833b 0302 1dbc 4316 55bb
000001e0: 17e5 ad3c 5449 8d3b 6055 2a3c 2051 efbb
000001f0: 5337 24bc 251e 84bc c2fc de3b bb99 5abb
00000200: c75a 6b3b d21a 58bc fbae 363c 7144 b6bb
00000210: 4c26 a6bb 2453 2c3c 2cf3 0dbc a0b9 1e3c
00000220: 4201 513b 6f0f a23b 44b4 40ba 75ee 313c
00000230: b613 1b3a e5e0 4dbc e2c7 9e3b fa86 7cbb
00000240: c7e2 833b cb2b 313a 05f4 f83b 117e c83b
00000250: f389 493b 9fe0 9dbb e785 1f3c 93b7 76bb
00000260: 6bbe b0b9 c465 b43b 6fc4 da3b beb0 a9bb
00000270: 2be2 e03a 055d db39 34e2 a43b e699 1bbc
00000280: 8fac baba c0a0 413b 3dca d03b ba07 c43b
00000290: aac3 9fbb 3727 573c 1002 bb3c 95d4 ad3b
000002a0: b2d9 57bb ea26 553c 6007 553c 739f b73b
000002b0: 85e2 e7bb 5477 263b 1267 5fbb 45c1 9fbb
000002c0: 574b 72bc a750 81bb 87bf 09bc e2a6 e53c
000002d0: 42d3 fb39 b3d1 47b9 2dbf 8c3b d8bc 5ebc
000002e0: 5b25 71bb cbc2 86bb 8bd8 3a3c cfd0 60bc
000002f0: 78fd 173c 8898 fcbb c552 79ba 2765 443c
00000300: e76e 05bc a573 493b ab1f aaba e21b a7bc
00000310: c3c3 8fbc ae77 10bc 732a ac3b f8c8 56bb
00000320: 0713 39ba 1f96 0dbc 272a 033c 9359 c039
00000330: 3b89 07bc 0610 2e3c 2d2a 45bb 9b5d e43b
00000340: 6b70 343b 2486 043c e6e3 b8bb 3be0 39b9
00000350: 2562 7fbc 937f 7a3b d795 9dbc fbf5 0d3c
00000360: 5385 a5bb 9af2 e5bb 42f9 27bc cf7d bc3b
00000370: 8f23 d0bb 2ff1 1bbb 574d cdbb cac4 733b
00000380: b0a4 96bb bfe7 0b3b ca26 aabb 4865 343b
00000390: 5571 d73b 2401 b8ba a1ce 403a fa5e 433b
000003a0: c918 093b 2529 62bb 7b05 eb3b 0664 12bb
000003b0: 4884 34ba 679d 3739 57c7 523c 6bd4 0c3b
000003c0: df94 9ebb bb0a 51bc a523 553c f995 aa3b
000003d0: 76d9 32bc d016 25bb 8780 57bb 74f1 28ba
000003e0: 9d9c 4e3b a084 d0bb 1b1f f93b 36d2 1f3c
000003f0: 9fba 30bb e7ce 763c efcc f83b d309 f7bb
0.001247871 0.0050553363 0.0041718795 0.012082315 0.0051953867 0.011053691 -0.004740577 -0.007909079
0.0021241156 0.013320088 0.0008287335 -0.0036346472 -0.014092647 -0.0013793529 0.004909933 -0.009890203
-0.0017457178 -0.014255449 0.007073579 0.008960169 -0.014953862 0.01323085 -0.005581014 0.001903565
-0.0065233395 -0.0064287516 0.003237296 -0.0055641434 -0.0013517245 -0.014054558 0.0014117998 -0.015411931
0.012593542 0.006003785 0.010438329 -0.002323556 -0.015761709 0.004427546 0.0152631225 -0.01428947
0.0040435246 0.0013820678 -0.00456871 0.0045228032 0.01174448 -0.0033838395 -0.00665405 0.008858433
0.0023931477 0.008405829 -0.0073817186 -0.0062186792 -0.0069803135 -0.005329952 0.0027719957 0.008740323
-0.00647952 -0.002241703 -0.0048944964 0.0023180766 -0.0013242344 0.009939051 -0.006593159 -0.01618913
0.007809228 -0.008673131 0.00066487805 0.0029298875 0.0012479054 0.0064815916 0.0016459431 -0.008723423
-0.008205885 0.005731358 -0.00077020144 0.009364588 -0.0006209918 -0.0062864283 0.00050185464 -0.007961693
-0.0059027337 -0.0022222444 0.00468879 0.0061728754 0.0006279917 -0.011232982 0.012696601 -0.0037465969
0.0006447918 -0.0018028327 -0.013219327 0.0025490003 -0.006668519 -0.004563694 0.005396167 0.003389695
-0.008059007 0.00035326602 -0.007002873 -0.010706168 -0.009866202 -0.0052466723 -0.0036019085 -0.004100894
-0.0049121156 0.00014560437 -0.0035348188 0.008522662 -6.106561e-05 -0.00015706276 -0.018171234 0.004421623
-0.00040352446 -0.007758766 0.0121535165 -0.0041354215 -0.0018077804 0.004026813 -0.009582999 -0.003251449
0.021227403 0.00431172 0.010396332 -0.007303372 -0.010022956 -0.016127655 0.0068050334 -0.003335579
0.0035912262 -0.013189988 0.011150117 -0.005562358 -0.0050704833 0.010517869 -0.008663934 0.009687811
0.003189162 0.0049456875 -0.00073510804 0.010860075 0.0005915718 -0.012565826 0.004845605 -0.00385326
0.0040248367 0.000675854 0.007597449 0.006118544 0.003075239 -0.0048180367 0.009736515 -0.003764604
-0.00033711208 0.0055052955 0.0066762487 -0.00517854 0.0017157247 0.0004184024 0.0050318483 -0.009497141
-0.00142421 0.0029545277 0.006371765 0.0059823664 -0.00487562 0.013131908 0.022828132 0.005304883
-0.0032936153 0.013009766 0.013002247 0.0056037246 -0.007076564 0.0025400715 -0.0034088534 -0.0048753344
-0.01478847 -0.003946382 -0.00840748 0.028033677 0.0004803185 -0.00019056238 0.004295251 -0.013594829
-0.0036795947 -0.0041125766 0.011404167 -0.013721659 0.00927674 -0.007708613 -0.000951093 0.011987007
-0.008144117 0.0030739096 -0.0012979408 -0.020399038 -0.017549401 -0.008817596 0.005254084 -0.0032773595
-0.0007060025 -0.008641749 0.008005655 0.00036687832 -0.008272464 0.0106239375 -0.0030084953 0.0069691665
0.0027532827 0.008088622 -0.005642402 -0.00017726507 -0.015587364 0.0038223013 -0.019236488 0.008664603
-0.005051294 -0.0070174458 -0.010252299 0.0057523022 -0.006351895 -0.002379488 -0.006265323 0.0037196153
-0.004597269 0.0021347848 -0.0051926123 0.0027526189 0.0065747895 -0.0014038426 0.0007355009 0.002981125
0.0020919314 -0.0034509387 0.007172284 -0.002233745 -0.00068861665 0.00017510877 0.012864909 0.0021488916
-0.004839524 -0.012758906 0.013008987 0.0052058664 -0.010916105 -0.00251906 -0.0032883005 -0.0006444671
0.0031526454 -0.0063634664 0.007602585 0.009754708 -0.0026966704 0.015063978 0.0075927894 -0.007539013

network_body._body_endoder.seq_layers.0.bias f4 [128]
00000000: 0000 0000 0000 0000 0000 0000 0000 0000
00000010: 0000 0000 0000 0000 0000 0000 0000 0000
00000020: 0000 0000 0000 0000 0000 0000 0000 0000
00000030: 0000 0000 0000 0000 0000 0000 0000 0000
00000040: 0000 0000 0000 0000 0000 0000 0000 0000
00000050: 0000 0000 0000 0000 0000 0000 0000 0000
00000060: 0000 0000 0000 0000 0000 0000 0000 0000
00000070: 0000 0000 0000 0000 0000 0000 0000 0000
00000080: 0000 0000 0000 0000 0000 0000 0000 0000
00000090: 0000 0000 0000 0000 0000 0000 0000 0000
000000a0: 0000 0000 0000 0000 0000 0000 0000 0000
000000b0: 0000 0000 0000 0000 0000 0000 0000 0000
000000c0: 0000 0000 0000 0000 0000 0000 0000 0000
000000d0: 0000 0000 0000 0000 0000 0000 0000 0000
000000e0: 0000 0000 0000 0000 0000 0000 0000 0000
000000f0: 0000 0000 0000 0000 0000 0000 0000 0000
00000100: 0000 0000 0000 0000 0000 0000 0000 0000
00000110: 0000 0000 0000 0000 0000 0000 0000 0000
00000120: 0000 0000 0000 0000 0000 0000 0000 0000
00000130: 0000 0000 0000 0000 0000 0000 0000 0000
00000140: 0000 0000 0000 0000 0000 0000 0000 0000
00000150: 0000 0000 0000 0000 0000 0000 0000 0000
00000160: 0000 0000 0000 0000 0000 0000 0000 0000
00000170: 0000 0000 0000 0000 0000 0000 0000 0000
00000180: 0000 0000 0000 0000 0000 0000 0000 0000
00000190: 0000 0000 0000 0000 0000 0000 0000 0000
000001a0: 0000 0000 0000 0000 0000 0000 0000 0000
000001b0: 0000 0000 0000 0000 0000 0000 0000 0000
000001c0: 0000 0000 0000 0000 0000 0000 0000 0000
000001d0: 0000 0000 0000 0000 0000 0000 0000 0000
000001e0: 0000 0000 0000 0000 0000 0000 0000 0000
000001f0: 0000 0000 0000 0000 0000 0000 0000 0000
0.0 0.0 0.0 0.0 0.0 0.0 0.0 0.0
0.0 0.0 0.0 0.0 0.0 0.0 0.0 0.0
0.0 0.0 0.0 0.0 0.0 0.0 0.0 0.0
0.0 0.0 0.0 0.0 0.0 0.0 0.0 0.0
0.0 0.0 0.0 0.0 0.0 0.0 0.0 0.0
0.0 0.0 0.0 0.0 0.0 0.0 0.0 0.0
0.0 0.0 0.0 0.0 0.0 0.0 0.0 0.0
0.0 0.0 0.0 0.0 0.0 0.0 0.0 0.0
0.0 0.0 0.0 0.0 0.0 0.0 0.0 0.0
0.0 0.0 0.0 0.0 0.0 0.0 0.0 0.0
0.0 0.0 0.0 0.0 0.0 0.0 0.0 0.0
0.0 0.0 0.0 0.0 0.0 0.0 0.0 0.0
0.0 0.0 0.0 0.0 0.0 0.0 0.0 0.0
0.0 0.0 0.0 0.0 0.0 0.0 0.0 0.0
0.0 0.0 0.0 0.0 0.0 0.0 0.0 0.0
0.0 0.0 0.0 0.0 0.0 0.0 0.0 0.0

network_body._body_endoder.seq_layers.0.weight f4 [128, 1100]
00000000: 7d82 8dbc f9b3 e7bc 8029 82bd b0bc d83c
00000010: 5eac d53a fc1b 84bd 3daf 653c 5cd4 193d
00000020: b7e6 95bc 0ff1 723c 0ee7 eebc a1ec 9c3c
00000030: 917b 1bbd e949 e0bb 4268 6e3d 7e84 ba3c
00000040: e01c 86bc b2ce 123d 132e 2bbd 5581 a5bb
00000050: 4977 c13b a312 983d b5cc 243d 6d6d 0a3d
00000060: c295 41bd d179 a93c d169 1bbd a202 8a3d
00000070: 87ef 82bc 32d8 bbbc b0d2 db3c 5fce 293d
00000080: dec9 e1bc fe69 81bc d2fd 653b 291f da3b
00000090: b010 8cbc 280b 9b3d cea7 bfbc cbea 7ebc
000000a0: e38d 0ebd df1f 0e3c 88fa 3d3d bea8 0c3d
000000b0: 8835 b1bc 43e1 57bd 6495 3d3b 8633 e13c
000000c0: a0ca ff3c 8430 443b cadc d1bc c631 e13c
000000d0: 815d 9c3d 43f6 83bd 1538 ee3b 9972 823c
000000e0: 211c f4bc 2597 873c a3a4 cebd 3c24 c3bc
000000f0: 3db2 e3bc 5944 27bd b9a0 ed3c 22ca b6bc
00000100: dd49 6abc 2e58 993c 6001 773d a8c6 053d
00000110: 2a4a 00bd 74a6 163d c386 663c 069c 40bd
00000120: a2c4 4b3b ca15 d1bc b811 5a3d 61a6 7a3c
00000130: bf40 26bc 2f3a 913c 6463 ccbc c97a 92bc
00000140: 5331 f5b8 f4db d23c bc21 34bb c9b1 813c
00000150: 58b9 b3bc 0105 9f3b 8d26 1e3d 9cb3 cf3c
00000160: ea0b f2bc 86b3 b2bc 5ae5 d13a 0c7f 84bc
00000170: 2bac b53b a005 c93c e696 013d 7cff ca3c
00000180: 9880 acbc 83de 143d 8c47 35bd 0474 82bb
00000190: 15d2 d8ba d7f2 d1bb 3346 0f3d 0d76 3ebd
000001a0: 0e47 babc 4215 d23c 3147 44bc b000 3bbc
000001b0: d13f 4ebc 11db 8c3c 1a3d a9bc 36f3 13bd
000001c0: ef93 d33c a4e5 cd3c b077 0ebd 6f66 b13c
000001d0: 9960 f43a 32f7 863a 9547 953c 35a2 07bd
000001e0: 07bb cebb c757 2bbd 428e 83bc 818e 443b
000001f0: d9e5 e93a fc4f b9bc e5a1 eb3c 238d 08bd
00000200: b160 8e3c 861e 87bd 7795 8abd c411 0bbc
00000210: 6e46 87bc 901d 913b 4395 05bd 2360 20bc
00000220: 7ca6 b7bb 4d68 e2bc 9268 133c 7f24 16bd
00000230: faea 283c 8434 423d 958f 53bc 2653 ac3c
00000240: eb21 173c c09f 203d cf50 aaba 46b5 523d
00000250: f9ce 80bc 7977 c13c beb8 7cbb bd5f 9dbc
00000260: deb1 38bc 6e5e 4cbc 5b60 aa3c 8b25 3d3c
00000270: 3867 513b 5641 45bc a7a1 8d3c 395b 6e3c
00000280: a3c4 b4bd aa52 b839 8e42 2dbd b94e cabb
00000290: 1301 023c a830 2ebb 8dad 603c 320e 9b3b
000002a0: a2f5 fcbb 70e6 8d3c bf97 17bc dd1e a83b
000002b0: 9996 a3bc 3693 3c3c 466b 7ebd 0d73 12bd
000002c0: 0bd9 813c 3d54 053d 84b3 333c 8a31 4e3b
000002d0: 261e 4fbd ab60 5b3d 4fe0 40bd a03b ec3c
000002e0: 53e4 2b3d 5e16 c33c 08d3 073c 54e5 6abc
000002f0: a1ab 233c ff73 28bc 4498 c83b 36b1 40bd
00000300: 567f 3b3b 5f95 23bd 3e77 d7bc 46d9 6fbc
00000310: 9d91 ec3c f156 dabc 931c c3bc 30d1 03bc
00000320: dade 71bc 984c c2bc 81c7 9abd be40 9f3c
00000330: 0e28 21bc bf0a db3c de18 293b fd7b 8abc
00000340: d1c0 86bc f844 52bd 939b 9d3b 7b91 b8bc
00000350: 3569 453c bac5 0a3d 6709 15bc dc70 9b3b
00000360: b93e 13bd 3f26 6fbb 2407 cc3b 35a1 e13b
00000370: 88ec ac3b e109 1cbc d8cf 873c 8e2e db3c
00000380: ced1 cabc 3e54 403b 46f9 873c 09f8 873d
00000390: ece0 ca3c 961c f5bc ebb0 ccbc 207b 163c
000003a0: badc a23c caab e2bc dd61 41bd e1bd 4d3c
000003b0: d8ba 8a3c f53e fcbc 2faf 513d ef72 9d3c
000003c0: 86cf 953c 8794 d7bc 9a27 e93c 0ccd 84bd
000003d0: 9e2a 213d f0be c5bd cbb8 d13a 8f7a 67bc
000003e0: 7218 5d3c 3955 d93c a73b 6d3d 008f 98bc
000003f0: 3858 033d 8c3b aa3c 2778 7dbc 6467 acbc
-0.017274136 -0.02828406 -0.06355572 0.02645716 0.001630198 -0.0645065 0.014018831 0.037556037
-0.01829849 0.014827981 -0.02916291 0.019155802 -0.03795964 -0.0068447483 0.058204897 0.022768255
-0.01637119 0.03584165 -0.041791987 -0.005050818 0.0059041125 0.0742543 0.040234286 0.033795763
-0.04726196 0.02068797 -0.03794271 0.067387834 -0.015983356 -0.022930238 0.026833862 0.041456576
-0.027562078 -0.015797611 0.0035093916 0.0066565466 -0.017097801 0.07570487 -0.023395445 -0.015558909
-0.034803282 0.008674591 0.046381503 0.034340613 -0.021631971 -0.05270506 0.0028928155 0.027490389
0.031224549 0.0029936144 -0.025617976 0.027489554 0.07635022 -0.06443455 0.007269869 0.015923785
-0.02979857 0.016551564 -0.10089996 -0.023820989 -0.027794952 -0.040836666 0.029007303 -0.022313181
-0.014299837 0.018718805 0.060304046 0.032660156 -0.03132073 0.036779836 0.014070216 -0.047023796
0.0031092544 -0.025523085 0.053239554 0.015298457 -0.010147273 0.01772794 -0.024949737 -0.017880814
-0.00011691698 0.025739647 -0.0027485928 0.015831845 -0.021938965 0.0048528914 0.038610984 0.0253542
-0.029546697 -0.02181412 0.0016013787 -0.016173862 0.0055442057 0.024538815 0.03163805 0.024780028
-0.021057412 0.036345016 -0.044257686 -0.0039811153 -0.0016542102 -0.0064071226 0.034979057 -0.0464993
-0.02273896 0.025644902 -0.011979864 -0.011413738 -0.012588457 0.017194303 -0.020659018 -0.036120616
0.025827376 0.025133915 -0.03478211 0.02165529 0.0018644511 0.0010297059 0.01822261 -0.033113677
-0.0063089165 -0.041831758 -0.016059045 0.0029992166 0.0017844989 -0.022621147 0.02876372 -0.033337723
0.01738009 -0.06597619 -0.067667894 -0.008488122 -0.016513076 0.004428573 -0.03261305 -0.009788546
-0.0056045633 -0.027637625 0.0089970995 -0.0366559 0.010309929 0.047413364 -0.012912651 0.021035742
0.009224395 0.03921485 -0.0012994054 0.051442407 -0.015723692 0.02361654 -0.0038562263 -0.01921069
-0.011272876 -0.012473686 0.020797899 0.0115445955 0.0031952392 -0.012039503 0.017288996 0.014548116
-0.08826568 0.00035156804 -0.0422998 -0.0061739353 0.007934826 -0.0026579294 0.013713253 0.004731917
-0.0077197114 0.017321795 -0.009252488 0.0051306323 -0.019969271 0.011509707 -0.062114023 -0.035754252
0.015850564 0.03255104 0.010968093 0.0031462633 -0.05056586 0.053558987 -0.047088917 0.028837025
0.041965794 0.023814376 0.00829006 -0.014336903 0.00998965 -0.010281562 0.006121667 -0.047044
0.0028609834 -0.039937373 -0.026301976 -0.014639204 0.028878028 -0.026652785 -0.023817336 -0.00804548
-0.014762605 -0.023718163 -0.075575836 0.019440051 -0.00983621 0.026738523 0.0025802176 -0.016904825
-0.016449364 -0.051335305 0.0048098057 -0.022530308 0.012049009 0.033879973 -0.00909648 0.0047436785
-0.03594849 -0.0036491302 0.006226437 0.0068856725 0.00527722 -0.00952384 0.0165786 0.026755597
-0.024758246 0.0029347087 0.016598355 0.06639106 0.024765454 -0.029920857 -0.024986705 0.009184629
0.019880641 -0.027669806 -0.04721247 0.012557478 0.016934797 -0.030791739 0.05119246 0.019219844
0.018287431 -0.02631594 0.028461266 -0.06484422 0.039347284 -0.09655559 0.0016000507 -0.014128341
0.013494598 0.026529895 0.057918217 -0.018622875 0.032066554 0.020780347 -0.015470541 -0.021045394

network_body._body_endoder.seq_layers.2.bias f4 [128]
00000000: 0000 0000 0000 0000 0000 0000 0000 0000
00000010: 0000 0000 0000 0000 0000 0000 0000 0000
00000020: 0000 0000 0000 0000 0000 0000 0000 0000
00000030: 0000 0000 0000 0000 0000 0000 0000 0000
00000040: 0000 0000 0000 0000 0000 0000 0000 0000
00000050: 0000 0000 0000 0000 0000 0000 0000 0000
00000060: 0000 0000 0000 0000 0000 0000 0000 0000
00000070: 0000 0000 0000 0000 0000 0000 0000 0000
00000080: 0000 0000 0000 0000 0000 0000 0000 0000
00000090: 0000 0000 0000 0000 0000 0000 0000 0000
000000a0: 0000 0000 0000 0000 0000 0000 0000 0000
000000b0: 0000 0000 0000 0000 0000 0000 0000 0000
000000c0: 0000 0000 0000 0000 0000 0000 0000 0000
000000d0: 0000 0000 0000 0000 0000 0000 0000 0000
000000e0: 0000 0000 0000 0000 0000 0000 0000 0000
000000f0: 0000 0000 0000 0000 0000 0000 0000 0000
00000100: 0000 0000 0000 0000 0000 0000 0000 0000
00000110: 0000 0000 0000 0000 0000 0000 0000 0000
00000120: 0000 0000 0000 0000 0000 0000 0000 0000
00000130: 0000 0000 0000 0000 0000 0000 0000 0000
00000140: 0000 0000 0000 0000 0000 0000 0000 0000
00000150: 0000 0000 0000 0000 0000 0000 0000 0000
00000160: 0000 0000 0000 0000 0000 0000 0000 0000
00000170: 0000 0000 0000 0000 0000 0000 0000 0000
00000180: 0000 0000 0000 0000 0000 0000 0000 0000
00000190: 0000 0000 0000 0000 0000 0000 0000 0000
000001a0: 0000 0000 0000 0000 0000 0000 0000 0000
000001b0: 0000 0000 0000 0000 0000 0000 0000 0000
000001c0: 0000 0000 0000 0000 0000 0000 0000 0000
000001d0: 0000 0000 0000 0000 0000 0000 0000 0000
000001e0: 0000 0000 0000 0000 0000 0000 0000 0000
000001f0: 0000 0000 0000 0000 0000 0000 0000 0000
0.0 0.0 0.0 0.0 0.0 0.0 0.0 0.0
0.0 0.0 0.0 0.0 0.0 0.0 0.0 0.0
0.0 0.0 0.0 0.0 0.0 0.0 0.0 0.0
0.0 0.0 0.0 0.0 0.0 0.0 0.0 0.0
0.0 0.0 0.0 0.0 0.0 0.0 0.0 0.0
0.0 0.0 0.0 0.0 0.0 0.0 0.0 0.0
0.0 0.0 0.0 0.0 0.0 0.0 0.0 0.0
0.0 0.0 0.0 0.0 0.0 0.0 0.0 0.0
0.0 0.0 0.0 0.0 0.0 0.0 0.0 0.0
0.0 0.0 0.0 0.0 0.0 0.0 0.0 0.0
0.0 0.0 0.0 0.0 0.0 0.0 0.0 0.0
0.0 0.0 0.0 0.0 0.0 0.0 0.0 0.0
0.0 0.0 0.0 0.0 0.0 0.0 0.0 0.0
0.0 0.0 0.0 0.0 0.0 0.0 0.0 0.0
0.0 0.0 0.0 0.0 0.0 0.0 0.0 0.0
0.0 0.0 0.0 0.0 0.0 0.0 0.0 0.0

network_body._body_endoder.seq_layers.2.weight f4 [128, 128]
00000000: 0c5a e8bc f1b9 753d b6bc 54bd 450d 01bd
00000010: 6eb5 aabb 9d61 283d 9c56 6ebd b064 1cbc
00000020: 6d9a cbbd 7edd 06be eff7 b73d b5de e93c
00000030: 58b9 0e3e 88a4 74bd 4445 443d 83ae fa3c
00000040: e3cb e9bd f563 3bbe 7b6e 04bc c73b 0e3d
00000050: 1cd0 ffbd b712 febc f125 f13c f312 1d3c
00000060: 18af d1bb a314 71bd 774d df3c 184f ef3d
00000070: aaba c4bd d2d6 53bd 0e03 4cbc d1d7 c3bd
00000080: 0af8 0f3d 23dd 3e3e acac dabd 2c9d b63d
00000090: 8c75 603d cae1 153c 6a3d d0bc 8d6b ddbc
000000a0: ec27 6b3d 87e2 7e3d 9628 8a3b dc63 803d
000000b0: 23b0 aabd 7851 86bd 0e09 fcbc 26f6 8c3d
000000c0: 63a2 18bd 5b7b 74bd f4fe 0b3e f2ec 21bd
000000d0: cc62 cf3c c531 4b3e d36b f5bc cc54 14be
000000e0: 740a d1bd e34d e23d 63a3 7b3d 99c9 c93d
000000f0: 26f9 423e 8ba3 ab3d 05f9 b2bd c992 743c
00000100: 9431 6d3d 3c3e 3fbd c118 5b3e ab61 ce3d
00000110: c264 3ebe 2b20 50bc f26f 43bc 0f27 873d
00000120: c750 96bd a585 bb3c 641c 3a3d b5fb 48bc
00000130: fbb6 f03c b677 25bd 9e4c 683d 95a8 0c3c
00000140: 9160 233c 9b3a 1abe 452e 02be 539f f0bc
00000150: 46f8 833d 9ff7 89bc ca66 d53d c0c8 063e
00000160: fe55 fd3d 4a64 323c c8ab 713d 3548 223e
00000170: 2a17 3abe a0b5 a13c 81fb 1f3d a083 373d
00000180: 3c39 a53d e05d a6bd 49ed 8e3d f323 d0bc
00000190: cc85 c5bd e3f3 a3bd 1597 613d fc17 033e
000001a0: 3cb3 1abd aa34 0fbe fe08 b8bd a199 80bd
000001b0: 9a73 b13d 0c67 69ba a942 75bd bebc ab3c
000001c0: a87e 943c bfc1 22bd 3806 213e fd62 ebbd
000001d0: 5c37 21be 3078 2b3e cdce 033e 467e e5bc
000001e0: 3d61 c63d 4fc1 65bc 1f07 d2bd af2f 413c
000001f0: 621c 2e3d 43ee 08bd a58c 963c 7dd3 dabd
00000200: 6204 9abd 3a04 893b 397c 4b3c f1ef cdbc
00000210: ae64 efbc e10e 673c 9bea f3bd e325 953c
00000220: bda0 a03d 59d6 98bc 337c d7bd 51a3 98bd
00000230: f23f 2dbe e745 b43c d54f ca3d 7173 21bd
00000240: d957 30bd ce2a 673d a335 9dbd ea22 953d
00000250: 75b5 6bbe a2ac a8bc a79d 373d 48fb b63d
00000260: 67bf acbb 514b 2a3d 74a3 7cbd 0823 99bb
00000270: a6b5 053d c48f 183d fa45 9e3d 9527 97bd
00000280: 5248 febd b74b 3abe 57c0 633d 8bfc 013e
00000290: d7ff f23d 1b69 5dbd 578c df3d 21de 0abd
000002a0: 7b65 17bd a792 cb3d 9a07 76bd 81e2 0dbe
000002b0: 2a5d c73d 5242 b63d a09f 1cbe 00e8 b0bd
000002c0: 68bf 853d f7f3 e3bd 9d76 f8bb 8c2c 6d3c
000002d0: 7d59 75bd 507f 8fbc e9e4 403d 736f d73b
000002e0: 1c6d ed3d 251b af3d 1179 ec3b 264d bc3d
000002f0: 4512 bd3c 6bb1 903d 0ff0 31bd c478 24bd
00000300: a366 86bc be5c 3a3d a59a a93c 0cee 8b3d
00000310: 0f26 a5bd d407 f6bc ef34 cbbd 9fdf f13d
00000320: 7663 2d3c c5d1 d9bd 09cb 1abd d105 803d
00000330: 320f 693d d155 c03c a603 d03c 9fe6 6dbd
00000340: 3d1e 93bc 2fc1 14bd e5a7 0b3c 098e 3e3d
00000350: 4bbb 37be d8ce 45bd dd5e 4ebc f65c 543c
00000360: 2dac f0bd e756 943d 9015 4fbd a299 b0bd
00000370: abdf 3a3c f03d f73d 11c8 af3b a244 f7bc
00000380: 672c 1c3e a8bc 17bd 2567 bcbc db78 75bc
00000390: 3d3d 66bd 9311 cd3d 9888 5cbd 30c2 983c
000003a0: a757 193d 8def a2bd 0724 15be 91ce bc3d
000003b0: 24ed d03d b7b8 143e d687 213e c53e 8a3d
000003c0: 3791 0bbe 87cf 693d 2ab3 be3d 8da0 9abb
000003d0: d8a9 71bb 992f f03d 9e52 0ebe 0e77 513d
000003e0: 24f6 293d 0f50 f5bd 0dd2 e83c e5f1 88bb
000003f0: d7fb dfbd 7937 a9bd 8c22 593c fd0d ddbd
-0.02836325 0.05999178 -0.05193778 -0.031506795 -0.0052096164 0.041108716 -0.058188066 -0.00954549
-0.09941564 -0.1317043 0.089828365 0.028548578 0.1393789 -0.05972722 0.04791762 0.030600792
-0.114158414 -0.1829985 -0.008082981 0.034724977 -0.124908656 -0.031014783 0.029437037 0.009587037
-0.0063990466 -0.05885757 0.027258618 0.11685008 -0.09605916 -0.05171854 -0.0124519 -0.09562648
0.035148658 0.18639044 -0.10677466 0.08916697 0.0547996 0.009148071 -0.02541991 -0.027028823
0.05741112 0.062227752 0.004216264 0.06269047 -0.08334377 -0.06558508 -0.030766036 0.068828866
-0.03726424 -0.059687953 0.13671476 -0.03953261 0.025315665 0.19843204 -0.029958641 -0.14485472
-0.10207072 0.11050012 0.061435115 0.09852905 0.19040355 0.08380803 -0.08738903 0.014927574
0.05790861 -0.04669021 0.21396162 0.100772224 -0.18593124 -0.012702982 -0.011928545 0.06599247
-0.07339626 0.022890875 0.04543723 -0.012267043 0.029384127 -0.04039737 0.056713693 0.008585115
0.009971754 -0.15061419 -0.12712963 -0.029372847 0.06443839 -0.016841708 0.10419996 0.13162518
0.12369917 0.010888169 0.059001714 0.15847857 -0.18172899 0.019739926 0.039058212 0.04480326
0.08067557 -0.08123374 0.06978852 -0.025407767 -0.0964466 -0.08005502 0.055075724 0.12802118
-0.037768587 -0.13984933 -0.0898609 -0.062793024 0.086646274 -0.00089036 -0.059878025 0.020964023
0.0181268 -0.039735552 0.15725029 -0.1149349 -0.15743774 0.16745067 0.12871857 -0.028014313
0.096865155 -0.014023139 -0.102552645 0.011791154 0.042507537 -0.03343035 0.018377611 -0.106848694
-0.07520367 0.004181412 0.012419754 -0.025138827 -0.029222813 0.0141026685 -0.11909982 0.018206542
0.078431584 -0.018656896 -0.10521736 -0.07453025 -0.16918924 0.022005988 0.09878508 -0.039416734
-0.043052528 0.056437306 -0.07676246 0.0728205 -0.23018439 -0.02059013 0.044828083 0.08934647
-0.0052718404 0.041575734 -0.06167932 -0.0046733655 0.032643937 0.03724648 0.07728191 -0.073805965
-0.12416138 -0.18192945 0.05560335 0.12693994 0.11865204 -0.054055315 0.109154396 -0.033903245
-0.036962014 0.09940081 -0.060065843 -0.13855936 0.097345665 0.08899368 -0.15295267 -0.086380005
0.065306485 -0.11130517 -0.007582499 0.014475953 -0.059899796 -0.017516762 0.047093306 0.006574565
0.115930766 0.08550099 0.0072165807 0.091944024 0.02308 0.0706509 -0.04344183 -0.040154234
-0.016406363 0.045498602 0.020703623 0.06832513 -0.080639 -0.03003303 -0.09922206 0.118102305
0.010582795 -0.106357135 -0.037791286 0.062511094 0.056899257 0.02347842 0.025392365 -0.058081266
-0.017958755 -0.036317047 0.008523916 0.046522174 -0.1794254 -0.048292965 -0.012595859 0.012961617
-0.1175159 0.07243138 -0.050557673 -0.08623053 0.011405866 0.120723605 0.005364426 -0.030184094
0.15251313 -0.03704515 -0.022998402 -0.0149824275 -0.056210745 0.10013118 -0.053841203 0.018647283
0.037437107 -0.07955847 -0.14564525 0.09219087 0.10201481 0.14523588 0.15774474 0.067502536
-0.13629614 0.05708268 0.093115166 -0.004718846 -0.0036874916 0.117278285 -0.13898703 0.05113893
0.041494504 -0.119781606 0.028420473 -0.0041792267 -0.109367065 -0.08262534 0.0132528655 -0.10793684
