results/ppo/MoveToBet/MoveToBet-4160.onnx (onnx, 768393 bytes, 7 tensors)

action_model._continuous_distribution.log_sigma f4 [1, 17]
00000000: 0000 0000 0000 0000 0000 0000 0000 0000
00000010: 0000 0000 0000 0000 0000 0000 0000 0000
00000020: 0000 0000 0000 0000 0000 0000 0000 0000
00000030: 0000 0000 0000 0000 0000 0000 0000 0000
00000040: 0000 0000
0.0 0.0 0.0 0.0 0.0 0.0 0.0 0.0
0.0 0.0 0.0 0.0 0.0 0.0 0.0 0.0
0.0

action_model._continuous_distribution.mu.bias f4 [17]
00000000: 0000 0000 0000 0000 0000 0000 0000 0000
00000010: 0000 0000 0000 0000 0000 0000 0000 0000
00000020: 0000 0000 0000 0000 0000 0000 0000 0000
00000030: 0000 0000 0000 0000 0000 0000 0000 0000
00000040: 0000 0000
0.0 0.0 0.0 0.0 0.0 0.0 0.0 0.0
0.0 0.0 0.0 0.0 0.0 0.0 0.0 0.0
0.0

action_model._continuous_distribution.mu.weight f4 [17, 128]
00000000: eb72 033d e857 093c 05fc 01bc eb78 8b3c
00000010: e83f f93c e067 b23c a640 163c 6474 a0bb
00000020: df77 1ebc 653f 933c 62f6 303c d114 c03c
00000030: 7758 a4bc e54d c8bb 2440 a13c a1dd 88bc
00000040: 6ae1 be3c b7a5 efbc ac6d ae3b 05b5 fe3c
00000050: 15a1 c5bc 1000 bebb 11f0 853c 44f1 19bd
00000060: 039c db3b 09de b13c 7457 11ba 7c89 b3ba
00000070: 6750 ebba fe78 07bd a345 07bc 4c85 9d3b
00000080: c6c0 04bc f3cb 583c f58f b03b 8ff1 abbc
00000090: a078 86bb 33ad a0bc eb41 783c 4072 abbb
000000a0: 2fdb f4bb 25d0 d33b 1d49 73bc fe20 4bbd
000000b0: 1f11 463b 2fac 1e3d 605c 5cbb af7e 043b
000000c0: fd6e 5abc c31f 6dbb 9be5 ffbc 9060 13ba
000000d0: 60d0 9b3c e6ad 89bb 680c 8dbc f71d f83c
000000e0: 0292 183d 58d2 123d 719a 9b39 c72b 8f3c
000000f0: 89ca 2dbc 7f8d cbbc d36e 90bc 65ff bb3c
00000100: 239e e0ba 5b88 663c f323 96bc 9742 e63b
00000110: d2a9 e93c 7f2b 8f3c 0381 b43c 8a9a 093d
00000120: b723 ae3c 7501 74bc ae7b 24bc 5711 02bd
00000130: 5a2e fb3b 0b29 8e3c 0b21 b53c 3d37 d63b
00000140: ccaf 3c3c 3f89 c83b 0b07 1abc 872c 8b3b
00000150: 9a81 ec3c 2b11 a43c 7593 27bd 3fbd 4bbc
00000160: f92a b1bc d321 9b3c cf1b bf3a adcd bbbc
00000170: c8b3 f8bb 8bfc 183d 413f 42ba 4768 e1bb
00000180: 4259 50bc f943 493c 22e9 6cbc ffd7 373c
00000190: 9781 74bc 6757 ea3c b058 2abc 0066 013b
000001a0: 1302 efbb 8709 b43a 4b93 0bbb 2cce 8c3c
000001b0: 8234 83bb 75cf 61bb 4274 d8bc de47 07bc
000001c0: 8757 12bc 4a5e 6dbc c527 793c fc10 383b
000001d0: 98bf bfbb 4e3d 8abc 3885 693c ef45 42bc
000001e0: eb23 46bc 6a61 3a3b ee9f 8d3b d8f4 403a
000001f0: f7f1 e0bc b6e9 213c 37ef 213c 860c 993c
00000200: f27e 33bd 0a5e e0bb b4ff 11bc 2799 35bb
00000210: 725e 1d3b a85a 7bbc 9487 b93a 0109 343c
00000220: f017 16bc ff09 943c 6b34 ddbb 8a97 6b3a
00000230: 0b08 b83b 62d6 ebbb defb 9c3c ba17 e33a
00000240: 0643 84bc 3f2a 223c 57e0 b33c 7f80 60bc
00000250: 93ae cbbc 9216 95bc 0cce bfbb 57f1 97bc
00000260: 61ad 1fbb fbed 73bc b3eb 98bc 28b0 ef36
00000270: 34dd 963c 7360 12bc 306a 79bc 7b1d e83c
00000280: 6be1 20bb 1a1e ba3c 400e a1bc 4f0d 803b
00000290: aa3d e53c c717 b0bc 0622 8d39 831f 4abb
000002a0: 29bd 9ebb 77a4 99bc cd80 633b 103f f4bb
000002b0: f25d 303c f324 0cbc c1c0 a9bc 5dc0 1bbc
000002c0: 221d 273d ebd1 d63b ba1a 653c 7adc 003d
000002d0: 567f adbb 6677 c73c 92e2 623c 2c34 00bd
000002e0: d339 0f3b f65e 033d 62a5 08bb 01e3 433b
000002f0: 07db 0dbc 8af4 7b3c d583 40bd 5ad7 c2bc
00000300: e8b1 37bc 4c7b aa3b cfa7 8c3a 0802 a23c
00000310: 81af 2cbb 7f6e 073c 7de0 febc da42 adbc
00000320: 2d98 b4bb 8709 e4bb 4429 a43c 2030 cdbb
00000330: 12a1 e7bc 76bb 333b 157f bd3c 152e 96bc
00000340: fd0d 9bbc f817 87ba 8f49 16bc 5beb ecbc
00000350: acf9 1abd 0d39 7bbc f7cd 5b3c 930f 53bc
00000360: 40e4 e1bb 688c 1e3d 796a 8d3c 3cf0 82bc
00000370: eb4f 9b3b 9468 8c3c 48bb cdba 67a2 c13c
00000380: 3c61 2c3d 32fb 64bc b7ad fd3c 38b8 16bd
00000390: 956e dc3a 45fa 22bc 73a2 56ba 1f44 233c
000003a0: 94e0 a93c d6c3 22bd 40cb 4dbc e066 4b3b
000003b0: a856 febb 07cc 3d3b b70e 08bd cf39 4cbc
000003c0: 0f37 973c 52d8 7a3b 8812 c83c 7577 a1bb
000003d0: 7b66 c13c 17d9 b63c 4563 483c fda0 473c
000003e0: 9bb3 7a3c 4754 15bd 3615 b4bc c7c1 6d3c
000003f0: cf6f 11bd 9475 2a3c 910e ac3c 20c7 273d
0.032092016 0.008382775 -0.007933621 0.017025432 0.03042598 0.021778047 0.009170687 -0.0048966873
-0.009672134 0.017974565 0.01080093 0.023447426 -0.020061715 -0.0061128014 0.019683905 -0.016707243
0.023300845 -0.029253824 0.0053231325 0.031092176 -0.024124661 -0.0057983473 0.016349824 -0.037583604
0.0067019477 0.02171232 -0.00055443426 -0.001369759 -0.0017953039 -0.03307437 -0.008256349 0.00480715
-0.008102601 0.013232219 0.0053882548 -0.020989208 -0.004103735 -0.019613838 0.015152435 -0.0052321255
-0.007472418 0.0064640217 -0.0148489745 -0.04959201 0.0030222607 0.038738426 -0.0033624396 0.002021711
-0.013332126 -0.0036182262 -0.031237414 -0.0005621994 0.01902026 -0.0042016385 -0.01721783 0.030287726
0.03724862 0.03584513 0.00029678972 0.01747693 -0.01060737 -0.024847744 -0.01763097 0.02294893
-0.0017136972 0.014070596 -0.018327689 0.007026981 0.02852336 0.017476795 0.022034174 0.033594646
0.021257265 -0.0148929255 -0.010039253 -0.031754818 0.0076654376 0.017353555 0.022110483 0.0065373466
0.011516523 0.0061198766 -0.009401093 0.0042472514 0.028870393 0.020027718 -0.04091211 -0.0124352565
-0.021626936 0.018937027 0.0014580431 -0.022925222 -0.007589791 0.03735022 -0.0007409938 -0.006878886
-0.012716593 0.012284272 -0.01445988 0.011220931 -0.014923475 0.02860613 -0.010397121 0.0019744635
-0.0072939484 0.001373575 -0.002129751 0.017188154 -0.004004062 -0.003445593 -0.026422624 -0.008256881
-0.008932001 -0.014487812 0.015207236 0.0028086295 -0.005851697 -0.016874935 0.014252953 -0.011857494
-0.012093524 0.002843941 0.0043220436 0.00073607033 -0.027459128 0.009882381 0.009883693 0.01868273
-0.043822236 -0.006847148 -0.008911062 -0.0027709694 0.0024012593 -0.015341438 0.0014154785 0.010988475
-0.009160981 0.018071173 -0.0067506335 0.00089871197 0.005616193 -0.0071971873 0.019163068 0.0017325797
-0.01614524 0.009897768 0.02195756 -0.013702511 -0.024863517 -0.018199239 -0.00585342 -0.018547697
-0.0024364816 -0.014888282 -0.018667078 7.1432623e-06 0.018416025 -0.008934128 -0.015223071 0.02833437
-0.0024548422 0.022719432 -0.019660115 0.0039078365 0.027983505 -0.021495713 0.00026918965 -0.0030841536
-0.004844327 -0.01875518 0.0034714222 -0.0074538067 0.010764586 -0.008553731 -0.020721795 -0.009506312
0.040799268 0.006555786 0.013983423 0.031460263 -0.0052947206 0.024348926 0.013847964 -0.031299755
0.0021854534 0.032072984 -0.002085053 0.0029889944 -0.008658177 0.015378127 -0.047000725 -0.023784328
-0.01121185 0.0052026864 0.0010731163 0.01977636 -0.0026349726 0.00826609 -0.031112904 -0.021150041
-0.005511305 -0.0069591436 0.020039208 -0.0062618405 -0.028275046 0.0027424968 0.023131886 -0.01833252
-0.018927569 -0.0010306826 -0.009172811 -0.02892082 -0.037835762 -0.015333426 0.013415805 -0.012882131
-0.0068936646 0.03870812 0.017262684 -0.015983693 0.0047397516 0.01713971 -0.0015696073 0.02363701
0.042084917 -0.013975905 0.030966623 -0.03679678 0.0016817624 -0.009947364 -0.0008187659 0.009964972
0.02073697 -0.039737545 -0.012560666 0.003103666 -0.007761795 0.002896072 -0.03321716 -0.0124649545
0.018458871 0.003827591 0.024422899 -0.0049275705 0.023608437 0.022320313 0.012230699 0.012184379
0.01530161 -0.036457326 -0.02198277 0.014511532 -0.03550702 0.010404009 0.02100304 0.040961385

network_body._body_endoder.seq_layers.0.bias f4 [128]
00000000: 0000 0000 0000 0000 0000 0000 0000 0000
00000010: 0000 0000 0000 0000 0000 0000 0000 0000
00000020: 0000 0000 0000 0000 0000 0000 0000 0000
00000030: 0000 0000 0000 0000 0000 0000 0000 0000
00000040: 0000 0000 0000 0000 0000 0000 0000 0000
00000050: 0000 0000 0000 0000 0000 0000 0000 0000
00000060: 0000 0000 0000 0000 0000 0000 0000 0000
00000070: 0000 0000 0000 0000 0000 0000 0000 0000
00000080: 0000 0000 0000 0000 0000 0000 0000 0000
00000090: 0000 0000 0000 0000 0000 0000 0000 0000
000000a0: 0000 0000 0000 0000 0000 0000 0000 0000
000000b0: 0000 0000 0000 0000 0000 0000 0000 0000
000000c0: 0000 0000 0000 0000 0000 0000 0000 0000
000000d0: 0000 0000 0000 0000 0000 0000 0000 0000
000000e0: 0000 0000 0000 0000 0000 0000 0000 0000
000000f0: 0000 0000 0000 0000 0000 0000 0000 0000
00000100: 0000 0000 0000 0000 0000 0000 0000 0000
00000110: 0000 0000 0000 0000 0000 0000 0000 0000
00000120: 0000 0000 0000 0000 0000 0000 0000 0000
00000130: 0000 0000 0000 0000 0000 0000 0000 0000
00000140: 0000 0000 0000 0000 0000 0000 0000 0000
00000150: 0000 0000 0000 0000 0000 0000 0000 0000
00000160: 0000 0000 0000 0000 0000 0000 0000 0000
00000170: 0000 0000 0000 0000 0000 0000 0000 0000
00000180: 0000 0000 0000 0000 0000 0000 0000 0000
00000190: 0000 0000 0000 0000 0000 0000 0000 0000
000001a0: 0000 0000 0000 0000 0000 0000 0000 0000
000001b0: 0000 0000 0000 0000 0000 0000 0000 0000
000001c0: 0000 0000 0000 0000 0000 0000 0000 0000
000001d0: 0000 0000 0000 0000 0000 0000 0000 0000
000001e0: 0000 0000 0000 0000 0000 0000 0000 0000
000001f0: 0000 0000 0000 0000 0000 0000 0000 0000
0.0 0.0 0.0 0.0 0.0 0.0 0.0 0.0
0.0 0.0 0.0 0.0 0.0 0.0 0.0 0.0
0.0 0.0 0.0 0.0 0.0 0.0 0.0 0.0
0.0 0.0 0.0 0.0 0.0 0.0 0.0 0.0
0.0 0.0 0.0 0.0 0.0 0.0 0.0 0.0
0.0 0.0 0.0 0.0 0.0 0.0 0.0 0.0
0.0 0.0 0.0 0.0 0.0 0.0 0.0 0.0
0.0 0.0 0.0 0.0 0.0 0.0 0.0 0.0
0.0 0.0 0.0 0.0 0.0 0.0 0.0 0.0
0.0 0.0 0.0 0.0 0.0 0.0 0.0 0.0
0.0 0.0 0.0 0.0 0.0 0.0 0.0 0.0
0.0 0.0 0.0 0.0 0.0 0.0 0.0 0.0
0.0 0.0 0.0 0.0 0.0 0.0 0.0 0.0
0.0 0.0 0.0 0.0 0.0 0.0 0.0 0.0
0.0 0.0 0.0 0.0 0.0 0.0 0.0 0.0
0.0 0.0 0.0 0.0 0.0 0.0 0.0 0.0

network_body._body_endoder.seq_layers.0.weight f4 [128, 1350]
00000000: c932 b03a 60d4 0e3c d6c2 b63c e565 153c
00000010: ba6b c0bc e82d b8bb 32c2 133d 858d 803c
00000020: 5a25 243c 344f 653d 4474 60bc 9f08 09bd
00000030: 70f1 21bd 7910 92bc d7a4 24bd 8f94 f6bb
00000040: 0b31 4fbc 8ca8 3fbc 25ad 30bd eb6a 9f3c
00000050: 38f3 1ebc c578 823c 1f19 2cbc 5290 07bc
00000060: c480 5d3c 5ad2 12bc 6ccd e2bb 4c52 25bc
00000070: cf41 1a3d 8769 4fbd 23e6 98bc c7da 803c
00000080: 44bd d1bc a417 b3ba 6aa0 75bc e105 793b
00000090: b987 523c b95a 6dbd cf76 0a3d d9ef dc3c
000000a0: b8a7 e0bb 6a82 993c 7e79 aabc 0511 41bd
000000b0: 8077 d33c f253 dfbc f670 9a3c 48d4 b33b
000000c0: 2591 563b 76bf 4a3c f747 6abd a978 21bd
000000d0: 1138 5d3d 008f aa3d 5bac 2b3c de41 403d
000000e0: 9a14 6f3c 1a7b 09bc 4495 edbc 4444 2dbd
000000f0: 08f0 a33c 93bf 29bd 1080 eeba db09 19bd
00000100: 2a97 bcbb b2ef 9e3c e228 25bd bbc7 27bc
00000110: 436f 933a f59f 1b3c 3f41 19bd eeba 3cbc
00000120: 05c6 0cbd 11a5 3e3d d302 143c 2374 493d
00000130: e6a6 57bc 2378 163c 10fc 083c c20d 623c
00000140: 7322 b6bc ef4b a0bc f3b3 923c faa8 e53b
00000150: 4dd7 78bd 8ea6 723d 8fb2 3f3c 0b4b d13b
00000160: 4880 afbc 3424 5cbc 895b 043c 15a6 27bb
00000170: 1c5a 11bd b0b3 173d cf72 9d3c fee1 95bc
00000180: 3d21 9bbc e724 c1ba 480f 9cbb 9710 5b3d
00000190: 137e 6fbc 01a0 75ba 376a 80bc 6cfa b1bc
000001a0: eed8 d8bc e3c3 cf3c 8ccb 4b3b 4b77 f93b
000001b0: 39e0 9e3d 63e4 13bc 72d1 a63c a63e 1dbc
000001c0: 5783 d93c 50fe 43bb cb17 03bc 54f7 7b3b
000001d0: df4b 0e3d 3b82 49bc 0806 b33c 7b4f d3bb
000001e0: bfe2 fc3a 56c2 6d3d 53bf 373c 7008 3b3c
000001f0: f04b 253d 6fcf 383d 84ec 833b 6f60 a0bc
00000200: 3d21 843b 97f8 523b c240 6039 6026 053d
00000210: ba6c edba 8229 25bd ebc2 b8bb c176 c73c
00000220: 832e 24bb 99ec c9bc f889 0abd 1626 49bd
00000230: 143e 903c 15bf 2d3d 7e62 c9bc 8d22 183c
00000240: a9a7 0bbb a49a 48bc 8293 e0bc 9658 863c
00000250: 6278 203c 2ba5 993c 0c38 043d 437f 1c3c
00000260: a02f 4b3c 2768 a6bc f247 ddbc d839 3abc
00000270: 8076 ea3c 381d 7a39 b38f a43c ad44 a5bc
00000280: 9af1 443b 8c36 10bc c845 293d 1719 06bd
00000290: b1d6 9fbc 7cd7 04bd 393e 6bbd aaee f33b
000002a0: ea98 313c fcaf 32bc 82c0 f0bb 12c1 2a3c
000002b0: 2996 853c bd8e 42bc 1e3e d3bc f9df bdbb
000002c0: 82f3 99bc 10b2 223d d3a6 873c 4d7c 54bc
000002d0: b35c f4bc 1e72 8ebc f248 ab3c b9a9 50bd
000002e0: e39a 82bc 04cd 443c a84a 6e3d dae1 abbc
000002f0: ce14 1dbc 9159 59bc 6d92 2fbc 997b a2bc
00000300: 5670 623d c489 ffbc acaf 153c 9a71 25bd
00000310: 4011 67bc c685 2dbd b4aa 683d 08ae 5cbd
00000320: 3e4a 6bbc 28d1 803c d8aa 1abd 4d3f eb3c
00000330: 17b3 3dbd 71cc 01bd 9694 33bd 2f7a f33c
00000340: a536 d3bc a27d 09bc 03b0 1abc d0f6 633c
00000350: c19b 44bd bd87 dcbc 9c07 edbc 11e7 a9bc
00000360: aae9 70bc 0fcf ee3c ee84 03bd 8a7c 6d3c
00000370: 00e0 0fbc 1805 3ebd 3eaf 41bc 4dee 9ebc
00000380: 4856 dcba 0e3b a9bc a013 17bd 6644 aa3c
00000390: 0c23 68bd 9d23 44ba da7f c1b9 22c1 873c
000003a0: 867b 4ebc 66a7 353c 95df 51bc d8c4 82bc
000003b0: f88a bd3c 9eff 9e3b 8a2e e93a c137 0cbd
000003c0: 89ba 68bc 55b0 85bc 1b04 45bc 2639 74bc
000003d0: c8bf 6f3c 4861 46bc 5d0d 11bd 1008 04bc
000003e0: 31ba eabc cd75 1e3c 5b60 cd3c f905 03bb
000003f0: e29c aebb a47b d13c 9e5c b63b 9cb4 233d
0.001344287 0.008717626 0.022309702 0.009118532 -0.023488868 -0.005620707 0.03607387 0.015692482
0.010018671 0.055983737 -0.013699595 -0.033455487 -0.039536893 -0.01783012 -0.040196266 -0.007525034
-0.01264597 -0.0116979 -0.043133873 0.019460162 -0.009701543 0.015926728 -0.010504036 -0.008274155
0.01351947 -0.0089612845 -0.006921461 -0.010090422 0.037660416 -0.050637748 -0.018664425 0.015729321
-0.025602944 -0.0013663662 -0.014991859 0.003799789 0.012849742 -0.057947848 0.03380471 0.026969837
-0.006855931 0.018738944 -0.020809885 -0.04713537 0.025813818 -0.027261708 0.018852692 0.0054879524
0.0032740321 0.012374749 -0.057197537 -0.03942171 0.054008547 0.08328056 0.010478104 0.046937816
0.014592314 -0.008391166 -0.02900184 -0.04230143 0.020011917 -0.041442465 -0.0018196125 -0.037362915
-0.005755325 0.019401405 -0.040322192 -0.010240491 0.0011248369 0.009498586 -0.03741574 -0.011519177
-0.034368534 0.04654414 0.0090338765 0.049183022 -0.01316235 0.009183916 0.008360878 0.013797225
-0.022233224 -0.019567458 0.017908072 0.007008669 -0.0607522 0.05924087 0.0117002865 0.0063871196
-0.021423474 -0.013436366 0.008078464 -0.002558117 -0.035486326 0.037036598 0.019219784 -0.018296238
-0.018936748 -0.0014735729 -0.004762564 0.05348262 -0.014617461 -0.0009369851 -0.015675647 -0.021725856
-0.026470628 0.02536196 0.0031096665 0.007613098 0.07757611 -0.00902662 0.020363543 -0.009597456
0.026551886 -0.002990622 -0.008001278 0.003844698 0.034740325 -0.012299116 0.021853462 -0.006448684
0.001929365 0.05804666 0.011215049 0.011415586 0.040355623 0.0451197 0.0040259976 -0.019577233
0.0040322826 0.0032191628 0.00021386429 0.0325073 -0.0018114068 -0.040322788 -0.0056384704 0.024348618
-0.0025052137 -0.024648951 -0.033822984 -0.049108587 0.017607726 0.04241856 -0.024583098 0.009285581
-0.002130965 -0.0122439 -0.027414087 0.016399663 0.0097943265 0.018755516 0.032280013 0.009551826
0.012401491 -0.020313336 -0.027011845 -0.01136633 0.028620958 0.00023852743 0.020088052 -0.020174349
0.0030051232 -0.0088020675 0.041326314 -0.03273877 -0.019511553 -0.032432064 -0.057432387 0.0074442225
0.01083968 -0.010906216 -0.0073471675 0.010422008 0.016306954 -0.011874852 -0.025786456 -0.005794522
-0.018792871 0.039720595 0.01655904 -0.012969089 -0.029829359 -0.0173884 0.020908806 -0.05094311
-0.015942996 0.01201177 0.058176666 -0.020981718 -0.00958748 -0.013265983 -0.010716063 -0.019834327
0.055282913 -0.031193621 0.009136122 -0.040391542 -0.014103234 -0.042363904 0.05680342 -0.053876907
-0.014360962 0.015724733 -0.037760586 0.028716708 -0.04631337 -0.03168911 -0.043842874 0.029721348
-0.025782892 -0.00839177 -0.0094413785 0.013913825 -0.0480001 -0.026920194 -0.028934292 -0.020740064
-0.014704147 0.029151468 -0.032109194 0.014495024 -0.008781433 -0.046391577 -0.011821566 -0.01940074
-0.0016810382 -0.020658042 -0.03688395 0.020784568 -0.05667405 -0.00074821134 -0.00036907085 0.016571585
-0.0126026925 0.011087274 -0.012809654 -0.015963003 0.023137555 0.0048522493 0.0017790359 -0.03423286
-0.01420463 -0.016319433 -0.012024905 -0.014906203 0.014633127 -0.012108155 -0.035413135 -0.008058563
-0.028653236 0.009671641 0.02507036 -0.0019992574 -0.0053287605 0.025571652 0.00556524 0.039967164

network_body._body_endoder.seq_layers.2.bias f4 [128]
00000000: 0000 0000 0000 0000 0000 0000 0000 0000
00000010: 0000 0000 0000 0000 0000 0000 0000 0000
00000020: 0000 0000 0000 0000 0000 0000 0000 0000
00000030: 0000 0000 0000 0000 0000 0000 0000 0000
00000040: 0000 0000 0000 0000 0000 0000 0000 0000
00000050: 0000 0000 0000 0000 0000 0000 0000 0000
00000060: 0000 0000 0000 0000 0000 0000 0000 0000
00000070: 0000 0000 0000 0000 0000 0000 0000 0000
00000080: 0000 0000 0000 0000 0000 0000 0000 0000
00000090: 0000 0000 0000 0000 0000 0000 0000 0000
000000a0: 0000 0000 0000 0000 0000 0000 0000 0000
000000b0: 0000 0000 0000 0000 0000 0000 0000 0000
000000c0: 0000 0000 0000 0000 0000 0000 0000 0000
000000d0: 0000 0000 0000 0000 0000 0000 0000 0000
000000e0: 0000 0000 0000 0000 0000 0000 0000 0000
000000f0: 0000 0000 0000 0000 0000 0000 0000 0000
00000100: 0000 0000 0000 0000 0000 0000 0000 0000
00000110: 0000 0000 0000 0000 0000 0000 0000 0000
00000120: 0000 0000 0000 0000 0000 0000 0000 0000
00000130: 0000 0000 0000 0000 0000 0000 0000 0000
00000140: 0000 0000 0000 0000 0000 0000 0000 0000
00000150: 0000 0000 0000 0000 0000 0000 0000 0000
00000160: 0000 0000 0000 0000 0000 0000 0000 0000
00000170: 0000 0000 0000 0000 0000 0000 0000 0000
00000180: 0000 0000 0000 0000 0000 0000 0000 0000
00000190: 0000 0000 0000 0000 0000 0000 0000 0000
000001a0: 0000 0000 0000 0000 0000 0000 0000 0000
000001b0: 0000 0000 0000 0000 0000 0000 0000 0000
000001c0: 0000 0000 0000 0000 0000 0000 0000 0000
000001d0: 0000 0000 0000 0000 0000 0000 0000 0000
000001e0: 0000 0000 0000 0000 0000 0000 0000 0000
000001f0: 0000 0000 0000 0000 0000 0000 0000 0000
0.0 0.0 0.0 0.0 0.0 0.0 0.0 0.0
0.0 0.0 0.0 0.0 0.0 0.0 0.0 0.0
0.0 0.0 0.0 0.0 0.0 0.0 0.0 0.0
0.0 0.0 0.0 0.0 0.0 0.0 0.0 0.0
0.0 0.0 0.0 0.0 0.0 0.0 0.0 0.0
0.0 0.0 0.0 0.0 0.0 0.0 0.0 0.0
0.0 0.0 0.0 0.0 0.0 0.0 0.0 0.0
0.0 0.0 0.0 0.0 0.0 0.0 0.0 0.0
0.0 0.0 0.0 0.0 0.0 0.0 0.0 0.0
0.0 0.0 0.0 0.0 0.0 0.0 0.0 0.0
0.0 0.0 0.0 0.0 0.0 0.0 0.0 0.0
0.0 0.0 0.0 0.0 0.0 0.0 0.0 0.0
0.0 0.0 0.0 0.0 0.0 0.0 0.0 0.0
0.0 0.0 0.0 0.0 0.0 0.0 0.0 0.0
0.0 0.0 0.0 0.0 0.0 0.0 0.0 0.0
0.0 0.0 0.0 0.0 0.0 0.0 0.0 0.0

network_body._body_endoder.seq_layers.2.weight f4 [128, 128]
00000000: 574b 27bc 9c9e 863d d5bd 96bd dccc 093e
00000010: 7878 4ebe 6408 753e ae8e eabc 3f96 c6bd
00000020: 7ebc 84bd 17c3 363d 2a3c 88bd 1795 81bd
00000030: 7280 4cbb 67a8 cfbc 6d67 8aba dec9 e13c
00000040: cedf 47bc 197f 2bbd ad20 923d c5d0 9b3c
00000050: ead8 4b3d 6f2c 61bd e6e5 5b3d f1d3 bebc
00000060: 00f4 ac3b aaf3 8e3d d866 6f3b f56d 543d
00000070: e255 bfbd 5774 8dbd 5c59 aabd 1e84 f03d
00000080: fef9 8ebc 6644 87bb 9a4b 583d 5c5f a1ba
00000090: 45b7 3dbe a5ac 393d 0f5f 433e b68f bcbd
000000a0: a127 c33d 9582 1b3d 3f88 bc3d 012c 843d
000000b0: 2e26 b23d ec63 75be 728a 913d f2e0 9abd
000000c0: e8b0 6ebe 2f54 76bd 8928 70bd 25ae 24be
000000d0: 2ec1 9cbb 083a ae3c 465f 553e 38b6 c73d
000000e0: 84aa 1e3d 8f3a d639 53ec a13c 37c6 f2bc
000000f0: d438 a0bd 7661 01be 97dd c8bd e383 983c
00000100: 323d bf3c 8423 34be 0220 053e ce8c 303d
00000110: cbd9 af3d 0a35 953d bb92 053e edb9 f73d
00000120: 3d5e 443d d412 1c3c f24c fcbc 6b58 a3bc
00000130: 61ef a33c 6252 63bd c37e fc3d 35c0 3dbd
00000140: 0b53 88be 0714 243e f847 903c 90c0 003d
00000150: 57e2 b5bd fa15 ca3c 7b75 143d 4de6 a8bd
00000160: 29a6 04be a60c dabd 9b83 bdbd bcda e83c
00000170: 3d2d 4a3e 1b37 b13d 8350 17be adf5 393e
00000180: b53e c93b 2bea 513b 116f 10be 8921 34bd
00000190: b627 8abd 3378 aebd 1ef4 cbbc a89d 803d
000001a0: c106 8d3d 58d3 843b 1978 333d a559 273c
000001b0: c526 08be 0263 f4bc 363f c63d 69e8 2cbd
000001c0: a64e 233d 5931 953d 7825 bdba aa74 003d
000001d0: 2046 16bd 35dd ca3d 3097 3a3e bd1f 3cbb
000001e0: 0a0f 7abd f96f 7d3d 0de6 27bd 75ff 703d
000001f0: c9a5 d43c 822a cdbb 71b1 053e 4876 5ebb
00000200: 4d76 6cbd 292f c33d 3a07 743d 36ac 893d
00000210: b387 83bc 72fb 2abe 31e7 36bd a34f 4bbd
00000220: 203f 01be 621f 1f3d 3fdc 473c 4a80 733b
00000230: 1287 6abd 5308 373d 48fa 8dbd b548 05bd
00000240: be14 5dbc 6615 c1bc 04b6 8cbd 82f7 0a3d
00000250: 59a0 343d e30b c4bd f025 9fbc 34ca 263d
00000260: 13b4 8f3e 874b 0f3e b6d7 843d 7bcc ddbd
00000270: 5df3 8cbd c58e b2bc 486e b83c c2d5 f6bc
00000280: 79ba c8bd 54f5 363d 432e 773d 9b22 1ebd
00000290: c462 95bd 3443 3cbd cd9a b73d f90d 863c
000002a0: edd0 0bbe 32f4 ccbd ede0 b83c 487d fd3c
000002b0: 59a6 673c 016f a4bd 0a54 903d 91bd fcbc
000002c0: e8df 61bd acc6 563e 856f fb3d 83c3 55bc
000002d0: edd8 0dbe 6760 85bd a613 ae3d 2993 583d
000002e0: 407c c83c 625f ad3d 3ab5 d73c ecdc 023e
000002f0: 6f3c b53c 0107 113e e0e5 2e3e 3dfd efbd
00000300: e97e 393d 6fb9 d33d df8c 67bd d194 9f3d
00000310: 13c8 85bd 0a10 9d3c 498a 173e 4eca c73c
00000320: 1a98 6d3d 3f9e 95bd 4c50 8ebd c48c e33d
00000330: c522 f9bd a48c 8c3a 5cae ebbd 7a8c c7bd
00000340: ce06 95bd 5ceb ec3d bca6 78bd ee02 cf3a
00000350: 1e62 1b3e 5f84 0cbe fd63 7f3d 1a72 693c
00000360: 7fc3 a2bd 1940 f63d b03c 1e3e ac1a a43d
00000370: 24ce 293e 4efe 09be f214 273c b14e dfbd
00000380: f0d4 72bd ee40 bebd 1ebe 2a3b ade9 6cbc
00000390: 61fc e83d 50ee fbba 1a4b 773d 040f 9f3c
000003a0: 088b fb3c a4ff 88bc 440b 03bd bf34 cbbc
000003b0: e3f5 00be e427 443d ace0 033e 5544 10bb
000003c0: e639 0fbd 5b30 c3bc 53c1 4fbd 711a 873d
000003d0: 028c 1e3e e3fa 503e 97f4 3d3e b506 483e
000003e0: c1eb df3c 9c52 133d 11b3 983d 3f94 cebc
000003f0: e32c 83bd e406 c3bc 3e48 c23d 195d a6bd
-0.0102108335 0.06573221 -0.07360426 0.13457054 -0.20163143 0.23928982 -0.028632488 -0.09696626
-0.064812645 0.044619646 -0.066521004 -0.06327265 -0.003120449 -0.025348855 -0.0010559388 0.027562078
-0.012199355 -0.041869257 0.07135139 0.019020448 0.049767412 -0.054974016 0.053686045 -0.02329442
0.0052781105 0.06980069 0.0036529806 0.051862676 -0.09342553 -0.06906956 -0.08317825 0.11743949
-0.01745319 -0.004128027 0.052806474 -0.0012311745 -0.18526943 0.045330662 0.1907923 -0.09207098
0.09529043 0.03796633 0.092056744 0.064537056 0.086986884 -0.23963898 0.071064845 -0.07562436
-0.23309672 -0.060138877 -0.058632407 -0.16082056 -0.004783771 0.021267906 0.20837125 0.09751552
0.038736835 0.0004086089 0.019766008 -0.029635532 -0.07823339 -0.12634835 -0.0980789 0.018617576
0.02334461 -0.17591673 0.13000491 0.04310303 0.085864626 0.07285507 0.13044254 0.120960094
0.047941435 0.009525973 -0.03079841 -0.019939622 0.020011606 -0.05549849 0.123288654 -0.04632588
-0.26625857 0.16023265 0.017612442 0.031433642 -0.088810615 0.024668682 0.03624485 -0.082470514
-0.1295401 -0.10646944 -0.092536174 0.028424613 0.1974382 0.08653089 -0.14776807 0.18160124
0.0061415085 0.0032030444 -0.14104868 -0.043977294 -0.067458555 -0.0851902 -0.024896678 0.062800705
0.06886054 0.0040535145 0.043815706 0.010214244 -0.1329604 -0.029832367 0.09680025 -0.04221383
0.039869927 0.07284803 -0.0014430722 0.03136126 -0.03668797 0.09905473 0.18221736 -0.002870544
-0.0610495 0.061874364 -0.040990878 0.058837373 0.025957959 -0.006261171 0.1305597 -0.0033945013
-0.057730008 0.095304795 0.059577204 0.067223 -0.016055917 -0.16697481 -0.044654075 -0.049636494
-0.12621737 0.03884829 0.012198507 0.0037155324 -0.05725772 0.044685673 -0.06932503 -0.032540042
-0.013493715 -0.023569774 -0.06870654 0.033927448 0.044098232 -0.0957258 -0.01942727 0.04072018
0.28067073 0.13993655 0.06486456 -0.10830017 -0.06882355 -0.021796593 0.022513524 -0.030131225
-0.09801192 0.044667557 0.060346853 -0.03860722 -0.07294229 -0.045962527 0.08965073 0.016364085
-0.13653918 -0.10007514 0.02256819 0.030943528 0.014138781 -0.08028985 0.07047279 -0.030852111
-0.055145174 0.20974225 0.1227713 -0.013047102 -0.13852282 -0.06512528 0.084998414 0.052874718
0.02447331 0.084654585 0.026331533 0.12779588 0.022123544 0.14162828 0.17079878 -0.11718223
0.045287047 0.10338103 -0.05653083 0.07792056 -0.06532302 0.019172687 0.14798845 0.024388459
0.058006383 -0.07305574 -0.06948909 0.11110833 -0.12164835 0.0010723067 -0.11507866 -0.09743591
-0.072766885 0.11568329 -0.060705885 0.001579372 0.15174147 -0.1372237 0.062351216 0.014248395
-0.07947444 0.120239444 0.15452838 0.080129 0.16582543 -0.13475916 0.010197865 -0.10903681
-0.059285104 -0.09289728 0.002605326 -0.0144600095 0.113762625 -0.0019220803 0.060374357 0.01941634
0.030705944 -0.016723461 -0.031993166 -0.024805425 -0.12593798 0.047889605 0.12878674 -0.0022013385
-0.034967326 -0.023826769 -0.050721478 0.0659684 0.15483096 0.20408206 0.18550335 0.19533809
0.027334096 0.035967454 0.07456029 -0.025217174 -0.06405046 -0.023806997 0.09486435 -0.08123226
