results/ppo/MoveToBet/MoveToBet-198164.onnx (onnx, 768393 bytes, 7 tensors)

action_model._continuous_distribution.log_sigma f4 [1, 17]
00000000: 9eec 003c b353 d13a 73a8 d33b 55e2 083c
00000010: 2a5e 4f3c 63b1 203c a578 ed3c 9f61 163c
00000020: 9600 adbb 3240 bd3b 03ec 2d3c 89d7 a23b
00000030: 1542 223c 8315 3c3c 4784 df3b 3fb4 9f3c
00000040: 1b65 9b3b
0.007868914 0.0015970379 0.0064592897 0.008354743 0.012656728 0.009807917 0.028988192 0.009178548
-0.005279611 0.005775475 0.010615352 0.0049695414 0.0099034505 0.011479738 0.0068211886 0.019495128
0.0047422773

action_model._continuous_distribution.mu.bias f4 [17]
00000000: e135 843a 1e3d 35bc c1bf f43b 7f1e 583b
00000010: 8eec 103c 9639 c7bc c175 8c3b 12bf 20bc
00000020: 985e bbbb 09fb 6bbb be1b 853a fc04 35bc
00000030: 2785 74bb 8132 663b 9d63 b9ba a2c0 63bb
00000040: a9b2 213b
0.0010086858 -0.011061935 0.007469148 0.0032977161 0.0088454615 -0.024319451 0.0042864983 -0.00981118
-0.0057180636 -0.0036007783 0.0010155363 -0.011048552 -0.003731081 0.0035125318 -0.0014144067 -0.003475227
0.002467314

action_model._continuous_distribution.mu.weight f4 [17, 128]
00000000: fd5c 893c c1ca 793b 403f abba da6b 483d
00000010: 0834 883c 576a 58bc 5913 28bc 0908 98bc
00000020: 7dfd 1b3d a650 f43c cf23 3dba 5543 a23c
00000030: 17b6 9cbb 04a9 db3c 2fc4 44bc f75e 5d3c
00000040: 108e 9bbc 7630 2dbc 83cd c6bc 6514 5dbd
00000050: 7fda e9bc 75df 623b 7b8d 863a 1b59 283c
00000060: cde7 bdbc 9c10 2d3b 54ec 093c 81a3 9b3c
00000070: c8e8 1f3b 1ee3 d1bc 6636 fe3c a6c1 263b
00000080: 4005 ca3c 689c 3b3c 4d5f 9a3b af0f 1abc
00000090: ae6e 3cbc 5322 d0bc 3743 0fbc 7803 bf3b
000000a0: be46 45bc 03a7 1ebc d0d5 14bd 65dd 19ba
000000b0: efe8 4f3c 8e5d 91bc 7506 25bd d408 fabb
000000c0: a3e2 01bd cec5 12bd 94de 95bc d2b6 09bc
000000d0: 7490 d53c cce3 883b 1f71 223a b1b4 333c
000000e0: 6a8a f73b 4ea4 a4bb b27e bbbc 6451 01bd
000000f0: 16fa 35bc 1d5e 313c b60a 8cba f546 12bc
00000100: e15e 2cbc e71a 43bc 4449 663c 0587 d7bc
00000110: 0859 5f3d 23d6 ad3b ae0a 72bb 0a4c aabc
00000120: 0f94 b73c 9b9a 343d 2195 0d3d c582 b0bc
00000130: 19fa cdbc 3807 3d3c 0237 ceba ca0c e13b
00000140: 3ede 013c fc03 b0bb d3e6 253c e02b be3c
00000150: 606b ceba 3c9c 953c 5cc4 ad3c 1bb1 acbc
00000160: c12e e6bc cadf 953c c5aa e5bc bb7c efbc
00000170: 3970 5039 a006 40bb 95e0 a33c 1ad3 153c
00000180: 9ff7 f7ba 25ad 2bb9 43cf 5dbc 8d6b 043d
00000190: ee45 623a 3b12 1b3d 4b11 62bb 8ad2 debc
000001a0: bf30 7dbc f6b2 11bb 281c 02bd bf70 893c
000001b0: a4b6 74bc aea2 863c 5456 2bbc 8bf6 21bc
000001c0: 65d1 1c3c 99af 0fba c390 35bc fa54 1fbb
000001d0: 70dc 7b3b 7bf9 27bc c1f0 c9bc d0ed 423b
000001e0: f8e0 be3b 04f9 753b 3945 203c ff6d 8b3c
000001f0: 02d1 b739 4b10 d03c 8a66 60bc 1bd1 b1ba
00000200: 003d 7dbc 3bff cbbc 07e7 f23c 8f0b 15bc
00000210: aab8 96bb 18bd 0f3c 154e 0bbb 6b82 40bc
00000220: 438e 4b3c 68a6 4ebb 79a7 bbbb 83d8 783b
00000230: 976e 1c3c 7335 0ebc 9245 103d d6c9 a53b
00000240: 6343 1bbb 9da5 193d 037e 0fbc a838 433c
00000250: 45eb 98bc 530b a73c 978a 0e3d bc81 b4bc
00000260: 28d7 88bc 4107 413b 07f2 88bc 7335 753c
00000270: 5aaf dfbc 81d8 5dbc 2cd4 9fbc 971d 62bb
00000280: 65ee 89bc 2186 36bd 9fa0 c03c a7d9 f53a
00000290: 48a0 15bb c82d f33b c983 63bb 643c 023b
000002a0: ef0f 253d dfb8 1a3a e049 e83c d451 0bbb
000002b0: 8d83 c43c d897 653a 6758 c2bb 1fde e5ba
000002c0: 504e 2a3c f738 03bd 5e7e f7bb 6351 6c3c
000002d0: b011 f4bc c777 a53b af88 633b 4b99 e03c
000002e0: 26b0 b53c c8f3 e2ba a04f 84bc aeac 483c
000002f0: 80a5 60bc 2894 98bc e5ee 74bc 5022 0c3d
00000300: e1ce 773c f3ef edbc 6ab3 82bc e22f 8a3c
00000310: 01de 9abc 2d37 5bbc 2453 3ebc 7d19 48bb
00000320: a7a2 bd3c b78d 1fbd 2ea2 04bc 1d43 1c3d
00000330: 9651 5e3c 7535 03bd 2111 7b3c 818d d33c
00000340: be89 b43c c3fd f83a 9f0f d5bc 1889 72ba
00000350: 56e1 bbbc 6574 9a3c 8446 fcbc 2a5a aa3c
00000360: d53b 1f3c 7937 efbc e720 6d3c cf31 533c
00000370: f704 283c 21dc 933c 884f a93c b726 33bc
00000380: 4864 d13b 7ed3 25bc 098b ed3c f0b9 2fbd
00000390: a97c c6bc a58d 0b3b 9ab8 943c f6fd cd3b
000003a0: 33ee bc3c c95e 463d a6e4 dc3c c319 773c
000003b0: febc dfbc c25d 183d 4792 9a39 0c99 a3bc
000003c0: c35d 2bbd f127 c43b 3fb1 9cbc 9703 593d
000003d0: e848 f83c f1c0 b33c a885 63bc b193 64bc
000003e0: e160 3e3c 7353 87bc 89a4 13bd 688c 14bb
000003f0: d39a 94bc fa85 5e3c b5be 1a3d 3d0b fdba
0.016767973 0.0038115236 -0.0013065115 0.04893098 0.016626373 -0.013208947 -0.010258519 -0.018558519
0.038083542 0.029823612 -0.0007215114 0.019807497 -0.004782449 0.026813991 -0.012009664 0.013511411
-0.01898864 -0.010570636 -0.024267917 -0.053974528 -0.02854657 0.0034618054 0.0010265553 0.010275151
-0.02318182 0.0026407605 0.008418161 0.018998863 0.0024400223 -0.025620993 0.031031799 0.0025445013
0.024660707 0.011450864 0.004711068 -0.009403153 -0.0115009975 -0.025406992 -0.008744053 0.005829271
-0.012040792 -0.009683373 -0.03633672 -0.0005869477 0.012689813 -0.017744806 -0.04028936 -0.007630447
-0.03171028 -0.035833173 -0.01829461 -0.008405404 0.026069857 0.004177546 0.0006196666 0.010968373
0.007554342 -0.0050244695 -0.022887561 -0.03157176 -0.011106988 0.010825661 -0.0010684344 -0.00892805
-0.010520668 -0.0119082695 0.014055554 -0.0263095 0.054528266 0.005305068 -0.0036932635 -0.020788211
0.022409467 0.044092756 0.03456605 -0.02154673 -0.02514367 0.011537366 -0.0015732946 0.0068679797
0.007926522 -0.0053715687 0.010125834 0.02321428 -0.0015748553 0.018262975 0.021211796 -0.021080544
-0.028098466 0.018295188 -0.02803553 -0.02923428 0.00019878232 -0.0029300824 0.02000455 0.009144569
-0.0018918401 -0.00016372332 -0.013538185 0.03232913 0.0008631636 0.037859183 -0.003449517 -0.027200002
-0.0154535165 -0.0022231913 -0.031765133 0.016777394 -0.014936123 0.016434994 -0.010457594 -0.009885441
0.009571408 -0.0005481183 -0.011081877 -0.0024312125 0.0038430952 -0.010252352 -0.024650933 0.0029743798
0.005825158 0.0037532458 0.009782129 0.017020224 0.00035060203 0.025398394 -0.013696322 -0.0013566347
-0.015456438 -0.024901977 0.029651178 -0.009096994 -0.0045996504 0.008773111 -0.0021256257 -0.011749844
0.012424055 -0.0031532291 -0.0057267514 0.0037970848 0.009547851 -0.0086797355 0.035222597 0.005059461
-0.0023691289 0.037511457 -0.008758071 0.011915363 -0.018666873 0.020391142 0.03480014 -0.022034518
-0.016704157 0.0029453787 -0.01671697 0.014966357 -0.027305294 -0.013540388 -0.019510351 -0.00345025
-0.016837308 -0.04456151 0.02351409 0.0018756882 -0.002283113 0.007421229 -0.0034716001 0.0019872421
0.0402984 0.0005902182 0.028355539 -0.002125849 0.02398851 0.0008758283 -0.0059309485 -0.0017537511
0.010394648 -0.032036748 -0.007552906 0.014423701 -0.02979359 0.005049679 0.003471892 0.027416846
0.02217872 -0.0017315084 -0.01615125 0.012248201 -0.013711333 -0.018625334 -0.014949535 0.03421241
0.015125007 -0.02904508 -0.015954692 0.016868535 -0.018904688 -0.013379854 -0.011616502 -0.003053277
0.023148848 -0.03895351 -0.008095307 0.03814994 0.013569256 -0.032033402 0.015323908 0.02582431
0.022038337 0.0018996525 -0.026008425 -0.0009251996 -0.022934597 0.01885433 -0.030795343 0.020794947
0.009718855 -0.029201256 0.014473177 0.012890293 0.01025509 0.018049302 0.020667806 -0.010934523
0.0063901283 -0.010121224 0.028996961 -0.042901933 -0.024229364 0.0021294144 0.018154431 0.006286378
0.023062801 0.048430238 0.026964497 0.015081826 -0.027311798 0.03719879 0.00029482154 -0.01997044
-0.041837465 0.0059862067 -0.019127486 0.05298194 0.030308202 0.021942588 -0.013886847 -0.013951228
0.011619777 -0.016519284 -0.036045585 -0.0022666696 -0.018140232 0.013581747 0.03777953 -0.0019305717

network_body._body_endoder.seq_layers.0.bias f4 [128]
00000000: 40a0 863c fa5d 02bb 289a cd3b c546 aa3c
00000010: 08aa 55b9 e9d4 923c 338c 163c afba ae3a
00000020: 2508 643c f920 80bc 7556 5cbb a6f7 77bb
00000030: 3bcf 123b 44b2 5fbb 4239 3abb 0ceb 79ba
00000040: 6574 b13b 1500 f9ba 30df 56bc 59ab 333c
00000050: 0f22 4fbb b999 f7bb 54a3 7ebc 5569 9c3c
00000060: d7c4 81bc c947 42bc 92cb 443b bc19 863b
00000070: 412b 12bc 725d 02bc 411f 19bc bd48 4a3c
00000080: 4fd6 07bb 2904 76ba 45b8 7a3c 2572 8b3b
00000090: d701 87bc 6875 1bbc e260 22bc e02d e23a
000000a0: b5e2 b23b 4305 cabb ed5d 963c 46ea 113c
000000b0: a6f4 98bc 20e1 7f3c d563 a63b 5c98 043c
000000c0: 80e8 8a3c 4a1a 053c fd53 4e3c 250f a93c
000000d0: e798 29bc b971 e33b 7a91 9cbc f55e 513c
000000e0: 146a 66bb a93e 313a 20f2 8c3c c848 97bb
000000f0: 6f3d 4ebc cd87 623c ee62 f4bb 22dd b53c
00000100: 3874 a23b 349d 37bc dc6a d93a c30e 7d3c
00000110: f468 bb3b 6921 093c ae56 0f39 9f8d e0bb
00000120: 4e9d 17b9 b85c 0fba fd8e d53a 8a03 9b3b
00000130: 6bd9 19bc 14a6 5b3c 5ed8 823b 23b5 133c
00000140: 58de 9bbb 90e7 a1bb 7139 23bc 93b2 75bb
00000150: f761 e53b 9c3b f03b 2da4 933b be03 99bb
00000160: aec0 02bc e5a7 453c 9964 20bb 6ff0 a63b
00000170: 101d 31bc 4686 fbbb 2d73 223a b137 09bc
00000180: fa67 03ba 836f 4abc 2c4f 793b 4dad 913c
00000190: f32b 0f3c 1559 893c b546 47bc d4d1 453b
000001a0: e16e 14bc e7ea cc3b 6764 56bc eb0f 1abc
000001b0: d678 c5ba fae2 4b39 667f 67bc ad92 053c
000001c0: b08f f5ba 41ec 623c 8e99 b4bb 9160 33ba
000001d0: 6bda 2a3c 727a 19bb a718 6a3b a4d1 de3c
000001e0: 8438 bc3c 13e0 87b9 98e0 40ba 05eb 98bb
000001f0: ef33 a1bb 4ce9 453c 9ca9 5d3c 7dd9 253c
0.016433835 -0.001989244 0.0062744804 0.020785699 -0.00020376605 0.01792379 0.0091887 0.0013330783
0.013917957 -0.015640723 -0.0033620868 -0.003783682 0.002240135 -0.0034133354 -0.0028415476 -0.0009533621
0.0054154866 -0.0018997217 -0.0131147355 0.010966145 -0.0031605994 -0.007556167 -0.01554187 0.019093195
-0.01584093 -0.011857935 0.0030028564 0.0040924232 -0.008921445 -0.007956849 -0.00934583 0.012346444
-0.0020727103 -0.0009384775 0.015302722 0.0042555504 -0.01648037 -0.009488441 -0.009910794 0.0017256103
0.0054591545 -0.006165178 0.018355334 0.008905953 -0.018671345 0.015617639 0.005077819 0.008092966
0.016956568 0.008123944 0.012593267 0.020637104 -0.010351396 0.006941047 -0.019112337 0.012778987
-0.0035158442 0.0006761351 0.017205298 -0.0046168305 -0.012587889 0.013826323 -0.0074580824 0.02220017
0.004957702 -0.011206914 0.0016587633 0.015445414 0.0057192985 0.008369782 0.00013669833 -0.00685282
-0.00014459083 -0.0005468833 0.0016293224 0.0047306465 -0.009390215 0.013406295 0.003993078 0.009015354
-0.00475673 -0.0049409345 -0.009962426 -0.0037490472 0.0070002037 0.0073313247 0.0045056553 -0.0046696356
-0.007980509 0.012063955 -0.0024474023 0.00509458 -0.010810152 -0.0076759188 0.0006196972 -0.008375094
-0.0005012747 -0.012355688 0.0038041575 0.017782832 0.008738506 0.01676611 -0.012162854 0.0030184882
-0.009059639 0.0062535885 -0.013085461 -0.009403209 -0.0015065919 0.00019444144 -0.014129495 0.008152646
-0.0018734839 0.013850273 -0.005511469 -0.00068426976 0.010428051 -0.002341893 0.003572026 0.027199574
0.022976168 -0.00025916155 -0.0007357686 -0.0046666884 -0.004919521 0.012079548 0.013529208 0.010122654

network_body._body_endoder.seq_layers.0.weight f4 [128, 1350]
00000000: 6cc3 2c3c 1a68 7ebd 14b9 91bb a23f 2fbc
00000010: 8c9e be3c 0436 423d 65fd 7cbc 1fb7 83bd
00000020: 8d3b 19bd ffb2 2dbc cabf 97bc 82d0 8d39
00000030: f91b 60bd 4613 ce3a cafe aabc 0caa 223d
00000040: 71b3 753c 66f0 26bc 3c27 523c 065e c53c
00000050: 83a4 12bc ebdd 2f3d 9035 30bd 0d25 81bc
00000060: 6ca3 6b3d a161 cf3b eda0 80bd 761e 0fbd
00000070: 9753 773a 8cc2 f23b b296 f03b 3a5f c93b
00000080: 225b c03c b624 d83c ac1f cd3b 56d8 073d
00000090: 7202 9dbc 572b 413c 9727 e2bc 4372 943c
000000a0: 4304 36bb 168f 8a3c 49ac 8b3b eaac 913b
000000b0: 5a61 97bc 0f9b 9a3b 4a2b 28bc 7f5b 34bc
000000c0: f3d9 673c 4125 99bc a547 e13b 112a 34bc
000000d0: c7b4 2dba 3061 8cbc cf22 143d 2377 cf3c
000000e0: f53f c2bc 1b66 56bd 3bce b83c 14b1 673d
000000f0: fe07 f93c 83aa aeba eb07 3f3b 501d 163d
00000100: f7e0 07bc 7573 81bc fab0 bcbc 5f92 8d3a
00000110: 44e8 9bbb 9436 a8bb 7fed 9eba 7465 82bd
00000120: 7a24 9bbc daa2 92bc e240 2bbd 2bca 313d
00000130: bc9a cdbb 7589 c73c 3b40 e53c fe34 b33c
00000140: fe32 9a3c 025c aabb e21d 49bd 2f2d d33c
00000150: 57e6 aa3c f875 cd3c ab24 3e3d 7079 dcbb
00000160: 564e d83c 47a5 a43c 0fd0 98bc b958 8f3d
00000170: a4cd ca3c d99f abbc 041d bcbc 7050 673c
00000180: 1a80 23bc 01a0 84bb 7e6f f4bc a518 93bc
00000190: 4842 91bb 0f3d 313d 6f69 58bb 0401 9b3c
000001a0: 4e83 e13b 9a82 4d3c 3528 1c3c 3708 ff3c
000001b0: 1e97 183c f5b8 833c 69db 9fbb 7683 123d
000001c0: bfc7 b4bc 3972 3a3d 74fc bdbc 0d42 92bc
000001d0: 039b 19bd 6fe2 e33b 68d8 c7bc 27e2 853d
000001e0: b194 0eba ba82 d73b 3734 e73c 71fd cebb
000001f0: 43cd 40bd e484 3fbc 94af cf3c 1df2 2cbc
00000200: 747b 863c 5071 ecbc ebf3 98bc 7465 063b
00000210: 0b58 353c 5fa6 94bc a910 4c3d 8115 473d
00000220: 3d8c 12bb 45c4 abbc e729 363d 5ee9 b13c
00000230: daaa e6bc bb5e 5dbb 3320 99bc 20a6 223d
00000240: 2511 ff3b 6e2f ef3c e00f 6dbc a9ba e63b
00000250: 7b49 043d 3a71 bc3c 98a9 473d ab01 153d
00000260: 3aff ce3c af5a a23a 1181 873c 210e 8f3c
00000270: 3c2e 283b c905 f8bc 5dd2 dcbc d0e0 cdbc
00000280: e461 31bc 67a3 14bd 2c15 18bd 40ff 493c
00000290: 590d eebc 8afb bfbb 8f6e d6ba 7e68 dbbc
000002a0: 95eb 113c 8ac3 163d 40bc 6abc adb5 0cbc
000002b0: 81df 3c3b f468 c73c b66c 2cbd c309 05bc
000002c0: ef4c 843c e9c1 15bb 9dba 1b3c 3378 87bd
000002d0: d800 683b 6f61 c8b9 0d7c 16bc 0fc0 b5bc
000002e0: 0ff7 fb3b 3c77 c2bb e116 9f3c 9f79 9a3c
000002f0: 3fa2 c63a 592a f93c 1ae9 a8bc 2d71 3b3c
00000300: 3527 cdbc b598 a0bc 4f89 aebc 2129 7c3c
00000310: eeca ff3c 7a62 1e3d dec2 0fbd 14ab 633d
00000320: 7cea 153c b434 96bc fa13 4abc 5a5a c83c
00000330: bed2 9abc c185 8bbc dc5b 91bc 303e adbc
00000340: e1aa 773d 072f 543d f3cb 5e3b 55a4 30bc
00000350: 4aad 7d3c 4c09 cf3c 7a5e 953c ef02 7abd
00000360: 7f5a 013a ceac ac3c 6e7a 36bc cedf 363a
00000370: 216d 55bd b138 e73c 2ab2 063d d27c 043d
00000380: e5f5 853c 119e 64bc 3b18 a83c 6f23 62bd
00000390: 5814 0c3d 7660 a8bc f2a1 7cbc aef3 063d
000003a0: 9bf7 d03c 67d9 68bc 7bc8 a53b 8e16 6e3a
000003b0: 9fe1 8c3d 8ee0 31bd 9ed2 babc efe5 e9bc
000003c0: dd07 81bc c952 30bc 9b85 8dba 836e 0e3d
000003d0: f201 493c 74a6 fabc 5d84 9dbc 8348 4cbc
000003e0: fa57 0fba 733b abbc a865 5c3c cdfc 69bc
000003f0: ebbc 893d 139f a53a e74c b63c 119c be3c
0.010544639 -0.062110998 -0.004447112 -0.010696324 0.02326896 0.047414795 -0.015441273 -0.06431412
-0.037410308 -0.010601758 -0.01852407 0.00027048966 -0.054714177 0.0015722297 -0.020873446 0.03971295
0.014996395 -0.010189151 0.012826737 0.024092685 -0.008950355 0.042936247 -0.04301983 -0.015764738
0.057528898 0.006328777 -0.06280694 -0.03494116 0.0009434758 0.0074084457 0.007342183 0.006145385
0.023480956 0.026384693 0.006259879 0.0331653 -0.019166205 0.011790118 -0.027606769 0.01812089
-0.0027773536 0.016913932 0.0042624814 0.004445662 -0.018479038 0.0047181915 -0.010264227 -0.0110081425
0.014151084 -0.018694522 0.006874996 -0.010996358 -0.0006626364 -0.017136186 0.03616601 0.025325364
-0.023712138 -0.05234347 0.022559276 0.05656536 0.030399319 -0.0013325963 0.0029149007 0.03664905
-0.008293382 -0.015802125 -0.023033608 0.0010801068 -0.004757913 -0.0051334593 -0.0012125223 -0.06367007
-0.018938292 -0.01789992 -0.041809924 0.043405693 -0.0062745493 0.024357537 0.027984729 0.021875855
0.018823143 -0.0051989565 -0.049100764 0.025778381 0.020861788 0.025080666 0.046421688 -0.0067283437
0.026404541 0.020098342 -0.018653898 0.069993444 0.02475626 -0.020950245 -0.022963054 0.014118299
-0.009979272 -0.0040473943 -0.02983832 -0.017956087 -0.00443295 0.04327112 -0.0033021828 0.018921383
0.006882108 0.012543345 0.0095310705 0.031131847 0.009313373 0.016079405 -0.0048784507 0.035769902
-0.022067903 0.045519087 -0.023191668 -0.017853761 -0.037501346 0.006954483 -0.024395183 0.06537276
-0.0005439027 0.006576863 0.02822314 -0.0063168337 -0.047070753 -0.011689398 0.025352277 -0.010555771
0.016416289 -0.028862625 -0.018670997 0.0020507248 0.011068354 -0.018145738 0.049820576 0.048604492
-0.002236142 -0.020967612 0.044473555 0.021717723 -0.02815764 -0.0033778388 -0.018692112 0.03970921
0.007784026 0.02919742 -0.014469117 0.0070412946 0.03229664 0.02300321 0.04874572 0.036378544
0.025268186 0.0012386645 0.016541036 0.017462792 0.0025662323 -0.030276196 -0.026955778 -0.025131613
-0.010826562 -0.036288645 -0.037129566 0.012328923 -0.029059099 -0.005858843 -0.0016359853 -0.026783224
0.008906265 0.036807574 -0.014327109 -0.008588237 0.0028819742 0.024342038 -0.042095862 -0.008120003
0.016149966 -0.0022851175 0.009504941 -0.06614723 0.0035400894 -0.00038219566 -0.009184849 -0.022186307
0.007689364 -0.005934624 0.01942009 0.018856822 0.0015154554 0.0304157 -0.020618964 0.011440557
-0.02504311 -0.019604066 -0.021305708 0.015390665 0.031224694 0.038668133 -0.03509795 0.055583075
0.009150144 -0.018335678 -0.012333864 0.024457145 -0.018899318 -0.017031552 -0.017743997 -0.021147817
0.060465697 0.05180266 0.0033996075 -0.010781367 0.01548321 0.025272988 0.018233526 -0.061037954
0.00049344444 0.021078493 -0.011137588 0.00069760985 -0.052106027 0.028225275 0.032884754 0.0323456
0.016352603 -0.013953702 0.020519366 -0.055209573 0.03419909 -0.020553809 -0.01541947 0.032947235
0.025508692 -0.014211989 0.0050592995 0.00090823404 0.06878971 -0.043427043 -0.022805508 -0.028552024
-0.01575082 -0.010761925 -0.0010797264 0.03477336 0.01226853 -0.03059695 -0.019228155 -0.01246846
-0.00054681266 -0.020902371 0.013451971 -0.014281464 0.06725486 0.0012635909 0.022253467 0.023267778

network_body._body_endoder.seq_layers.2.bias f4 [128]
00000000: b7e7 883b e1ab a1bb f183 743b dd5e f33b
00000010: 519b 6ebb a7f6 ebbb 103e febb 59ed 963c
00000020: 0c60 3dbb baa3 e93b 4601 3a3b e795 6fbb
00000030: f2f6 82bb c2be 19bb 8422 dcbb 9dec 7d3b
00000040: 6717 de3b a363 cdbb 085c 09bc 1845 96bb
00000050: 4b89 5f3c 636c 923b c679 47bc 7b3e ba3a
00000060: 4466 5839 5de4 0abb 66fb 4c3c 0c2a 663c
00000070: aa00 07bc bca8 863c 0356 233c 2c86 f53b
00000080: 6e8d 6c3c ea65 763c dbc1 4f38 42c9 78bb
00000090: 55f3 6dbc f3ec a1bb ce5a 25bc b043 b1bb
000000a0: 65e2 09bc 31c8 86bb 71ea a0ba 86bb ef3b
000000b0: d34b cbbb bc05 f53b d70f f3ba 60e0 8fbb
000000c0: 015e 0f3c b2b6 e03b 6d93 82bc c0ae 08bc
000000d0: 115a 133c 1cb6 443c 0536 75bb 431c 123c
000000e0: ccfa b7bb bb5e 273c 4999 b4bb 6bcb 7cbb
000000f0: d804 d9bb 2ea5 583c 2caa a13b 2d92 0ebc
00000100: e123 403c 9efd 503b abc8 013c 450d aa3a
00000110: 0a5e 4e3c b1e2 52b9 45bc fdb9 87e0 683c
00000120: ec70 53bc 3752 ac3c 4bf8 01ba 8aa5 b9bb
00000130: 8419 13bc 2a80 de3a 7330 97bc 2c60 8abb
00000140: d122 28bc 0eef cc3c 673e a03c 76f4 1c3c
00000150: e60c a63c f300 5fbc 5b55 0a3c 1a51 6bbc
00000160: cf26 f63a 6e63 a13b 9e9c 4a3c 4990 78bb
00000170: 5776 ac3b c58f b3bb 4033 ae3b 8ef6 64bb
00000180: 9598 8f3a c94e 423b 2ae9 07bc 29c9 143c
00000190: 36e2 043c bfa9 1a3b 55a4 99bb dc71 77bb
000001a0: 4e6b abbb 8638 793b 6314 01bc d57b 65bc
000001b0: 55da 8e3b 3ebf 18bc a4c4 5b3c fd93 0b3b
000001c0: 21e9 b73c 572e 333c 1f32 713c 8228 13bc
000001d0: d6e6 50bc f52c 273a 0160 4fbb dc67 00bb
000001e0: 5cff 1abb 7eac 8c3c 781e d23b ab5d 9bbb
000001f0: b340 55ba aee9 3cbb c3a4 89bc da78 81bb
0.004178013 -0.0049338196 0.0037310089 0.00742708 -0.0036408494 -0.007201034 -0.0077588633 0.018423723
-0.002889636 0.0071301134 0.0028382107 -0.0036557855 -0.0039967233 -0.0023459648 -0.006717982 0.0038745769
0.006777692 -0.006267981 -0.008383758 -0.0045858733 0.013643573 0.004468487 -0.012175029 0.0014209294
0.00020637462 -0.0021193244 0.01251111 0.014048111 -0.008239904 0.01643788 0.009969237 0.007492801
0.014438016 0.015038947 4.9533188e-05 -0.0037961756 -0.014523347 -0.0049415766 -0.01009245 -0.0054096803
-0.008415793 -0.00411322 -0.00122769 0.0073160557 -0.0062041073 0.00747749 -0.0018544149 -0.0043907613
0.00875044 0.0068577165 -0.015939439 -0.008342445 0.0089936415 0.012006309 -0.0037416231 0.008917871
-0.005614614 0.010215457 -0.005511437 -0.0038573395 -0.006622892 0.013222976 0.004933616 -0.008701843
0.011727304 0.003188945 0.007921378 0.0012973925 0.012595663 -0.0002011161 -0.00048396192 0.014213688
-0.012905341 0.021035297 -0.0004957958 -0.0056654857 -0.008978251 0.0016975452 -0.01845572 -0.0042228904
-0.010262207 0.025016334 0.019561006 0.009579768 0.020269822 -0.013611066 0.008443202 -0.014362598
0.0018779876 0.004925183 0.012366442 -0.0037927798 0.0052631306 -0.005479785 0.005316168 -0.0034936997
0.0010955507 0.002964901 -0.008295337 0.009081163 0.0081105735 0.0023599712 -0.0046887794 -0.0037757074
-0.0052312976 0.0038028075 -0.007878396 -0.014006575 0.0043595233 -0.009322939 0.013413582 0.0021297925
0.022450032 0.010936341 0.014721422 -0.008981826 -0.012750348 0.00063772436 -0.0031642916 -0.0019593155
-0.0023650741 0.017172094 0.0064123236 -0.0047413907 -0.0008134946 -0.0028825807 -0.016802197 -0.003951174

network_body._body_endoder.seq_layers.2.weight f4 [128, 128]
00000000: f949 523d 0622 933c caab bfbc 4d38 043d
00000010: 68b9 05bc 7d81 abbd aa88 babd 0626 4fbd
00000020: 07ce d83d 05cd fbbd 3c0c 05bd 1955 f2bd
00000030: ec40 023c 9295 48bc 0985 aabc 89ab 863a
00000040: ed56 83bd bd96 3abd 0e5b 933c 9f81 8cba
00000050: f5bf 93bd b8d4 7bbd c1af 353e 0364 cfbb
00000060: 7131 c33c 50bf 073e 0e12 6dbc a20d b6bd
00000070: 3f92 273d 84e4 703d e12b 4f3d 016e c33d
00000080: 63f7 0f3e ddbd 7ebd d2f5 f0bd e029 f7bd
00000090: 7032 a4bd 0c7e bdbb b979 f1bc 7dae 61bb
000000a0: 510a 14bd 9acc 81bd 1c53 173e 98f1 d23c
000000b0: a47a e4bc 720f 8b3d 9017 bb3c 42ba 4d3e
000000c0: d3fa 443d b816 20bd 7331 aebd 770c d83d
000000d0: 4097 803d 5c13 913d d592 7d3d ed9a 8bbd
000000e0: bd51 9a39 422f ed3d a4c2 dc3b 82b5 5bbd
000000f0: 7352 3c3d 6f83 3ebc 22bd ccbd 716c 893d
00000100: 8ffd 6fbd ea7e c13d a5ab b03d ddf5 733d
00000110: 8d89 9dbd 262c af3c 5616 82bc 5c66 7739
00000120: 10e2 55bd 7b58 a5bd 8cfc 1f3b f9e3 f23c
00000130: df25 aabd 9ca4 a53d 26d2 c03d cf6c fdbd
00000140: 26b8 e73d e2b9 673c 2db3 c3bd 4bd2 273d
00000150: 89fa 753c 9978 f3bd 951b c9bd f7dc 563c
00000160: 0716 143d 815e 393d 5f41 993c faa0 fabd
00000170: 38f7 1d3e 190b f93d e2ae 07bc 389c 89bc
00000180: 9858 033e fbbb a13d 0e4a d03d f48e 1039
00000190: 851d cfbd 13a3 40bd 71e8 c63b 23db ca3c
000001a0: 4c1d e4bc 7299 353d 890b ed3d 08f5 883d
000001b0: cdfb 84bd 766c cebb 231c 5ebe d374 8e3d
000001c0: 351d 6d3c b524 513d 50b7 fbbd c2d2 b4bb
000001d0: 47f5 a83c e0ed 84bc 6d8a a8be bdc5 8bbb
000001e0: 149e 7c3d dc92 47be a8e0 5f3d b2b7 87bc
000001f0: 7245 dc3c 5ff6 533e e753 6cbd 4484 963d
00000200: 6219 333d f1fd c73d a448 eb3d 847b 423c
00000210: c3dd 323d 4681 12bc 557d 6e3d 46bf 0d3c
00000220: aa30 40be d6c8 e23d ae2f 183c 5092 883d
00000230: ce1d e7bd f1c9 b63d 3800 ebbd 377e b13d
00000240: 5817 d3bd f97c 93bd d0db 8fbb d979 0cbd
00000250: d77b 743d 326b 29bd 3bdc e9bc 0043 443b
00000260: 9afa e33d 4d45 e03d ef0f bdbd 8813 b33d
00000270: 42ae 073e b775 8ebd c978 a33c 4eff a4bd
00000280: d7cb 0f3d d1dc 933c 74a0 2b3c 8b9c c3bd
00000290: dd96 76bd 5856 823d 9436 b63d d9ec a83d
000002a0: 2cff 873d 2576 9cbd 9005 8f3d 23e2 2fba
000002b0: f701 a4bb f056 62bd 0409 22be 6b1e 37bd
000002c0: a5be cbbd f802 08ba cce8 f33c 11d5 09be
000002d0: f996 0a3e 123e 2b3d 5235 f7bc a91a c13d
000002e0: aad2 4dbd 59a7 19bd ae79 15bc 8afe f63c
000002f0: 74ee b83d 6d8f 2ebd f8dc bbbd cdfb be3d
00000300: 0390 39bd c362 093d 9a36 18be b349 5fbd
00000310: d3e5 553d 6962 803e 8f47 e23c 359e b63d
00000320: 0860 343c 6d44 bc3d acb9 e5bb 25dd 483e
00000330: 4b14 683d acdb 8d3a 998a 483e a1dc 113c
00000340: 57f5 f2bd ebb9 e33d 7487 403d 96fc 16be
00000350: b004 81bd 97fa 863d 8b44 533d 643d 2a3d
00000360: f20a 17be a5da 07be 3854 ecbc 2ed0 193e
00000370: b842 03bd 3db2 f03c 4485 813d dc3f a23d
00000380: 32d1 2ebd 77cf c33d 540e 823c 20bc 76bd
00000390: 28f2 7dbd bada ef3b 79b0 e2bd a3fe 89bd
000003a0: 6fb3 c53d 84b7 01bc 95b5 463d 64e2 ac3b
000003b0: efe4 a33c 9a1f 573e cb7b 2abd c6e3 88bd
000003c0: 13ff eb3d 2c70 653c 8f3c 603c 953d 1c3d
000003d0: 3c76 81bc 4d8b 3abc 0b8b e0bc 9605 d63d
000003e0: 61c1 e13d 88e7 cf3d a0bb 063d 4481 a33d
000003f0: 6457 73bd 4c80 1e3d 969d f13d 2cdd cd3d
0.051340077 0.01796056 -0.023397345 0.032280255 -0.00816188 -0.08374307 -0.09108098 -0.05057337
0.105861716 -0.12294964 -0.03248237 -0.11832637 0.007950049 -0.012242692 -0.02081539 0.001027451
-0.06413064 -0.04555391 0.017987754 -0.0010719782 -0.07214347 -0.06148216 0.17742826 -0.006329061
0.023827286 0.13256574 -0.014469637 -0.08889319 0.040910956 0.05881168 0.050578956 0.09542466
0.14059214 -0.062192786 -0.117656365 -0.12068534 -0.08017433 -0.005782848 -0.029476987 -0.0034436279
-0.03614265 -0.06337853 0.14777797 0.025749967 -0.02789051 0.06790055 0.022838384 0.20090583
0.048090767 -0.039084166 -0.085055254 0.105492525 0.06278849 0.07083771 0.061907608 -0.06816659
0.0002943407 0.11581279 0.00673707 -0.053639896 0.045977067 -0.011628016 -0.09997012 0.06710137
-0.05859142 0.09448035 0.086264886 0.059560645 -0.07692251 0.021383356 -0.015879791 0.00023593887
-0.052217543 -0.08073517 0.0024412004 0.029649721 -0.083080046 0.08088037 0.09415083 -0.12374269
0.113144204 0.014143439 -0.095556594 0.040972035 0.0150133455 -0.118882366 -0.09819714 0.013114206
0.03615382 0.04525614 0.01870793 -0.12237735 0.15426338 0.1216032 -0.008281441 -0.016798124
0.12826765 0.078971826 0.10170375 0.00013786164 -0.10113052 -0.04703052 0.0060701896 0.024762696
-0.027846001 0.04433579 0.11574466 0.06687361 -0.0649334 -0.0062995506 -0.21690421 0.06955876
0.0144722955 0.051060397 -0.122908235 -0.0055182884 0.02062477 -0.016226709 -0.3291811 -0.0042655156
0.061674193 -0.19489616 0.05465761 -0.016567085 0.026888583 0.20699452 -0.057697203 0.073494464
0.04372538 0.09765232 0.114884645 0.011870269 0.04366852 -0.008941954 0.058224995 0.00865156
-0.18768564 0.11073463 0.0092887115 0.06668532 -0.11284982 0.08925236 -0.11474651 0.08666652
-0.10307187 -0.07201571 -0.0043902174 -0.03429589 0.059688415 -0.041361995 -0.028547397 0.0029947162
0.11131783 0.10950718 -0.09231555 0.0874396 0.13250068 -0.06956046 0.019955056 -0.08056508
0.035106506 0.01804963 0.010475267 -0.095513426 -0.06020247 0.06364125 0.08897129 0.082483
0.06640467 -0.07639722 0.06983483 -0.0006709417 -0.005005117 -0.05525869 -0.15823752 -0.044706743
-0.09948472 -0.00051884307 0.029774092 -0.13460185 0.13534154 0.04180724 -0.030176792 0.09428913
-0.050249733 -0.03751311 -0.009123249 0.03015067 0.09029856 -0.04261725 -0.09173006 0.09325371
-0.045303356 0.033541452 -0.14864579 -0.054513644 0.05222113 0.2507508 0.027622012 0.08916894
0.011009224 0.09192739 -0.007010659 0.1961561 0.056659978 0.0010822914 0.19584121 0.0089027
-0.11863201 0.111194454 0.04700418 -0.14744791 -0.06299722 0.06590765 0.05157904 0.041562453
-0.14750269 -0.13267 -0.028848752 0.1502082 -0.03204605 0.029381866 0.063242465 0.079223365
-0.042679973 0.09561055 0.015875973 -0.060238004 -0.061998516 0.0073197754 -0.11068816 -0.06738021
0.09653365 -0.007917289 0.048513014 0.0052760113 0.020006625 0.21008149 -0.041621964 -0.06684069
0.11523261 0.014003795 0.013686313 0.038144667 -0.015803449 -0.011385751 -0.02741005 0.10450284
0.11023212 0.10151583 0.032893777 0.0798364 -0.059409514 0.038696572 0.11797635 0.10051951
