results/BetOrNot8/MoveToBet.onnx (onnx, 949148 bytes, 9 tensors)

action_model._continuous_distribution.log_sigma f4 [1, 16]
00000000: 57aa 933d ca29 063e c02c ab3d 38c3 b33e
00000010: 3b50 c33d 8657 4f3d b953 933e 5f61 a43d
00000020: 6d87 a83d a7c6 d93b 9fe1 cc3e 4711 273f
00000030: afaa 2a3e 650f 383e c4f9 873f 42b6 a63f
0.07210224 0.13101879 0.08358145 0.35109878 0.09536787 0.05062058 0.28774813 0.080263846
0.082289554 0.0066459957 0.40015885 0.6526074 0.16666673 0.17974623 1.0623097 1.3024371

action_model._continuous_distribution.mu.bias f4 [16]
00000000: 1fb6 0c3d 9c00 5bbd 9e60 b5bb 0a7d 4b3d
00000010: a0dd 0abc 72a6 c43d 32cc 05bc c54b 863b
00000020: 331d 18bd 4046 783d 8032 133d 6bb5 173e
00000030: 7ceb a43d 25ef 95bc 6392 cb3d 1c41 183e
0.03435337 -0.053467378 -0.0055351993 0.049679793 -0.008475691 0.096020594 -0.00816636 0.004098388
-0.03713722 0.06061387 0.035936832 0.14815299 0.080527276 -0.01830251 0.099400304 0.14868587

action_model._continuous_distribution.mu.weight f4 [16, 128]
00000000: e74e c6bb 31d8 753d 8dbe e7bd 88b1 9d3d
00000010: 37bd 9c3d 42d4 153d feb6 80bd af7d 7dbc
00000020: 76be 313d 1750 c4bd 852e 393c bdfe b13c
00000030: cd98 9ebd b5ff c4bb 6f3e 15bd f651 453d
00000040: 7c6e f23d 65a9 723c c03f a83c c1d5 b9bd
00000050: 700b bdbd c90f 1e3d 0b14 81bd 3fee 243e
00000060: a9ca 293c b832 553c ecec 8bbd 001d 783d
00000070: 929d 333d 32b1 a7bd 94f9 fa3d 90a2 9c3c
00000080: 5859 8f3c 6d6f a9bd 4c22 32bc 4387 4f3d
00000090: 1e6c 203c acca 6ebb 3535 7fbd 4dc5 c23c
000000a0: 65c5 1ebc 0917 a33b 0edb b0ba df7b 463c
000000b0: 74c7 d33b 6d46 00be dc2f 0a3e 3b61 a63b
000000c0: d248 86bd cb14 cd3b 6d86 9ebd 7ab3 89b9
000000d0: b774 613d 4c63 89bc 72b9 873d ca93 6c3d
000000e0: 85ee cd3d 9da5 64bd 68c5 693c b468 4abe
000000f0: 155b 5f3c da54 bc3c 7d21 d0ba f1db b93d
00000100: 3beb 86bc 5e50 c4bd 05b0 44bc f8a0 f7bb
00000110: 48a4 643b 7d95 df3d 81d9 6bbc 2c7d d33d
00000120: edc1 813c 18fc 87bd 8d6e 2c3d f8c6 6a3c
00000130: 5d81 c5bd 9e0a efbd 73a8 2e3e a4fb b53d
00000140: 3dca 113d 5c8d 963b 1ee9 11be 60d8 f63c
00000150: 0d86 993d 8d01 2fbd 16ea 53bd 486f 24bc
00000160: 5fab 323b 80f4 09be a890 4fbc 4b34 69bc
00000170: 10d8 283d a845 75bc b56e 2f3c 3924 673d
00000180: 6ef5 193d 8fee fa3c c0ee d53c 9993 1a3c
00000190: 8ef8 053d e2f2 a23c 56ea a4bd 49a1 8cbd
000001a0: 1940 d93d f087 55bc 88bc 67bd 4853 68bd
000001b0: 5328 8cbd d0d5 fab9 0706 79bd 4e36 103c
000001c0: 4242 433d 178a 0dbc f99d 4e3c 86a3 bbbc
000001d0: 559e 053d 2803 bf3d 0356 83bd 86f8 24bd
000001e0: b796 9fbc 1cea e0bc 71d5 cb3c e2e3 fabc
000001f0: 3595 90bd a7bd 013e cc36 88bd a0ea d43d
00000200: a146 983c ea29 c3bc 1c41 bd3d 4630 be3d
00000210: 8787 353c 7718 d1bb bde2 65be 65db 9b3c
00000220: cd72 c6bc 3591 ffbb a156 da3c 0681 19bd
00000230: 7761 483c 4677 b2bc cdaf a3bd 6db5 b6ba
00000240: 8a23 b3bd 72bd 0b3b 5de7 93bb ca58 76bd
00000250: 2ab8 06bd fc3c 1f3d 36e3 27bd 2b11 1d3d
00000260: 04ff 363d 4031 a1bc 59b5 293d 8e7d 9c3d
00000270: f18b 3abc 04fa 453d 86f4 a73d 12b5 8b3c
00000280: 050b a1bd aa86 57bd 1e26 6dbc d7b3 58bd
00000290: 7fee 87bd eb7d 2cbd 517d e2bc dee9 cdbb
000002a0: ccae 50bc a666 44bc 36a9 253e 9e8b 9f3c
000002b0: 961a 33bc acdb 783c 58d1 b5bd c2d3 d43c
000002c0: f180 743c 6f7a 013c fe0a 53bd c929 b33c
000002d0: d539 3cbc dbc4 49bc c42e 6cbc e3a1 36bd
000002e0: b816 cd3d 00ec 203d 66de da3c df41 cfbd
000002f0: e8ff 803b b8f6 c83d 99bc 6abd 7016 a8bd
00000300: fbc8 b13d fa9e e63c 5c4a 083c b4f9 26bd
00000310: 9223 35bd 2c0b d1bb 50a1 603d a68c 0a3c
00000320: d88d ecbc eb0c edbd 7c4d c8bd 78bd edbc
00000330: a94d c43c ae95 133e 18de e7bd c85c f63c
00000340: 3cb1 bebd 7039 af3c c1a4 4cbd 7377 82bc
00000350: 26cc febc 726b 8b3c 13fe 8ebc 97e3 8f3c
00000360: 858d 8f3d 0036 8dbd 060e 2fbc 53a9 3dbd
00000370: 6de7 043d 778a 833c af89 933c e526 e43c
00000380: b8ba c5bc 2493 a4bb 877b 00bc 175c 3b3c
00000390: feb6 c63c 978e 90bd 4490 673d dfb1 61bc
000003a0: b9eb 213d 3cff 193c 803f b6bc 0107 853d
000003b0: bb22 283c 4234 8ebc e207 9bbd 40a4 973c
000003c0: 5fb6 0abd 35b1 e4bc 98de cfbd b1d4 363d
000003d0: 12c1 443b 8c80 5dbc 8079 99bb 770b 583d
000003e0: 9d09 383b 0ebd 043d d5b1 f73c 4eff 97bb
000003f0: 8fcc 7d3c 057a 50bd f0f8 ab39 9218 05bc
-0.0060518864 0.06002063 -0.113156416 0.07699877 0.07653277 0.036579378 -0.06284903 -0.01547186
0.04339453 -0.095855884 0.011302595 0.021727914 -0.07743988 -0.006011928 -0.036436494 0.048173867
0.118374795 0.014810895 0.02053821 -0.090739734 -0.09230697 0.038589273 -0.06302651 0.16106509
0.010363259 0.013012581 -0.06832299 0.06057453 0.043851443 -0.08188094 0.122546345 0.019120485
0.017498657 -0.08273206 -0.010872435 0.050666105 0.009791402 -0.003643672 -0.0623066 0.023775721
-0.009690617 0.0049771112 -0.0013493018 0.012114494 0.0064629856 -0.12526865 0.1349482 0.0050775087
-0.06556858 0.006258582 -0.077404834 -0.00026264397 0.05504295 -0.016770981 0.06627168 0.05775813
0.100552596 -0.055822004 0.014268257 -0.19766504 0.0136325555 0.02298968 -0.0015879121 0.090751536
-0.016469589 -0.09585641 -0.012004857 -0.007557031 0.0034887958 0.109171845 -0.014395119 0.10326609
0.015839541 -0.0663988 0.042097617 0.014329664 -0.09643815 -0.11671947 0.17056446 0.08885887
0.03559326 0.004594488 -0.14249083 0.030132473 0.07496271 -0.04272609 -0.051736914 -0.010036297
0.002726279 -0.13472176 -0.012668766 -0.014233659 0.04122168 -0.014970221 0.010707547 0.05643103
0.037587576 0.030631332 0.026114821 0.009434604 0.032707743 0.019891206 -0.080525085 -0.068667
0.10607929 -0.013032898 -0.05657628 -0.05672005 -0.06843629 -0.0004784302 -0.060796764 0.00880201
0.04767061 -0.00863888 0.012610906 -0.022905122 0.0326217 0.09326774 -0.0641289 -0.040276073
-0.019481046 -0.027455382 0.02488205 -0.030626241 -0.07059709 0.12670003 -0.06651077 0.10396314
0.018588366 -0.023823697 0.09240934 0.09286551 0.0110796755 -0.0063810903 -0.22449775 0.019025514
-0.024224663 -0.0077992924 0.026652636 -0.037476562 0.012230269 -0.02178539 -0.07992516 -0.0013939567
-0.08747013 0.0021322635 -0.0045136646 -0.06014327 -0.032890476 0.03887652 -0.04098817 0.03834645
0.044676796 -0.019676805 0.041432712 0.07641135 -0.011385904 0.048334137 0.08200936 0.017054114
-0.0786343 -0.05261866 -0.01447442 -0.052905884 -0.066372864 -0.042112272 -0.027647646 -0.0062839827
-0.012736987 -0.011987364 0.1617783 0.019475754 -0.010931632 0.015189093 -0.0887782 0.02597988
0.01492332 0.007902726 -0.051524155 0.02187051 -0.011488398 -0.012315 -0.014415447 -0.04458798
0.10014099 0.039287567 0.026717376 -0.10119986 0.0039367564 0.09812683 -0.057308767 -0.082074046
0.08680912 0.028151978 0.00831851 -0.04076548 -0.044223376 -0.0063795056 0.05484134 0.008456385
-0.02887623 -0.115747295 -0.09780404 -0.02902101 0.023962812 0.14412567 -0.11321658 0.030073538
-0.093111485 0.021389693 -0.04996181 -0.015926098 -0.031103205 0.017019007 -0.017455136 0.017564578
0.070094146 -0.06895065 -0.010684496 -0.04630406 0.032447267 0.016057236 0.018009989 0.027850578
-0.024136886 -0.0050224233 -0.007841951 0.01143553 0.02425718 -0.07058447 0.056534067 -0.013775318
0.039531443 0.0093992315 -0.022247076 0.064954765 0.010262187 -0.017358903 -0.07569863 0.018510938
-0.03386533 -0.02791653 -0.10149878 0.044636432 0.0030022305 -0.0135194175 -0.0046836734 0.05274531
0.0028081902 0.03240686 0.030236164 -0.004638589 0.015490665 -0.050897617 0.00032801135 -0.008123534

action_model._discrete_distribution.branches.0.bias f4 [2]
00000000: a64e cd3c 974e cdbc
0.025061917 -0.025061889

action_model._discrete_distribution.branches.0.weight f4 [2, 128]
00000000: 6cbc 84b9 3072 60bb dd35 91ba 0fa3 a13c
00000010: 59dd 5a3a 12c4 063c 2575 c83b 8c18 90bb
00000020: 989a a03b d241 223a 81e7 9d3b feca 20bc
00000030: a629 4cbb e14c f5bb 42a8 1dbc 9248 803c
00000040: 8f7a a0ba 76a0 77bc dfe9 803b b854 68ba
00000050: ff80 3abc 6b9f 3cbc 36e1 513c dccc 373c
00000060: 7942 82b7 4731 1ebc 2d0e 94bb c348 133c
00000070: d4f3 54bc f1a3 4fbc 3d63 123a 749c 04bc
00000080: 8a99 953a 4e2b 163c 4034 afbb 9efc 653c
00000090: bffc 043c f429 2d3c 965f 23bc 0008 823b
000000a0: 565d 29bc b688 0bbc f4d2 0f3c 3c0f 8839
000000b0: d345 3f3b 0ee5 8cbb 7076 02bc ae1d 9d3b
000000c0: 6397 2abc 7434 753b af5a 1fbb 82a6 933b
000000d0: d6ba a33b b973 8bbb 44af d3bc 6224 5dbb
000000e0: 904f 1b3c a5b0 2ebc 5072 23ba b0fc bf3c
000000f0: f55a 4f3b 8e1b a1bb 4960 4cbc 0821 dcbb
00000100: 5ad5 d0bb 9e89 30bc b7f1 753b d32e 18bb
00000110: 5600 8dba 34f5 80bc b1b2 123c 8a7a 05ba
00000120: eb3f 833b d45f 893c 3a91 933c fcfa f53b
00000130: 233d c63a 98cb cd3b bceb f5bc 6e0a ea39
00000140: b5ca c13b 4428 34bc afc9 813a f8ea 383b
00000150: 54db 13bc 7f17 1abc e38c 92bb 5252 eabb
00000160: 7033 8ebb b359 573b b52e d2b9 7b71 9cbc
00000170: 2cab 8f3b 9076 d93b 532d c03b 8a41 44bc
00000180: 00b6 36bc 4491 91bb 9b89 883b c563 90bc
00000190: 7ba8 9abc 642e 063a 30a2 75bc c6a5 1d3c
000001a0: 09ca 2abb 3cde 853c 4000 15bb 9241 903b
000001b0: dd5f 953b aab7 50bb 9b6e 023c 0229 1e3a
000001c0: b5a8 04bb 3a9d 08ba 825a 9fbc 6ece e4bb
000001d0: 1dd5 5dba a4ae 2fbb 5ef6 44bc 2245 8fbb
000001e0: 447d 6ebb 8e8d 0a3c f0d6 fa3b ac6d 0b3a
000001f0: 28f0 9b3c 3ede e33b 0f58 6f3a 0d51 9db9
00000200: ef7d 7e3a 2683 153b b60f 96bb fa01 fb3b
00000210: 8223 f63b c58c d03b 70d3 33bc ea55 8f3a
00000220: 1fad 003b 751b 7c3b 2b23 2dbb 6033 e03b
00000230: bcd7 39ba 6d21 f9bb a298 af3b 7a2c a13a
00000240: d138 f739 3f5a 24bc ac85 573b 1bc2 fcbb
00000250: 898e 153b e062 3539 063e 06ba 81b3 96bb
00000260: 9866 d63a 733a 8cbc 400a 993b 45f5 173c
00000270: 912b 0c3b ff35 3c3b 0475 9a3b e86b 28bc
00000280: 238b 0e3b a4b2 6fbc c7da 36bc 82f4 083b
00000290: e23d 3b3c 6c0c 1e3c 7c25 3ebc 55c4 ca3b
000002a0: 6953 9bbb 5d4b 59bc f7fd 9a3b 4df1 6eba
000002b0: 723d 0f3b 71da 00bc 62d8 3c3c a4b1 c9bb
000002c0: 38f7 e73b 9946 913b 32a9 53bc 39a7 94bb
000002d0: 5c41 0c3c e019 ad3b fcc2 5eba ca96 cfba
000002e0: bdee 533c 01b8 dd3b 2374 47b9 7353 3bbc
000002f0: f583 113c 5a6f 14bb 64d7 303b a561 e9b6
00000300: e9d8 5bbb b987 82bb a011 d03b 32ac 6e3b
00000310: e429 953b 130e 12bb 073a 713a d3aa 6fbc
00000320: 22df 64bb 6e3d 923c 7be8 8fbb 6b25 15ba
00000330: 4cf0 38bb 5866 33bc a5d9 3d3c 8cb6 133c
00000340: fa67 69bb d59d 643c 91f8 23bb f71a 793b
00000350: a11b ddbb cede 6a3c f261 7abc 8ce2 d1bb
00000360: 33e2 49ba 4818 9e3b 31b6 56bc 0761 003b
00000370: f1d6 89bb 5b9b d53b 9400 a23a f5f6 8a3c
00000380: fef7 ffbb ad24 f2b9 1292 823b fd74 5c3c
00000390: 83ab 253b 91ca a23b c54e 533c 5ccd 9c3a
000003a0: 2db0 4a3c 2401 7b3c 6dc5 d8bb d75b bf3a
000003b0: fd57 f93b 1923 b33b 3df8 d03b 4908 82bb
000003c0: 1341 d3ba 0584 423c 964b 8f3c b1e7 d0bb
000003d0: ebee cc3b ec91 4dbc 78e7 403a 4e27 ecbb
000003e0: bcf3 b5bb b4ca 29ba 2068 243b 8ad8 afbb
000003f0: 07bd 58bc 9792 a93b d92c 3a3b 6d2d 9cbb
-0.00025317387 -0.0034247749 -0.0011078675 0.019731073 0.00083490234 0.008225458 0.0061174803 -0.0043974575
0.0049012415 0.00061896176 0.004818857 -0.009814022 -0.0031152754 -0.0074859713 -0.009622635 0.015659604
-0.0012243557 -0.01511394 0.0039341296 -0.0008862722 -0.011383294 -0.011512618 0.012810042 0.011218276
-1.5528161e-05 -0.009655303 -0.0045182914 0.008989516 -0.012997586 -0.012673364 0.00055842457 -0.008093942
0.0011413556 0.009165598 -0.005346805 0.014037279 0.0081169 0.010569084 -0.00997152 0.003968239
-0.010337194 -0.008516481 0.0087783225 0.00025951292 0.0029185906 -0.0042997664 -0.007962808 0.004794798
-0.01041207 0.0037415298 -0.0024315526 0.0045059333 0.004996638 -0.0042557386 -0.02584041 -0.003374361
0.009479418 -0.0106622325 -0.00062349904 0.02343592 0.0031639908 -0.004916615 -0.012474128 -0.006717805
-0.0063730897 -0.010774998 0.0037528106 -0.0023221269 -0.0010757546 -0.015741922 0.008953736 -0.0005091807
0.0040054224 0.016769327 0.018013585 0.0075067263 0.0015124421 0.006280374 -0.030019633 0.0004463973
0.005914057 -0.010995928 0.0009902025 0.0028216224 -0.00902446 -0.009405016 -0.0044723614 -0.0071509266
-0.004339628 0.0032859861 -0.0004008912 -0.01909708 0.004384419 0.006636448 0.005864778 -0.011978516
-0.011151791 -0.004442366 0.0041667945 -0.017625699 -0.018879166 0.0005118607 -0.014992282 0.009622043
-0.0026060364 0.016341321 -0.0022735745 0.004402348 0.004558547 -0.0031847754 0.007960941 0.00060333323
-0.0020242159 -0.0005211417 -0.019452337 -0.006982616 -0.00084622373 -0.0026806975 -0.012021629 -0.004372255
-0.0036390582 0.008456601 0.007655017 0.00053187716 0.019035414 0.0069539836 0.0009130248 -0.0003000576
0.00097080966 0.0022813766 -0.0045795096 0.0076601477 0.007511557 0.0063644373 -0.010975704 0.0010935639
0.0019634438 0.0038468514 -0.0026418667 0.006842062 -0.0007089337 -0.0076028616 0.0053587714 0.001229658
0.00047153843 -0.010031282 0.003288607 -0.007713569 0.0022820553 0.00017298339 -0.00051209365 -0.0045990353
0.001635748 -0.017117715 0.0046704113 0.009274785 0.0021388272 0.0028718708 0.0047136564 -0.010279633
0.0021750412 -0.014629994 -0.011160559 0.002089769 0.011428328 0.009646516 -0.011605617 0.0061879554
-0.004740168 -0.013262597 0.004729982 -0.0009114936 0.0021856693 -0.0078645805 0.011526199 -0.0061552096
0.0070790313 0.0044334647 -0.012918757 -0.004536536 0.008560505 0.0052826256 -0.0008497683 -0.0015837785
0.012935338 0.0067663197 -0.00019021383 -0.01143347 0.008881559 -0.0022649379 0.0026983852 -6.9553084e-06
-0.0033546037 -0.0039834646 0.0063497573 0.0036418554 0.004552113 -0.002228622 0.0009202067 -0.01462813
-0.0034923037 0.017851558 -0.0043917275 -0.00056894746 -0.00282194 -0.010949694 0.011587535 0.009015691
-0.0035614953 0.013953646 -0.0025019983 0.0038010457 -0.0067476784 0.014335347 -0.015282141 -0.0064051803
-0.0007701248 0.004824672 -0.013104961 0.0019589083 -0.004206531 0.006518764 0.0012359791 0.016963461
-0.0078115454 -0.00046185163 0.003984698 0.013455627 0.002527923 0.0049679955 0.012897198 0.0011963057
0.012371105 0.015320096 -0.006615332 0.0014599514 0.007609366 0.0054668305 0.0063772486 -0.003968273
-0.0016117416 0.011872296 0.017492097 -0.006375276 0.006254067 -0.0125469975 0.000735871 -0.007206834
-0.005552737 -0.00064770435 0.0025086477 -0.0053663896 -0.013228661 0.0051749456 0.002840808 -0.0047661574

network_body._body_endoder.seq_layers.0.bias f4 [128]
00000000: 1fb9 edbb 0979 543d 6db6 11bd f39a 8e3d
00000010: bbed 5c3e dc59 fc3d ceee f43c a1b4 6a3d
00000020: 7a4c 093e 8eed 09be 8c7a 513d f828 a13d
00000030: 5143 203d 5e89 fa3d 203d e13d 224c 81bd
00000040: 8055 253e 4c6d 533e fdc6 833d c28c 313e
00000050: 401d b83c a42d 8fbc b446 183c 2ca7 d83d
00000060: dfc7 023d 4d9e 833d 9c9b 223e d643 6f3c
00000070: 903a 3d3e 15f9 0c3e 6136 153c 3543 093e
00000080: 0a63 8c3d 7c0e 0e3d 42df 693d 2667 033e
00000090: c204 ad3c d2e0 533e 1357 bf3d 1c02 853d
000000a0: f85e 123d 09d3 d13d 3b5b 4a3d c478 e03d
000000b0: bb26 a43d bf20 cb3d 5b7b 6b3a 80e4 bc3d
000000c0: 586e 193d 9543 7c3d ec87 be3d e2d3 143b
000000d0: 5beb 353e 3a41 9bbc 5164 343d dd11 303c
000000e0: 2d64 483d 523e 5dbd 405f 373e ac4a d93d
000000f0: 3671 133e 666a f9bc a02f f2bd 57ab 553d
00000100: ba8f 983d 28d1 d2bd d250 0c3e 11f0 003e
00000110: 164d 4cbe 102d d33c c6bd d43d ff67 87bd
00000120: 91fb 52bd d45b e43d 3867 11bd 9271 7d3d
00000130: dbee 283e a431 823d dd08 86bd cccb 143c
00000140: df49 913d c761 fa3d a72a 363d b5d7 a63d
00000150: cc26 9bbc d848 283e 84fd e03d 1a51 833d
00000160: ebfb 593d bd5b 963d adcd bb3d 086f e63c
00000170: 2e56 373d 0b39 bd3d 9ff7 3f3d cc7e af3c
00000180: 7e15 153e aa3a 55bd 5a33 e03d 6722 903d
00000190: fff1 0c3e 3967 f33d 7608 4f3b b56e ebbc
000001a0: fe09 293d f11c 97bc 87cd a33d 98b4 2e3d
000001b0: 3a2f 073e a8f7 4a3e 5c2f fe3d c2e5 013e
000001c0: e602 b83d 8da2 953d 4db3 153c fb62 2e3d
000001d0: 0ddd 963d bedb 113d e41e 87bd cf22 003d
000001e0: 2f81 db3c 6b78 c93d d3eb 503e 5011 c53c
000001f0: 91b6 463e 3318 d13d b646 ab3d 32c4 103d
-0.007254734 0.05187324 -0.035574365 0.06963148 0.21575062 0.12321827 0.029899027 0.057301167
0.1340808 -0.13469526 0.05114226 0.07869142 0.039126698 0.12233232 0.10997987 -0.06313349
0.16145897 0.20647162 0.064344384 0.17338851 0.022474885 -0.017477818 0.009294201 0.105787605
0.031928893 0.06426678 0.15879673 0.014603576 0.18479371 0.13766892 0.009107203 0.13404544
0.06854828 0.034681782 0.05709768 0.12832317 0.021120433 0.20691231 0.0934278 0.06494543
0.0357351 0.1024533 0.04940341 0.10960534 0.080152 0.09918355 0.000898292 0.092232704
0.037458748 0.06158789 0.09303269 0.00227093 0.17765562 -0.018952 0.04404098 0.010746446
0.04892366 -0.05401451 0.17907429 0.10609946 0.14398655 -0.030446243 -0.1182549 0.052165356
0.07449289 -0.102938 0.13702706 0.12591578 -0.19951281 0.025778323 0.10387759 -0.066116326
-0.051509444 0.11150327 -0.035498828 0.061875887 0.16497366 0.063571244 -0.06544659 0.009081792
0.07094168 0.12225681 0.04447427 0.081466116 -0.018939398 0.16434038 0.10985854 0.06411953
0.053218763 0.073417164 0.09170089 0.028129116 0.04475992 0.09239396 0.04686701 0.021422766
0.1455898 -0.0520579 0.109472945 0.07037812 0.13764189 0.118849225 0.0031590736 -0.028739313
0.041269295 -0.018446418 0.079981856 0.042652696 0.13201609 0.19821036 0.12411377 0.12685302
0.08984928 0.07306395 0.009136987 0.042574864 0.07366381 0.035609953 -0.06597689 0.031283196
0.026794998 0.09837421 0.2040246 0.024056107 0.19405581 0.10209694 0.083630964 0.035343356

network_body._body_endoder.seq_layers.0.weight f4 [128, 1700]
00000000: 8ab1 643c aa4c 4d3b ca05 fe3b e2c8 9f3c
00000010: 4ff9 88bc 34b7 273d 755f 243a 639e 3f3b
00000020: f8c7 bf3b 304a d43c 0a76 2c3d 15e3 f7bc
00000030: 5f90 853d 05f4 3f3b 32ad d0bc 1180 163c
00000040: 0acf 003c 2ae9 20bc 935c e63b 83a6 5b3c
00000050: eb07 003d 7319 1eba ac24 cb3a 50e9 863c
00000060: 2928 3c3c b7e4 8c3c 4016 0c3c 6f60 17ba
00000070: d3bf 96bc aea8 c43c 9661 ba3c 2dbc 833c
00000080: 87d4 413b 9dc6 4abc 8030 bbbc 56c7 b83c
00000090: 3d18 48bd 954a 9b3c 582f 163d 8196 de3b
000000a0: f40a a03b 9041 33bb 7632 fb3b 04c3 623c
000000b0: d0c3 d53a bb4c 943c cb32 1cbd 2544 64bc
000000c0: c319 883c e55e 493d 4b6d 53bc 1e62 e03c
000000d0: a3a6 07bd 31ff 103d 3fec eebc 7620 27bd
000000e0: 27bf 0ebc 8939 9a3c 035b 6bbc 4b97 84ba
000000f0: 1dbb 56bd 0a69 a2bb 5347 94bb 837e fd3a
00000100: bb6a 8b39 521e 1bbc 9502 eebb d062 48bb
00000110: 4831 823c b9be ec3b 0243 8e3c 64a7 983c
00000120: 75fe dc3c b4a2 f6bc 99e5 0fbd 94ce 1a3d
00000130: 391a b7ba 510e d3bb 4f75 a7bc 1e6c 0c3d
00000140: e8c3 5b3b 448d 093b 318e c639 e161 653c
00000150: ccb0 3ebc 09ab ca3b d43c 67bb 4d22 393c
00000160: 1fb1 58bc b91d df3c d918 7e3c cce5 023d
00000170: acd5 073d 3de0 1e3d e447 3dbc 063d 10bd
00000180: a09c 27bc a47b e63b e913 28bd 0309 b63a
00000190: 101d 52bc e099 8f39 abd5 d13b 21aa 583d
000001a0: 9598 77ba 71ab d93b 4bcc 093c 4941 483b
000001b0: 5fc6 d13b 8908 d7bc 8121 01bd f0ba 2d3b
000001c0: 9e10 87bb 228d 1a3c 855c 64bc a771 b43c
000001d0: 727f c93b 29a0 003d 5fd1 e73a 6e27 8d3c
000001e0: fd24 3b3a 0fdb 8f3b 613d 453b 7e1d f9bb
000001f0: 70c2 efbb a205 6c3a 1d42 c4bc 8bd4 e63b
00000200: 1d0b d1bb fe14 a4bd ab34 1a3d 2e15 9a3a
00000210: 973e ebbc 4f0e b5bc 35f0 72bd b144 a5bb
00000220: ee49 3abc a135 a63c 4781 56bd bfa2 debc
00000230: 2a46 073c fbc1 6bbc 5200 93bc 88b8 fb3c
00000240: 4652 75bd 4fca 483b ec12 983c 98dc 3dbb
00000250: 7508 493c f82d b2bc b75e b9bb 516d 46bb
00000260: e434 16bd 9702 c6bc ddb5 f83b 5237 cb3c
00000270: 6504 f0b8 5a07 9abd ca47 fb3c ce3d 213d
00000280: 0222 5cbb 9487 b0bc ecac 383a fa68 843c
00000290: 8475 e53c 8d09 ccbc 4f0d b5bb e9fe 3b3d
000002a0: 3065 cc3c 783c 5e3b 169c 70bc fe8f 773d
000002b0: ac0a dcbb 962b 733b 834e 56bb 6efe ce3c
000002c0: 53e9 6bbc cc5a e4bc 13d6 8539 41ed ff3b
000002d0: 30c9 86bb 459e 55bc 9cf7 a23b 6069 2b3c
000002e0: 6c99 f8bc 0d00 903c 0ecd 423b 959d d73c
000002f0: 2c3f 8abc d664 62bc 2fb6 3bbc 4e21 7a3b
00000300: 35be 4f3b fc89 6d3c 4bd5 373d d367 6dbb
00000310: 9918 9f3b 579e 6ebc fb53 febc ee45 c03a
00000320: 2a71 6cbc 1215 82bc c89d cd3b 74a7 43bb
00000330: f5fc 073d 3e46 54bd f5e5 023c d8e3 96bb
00000340: dddd 05bd d4fa 7fbc de68 66bc af83 5f3b
00000350: a1e3 1ebd 1b43 b33c 59df a8bc 5849 92bc
00000360: e197 3fbd 2b21 aabc 65c8 643c 6194 2fbd
00000370: 38aa cfba f096 0fbc a56f b6ba 2ed1 1dbc
00000380: 12d1 db3b 7e21 62bc 935d f5bb 880d a43b
00000390: f5eb 133c 2ae5 21bd 342d 02bc e50e dbbc
000003a0: b9cd 1abc 8a03 cbbb e9bb dbbb 20d5 cdbc
000003b0: 866e ed3a 088e 763a e425 5bbd 4407 d33b
000003c0: c02b 85bd 63a0 913c 4b93 aa3c 6d7a 81bc
000003d0: f96b 303c d993 0cbd 1ae0 663c 549c eb3c
000003e0: b03a e439 a160 66bc c742 c3bc 8efc 93bc
000003f0: fa3f a8bd 9eb1 f43c 0065 a7bb 0375 1e3d
0.013958344 0.0031326213 0.007752155 0.019504968 -0.016720442 0.0409462 0.0006270328 0.0029238693
0.0058526956 0.025914282 0.04210476 -0.030259648 0.06521677 0.0029289734 -0.025473211 0.009185807
0.007861862 -0.009821216 0.0070300787 0.013406399 0.03125755 -0.0006031014 0.00154986 0.016468674
0.011484184 0.017198903 0.008550227 -0.00057745626 -0.018402016 0.024006214 0.02275161 0.01608094
0.002957614 -0.012376455 -0.022850275 0.022555988 -0.04885124 0.018956462 0.036666244 0.006792844
0.004884118 -0.002735231 0.0076659275 0.013840441 0.0016308967 0.018102994 -0.038134377 -0.013932263
0.016613847 0.049162764 -0.012904475 0.027390536 -0.0331179 0.03539962 -0.029165385 -0.04080244
-0.008712566 0.018826263 -0.014364961 -0.001011589 -0.05242454 -0.0049563693 -0.004525104 0.0019340072
0.00026591666 -0.009467678 -0.0072634914 -0.0030576475 0.01589264 0.0072248843 0.017365936 0.018634506
0.026976803 -0.03010688 -0.03513107 0.037794665 -0.0013969607 -0.0064409156 -0.02044168 0.034282796
0.0033533517 0.0020988742 0.00037871444 0.014000387 -0.011638831 0.0061849398 -0.003528406 0.011299682
-0.013225823 0.027235853 0.015508854 0.031957433 0.033162758 0.03878807 -0.011552785 -0.035214446
-0.010230213 0.007033782 -0.041034613 0.0013888184 -0.012824312 0.0002738973 0.006403645 0.052896623
-0.0009445039 0.006642752 0.008410524 0.003055649 0.0064018215 -0.026249187 -0.031526092 0.0026509129
-0.004121854 0.009433063 -0.013938074 0.02202685 0.006149226 0.03140274 0.0017686299 0.017230716
0.00071389956 0.0043901275 0.00300964 -0.0076023927 -0.00731688 0.0009003525 -0.023957307 0.00704438
-0.0063794986 -0.080118164 0.037647884 0.001175558 -0.028716369 -0.02210155 -0.05931111 -0.005043589
-0.011370165 0.020289244 -0.052369382 -0.027177213 0.0082564745 -0.01438951 -0.017944489 0.03072764
-0.059892915 0.0030638163 0.01856371 -0.0028970595 0.012270083 -0.021750435 -0.005657043 -0.003027756
-0.036671534 -0.024171157 0.007590039 0.024806652 -0.0001144491 -0.075209334 0.03067388 0.039365582
-0.0033589606 -0.021549024 0.00070448103 0.016163338 0.028010137 -0.024906898 -0.005525268 0.0458974
0.024950594 0.0033910554 -0.014685651 0.060440056 -0.0067151394 0.0037104837 -0.0032700605 0.025267806
-0.014398891 -0.027875327 0.00025527235 0.0078102653 -0.004113339 -0.013038223 0.004973365 0.010462135
-0.030346595 0.01757815 0.0029724273 0.026320258 -0.016875826 -0.0138179865 -0.01145701 0.0038166824
0.0031699066 0.01449823 0.044881146 -0.0036225214 0.004855227 -0.014564118 -0.031045904 0.0014669278
-0.014431277 -0.015879188 0.0062749125 -0.0029854449 0.033200223 -0.0518248 0.007989396 -0.004604798
-0.03268229 -0.015623767 -0.014063088 0.003410559 -0.038791303 0.021882584 -0.020614313 -0.017857239
-0.046775702 -0.020767769 0.013963793 -0.042866115 -0.0015843576 -0.008764014 -0.0013918771 -0.009632392
0.0067082727 -0.0138019305 -0.0074879616 0.005006496 0.0090284245 -0.03952519 -0.007945348 -0.0267405
-0.009448462 -0.0061954902 -0.0067057502 -0.02512604 0.0018114604 0.00094053196 -0.053502932 0.006440075
-0.06502485 0.017776674 0.020822188 -0.015805447 0.01076793 -0.034320686 0.014091516 0.028761066
0.00043531274 -0.014061124 -0.023835553 -0.018064763 -0.082153276 0.02986985 -0.0051084757 0.03868581

network_body._body_endoder.seq_layers.2.bias f4 [128]
00000000: 8436 58bd 3cc6 6bbc daea d33c cd68 fa3c
00000010: dd5f b8bb e7bf 66bd 1588 973d 105b d3bb
00000020: 9ba5 05bc b59e 17bd 8464 0cbd 9308 9a3c
00000030: b249 0a3e 9ca8 d23c 72a5 4f3c 3151 eebc
00000040: dc55 ae3b 9ad9 1bbd 64b8 993d 2300 363a
00000050: e203 34bd 62fa dc3c cec2 d4bb bd06 353d
00000060: d307 163d 0c75 583d 0667 c43b f856 63bd
00000070: c1ce ba3d b3d7 ca3d 1195 0e3d a379 ca3a
00000080: 025f 94bb c863 fbbd 6b04 7a3d 1e48 3f3d
00000090: edd3 59bd 3506 e13d 218c a43d 3677 2f3d
000000a0: d373 e03d d5ad 12bc 113a bdbd aa5f 20bc
000000b0: 058a 7d3d 65b9 bcbb e077 ccbd 3aa6 af3d
000000c0: df68 4dbd dad5 1bbd 69e5 1e3d b471 53bd
000000d0: 3920 72bd 1b3a e13b 7642 bbbb 76de b0bc
000000e0: aaa8 57bd 3cf1 793c 5815 9d3d 6ace 3d3c
000000f0: 4af1 643d aad9 adbd 0300 69bd a5b8 0c3e
00000100: 922d bbbd c972 06bd 86eb 293d 837b 5cbd
00000110: 62ac b43d 1ed5 2d3c 975d b0bd 4242 2f3e
00000120: 09e2 7c3c 1292 903d c0b6 913d 8d2c eb3c
00000130: a5df bc3c 22ae 913d afbb 903d a25f 88bc
00000140: 6618 f93c 6dd0 36be 0916 393e a51a 34bc
00000150: 4047 23bd 80ec 21bd 410f 973c 8bcd ff3c
00000160: 80a1 8b3d f372 d03c 2c0e d93c 4e51 233d
00000170: 5012 8a3d 06ff b53d e948 b93d 4f5a 8c3d
00000180: 5aa9 a2bd 1d54 5e3c 7755 2ebd f4c9 853d
00000190: 9790 f43b 4412 403d 6743 d03c eb81 e23b
000001a0: 4016 8a3d 9b25 81bc 535d 2f3b 429a 733d
000001b0: 3417 b43d 4eb0 e2bd c022 083e 773a 913d
000001c0: 6751 003c f838 153d 905e 113d f03d 6bbd
000001d0: 4d52 aebc 79b6 a73d a45e bfbd 2303 3c3d
000001e0: 0fc0 723d 3fdc af3d 06ef 10bd f568 dbbc
000001f0: 0dd0 2abd 6016 023e 5867 5a3e efe6 6d3d
-0.052786365 -0.0143905245 0.025868822 0.030567551 -0.005626662 -0.056335356 0.073990025 -0.0064500645
-0.008157159 -0.03701659 -0.034275547 0.018802917 0.13504675 0.025715165 0.012673723 -0.02909145
0.005320294 -0.038049318 0.07505873 0.00069427694 -0.043949015 0.02697486 -0.006492949 0.04419588
0.036628556 0.052846 0.0059937267 -0.05550286 0.091214664 0.099044226 0.03481013 0.0015447628
-0.0045279274 -0.12274891 0.06103937 0.046699636 -0.053180624 0.10987512 0.0803454 0.042838298
0.10959592 -0.008952578 -0.09239591 -0.009788433 0.061899204 -0.0057594054 -0.09983802 0.08576627
-0.05014884 -0.03804574 0.038793 -0.051622108 -0.05911276 0.006873382 -0.00571471 -0.021590453
-0.052651085 0.015255269 0.076700866 0.0115848575 0.055894174 -0.08488782 -0.056884777 0.13742311
-0.09139551 -0.03282431 0.04148438 -0.053828727 0.08821942 0.010609893 -0.08611601 0.17115119
0.01543475 0.07059111 0.07114935 0.028707767 0.02305586 0.07113291 0.07067048 -0.016647164
0.030407142 -0.17852946 0.18074812 -0.010992681 -0.03986287 -0.039532185 0.01843989 0.03122594
0.06817913 0.025445437 0.026496015 0.03987246 0.06741774 0.088865325 0.0904711 0.068531625
-0.079424575 0.013569859 -0.042561974 0.0653266 0.0074635255 0.04689242 0.025422765 0.00691246
0.06742525 -0.015765002 0.0026758506 0.059473284 0.08793488 -0.11068784 0.13294506 0.070912294
0.007831908 0.036431283 0.035490572 -0.057432115 -0.021279478 0.08189101 -0.09344223 0.04590143
0.059265193 0.085869305 -0.0353842 -0.026783446 -0.04170232 0.12703848 0.21328485 0.058081564

network_body._body_endoder.seq_layers.2.weight f4 [128, 128]
00000000: 6ee1 203e fb03 bb3c a70b b83c ef40 263e
00000010: a354 a0bc fda8 83be ebf1 93bd d1b6 bebd
00000020: 626d df3d 0a17 ac3d b315 223d 116c 393d
00000030: 49b8 113e 4009 183e a1cd df3c c3b2 373e
00000040: 372b ff3b 779f fabb a39b 64bb 5a6c fcbc
00000050: eb85 643d 4d46 2a3c cee3 da3d 7ae1 5dbb
00000060: 7fc5 3ebe c1b1 f0bd 076e 8fbe 424d d53d
00000070: 857a 55bc 4bd4 49be 563e 87be 3ddc 2dbd
00000080: b3d4 71bd f025 72bd f72d e23c 7199 54bc
00000090: e380 2cbd 4dd6 193e 4879 393e a368 86bd
000000a0: 03c9 e2bc 9ce9 383c cc77 763e f158 413d
000000b0: 45d3 c93d d376 30be 7cb9 cabd 4374 28be
000000c0: 7b00 c3bd 9ae6 5e3d be5f f63d d25b c4bd
000000d0: 0f71 7c3d 3942 913c c73e 80bd 3c73 d33d
000000e0: 4bac 08be f861 32bd cf5f ddbd ae7b 18be
000000f0: 68ea a13b a268 173e feb6 b4bd 03f8 68bd
00000100: df35 8d3d 2bc9 843c c282 d4bc 4f61 ea3d
00000110: ca7d 89be f35a 643d 22ce 49be 4616 ddbd
00000120: 4799 afbb 601f 023e e7f4 743d 3d34 0dbe
00000130: 2748 4ebe e184 233d 9ecf 0fbd 342c adbc
00000140: cb30 2dbe fb4a 503e a06a d93b 93e2 2c3d
00000150: dcf7 e3bd e962 b4bd e39a 923c 44f8 4c3e
00000160: 9406 473d b1da ed3a ca66 3a3e 2fb8 9b3d
00000170: f3b4 303c 46cd 133e cd09 d9bd cc04 95bb
00000180: 21f7 3f3e 99e2 353d 5745 0fbc 670b 0ebc
00000190: 93f0 3ebe 173a 61be a476 153e 1623 8a3d
000001a0: 03c6 31bc d4c2 c7bd 8b2b d73d 83ee af3d
000001b0: 9e4b b0be d0a0 6bbd 9dbb 1dbb 6c3c 3ebe
000001c0: f363 33bc 6c10 133e 2b0e abbd ea87 82bd
000001d0: 065c c23d f29c 793d 0ef2 ecbd 6df9 3c3e
000001e0: d9ae 053e 6bbf 133e a5e5 a1be 1b29 c73d
000001f0: 2c64 9f3c 3c73 653e 498f a53b dfcb 38be
00000200: ec24 4c3d 2a00 f43d 0a3d f2bd 79a5 4ebe
00000210: 341d 573c 4de4 c63d 854e 99bd f263 eb3b
00000220: f2ba a23d 55e4 0e3e 8b24 84bd 7bf9 41be
00000230: a9ae 9cbd 7528 d93d 8241 b03d 0156 2e3d
00000240: 3fa9 2a3e 541d 24bd 6448 3fbe aa08 05bc
00000250: 6c7c 1fbd 7cfb 2fbd f3d0 5fbe e847 883e
00000260: a37b 95be 3d42 27be 3ffd db3d 7481 a2bd
00000270: 6ebc 7dbd 90ee 8abd 172f ca3d 14ce 85bc
00000280: a501 bd3c daeb cbbd 7d4b 94be 34af 5e3c
00000290: 10d6 043e 4a3c 553e a2c2 66be 13f9 ebbd
000002a0: 2e09 ebbd 34c6 843d b997 6ebd 34bd 10be
000002b0: 2273 86bd 2209 cd3d b80b 13be 63a6 cebd
000002c0: bbcb e2bd e16a 5ebe 4a15 bbbd 53aa f63d
000002d0: 0267 9fbb 670b 963c 1b56 febd 8bbd c0bd
000002e0: 2d5d 6f3d 523d e43b 36d5 39be 3ec5 933d
000002f0: 0077 54be e86e 7dbd 8e18 dabd 5e70 193e
00000300: c839 0a3e 47b6 98bd 8dee 26bd 8acf cb3d
00000310: dd96 f43c fce7 a0bd 3155 9c3e 7f52 81be
00000320: f1b1 3dbd 5672 10be 3e12 fa3d 6896 f2bc
00000330: 2634 813d 0a40 193e af46 f93d 5f51 953e
00000340: ca59 1b3e 4af4 b43d 8473 8e3d 3b68 e5bd
00000350: 642e 7dbb ef96 163e 2741 17bd 9cda e03d
00000360: 900a 623d fd2c 513e 0654 00bd 78ff 0dbe
00000370: 637a 16bc 3e1d 0cbd 7c54 59be 6e31 a1bd
00000380: 602d 3d3d 8871 e3bc 7a23 f1bd f2c5 d1bd
00000390: 5a12 26be 6352 a43c a15d be3c fbd1 4cbc
000003a0: 0da2 43be 882f 03bd f57b 283e b21c 74be
000003b0: 9a3d f73d 83af 8cbd 0383 a13c 427d 44bd
000003c0: efc9 093d 93aa e3bd e451 88bd 2e72 df3c
000003d0: 8e40 15be b024 c73d 20d1 a63c 4156 25bd
000003e0: 43aa 14be e9ec 043e 0d84 90bd 9f12 c9bc
000003f0: 4cd8 5b3e fea9 7f3c 3663 a6bd ba10 243e
0.15710995 0.022829046 0.022466494 0.16235708 -0.019571608 -0.25714865 -0.072238766 -0.09312213
0.10909535 0.08402832 0.039571475 0.045269076 0.14230455 0.14847279 0.027319731 0.17939286
0.007787134 -0.007648404 -0.0034882806 -0.030813385 0.055791777 0.010392738 0.106879815 -0.0033856318
-0.18630026 -0.11752654 -0.28013632 0.104151264 -0.013029699 -0.1970989 -0.26414746 -0.042446364
-0.059040736 -0.05911821 0.027609808 -0.012976036 -0.042115103 0.15023156 0.18112671 -0.065629266
-0.02768374 0.011286166 0.24069136 0.04720396 0.098547496 -0.17232828 -0.098986596 -0.164506
-0.09521576 0.054419138 0.1202998 -0.09587826 0.06163126 0.017731773 -0.06261974 0.103247136
-0.13346975 -0.04355046 -0.1080929 -0.1489093 0.0049412735 0.14786008 -0.088239655 -0.056877147
0.06895041 0.016209206 -0.025941256 0.114443414 -0.26853782 0.0557508 -0.1970754 -0.10795264
-0.0053588483 0.12707281 0.05980387 -0.13789459 -0.20144711 0.039921645 -0.03511011 -0.021139242
-0.16913144 0.20341103 0.006635025 0.042208266 -0.1113126 -0.08807928 0.017896121 0.20016581
0.048590258 0.001814684 0.18203273 0.076034896 0.010785329 0.14433774 -0.105975725 -0.004547691
0.18746616 0.044405553 -0.008744559 -0.008669711 -0.1864646 -0.21994816 0.14596039 0.06744973
-0.010850432 -0.097539574 0.10506352 0.085904144 -0.3443269 -0.05752641 -0.0024068125 -0.18577737
-0.010949123 0.14361733 -0.08352312 -0.0637358 0.09490208 0.06094069 -0.11569606 0.18454523
0.1305498 0.14428489 -0.31620517 0.09724637 0.019456945 0.2240724 0.0050524813 -0.1804652
0.0498399 0.11914094 -0.118280485 -0.2018031 0.013129521 0.09711514 -0.074856795 0.0071835453
0.07945813 0.1395429 -0.064522825 -0.18942825 -0.07650501 0.1060342 0.086062446 0.04256249
0.16666125 -0.040067032 -0.18679959 -0.008119741 -0.038937017 -0.042964444 -0.21857052 0.2661736
-0.2919589 -0.16333862 0.10741662 -0.079348475 -0.06194728 -0.067837834 0.09872263 -0.016333617
0.023072073 -0.099570945 -0.28963843 0.013591576 0.12972283 0.2082378 -0.22535184 -0.115221165
-0.1147636 0.06483117 -0.058250163 -0.14134675 -0.065649286 0.100115076 -0.14359939 -0.100903295
-0.11074015 -0.21720459 -0.0913492 0.120442055 -0.0048645744 0.018315984 -0.12418767 -0.094111525
0.05843847 0.0069653178 -0.1814774 0.07215355 -0.2074852 -0.061873347 -0.10649215 0.14984271
0.13498604 -0.07456642 -0.040754844 0.09951694 0.029857093 -0.078567475 0.30533746 -0.25258252
-0.046312276 -0.14106116 0.12210511 -0.029612735 0.06308775 0.14965835 0.12171685 0.29163644
0.1517097 0.08835657 0.069556266 -0.11201521 -0.0038632387 0.14706014 -0.03692737 0.109791964
0.055185854 0.20427318 -0.03133013 -0.13866985 -0.009184453 -0.034207575 -0.21223634 -0.07870756
0.04618585 -0.027764097 -0.11774345 -0.10242833 -0.16217938 0.020058816 0.023238005 -0.012501235
-0.19104786 -0.03202775 0.16453536 -0.23839071 0.120722964 -0.06869414 0.019715792 -0.047971018
0.033639845 -0.11116519 -0.066562444 0.027276125 -0.14575407 0.097237945 0.02036339 -0.04036546
-0.14518075 0.12980999 -0.07056437 -0.024545012 0.2146923 0.015604494 -0.08124392 0.16022006
