results/BetOrNot/MoveToBet/MoveToBet-26965.onnx (onnx, 949148 bytes, 9 tensors)

action_model._continuous_distribution.log_sigma f4 [1, 16]
0.010957914 0.0041038757 0.0083996365 0.0052012084 0.0021403763 0.008212095 0.007892733 0.003187675
0.0047869966 0.007301046 0.0005834232 0.00069360464 0.006413509 0.006466141 0.0017319664 0.0071486747
00000000: d388 333c ce79 863b a19e 093c e66e aa3b
00000010: 8e45 0c3b 068c 063c 8650 013c 50e8 503b
00000020: 3ddc 9c3b 9d3d ef3b def0 183a 05d3 353a
00000030: 6a28 d23b ece1 d33b 2603 e33a 6e3f ea3b

action_model._continuous_distribution.mu.bias f4 [16]
0.00062807475 0.0035123054 -0.0011776763 -0.0050892946 0.004544689 -0.0018099116 0.0033348978 -0.0029682613
-0.0039857673 0.0032458624 -0.004178247 0.0011710635 0.0036104324 0.00010269269 0.0029169316 -0.0025036875
00000000: 62a5 243a b52e 663b 425c 9aba 19c4 a6bb
00000010: 9deb 943b 8e3a edba 4d8e 5a3b 2987 42bb
00000020: 0a9b 82bb 89b8 543b ade9 88bb 5f7e 993a
00000030: 019d 6c3b b85c d738 fe29 3f3b e814 24bb

action_model._continuous_distribution.mu.weight f4 [16, 128]
-0.0041953735 0.01298499 -0.004288842 -0.0023700586 -0.009933229 0.04300628 -0.0015160305 -0.005574986
0.0056054126 -0.0061911265 0.015522993 0.0036916866 -0.008679563 -0.008152741 -0.005510483 -0.009953292
0.0005044842 -0.015947778 -0.011936265 0.008125701 -0.005646157 0.008530573 -0.0072920076 0.003348409
-0.02760646 -0.024469094 -0.005217781 0.020222232 -0.0030933295 -0.011901069 -0.040351093 -0.0155089665
-0.012587854 0.0096379 -0.02171595 -0.00838322 0.0010620094 -0.0140694985 0.009618231 0.0027965547
0.01800673 0.052571207 -0.0011720576 -0.01128105 0.0071856915 -0.04094181 0.00936023 -0.005146098
-0.013051364 -0.008989671 -0.027030433 -0.0015856365 -0.013368314 -0.009407597 -0.009789939 0.029721556
-0.00441635 0.025648754 0.008368803 -0.008533152 -0.0011438583 -0.0028898867 0.012511121 0.015449005
0.009472197 -0.012603583 -0.016664283 0.026724529 -0.027253572 0.016168574 0.0125323245 0.0007242821
-0.0352218 0.014058109 0.011777413 -0.00042869488 0.0020138111 -0.011368659 0.025184648 0.010457716
0.016415372 0.0023892801 0.00918756 -0.0065788575 -0.008317667 0.009889692 0.008917687 0.006741241
0.007006809 -0.023661798 -0.003308201 -0.019971618 -0.023449305 -0.013924758 -0.015216323 0.0034688406
-0.02027147 0.023716746 0.016453058 0.00234267 0.003363399 0.02256268 0.008770529 0.0063217115
0.0037783773 0.02569669 -0.0070886654 -0.014506755 0.010524829 0.011218613 0.015018851 -0.002114486
-0.013196635 -0.015404245 -0.012711814 0.014138668 0.0051207775 0.0038897737 0.004333784 0.008890453
0.013555815 0.0064528254 -0.013828162 0.011073132 0.0222438 -0.035486776 -0.016070286 0.010979179
0.010118247 -0.018849202 -0.005917643 0.023435706 0.02703763 -0.007358106 -0.012528198 0.02112178
-0.02421827 0.01164635 -0.008055547 -0.036064513 -0.024214748 -0.013034939 0.004100044 0.008272983
-0.024052717 0.0020239616 -0.014459955 -0.017594524 0.0007438041 -0.0057726903 -0.018437997 0.0011506707
-0.0041039716 -0.012377776 -0.03245534 -0.022961397 -0.0078005055 0.005799891 0.005722778 -0.0026887427
-0.023166409 0.014760639 0.015440697 -0.00016062502 -0.026690368 -0.03305284 -0.011353605 -0.002756394
0.011963074 -0.009348151 -0.016664993 -0.019611793 -0.011714119 -0.0063733985 -0.014498608 0.009076918
0.0037564223 -0.00509274 0.019987393 -0.017812142 -0.010166318 -0.023385746 -0.02386944 0.00021977961
-0.02600433 -0.005181578 -0.022771338 0.034897182 0.013369073 -0.010753183 0.013764348 -0.012095841
0.020578004 -0.026061473 -0.01174494 0.0013530119 0.008685469 -0.008485954 0.011270269 0.024530478
0.008379119 0.0073362472 -0.017073888 0.01435783 -0.012593209 0.021224644 0.0053605004 0.03440747
-0.028426584 -0.033086028 0.000998791 0.013490598 0.009237596 -0.018840492 -0.016143514 -0.02075581
0.00017336007 -0.0048916326 -0.015636284 0.0008334573 -0.023913167 -0.010660277 -0.01603856 -0.02133795
0.0023455368 0.0065258075 -0.01275157 0.020053292 -0.015851906 0.012562752 -0.012844156 0.018238867
-0.01663029 0.01921682 0.01653185 -0.011492976 -0.023424795 -0.02321766 0.039565235 0.01793368
0.020561812 0.0032308025 -0.0037800863 0.052514397 -0.0018647414 -0.0048769177 0.002640016 -0.010400102
0.00733558 0.008943857 0.0018338973 0.005295562 0.0038500063 0.019159684 -0.016588708 -0.0050813574
00000000: 5879 89bb ffbe 543c 6a89 8cbb fc52 1bbb
00000010: fbbe 22bc 5a27 303d 8bb5 c6ba 5fae b6bb
00000020: 9cad b73b efde cabb 2754 7e3c 39f0 713b
00000030: ba34 0ebc 1393 05bc 4891 b4bb 2213 23bc
00000040: 5d3f 043a eaa4 82bc 5390 43bc a921 053c
00000050: 6603 b9bb d1c3 0b3c cbf1 eebb fb70 5b3b
00000060: f126 e2bc 6973 c8bc ebf9 aabb 18a9 a53c
00000070: 75b9 4abb b4fc 42bc 3047 25bd 5219 7ebc
00000080: 493d 4ebc 48e8 1d3c a6e5 b1bc c659 09bc
00000090: 1f33 8b3a c183 66bc c995 1d3c 6746 373b
000000a0: da82 933c e854 573d ba9f 99ba 27d4 38bc
000000b0: f375 eb3b 99b2 27bd a65b 193c 99a0 a8bb
000000c0: 63d5 55bc 6a49 13bc ed6e ddbc 22d5 cfba
000000d0: c606 5bbc 5222 1abc fb65 20bc 9f7a f33c
000000e0: 07b7 90bb 561d d23c 4e1d 093c a2ce 0bbc
000000f0: 84ed 95ba 4164 3dbb 72fb 4c3c d31d 7d3c
00000100: 4631 1b3c 427f 4ebc 8983 88bc 66ed da3c
00000110: e242 dfbc f573 843c 6154 4d3c c0dd 3d3a
00000120: bc44 10bd fc53 663c 0df6 403c 74c2 e0b9
00000130: 25fa 033b 9d43 3abc 0950 ce3c d756 2b3c
00000140: 8879 863c 7895 1c3b 6b87 163c 7593 d7bb
00000150: d346 08bc 6008 223c 7e1b 123c a1e5 dc3b
00000160: 6099 e53b 63d6 c1bc 67ce 58bb 859b a3bc
00000170: c218 c0bc ab24 64bc e24d 79bc 7d55 633b
00000180: 5b10 a6bc 9f49 c23c 90c8 863c 7b87 193b
00000190: 796c 5c3b 5fd5 b83c 44b2 0f3c 5c26 cf3b
000001a0: a79e 773b dd81 d23c 0948 e8bb bead 6dbc
000001b0: 5570 2c3c 46ce 373c a011 763c 3093 0abb
000001c0: b336 58bc 1662 7cbc 3645 50bc dfa5 673c
000001d0: 32cc a73b 93eb 7e3b 6a02 8e3b 43a9 113c
000001e0: 3619 5e3c 3972 d33b 848f 62bc 156c 353c
000001f0: a138 b63c 955a 11bd d5a5 83bc 04e2 333c
00000200: 01c7 253c a469 9abc cae8 c1bb 3dfc bf3c
00000210: 057e dd3c 441c f1bb 1243 4dbc 9507 ad3c
00000220: 6565 c6bc 55d0 3e3c 6afb 03bc 62b8 13bd
00000230: 025e c6bc 7f90 55bc a959 863b 688b 073c
00000240: 340a c5bc 71a4 043b 72e9 6cbc 6422 90bc
00000250: d9fb 423a d628 bdbb 480b 97bc 1ad2 963a
00000260: 9c7a 86bb 28cc 4abc e4ef 04bd 8a19 bcbc
00000270: 629b ffbb 030d be3b 2486 bb3b 9e35 30bb
00000280: 7bc7 bdbc 9bd6 713c fafa 7c3c 736d 28b9
00000290: c2a5 dabc 6a62 07bd 7904 3abc 9ea4 34bb
000002a0: c500 443c fd28 19bc 0685 88bc e9a8 a0bc
000002b0: 94ec 3fbc f1d7 d0bb 928b 6dbc 5ab7 143c
000002c0: 4f2e 763b 00e1 a6bb 9abc a33c c5ea 91bc
000002d0: a190 26bc 7793 bfbc d889 c3bc a474 6639
000002e0: 0807 d5bc 3aca a9bb f58a babc 59f0 0e3d
000002f0: f509 5b3c 1e2e 30bc dc83 613c a22d 46bc
00000300: 3493 a83c df7e d5bc d96d 40bc 8c57 b13a
00000310: 7f4d 0e3c ac08 0bbc efa6 383c 24f4 c83c
00000320: 9348 093c e764 f03b 8ade 8bbc 1b3d 6b3c
00000330: bf53 4ebc 4edf ad3c 23a7 af3b d9ee 0c3d
00000340: dede e8bc 3785 07bd dde9 823a ab07 5d3c
00000350: 4959 173c 6057 9abc 673f 84bc 1708 aabc
00000360: fdc7 3539 fd49 a0bb aa17 80bc 5f7c 5a3a
00000370: 8ce5 c3bc 71a8 2ebc 4c63 83bc edcc aebc
00000380: 94b7 193b 71d6 d53b f6eb 50bc cd46 a43c
00000390: dbdb 81bc 00d4 4d3c 4b70 52bc ad69 953c
000003a0: 3f3c 88bc 986c 9d3c cd6d 873c 094d 3cbc
000003b0: 5be5 bfbc f632 bebc 280f 223d a7e9 923c
000003c0: 3f71 a83c dfbb 533b 53bb 77bb 5619 573d
000003d0: 576a f4ba 8dce 9fbb 1e04 2d3b 3065 2abc
000003e0: 4e5f f03b 4189 123c 625f f03a 6586 ad3b
000003f0: 6350 7c3b c5f4 9c3c 0be5 87bc 8481 a6bb

action_model._discrete_distribution.branches.0.bias f4 [2]
-0.00150958 0.00150958
00000000: 19dd c5ba 19dd c53a

action_model._discrete_distribution.branches.0.weight f4 [2, 128]
0.0042540976 0.0053003035 -0.00094776973 -0.0040251752 -0.009981203 -0.0020594615 -0.010911779 -0.0056602736
0.017385965 0.004964103 -0.009725436 -0.0060134055 0.013496234 -0.004817353 -0.0025131416 -0.0065100095
-0.0014276362 -0.0011670619 0.0025329597 -0.00792012 -0.0073409453 -0.0055519324 0.007236191 0.010360219
-0.009273049 -0.00949488 -0.0011946587 0.0011401963 -0.0009570118 -0.005616688 0.011711022 -0.002946674
-0.011415877 -0.0011776891 -0.0013886896 0.00042603165 -0.011384899 0.0057772035 -0.0049418127 -0.0063171573
-0.02004037 -0.0009431617 -0.0060804915 0.0009874294 -0.0008566277 0.0005353631 0.0123624345 -0.010916268
0.0029666969 0.008416257 0.0025346105 -0.008160117 0.0089292275 -0.0016024351 -0.012078745 -0.0019470425
-0.009034784 -0.0044145156 -0.0044157375 0.006489183 0.004560592 -0.010313396 -0.007921659 0.0004033154
-0.0051646587 -0.0013993692 0.017995004 -0.0005942859 -0.0073042633 0.002121466 0.0030371153 0.0028047047
-0.009587995 -0.0036830867 0.008221021 0.004945255 -0.0070113954 0.0064642914 0.017717896 -0.0041003474
-0.0024306874 0.0073790355 -0.010658092 -0.0065573556 0.007585405 0.00570657 0.0063279686 -0.0015984274
-0.0004054626 0.0022336894 -0.0142918555 -0.0031527365 -0.000824446 -0.009330032 0.006067068 -0.007796372
0.013813562 -0.011199149 0.010769409 -0.021257715 -0.0013657842 -0.0026237518 0.017820692 0.02717047
-0.0063300035 -4.194069e-05 0.017114675 -0.0028195237 -0.0048566926 5.78093e-05 -0.001834921 0.002938536
-0.0070171463 0.0015434197 -0.0053931302 0.02310696 0.0109501155 -0.00016195921 0.0008098858 0.0028409278
0.006268087 0.0042122 -0.001662866 0.0060860766 0.0031709457 -0.0007390175 0.011389366 -0.008748129
-0.0013861803 -0.019748928 0.007398161 0.0034159708 -0.0021966954 0.0052953535 0.0071261735 -0.012473725
0.00010694441 -0.0008321472 -0.014312819 0.007063218 -0.0006958098 0.016179001 -0.0057524587 -0.0014059317
-0.0054002544 -0.0071445494 0.0028751018 0.015458346 -0.012309776 -0.009177265 -0.0021310872 -0.0028054302
-0.00019870045 -0.010557537 -0.0016440816 -0.013902403 -0.00025086445 0.0050216573 -0.025739737 -0.002800483
-0.008327911 0.0037496493 -0.012056264 0.030874455 -0.007990495 0.0017799627 0.0006491962 -0.014608341
-0.016330507 0.0072453576 -0.009438905 4.3078213e-05 0.0021506087 -0.0018965746 0.012853799 -0.00080661726
0.00050387677 0.008068619 0.010394139 0.010094163 -0.011100154 -0.014966827 -0.0050772005 -0.0068043517
0.009936351 0.007753971 0.006378935 -0.0014190212 0.0013842741 -0.0085372375 0.0016901627 -0.0026655877
-0.002522005 0.013281353 0.015196422 0.0058049373 0.0060197315 -0.0027428505 -0.007006164 -0.010654619
-0.009504395 -0.0004907129 0.0055716354 0.00054129027 0.00012616979 0.0012992662 0.014143495 0.00629497
-0.011276276 0.011876445 -0.017472297 -0.008529146 0.0018460981 -0.0028550676 -0.005706877 0.0014059647
-0.008280039 -0.005190772 -0.012693998 -0.008903633 -0.0049147694 0.008416078 0.007921282 0.012292612
0.0054520504 -0.011036152 0.0013097422 -0.011230998 -0.0046907254 0.008820505 0.0040942207 -0.0065691066
-0.0101177115 0.0026733722 0.0047925105 -0.007167357 0.003475402 -0.003514779 0.013579466 -0.00030605777
-0.023906756 -0.0018805449 0.005502799 0.0057907393 0.019212617 0.015454754 0.011222839 -0.0021852376
0.005020673 0.0022933274 0.01444204 -0.0009982479 -0.010040952 -0.014431686 -0.0062217093 -0.009969356
00000000: f565 8b3b 2bae ad3b c073 78ba 9ee5 83bb
00000010: 3388 23bc 08f8 06bb 51c7 32bc d179 b9bb
00000020: 036d 8e3c eaa9 a23b 6f57 1fbc 1a0c c5bb
00000030: 4f1f 5d3c e3da 9dbb 85b3 24bb eb51 d5bb
00000040: 861f bbba 19f8 98ba 0300 263b 64c3 01bc
00000050: 508c f0bb fcec b5bb 921d ed3b e8bd 293c
00000060: fded 17bc 6a90 1bbc 1896 9cba a472 953a
00000070: fadf 7aba 320c b8bb 96df 3f3c fc1c 41bb
00000080: a909 3bbc b05c 9aba b104 b6ba 005d df39
00000090: ba87 3abc b24e bd3b eeee a1bb 2800 cfbb
000000a0: b42b a4bc 833e 77ba dc3e c7bb a26c 813a
000000b0: 508f 60ba 9c57 0c3a cf8b 4a3c 26da 32bc
000000c0: ea6c 423b 57e4 093c b51b 263b 03b2 05bc
000000d0: e54b 123c cd08 d2ba eee5 45bc e833 ffba
000000e0: a106 14bc a4a7 90bb e4b1 90bb 36a3 d43b
000000f0: 0571 953b 85f9 28bc d9c9 01bc 1474 d339
00000100: 4c3c a9bb 0a6b b7ba 426a 933c dac9 1bba
00000110: 9a58 efbb 4b08 0b3b 570a 473b 23cf 373b
00000120: f716 1dbc f15f 71bb 76b1 063c ce0b a23b
00000130: d9bf e5bb 68d2 d33b 1f25 913c 355c 86bb
00000140: 2b4c 1fbb d6cb f13b 479f 2ebc 16df d6bb
00000150: fd8e f83b 2efe ba3b d95a cf3b 5382 d1ba
00000160: 4594 d4b9 1763 123b 6328 6abc 249e 4ebb
00000170: a21f 58ba fedc 18bc 41ce c63b b578 ffbb
00000180: 4752 623c a37c 37bc 2d72 303c a924 aebc
00000190: 1d04 b3ba 40f3 2bbb b3fc 913c 9b94 de3c
000001a0: eb6b cfbb 79e9 2fb8 1334 8c3c c2c7 38bb
000001b0: e424 9fbb 4378 7238 bb81 f0ba 7494 403b
000001c0: 17f0 e5bb 924c ca3a dbb8 b0bb cf4a bd3c
000001d0: 1d68 333c 98d3 29b9 844e 543a dc2e 3a3b
000001e0: 8664 cd3b 7f06 8a3b 86f4 d9ba b66d c73b
000001f0: a4cf 4f3b a0ba 41ba 779a 3a3c 5054 0fbc
00000200: 7eb0 b5ba 81c8 a1bc 466c f23b 7bde 5f3b
00000210: 6ff6 0fbb a584 ad3b ad82 e93b 985e 4cbc
00000220: 5847 e038 7424 5aba 5080 6abc 9172 e73b
00000230: 0167 36ba d389 843c 1f7f bcbb 3d47 b8ba
00000240: 9ef4 b0bb d31c eabb 346c 3c3b 0145 7d3c
00000250: f1ae 49bc 3d5c 16bc b6a9 0bbb 4fdb 37bb
00000260: 3f5a 50b9 85f9 2cbc 397e d7ba e8c6 63bc
00000270: 7586 83b9 b78c a43b 24dc d2bc 4f88 37bb
00000280: ca71 08bc adbc 753b a387 45bc 6dec fc3c
00000290: 91ea 02bc a34d e93a d22e 2a3a d357 6fbc
000002a0: 8ec7 85bc 776a ed3b a3a5 1abc e1ae 3438
000002b0: 3af1 0c3b 7c96 f8ba be98 523c 2b73 53ba
000002c0: 9916 043a 3e32 043c 2e4c 2a3c fd61 253c
000002d0: 6cdd 35bc 6c37 75bc a55e a6bb 0af7 debb
000002e0: 14cc 223c 0615 fe3b 6306 d13b 73fe b9ba
000002f0: 8870 b53a c5df 0bbc 7388 dd3a 24b1 2ebb
00000300: 3948 25bb 089a 593c 6afa 783c 5837 be3b
00000310: 2b41 c53b 65c1 33bb f793 e5bb b690 2ebc
00000320: 52b8 1bbc 2fa3 00ba 4492 b63b 60e5 0d3a
00000330: 724c 0439 244c aa3a 1eba 673c 0946 ce3b
00000340: 21c0 38bc 6c95 423c 1022 8fbc d5bd 0bbc
00000350: c6f8 f13a 161c 3bbb c100 bbbb 5948 b83a
00000360: 00a9 07bc 5a17 aabb 7dfa 4fbc 8be0 11bc
00000370: 130c a1bb 97e3 093c 44c8 013c f466 493c
00000380: 1da7 b23b fad0 34bc a8ab ab3a 3802 38bc
00000390: a8b4 99bb e183 103c d028 863b a941 d7bb
000003a0: c2c4 25bc be33 2f3b 7e0a 9d3b 26dc eabb
000003b0: 92c3 633b 3558 66bb 697c 5e3c 6176 a0b9
000003c0: 1ad8 c3bc 9e7c f6ba d350 b43b 3ec0 bd3b
000003d0: c763 9d3c f035 7d3c 00e0 373c 3436 0fbb
000003e0: 7584 a43b a64b 163b 4e9e 6c3c a4d7 82ba
000003f0: ce82 24bc e172 6cbc 7bdf cbbb 8256 23bc

network_body._body_endoder.seq_layers.0.bias f4 [128]
0.0013970667 -0.00024251467 -0.00181038 -0.0025129851 -0.004680148 0.002513949 0.0019619267 0.00053140963
-0.0022126588 0.005395491 0.0014623475 -0.003345181 -0.00019995189 -0.003301844 -0.0010717554 0.003714011
0.0022198975 -0.004824866 0.0028270246 0.009081355 -0.0015490588 0.00771935 0.0023860505 -0.0031620094
0.0047048866 -0.0028963385 0.0007679677 0.0020894227 0.0009274632 0.0034924592 0.00094962155 -0.0028843428
-0.0034509483 -0.0025520104 0.0016168439 -0.00076682353 0.0008307048 0.0020865945 -0.00041943995 -0.0019264373
-0.00093445304 0.00017009019 0.00016656177 -0.0047158403 -0.0010134075 0.0046459786 -0.005176925 -0.0015177744
-0.0048594526 -0.004762261 0.0010093322 9.12004e-05 -0.00018157122 0.0027933163 -0.0019742073 0.0008182562
0.0014505934 0.00079367356 0.0008097272 -0.00011542282 0.0008674116 -0.007922797 -0.0023911593 0.0012698788
0.00028972555 -0.006701245 -0.00020014588 6.660747e-05 -0.0004817914 0.00033544656 -0.0020981808 -0.0006096862
0.0016584381 0.0016881787 -0.0021775877 0.0052413787 0.0019797224 -0.0060087754 0.0045887525 -0.0020482817
0.00028012958 -0.002576955 0.002064384 -0.0050004576 0.0015944307 -0.0069615045 -0.0031658905 -0.0034129077
0.0019716136 -0.004690424 -0.0025719916 0.004040821 0.00014768403 7.557946e-05 -0.0049059163 0.0034238773
0.0034848354 -0.004457431 -0.006869926 -0.0055156695 -0.0072713867 0.006349433 0.0032350186 0.00020933141
-0.0016479068 -0.00041211702 -0.0045876782 0.0022281432 -0.0006230906 -0.0025539403 -0.0045815106 0.00036150316
0.0013208792 -0.00080272875 -0.0029559268 0.00076938956 0.007311878 -0.0018381762 0.0060674706 -0.0022542793
-0.0044256835 -0.0050154845 -0.009277605 0.0051287385 0.0032360684 -0.007675255 0.003218146 -0.00044780748
00000000: c81d b73a 894b 7eb9 464a edba e5b0 24bb
00000010: ed5b 99bb 11c1 243b ab93 003b 4c4e 0b3a
00000020: 4102 11bb a9cc b03b 3dac bf3a d33a 5bbb
00000030: 2daa 51b9 c063 58bb 257a 8cba c466 733b
00000040: b37b 113b e919 9ebb 9a45 393b f7c9 143c
00000050: ca09 cbba 9af2 fc3b 495f 1c3b b739 4fbb
00000060: 732b 9a3b 7fd0 3dbb 7151 493a b2ee 083b
00000070: 0021 733a bee1 643b 06f0 783a 3e07 3dbb
00000080: 4e29 62bb a13f 27bb 47ec d33a a804 49ba
00000090: a8c3 593a 3fbf 083b 47e8 dbb9 8280 fcba
000000a0: 15f6 74ba 3d5a 3239 16a7 2e39 5687 9abb
000000b0: 50d4 84ba 4b3d 983b 32a3 a9bb 0ff0 c6ba
000000c0: 0b3c 9fbb be0c 9cbb 924b 843a d842 bf38
000000d0: 2764 3eb9 1210 373b b461 01bb 3e80 563a
000000e0: d621 be3a 880e 503a df43 543a 280f f2b8
000000f0: 0263 633a 9fce 01bc ffb4 1cbb 1072 a63a
00000100: 4ee6 9739 1e96 dbbb 40de 51b9 9daf 8b38
00000110: f298 fcb9 e0de af39 a281 09bb 59d3 1fba
00000120: f35f d93a e145 dd3a dcb5 0ebb dfbf ab3b
00000130: 3bbe 013b 43e5 c4bb 3f5d 963b 773c 06bb
00000140: 5bde 9239 21e2 28bb 9e4a 073b e1da a3bb
00000150: 37fc d03a 551d e4bb d47a 4fbb 17ab 5fbb
00000160: 3036 013b 21b2 99bb dc8e 28bb dd68 843b
00000170: a1db 1a39 6a80 9e38 cfc1 a0bb 2163 603b
00000180: d661 643b a40f 92bb 1e1d e1bb cabc b4bb
00000190: d044 eebb e80e d03b 9b02 543b f97f 5b39
000001a0: 94fe d7ba 6911 d8b9 3c54 96bb 0a06 123b
000001b0: e756 23ba 0260 27bb 7f20 96bb 2288 bd39
000001c0: 5a21 ad3a 376e 52ba 39b8 41bb dcb0 493a
000001d0: 7a98 ef3b f5ee f0ba a2d1 c63b 88bc 13bb
000001e0: 5305 91bb ef58 a4bb 1901 18bc fa0e a83b
000001f0: 3814 543b b580 fbbb 88e7 523b b4c7 eab9

network_body._body_endoder.seq_layers.0.weight f4 [128, 1700]
0.007394551 0.02754233 -0.061573718 -0.029176552 0.0036766662 0.032410093 -0.00083113223 0.02923761
-0.016098866 -0.0012174088 0.001184857 -0.05334504 -0.017888976 -0.030760247 -0.025112066 -0.011543452
-0.0040421607 0.0070639714 0.03288288 -0.008892759 0.007981816 0.013907995 0.026575927 -0.020849504
0.008255094 -0.013301218 0.004414003 -0.045268547 0.009366409 0.005149985 -0.032318775 0.048353575
-0.0060093803 0.03129749 -0.02579188 0.0050599026 -0.0060754465 -0.01338866 -0.02671207 -0.015830316
-0.015713714 -0.014641167 0.03407509 0.02990511 0.015647052 -0.01586076 0.022166008 0.0129898405
0.0138105955 -0.016579963 -0.022198755 0.02169312 0.00590252 0.01857913 0.03343239 -0.04484111
-0.021927223 0.009479496 -0.014744848 0.0044915923 -0.013934424 0.03120916 0.024223447 0.00357296
-0.058891848 -0.029811192 -0.0016654287 0.004738342 -0.040242832 0.0143803395 0.015256893 -0.00519213
0.008854352 0.001292553 -0.03727212 -0.024678595 0.0015137828 -0.018439952 0.03441483 0.01237931
0.024168147 0.013431217 0.031576894 0.038260728 0.0046353014 0.03351353 -0.03246221 -0.025008427
0.0030020599 0.03885458 -0.04135801 -0.009021576 -0.03881444 0.0007820624 -0.019142102 0.030751623
-0.009889384 0.030631999 -0.006218917 0.020408103 -0.016885687 0.010070326 -0.0064834673 -0.047582973
-0.044218812 -0.018296644 -0.030087309 -0.02620802 0.011003589 -0.026792372 0.013544187 0.0009963705
0.014018347 0.018993152 -0.020400157 -0.0071418136 0.056642916 0.0014316094 -0.00063612906 -0.009514645
0.0011114478 0.012156244 0.017892558 -0.0067611425 0.0021547296 0.019482452 0.02892628 0.035280675
-0.0023502868 -0.036761645 -0.017615154 0.04118999 -0.043592617 -0.0065453453 -0.00239352 -0.017708698
-0.012102023 -0.0053561423 0.009620743 -0.019909093 -0.019973487 0.017782852 0.019901255 0.02054879
0.012375307 -0.023812477 0.00951316 -0.015073176 -0.0015645556 0.01231173 0.023658594 -0.015903432
0.019796945 -0.008783497 0.031292 -0.053248055 -0.01778467 0.0044153905 -0.014789047 0.0020001172
0.05139074 0.0067691524 -0.081547245 0.0075050653 -0.011795733 -0.0070520174 0.04970375 0.016303578
-0.010152586 -0.023787469 -0.0093461685 -0.011730938 -0.018358842 -0.051970553 0.017663805 0.00053424627
-0.011501874 0.014649708 0.010591244 0.014259779 0.020087084 -0.024778651 -0.0064690574 -0.024030047
-0.0064859525 -0.04616157 -0.009319552 0.03300222 0.015697522 -0.034153324 -0.022359697 -0.00320669
0.024090359 0.0003807834 -0.050030507 -0.002274874 -0.0073638777 0.0010663457 0.0027864673 0.009138762
0.0103239035 0.017912377 -0.039532702 -0.007463653 0.029207055 -0.033876274 0.017587287 -0.032259896
-0.050741203 -0.062073365 -0.020737004 -0.04996631 0.022888446 0.01791198 0.04747849 0.005343841
-0.00586467 -0.037566565 -0.044535577 0.008437249 0.0131337065 0.027817573 -0.0035059284 0.034329705
0.006428985 -0.03724434 0.031901497 0.03505364 -0.007839637 -0.029014558 0.013000203 -0.019476468
0.0009487445 0.025950663 -0.00063032896 -0.0030623642 0.008721126 -0.006877878 0.021568736 -0.011484883
0.010475487 -0.0045775915 -0.008363368 0.008093366 0.021074729 -0.002311974 0.009492668 -9.117418e-05
0.0067160614 0.030030852 0.0061785122 -0.053387456 -0.038629327 0.024940344 0.026895905 0.057135984
00000000: fd4d f23b 74a0 e13c b934 7cbd aa03 efbc
00000010: 39f4 703b 72c0 043d 57e0 59ba b683 ef3c
00000020: c5e1 83bc 7691 9fba 344d 9b3a 5480 5abd
00000030: e78b 92bc eafc fbbc d2b7 cdbc bf20 3dbc
00000040: 1a74 84bb e378 e73b 33b0 063d efb2 11bc
00000050: 2ac6 023c 5cde 633c c2b5 d93c 94cc aabc
00000060: 6040 073c 5aed 59bc 57a3 903b 836b 39bd
00000070: 9175 193c 35c1 a83b b160 04bd 660e 463d
00000080: 56ea c4bb cc31 003d 7e49 d3bc 8acd a53b
00000090: 8a14 c7bb 1c5c 5bbc 45d3 dabc 94ae 81bc
000000a0: 0cba 80bc 81e1 6fbc 5292 0b3d 90fb f43c
000000b0: 3f2e 803c 6dee 81bc 7d95 b53c 57d3 543c
000000c0: d645 623c b4d2 87bc 2ada b5bc c5b5 b13c
000000d0: ed69 c13b 4233 983c 67f0 083d 50ab 37bd
000000e0: b8a0 b3bc e34f 1b3c 6094 71bc 352e 933b
000000f0: 364d 64bc 5aaa ff3c 4070 c63c 5228 6a3b
00000100: 9438 71bd 9a36 f4bc 844a daba 1844 9b3b
00000110: abd5 24bd 849b 6b3c 0cf8 793c be22 aabb
00000120: d811 113c e26a a93a a7aa 18bd c42a cabc
00000130: 1f6a c63a 620f 97bc 91f6 0c3d 97d2 4a3c
00000140: 47fc c53c 9b0e 5c3c c656 013d 48b7 1c3d
00000150: bae3 973b 7c45 093d 18f7 04bd 79de ccbc
00000160: 35be 443b fb25 1f3d 0467 29bd 3bcf 13bc
00000170: e4fb 1ebd 5203 4d3a e6cf 9cbc d4ea fb3c
00000180: 1507 22bc f5ef fa3c 0fc8 cbbb e52e a73c
00000190: da53 8abc 02fe 243c 4473 d4bb 5de6 42bd
000001a0: c91e 35bd d8e2 95bc a979 f6bc 34b2 d6bc
000001b0: 6648 343c ad7b dbbc 70e8 5d3c a598 823a
000001c0: 35ad 653c 8797 9b3c 3b1e a7bc e005 eabb
000001d0: 6702 683d d7a4 bb3a e6c1 26ba 50e3 1bbc
000001e0: 00ae 913a fc2a 473c 6a93 923c 938c ddbb
000001f0: 5d36 0d3b aa99 9f3c cef6 ec3c 7882 103d
00000200: 4507 1abb 6193 16bd a84d 90bc d6b6 283d
00000210: 2c8e 32bd 567a d6bb 9adc 1cbb d511 91bc
00000220: 9047 46bc 9482 afbb 52a0 1d3c 6518 a3bc
00000230: 709f a3bc 58ad 913c f507 a33c f055 a83c
00000240: cdc1 4a3c 6212 c3bc 16dd 1b3c 7bf5 76bc
00000250: c611 cdba 23b7 493c abcf c13c ea47 82bc
00000260: 342d a23c a8e8 0fbc 0a2c 003d a21a 5abd
00000270: 28b1 91bc fbae 903b c24d 72bc 6614 033b
00000280: 197f 523d c4cf dd3b 3e02 a7bd 0ded f53b
00000290: e442 41bc 9c14 e7bb 2996 4b3d 158f 853c
000002a0: 0857 26bc f0dd c2bc ac20 19bc 1f33 40bc
000002b0: 4865 96bc 13df 54bd afb3 903c a90c 0c3a
000002c0: 5b72 3cbc 5405 703c e686 2d3c d9a1 693c
000002d0: ab8d a43c 99fc cabc 63fa d3bb a9da c4bc
000002e0: 1d88 d4bb ea13 3dbd 09b1 18bc 562d 073d
000002f0: 1798 803c 5be4 0bbd af2b b7bc 5527 52bb
00000300: 2559 c53c e2a3 c739 caec 4cbd 0d16 15bb
00000310: af4c f1bb a0c4 8b3a 2a9d 363b bfba 153c
00000320: 9725 293c fabc 923c 0bed 21bd a991 f4bb
00000330: a243 ef3c d9c1 0abd 3713 903c f422 04bd
00000340: 02d6 4fbd a440 7ebd a6e0 a9bc 79a9 4cbd
00000350: 8d80 bb3c 25bc 923c ce78 423d 631b af3b
00000360: 6b2c c0bb 66df 19bd f06a 36bd 633c 0a3c
00000370: c22e 573c aee1 e33c b8c3 65bb 4e9d 0c3d
00000380: 3caa d23b 858d 18bd 25ab 023d 6894 0f3d
00000390: d271 00bc f0af edbc cefe 543c 1d8d 9fbc
000003a0: 2ab5 783a 7c96 d43c a93c 25ba f2b1 48bb
000003b0: 0ee3 0e3c d35f e1bb ebb0 b03c 172b 3cbc
000003c0: 61a1 2b3c 9fff 95bb 8206 09bc 0a9a 043c
000003d0: e9a4 ac3c 7d84 17bb 2387 1b3c c434 bfb8
000003e0: 6812 dc3b 4303 f63c 1e75 ca3b ceac 5abd
000003f0: c939 1ebd b14f cc3c cd54 dc3c 6c07 6a3d

network_body._body_endoder.seq_layers.2.bias f4 [128]
0.0026255413 -0.0031408223 0.0007307166 -0.0027755352 -0.0004304089 0.0022618193 -0.0007294595 -0.001624561
-0.0007112752 -0.0014198864 -0.0005267261 -0.005224577 -2.3538098e-05 -0.004493255 -0.002683842 0.0026577427
-0.0073992973 0.0015693943 -0.0035141543 -0.005555541 -0.0020666886 -0.0017167099 0.0033033928 -0.006942957
-0.0010791227 0.0012944508 0.0013142168 -0.0023110565 -0.0016216631 -0.00053294795 0.0022519156 -0.004697538
-0.0008701371 0.0005048534 -0.00025081274 0.0012886578 -0.003827243 0.0033807503 0.0005898483 -5.0260736e-05
-0.0018812056 -0.0022482562 -0.006783678 0.0008261521 0.0007050289 -0.0009708184 -0.00368661 -0.0032820012
-0.0066854036 0.0034903893 0.0019874044 -0.00843577 0.0019708876 0.0022204549 -0.000686583 -0.0024235696
-0.0046293726 0.0025888486 -0.0017711641 0.006390615 -0.0028973264 0.005151367 -0.0025054521 0.000370493
-0.0020815397 -0.0047864197 -0.0045541814 -0.0009231488 0.0018137696 0.006634627 -0.0012426933 -0.0033689798
-0.00048311544 0.004623655 -0.00038897697 0.0020417308 -0.007719261 0.0025316 -0.0045484346 -0.0013991806
-0.00015141221 0.0024839693 -0.0019188744 0.008958671 -0.0019311919 -0.00014156854 0.00029224923 -0.0025414054
-0.0017695128 0.0064217546 -0.00207027 -0.0026121272 -0.0056234994 -0.004904291 -0.00073630793 -2.398041e-05
-2.6301306e-05 0.0005921541 -0.007876051 0.0018044804 -0.0009915584 -0.004802549 0.007431257 -0.0041055996
-0.0021628027 0.0019096305 -0.0003998561 -0.0037281811 0.003522001 -0.002515486 0.0011262881 -0.0017505946
-0.003454069 -0.0016617959 -0.0029501982 0.0005464518 -0.00048073506 -0.0011982345 -0.004194318 -0.00063567
-0.00067760836 0.0012579842 0.0002757864 -0.004266633 -0.0039961105 0.0035540718 0.0008462453 -0.0014969793
00000000: 4611 2c3b 41d6 4dbb 908d 3f3a c1e5 35bb
00000010: 81a8 e1b9 083b 143b 3339 3fba 39ef d4ba
00000020: df74 3aba 7b1b baba fd13 0aba ee32 abbb
00000030: ae73 c5b7 283c 93bb 66e3 2fbb 862d 2e3b
00000040: ce75 f2bb 22b4 cd3a ba4d 66bb 410b b6bb
00000050: 4871 07bb 3a03 e1ba bc7d 583b bf81 e3bb
00000060: 5971 8dba 90aa a93a cc41 ac3a 1875 17bb
00000070: fc8d d4ba 88b5 0bba e094 133b ceed 99bb
00000080: ea19 64ba 2358 043a 847f 83b9 2ee8 a83a
00000090: 7cd2 7abb 948f 5d3b 0da0 1a3a 0ecf 52b8
000000a0: c992 f6ba 7b57 13bb 9e49 debb 2192 583a
000000b0: b0d1 383a 857e 7eba 0d9b 71bb d816 57bb
000000c0: 3b11 dbbb 04bf 643b 1d3f 023b 2f36 0abc
000000d0: 022a 013b 0d85 113b cefb 33ba c0d4 1ebb
000000e0: feb1 97bb aca9 293b 6826 e8ba 5d68 d13b
000000f0: 12e1 3dbb cccc a83b 8332 24bb bb3e c239
00000100: 716a 08bb 66d7 9cbb 3e3b 95bb 78ff 71ba
00000110: 02bc ed3a 4967 d93b dee1 a2ba 1aca 5cbb
00000120: a84a fdb9 0882 973b 9bef cbb9 8fce 053b
00000130: dbf1 fcbb 33e9 253b 090b 95bb b664 b7ba
00000140: 68c4 1eb9 17ca 223b be82 fbba 64c7 123c
00000150: 0c20 fdba 0472 14b9 0739 9939 b58d 26bb
00000160: ffee e7ba 956d d23b 5ead 07bb 3930 2bbb
00000170: 5545 b8bb 2db4 a0bb ca04 41ba 8a29 c9b7
00000180: a0a1 dcb7 ca3a 1b3a 8d0a 01bc 5184 ec3a
00000190: 2ef7 81ba b35e 9dbb e781 f33b 4488 86bb
000001a0: cfbd 0dbb 914c fa3a c7a3 d1b9 8054 74bb
000001b0: 5fd1 663b dada 24bb f59f 933a 3574 e5ba
000001c0: a95d 62bb 9ed0 d9ba 1d58 41bb c23f 0f3a
000001d0: 2b0b fcb9 140e 9dba 7d70 89bb 17a3 26ba
000001e0: 87a1 31ba f2e2 a43a 6d97 9039 1dcf 8bbb
000001f0: cef1 82bb 6eeb 683b 90d6 5d3a 4a36 c4ba

network_body._body_endoder.seq_layers.2.weight f4 [128, 128]
-0.0234978 -0.11145166 0.09480677 0.050397094 -0.11853411 -0.17745897 0.009396197 -0.030275637
-0.0063474327 -0.0018985766 -0.06889495 0.08940106 0.053672988 -0.04747686 0.009821003 0.09245855
-0.06175406 0.08273816 -0.1366893 0.005350699 -0.009900268 0.12542665 0.05451817 0.19289607
0.06255757 -0.07292275 0.07693702 0.1428124 0.077819064 0.022798361 -0.016460562 0.057858434
0.045760386 0.11842373 0.018877557 -0.051101852 0.0331962 -0.06320473 0.015078271 0.043427773
-0.100600116 0.07176779 -0.12065739 0.040453408 -0.15902317 0.050485224 0.0682522 0.13343295
0.10424605 0.067426406 -0.057103492 0.07342498 -0.072163194 -0.069011614 -0.12538052 0.1397717
-0.031475626 -0.09192686 -0.0055770255 -0.091962524 0.08394594 -0.12212326 0.14284231 -0.019437535
-0.03310026 0.01790582 0.021204783 -0.028603723 -0.1482337 0.17229478 0.14350261 0.26311356
0.08979932 -0.10607476 -0.008847209 -0.11323563 -0.115759835 0.04475253 -0.14320369 -0.038539585
0.065221466 0.008052244 0.10359786 0.06396166 0.0937076 -0.027646065 0.044375952 0.13232613
-0.0068605077 -0.043595154 0.06329921 0.11253416 0.0010341725 0.07214104 -0.12716 -0.03935437
0.013689403 0.13376041 -0.045031164 0.19758081 0.010206938 -0.042301897 0.059378814 -0.09678518
-0.008656266 0.1630161 0.1512689 -0.016729787 -0.050554562 0.07641255 0.1779787 -0.038518466
0.13175832 0.14788549 0.14874662 0.034599613 0.031253356 0.085137084 0.015700825 0.020186901
0.08114593 -0.078082934 0.040135607 -0.123725176 -0.077928424 -0.031056518 0.22915545 0.08185873
0.013108493 -0.07997499 -0.008780837 -0.1101232 -0.07215339 0.29172844 0.0012330312 -0.11067462
0.07287237 -0.047844306 0.019849898 -0.011465783 -0.15119638 -0.021875527 0.07665094 0.18671392
0.04336048 0.0057355845 0.0318136 -0.02117301 0.062482405 -0.011243481 -0.061456554 -0.053873084
-0.06780392 0.08968684 0.001145247 0.029681677 0.07914227 -0.01658494 -0.03691637 -0.13159822
-0.07164718 0.0653744 -0.06963328 -0.045488965 -0.16628836 0.07218336 -0.13565607 0.031308424
-0.12694943 0.13506529 -0.10568399 -0.07393303 0.054735575 -0.07884624 0.037124272 -0.05364649
-0.011719259 -0.00956276 -0.05865908 0.06260024 -0.033540417 -0.04291805 -0.0209328 0.1673751
-0.031433214 -0.0070427475 0.01982479 0.044672683 0.05194855 0.11776092 -0.05898293 0.053434342
0.053863816 -0.07181495 -0.058672447 0.056064814 -0.06560572 -0.10783109 0.07465231 0.029540634
0.24892424 0.14214243 0.012996461 0.020852946 0.0029470923 -0.057447728 -0.0038973764 -0.074393
-0.008762018 -0.051489178 0.10836648 0.031581987 0.020503547 -0.12908511 0.0790655 -0.01034306
-0.0280804 0.00058673683 -0.039571982 -0.02870052 0.05489478 -0.033696543 -0.15693718 -0.08477677
0.058960002 -0.18489589 0.14572474 -0.055117413 0.0924582 -0.09635794 -0.11480329 -0.14145139
-0.004890788 -0.05735775 0.013391609 0.07673359 0.03647172 -0.13104925 -0.2568357 0.07145554
-0.100152515 -0.0038126106 0.022291912 0.085243054 0.01233307 -0.09185661 0.01984101 -0.08807781
0.11036772 -0.025711713 0.04834967 -0.04240325 -0.14101924 0.12871939 -0.06325596 -0.109413706
00000000: 757e c0bc c540 e4bd 0d2a c23d 2f6d 4e3d
00000010: 03c2 f2bd ceb7 35be 82f2 193c 9d04 f8bc
00000020: 20fe cfbb a9d9 f8ba cc18 8dbd e717 b73d
00000030: 35d8 5b3d 1977 42bd 46e8 203c e95a bd3d
00000040: d3f1 7cbd a072 a93d 48f8 0bbe eb54 af3b
00000050: bc34 22bc d86f 003e 724e 5f3d 8c86 453e
00000060: 2f1e 803d 8658 95bd 2891 9d3d 6a3d 123e
00000070: 9a5f 9f3d a1c3 ba3c 4dd8 86bc f7fc 6c3d
00000080: 3e6f 3b3d 2488 f23d 1ba5 9a3c 2d50 51bd
00000090: bdf8 073d 7b71 81bd da0a 773c 52e1 313d
000000a0: 6f07 cebd fefa 923d 391b f7bd 79b2 253d
000000b0: f8d6 22be 98c9 4e3d cfc7 8b3d a6a2 083e
000000c0: f47e d53d db16 8a3d 5ae5 69bd d65f 963d
000000d0: 4cca 93bd f655 8dbd c063 00be 5020 0f3e
000000e0: 96ec 00bd 2644 bcbd 7bbf b6bb d956 bcbd
000000f0: d9eb ab3d c21b fabd 4145 123e 773b 9fbc
00000100: 2394 07bd 3aaf 923c a7b5 ad3c 5b52 eabc
00000110: 93ca 17be 0b6e 303e 59f2 123e d2b6 863e
00000120: b5e8 b73d b93d d9bd e2f3 10bc 15e8 e7bd
00000130: 7e13 edbd 6e4e 373d fda3 12be afdb 1dbd
00000140: d592 853d 8fed 033c 1d2b d43d 55fe 823d
00000150: c5e9 bf3d 007a e2bc 8fc3 353d 8080 073e
00000160: 1cce e0bb d590 32bd 04a3 813d 4f78 e63d
00000170: 128d 873a aebe 933d 3b36 02be 0c32 21bd
00000180: 8549 603c 7df8 083e 9972 38bd a052 4a3e
00000190: 003b 273c c144 2dbd 3337 733d 4f37 c6bd
000001a0: 03d3 0dbc b1ed 263e 3ce6 1a3e e80c 89bc
000001b0: 4d12 4fbd 2f7e 9c3d 0c40 363e 8ac5 1dbd
000001c0: a7eb 063e 4b6f 173e 0951 183e 53b8 0d3d
000001d0: 8503 003d 5a5c ae3d 049f 803c 005f a53c
000001e0: d62f a63d f2e9 9fbd 3c65 243d a063 fdbd
000001f0: f098 9fbd 3d6a febc baa7 6a3e 8da5 a73d
00000200: 01c5 563c edc9 a3bd 80dd 0fbc 4688 e1bd
00000210: 28c5 93bd 6e5d 953e a99d a13a 60a9 e2bd
00000220: 1c3e 953d 64f8 43bd 419c a23c fbda 3bbc
00000230: 39d3 1abe 4e34 b3bc 2bfb 9c3d ef31 3f3e
00000240: c29a 313d 92f1 bb3b fa4e 023d 0573 adbc
00000250: 8ded 7f3d 9436 38bc deb9 7bbd 06aa 5cbd
00000260: c8dc 8abd bcad b73d 1d1c 963a fd26 f33c
00000270: 5815 a23d 24dd 87bc 9f35 17bd afc1 06be
00000280: c2bb 92bd 03e3 853d e59b 8ebd a352 3abd
00000290: 7f47 2abe dfd4 933d 6de9 0abe 433d 003d
000002a0: 08ff 01be 8e4e 0a3e d970 d8bd 336a 97bd
000002b0: 6932 603d 237a a1bd 9f0f 183d 6cbc 5bbd
000002c0: 2302 40bc 1fad 1cbc 8144 70bd 8e34 803d
000002d0: ad61 09bd d6ca 2fbd 437b abbc 6164 2b3e
000002e0: 1dc0 00bd d9c6 e6bb 9967 a23c b4fa 363d
000002f0: 01c8 543d a32c f13d 1698 71bd f8dd 5a3d
00000300: 4ea0 5c3d b713 93bd 8552 70bd 38a4 653d
00000310: 4b5c 86bd 8cd6 dcbd 4fe3 983d 33ff f13c
00000320: ffe5 7e3e c98d 113e 1cef 543c ccd3 aa3c
00000330: 0124 413b 4f4e 6bbd 206b 7fbb 5b5b 98bd
00000340: 918e 0fbc 51e6 52bd 3fef dd3d 1d5c 013d
00000350: 0ef7 a73c e32e 04be 18ed a13d f075 29bc
00000360: de08 e6bc 3ecf 193a 3b16 22bd 5a1d ebbc
00000370: 59d9 603d 6305 0abd 24b4 20be 719f adbd
00000380: 0b80 713d 5955 3dbe de38 153e ccc2 61bd
00000390: ba5a bd3d 5057 c5bd fd1d ebbd a2d8 10be
000003a0: e742 a0bb f6ef 6abd 7b68 5b3c 8026 9d3d
000003b0: 5f63 153d c631 06be f87f 83be 4857 923d
000003c0: c31c cdbd fedc 79bb 879d b63c e993 ae3d
000003d0: a510 4a3c 511f bcbd 9d89 a23c 2462 b4bd
000003e0: 7908 e23d 5fa1 d2bc 4e0a 463d 08af 2dbd
000003f0: 5967 10be 04cf 033e 578c 81bd 4b14 e0bd
